log/sem_seg/NUDT-MIRSDT__2024-12-28_16-21__SoftLoUloss_DeepPro-Plus_DataL40/checkpoints/best_model.pth (torch, 937131 bytes, 213 tensors)

conv_in.0.weight f4 [8, 1, 5, 7, 7]
00000000: 4073 77bd e2fb 02bd d61a 3ebc eeb0 203c
00000010: 7855 3fbd 04cd 4dbd 5384 f3bc 33c0 c9bc
00000020: ae22 ce3c 6e54 5039 84c0 2d3d 6f98 6fbc
00000030: 3682 c8bc c45b 95bc 3b46 a43c fa83 da3c
00000040: efd5 8abc c4a9 76bc 8047 59bd 3f6d 5cbd
00000050: 016d 0abd d5c8 693d 71bc a83d d75e 8b3c
00000060: 73f8 e33c 8e6a 0ebd e5c6 3ebd 891a 74bc
00000070: 684b de3c b566 643d e1b2 5739 1685 14bb
00000080: 37b3 02bd 8e29 e6bc ed7a a5bc 21f3 4e3c
00000090: d9aa 8a3d 4bdc e83b 2750 283c 2a4b 3cbc
000000a0: 62da 00bc 4161 b8bc a9a1 e63c 8639 593d
000000b0: 0ec1 e23b a683 033d d0fe 06bc b93a b6bb
000000c0: d865 f2bb f9e1 b33c a309 ea3c dff8 0b3d
000000d0: 29fc a13d 412a 153d 8c2a 9d3c ab01 de3b
000000e0: 4e16 d13c 562c c73c 795c f73c 4b9f 793d
000000f0: 7795 353d 4321 7e3c e559 3d3c d66d a63c
00000100: 209e 8a3b 5468 18bd fe56 b5bc 4a39 8ebc
00000110: d0ea 7ebc d07b d5bc d126 893c 5af4 cc3c
00000120: 7447 afbc 0783 dabb ab3a 643c 0bf1 4fbc
00000130: a6be 3abc 3878 20bd 17c2 3abc 0c1d 0fbd
00000140: 039b 503d fa71 29bc 292d a1bc 67c0 35bd
00000150: 16d3 c2bd 3293 6dbd 3214 47bd 5bc3 1bba
00000160: b966 3fbd 9f46 3abd 76e6 aebd 8d4b 12be
00000170: 8e32 f7bd c06d 01be bb1e aabd 7da4 04be
00000180: 84c0 ddbd 76ca 1ebe 6bd8 5e3e 441b 1b3e
00000190: 261e f63d ba67 003e 3990 a7bb acb6 b9bc
000001a0: 58a3 e7bc 470f 743e 5570 333e aa32 303e
000001b0: 1c9b 2b3e 069b a4bb a4fb 3bbd 38d3 7abd
000001c0: 1b43 703e 4512 353e 0b76 373e 98f3 113e
000001d0: 1e4c 8abd dd21 aebd 344d cdbd c086 7f3e
000001e0: 1a25 553e 3b4e 703e 3076 aeb9 85c0 97bd
000001f0: 9173 8dbd 17f7 a3bd ef1a 143e fe0c f93d
00000200: 0983 dc3d 2242 883d 0606 08bd 3823 5fbd
00000210: 9791 b2bd ed53 783d 784f 3b3d f2d0 f03c
00000220: cb26 b03c a3ac 27bd d1f6 94bd 6bd8 cbbd
00000230: 2a25 f13c c90e 02bc 8575 adbc 67d3 0abd
00000240: 32d3 9bbd 063a bdbd 20cf debd 1aa3 a7bc
00000250: 13ac 72bd e47e c0bd eb8e bbbd 28a2 19be
00000260: 3ddb d6bd f8ac debd 8909 1a3c 2775 49bb
00000270: b080 b1bc daef 24bc ab14 afbd a13f e0bc
00000280: 49d6 93bd 3747 2b3b 19df a3b9 70ce 82bc
00000290: e061 1dbd 775f 04be 35b7 2cbd b790 74bd
000002a0: f9eb 5d3c edbd 633c c06f 19bc 5d89 c63b
000002b0: 77e7 f1bd 4b65 86bc 3943 f7bc c3c1 e3bc
000002c0: 52e8 a5bc 0b03 70bd dfde f0bd 8136 99bd
000002d0: 8ddd 57bb 0d48 02bd a754 34bd 02fd 37bd
000002e0: b982 92bd 6ef7 81bd e3cc 1fbd 0435 0cbc
000002f0: 91ac 10bd 9d7f a4bd 93f5 38bd 3342 51bd
00000300: e47e 36bd 8bd3 2bbd 6560 1cbd e6c5 8abd
00000310: 0302 a53b 3189 cd3c 68e7 023d 6e9f e83c
00000320: 6f5d 1ebd 2651 23bc 9852 6b3c a283 dd3c
00000330: 5fc8 663d e82b 943d 20ef af3d e977 95bb
00000340: 1319 223c bccf 533d 7ffe a53c efd0 703d
00000350: 2ab2 873d 4c9a 643d 558f 2abd 7c22 07bb
00000360: 5370 fc3c 9940 213d a4e5 a23d 576f 463d
00000370: f913 d23c 1c62 13bd f32e 123b bf1f 193d
00000380: 8dca 76bc 22fc dc3c 6a84 bdbb 3b51 69bd
00000390: bffd 78bd e4a8 eabb 215c 533d 47e8 fcbc
000003a0: c5de 1d39 e117 56bc 8ce8 bdbc b3ac 5fbd
000003b0: e810 cfbc 3cfd 4b3d 6372 efbc dc92 0fbc
000003c0: b149 5cbc 02cc c0bc 2531 83bd 8a28 babc
000003d0: 6ab8 ec3c 585c cc3c da07 02bb 77ab 3abc
000003e0: ca9e 98bd e6b5 71bb c6ef 6fbc fcde b13b
000003f0: ad5c 193d 86d5 523c 55d4 35bc 9af7 44bd
-0.060412645 -0.031978495 -0.011603078 0.009807808 -0.04671237 -0.050244346 -0.029726183 -0.02462778
0.025163021 0.00019867878 0.042419925 -0.014623745 -0.024476152 -0.018232234 0.02005302 0.02667426
-0.016947715 -0.015055124 -0.053046703 -0.053815123 -0.03379536 0.057076294 0.08239067 0.017012997
0.02782843 -0.034769587 -0.0465764 -0.014898905 0.027135566 0.05576201 0.00020570635 -0.0022662333
-0.031909194 -0.028095987 -0.020200217 0.012631209 0.06770868 0.007106339 0.010273016 -0.01149253
-0.0078645665 -0.022507312 0.028153257 0.053033374 0.0069199866 0.03210797 -0.008239463 -0.0055611995
-0.0073973946 0.021958338 0.028569048 0.03417289 0.07909424 0.03641725 0.019185327 0.006775101
0.025523331 0.024313133 0.030195462 0.06094293 0.044331994 0.01551086 0.011557077 0.020316046
0.0042302758 -0.03720887 -0.022136208 -0.017361302 -0.015558913 -0.026060015 0.016742142 0.02501886
-0.021396376 -0.0066684517 0.013930003 -0.0126917465 -0.011397993 -0.03917715 -0.011398814 -0.03493981
0.05092908 -0.010342116 -0.019674854 -0.044372942 -0.09512918 -0.058001705 -0.048603244 -0.0005941891
-0.046728823 -0.045477506 -0.08540051 -0.14286633 -0.120701894 -0.12639523 -0.083066426 -0.12953372
-0.10827735 -0.1550692 0.21762244 0.1514712 0.12017469 0.12539569 -0.005113628 -0.022670113
-0.02827613 0.23833953 0.1752332 0.17206827 0.16758388 -0.005023363 -0.04589428 -0.06123659
0.23463099 0.1768275 0.17916124 0.1425308 -0.067527995 -0.08502553 -0.10024491 0.24953747
0.20814934 0.23467343 -0.00033275923 -0.07409767 -0.06906808 -0.08006113 0.144634 0.12160681
0.107671805 0.06653239 -0.03320887 -0.054476947 -0.08719175 0.060626913 0.045730084 0.029396508
0.021502873 -0.040936124 -0.07273639 -0.09953388 0.029436667 -0.007938095 -0.021174202 -0.033893015
-0.07608642 -0.09239583 -0.1087935 -0.020463515 -0.059246134 -0.093992025 -0.09158119 -0.15003264
-0.10491035 -0.10872835 0.009401687 -0.0030739994 -0.021667808 -0.010066951 -0.08548864 -0.02737409
-0.07218606 0.0026134977 -0.00031256003 -0.015967578 -0.03842342 -0.12927042 -0.042166907 -0.059708323
0.01354503 0.013900262 -0.009365022 0.0060588554 -0.118117265 -0.016405722 -0.030183421 -0.027802354
-0.02025238 -0.058596652 -0.11761259 -0.07481099 -0.003293845 -0.031806994 -0.044026043 -0.04491902
-0.071538396 -0.063460216 -0.039013755 -0.008557562 -0.035320822 -0.08032153 -0.045156073 -0.051088523
-0.044554606 -0.04194979 -0.038177866 -0.067760274 0.00503564 0.025089832 0.031958967 0.028396334
-0.038663324 -0.009968078 0.014362954 0.027040306 0.056343433 0.07234937 0.08590531 -0.0045614135
0.0098936735 0.051711783 0.020262955 0.058793005 0.06625779 0.05581121 -0.0416406 -0.002061992
0.03081528 0.039368246 0.07953957 0.048446026 0.02564429 -0.035982236 0.0022305816 0.03738379
-0.01506294 0.026975695 -0.0057836073 -0.056962233 -0.060788866 -0.0071612466 0.051601533 -0.030872477
0.00015055675 -0.013067217 -0.023182176 -0.05460806 -0.025276616 0.04980205 -0.029229349 -0.008763041
-0.013445304 -0.023534779 -0.06405858 -0.022724409 0.02889653 0.024946377 -0.0019841106 -0.0113934195
-0.074521616 -0.0036882102 -0.014644569 0.005428193 0.037441898 0.012868291 -0.011097987 -0.048087694

conv_in.0.bias f4 [8]
00000000: e5d9 b0b7 ed73 0ab9 86a7 4ab8 7e3a cdb6
00000010: 7dff 2338 fe5e 6a38 96d3 8c38 0b4d e438
-2.10823e-05 -0.00013203891 -4.831657e-05 -6.1162855e-06 3.910017e-05 5.5878416e-05 6.715131e-05 0.000108862376

conv_in.1.weight f4 [8]
00000000: 2df9 123f 72a3 273f f46d 243f f5a0 1d3f
00000010: 72ea 143f 6fb8 063f 545e 203f 5937 393f
0.5741146 0.6548377 0.64230275 0.61573726 0.58170235 0.52625173 0.62643933 0.7235008

conv_in.1.bias f4 [8]
00000000: 78b4 143e cfbd 9c3e 28e4 343e a588 cf3d
00000010: 039e 893d 37c2 1c3e e970 f93d ffbb 073e
0.14521968 0.30613562 0.1766516 0.10133485 0.067195915 0.15308462 0.12179739 0.13255309

conv_in.1.running_mean f4 [8]
00000000: 1a73 9fbb 2b66 d43c ab37 713c 6e11 963c
00000010: 1cde 49bc 5160 0fbd 29d1 2fbd 11a7 0dbd
-0.004866016 0.025927624 0.014722745 0.018318858 -0.012321021 -0.035003964 -0.04292408 -0.034583155

conv_in.1.running_var f4 [8]
00000000: 42f9 d13f 362b 1e3f c656 103f 6af8 8a3f
00000010: 4eb7 4c3f f6ec 763f 76b0 9a3f d1e2 dc3f
1.6404192 0.61784685 0.56382406 1.085706 0.799672 0.96455324 1.2085102 1.7256719

layer1.0.conv1.weight f4 [16, 8, 3, 3, 3]
00000000: 360b c13c f989 be39 d785 06bc ba37 9c3c
00000010: b731 2bb8 1341 77bc 3add b33c d85b 0abc
00000020: b00c 55bb 9f60 61bd f7aa 81bc 7b9a 573d
00000030: 2e5c 1dbc 1112 2b3d 2dfa 223d 9429 333d
00000040: a6a3 343d e229 073d ddc4 253d 4ff2 403c
00000050: 339f 42bd 4212 2ebb 894b 2cbd 1b4f d9bc
00000060: 40f1 9cbd a5f2 21bd 6f77 e6bc a91e 413d
00000070: 51f5 20bc 4bb9 85bc 66f8 ee3c 124c 17bc
00000080: ff9f 8d3c 77d6 eeba 46f2 ed3b 8c08 6f3c
00000090: 456c ed3d 7e68 de3d 2706 d13d c19d 973d
000000a0: 8314 17bd 93e3 f13c d813 033d eb4f 2bbc
000000b0: 56ca f3bc 0e10 46be d81e 02be 4313 f4bd
000000c0: 4001 dcbd 0cb2 a03d 6397 4dbd f063 89bc
000000d0: cc0b 133d ad72 183d 41bf 633d 10e1 83bd
000000e0: a1fa 173b 9147 493d 8c06 9abd c0d4 24bd
000000f0: 99d9 803c 77ff 87bc 6e3b 9c3b 4606 9f3c
00000100: bc94 363d 8517 1ebd 6aca ce3c e83a b9bd
00000110: 6b7c 1d3c 99dd 3a3c 8af8 e9bc 5899 98bd
00000120: c4e5 92bd 12c2 433b 73bc 323d c224 7abd
00000130: f488 2e3e 85fb 8c3c 731d e4bc 7862 4e3d
00000140: 1115 b13d e188 00bd 82a9 06bc 55b9 7d3b
00000150: fdc0 82bd 5616 d2ba a1ad c43c d4c7 90bc
00000160: cb28 30bd cb74 d9b9 543a eabc 7963 56bd
00000170: 58f9 88bb 9769 5bbc 747a a4bd 7ce3 2ebd
00000180: 4078 8abd 437f 853b db41 353c 4614 5f3d
00000190: 11a4 a93d 4df4 26bc a4e1 8f3d c94e de3d
000001a0: 1ed2 093d f86c b63d 943a 203d 7aa2 29bc
000001b0: 35ad c83b aaa1 cc3d 8c29 f83b 529e 563d
000001c0: ee42 9a3d b2ec c73c 70ea de3c 79de cdba
000001d0: 996d 243c 21a3 a7bc 2356 82bd 80f0 ed3c
000001e0: 413a 3bbd 3752 a73d 6855 163c 4a8a 6c3d
000001f0: 7bfc 0b3e f292 fa3c fc85 f63c e232 d13a
00000200: b14a 51bd 0341 9a3c 6877 38be 1850 2bbd
00000210: 4272 c7bd 15c0 32be 8659 1cbd a085 3a3c
00000220: ec77 843d a344 aabc 3c6f e63b 5bde 1b3d
00000230: 4f5e 0bbd a025 5ebb 6e42 69bc 1321 22bd
00000240: 1dc5 c7bc 0e01 2bbd 1617 24bc 44e7 7cbc
00000250: 0d23 073d 6590 383c e95c 8bbc b346 963c
00000260: ad43 99bc 3057 943c 0381 d3bb fc21 f33c
00000270: 189a 7fba 8e71 ccbd fd15 b53c 481d b23c
00000280: 5687 36bc a0ac 953d 72f7 abbc 8146 263d
00000290: 486e 2dbc 6982 84bd 7004 a33c 67a6 bc3c
000002a0: 410c 71bc 4be4 b8bc 6f4c 723c 96f9 7ebd
000002b0: db00 8cbd 1f7c 0abd 4218 d8bb e8b8 833c
000002c0: c7da 65bd fe7c 65bd 6f3f 993c 9ade 28bd
000002d0: d909 b53d 38f6 5c3d a9b3 5f3d 4e3e 833d
000002e0: 5535 05bd 80a1 3c3d 4ee3 a23d 32b8 26bb
000002f0: ba18 2c3d 634a 4c3c 1481 763c ae33 8a3a
00000300: 0977 c83c 896e f93c 0e77 473c 6859 1d3d
00000310: 7d8e 2d3d e68b 9f3c 72eb 9e3c 42e5 253d
00000320: 8265 263d a926 2e3d 9d01 f23d 39f8 ac3d
00000330: 8812 23bd 055b 7a3d ca35 583d 341d 1bbd
00000340: aa0d 95bd 94d1 10bd afd8 9abd 40ea 49be
00000350: b0a3 9fbd 6530 20bc 10e4 f0bd 1145 6bbd
00000360: 0ab5 873d 85b1 0d3e e3e5 503e 18a7 b93d
00000370: 7c6c 2f3e 7a69 333e f01e cf3d 5edd 143e
00000380: 3bf6 f43d be9b da3c 312e 0abd 593a 7bbd
00000390: 4b36 4bbc f619 31bd 6746 adbd 26b1 dbbc
000003a0: f8a0 8dbd 6e37 61bd 69ef 7bbd 10af 5abd
000003b0: 9564 c7bd e07f 60bd 7da7 9bbd 655c 9bbd
000003c0: 26d4 6ebd 50ba 8dbd 49fd 7dbd 9b91 b23d
000003d0: bf21 d63c 8b70 96bd 7911 b93d b883 af3c
000003e0: e2e2 8dbd ecc7 5b3c 773e 57bd 3cab 2cbd
000003f0: 43a3 7d3b ab78 833c 8a8d 4d3c 0d4e 9fbc
0.023564916 0.00036342422 -0.008210621 0.019069541 -4.0815878e-05 -0.0150911985 0.021956075 -0.008444749
-0.0032508783 -0.055023786 -0.015828593 0.05263756 -0.009604497 0.041765276 0.039789367 0.043740824
0.04410138 0.032998927 0.040470947 0.011776521 -0.047515105 -0.0026561175 -0.042064223 -0.026526978
-0.07663202 -0.039538044 -0.028133122 0.04714838 -0.009824113 -0.016323706 0.02917118 -0.009234445
0.017288206 -0.0018221874 0.0072615473 0.01458944 0.115929164 0.10859774 0.102062516 0.07403136
-0.036884796 0.029527461 0.032001346 -0.010456066 -0.029759567 -0.19342062 -0.12707078 -0.119177364
-0.10742426 0.0784646 -0.0501932 -0.016771287 0.035899922 0.03721874 0.055602316 -0.06439412
0.0023190158 0.049140517 -0.0752078 -0.040241957 0.015728759 -0.016601307 0.0047678268 0.019412171
0.044575438 -0.03859665 0.025243003 -0.090444386 0.009612183 0.011405372 -0.028560895 -0.07451123
-0.071727306 0.0029870314 0.04363675 -0.06107021 0.17044431 0.017209778 -0.027846074 0.050386876
0.08646596 -0.031380538 -0.008219125 0.0038715203 -0.06384466 -0.0016028385 0.024008574 -0.01767341
-0.043007653 -0.00041476483 -0.028592266 -0.05234096 -0.0041801147 -0.013391874 -0.080311686 -0.042697415
-0.06761217 0.0040740087 0.011063064 0.054462694 0.08283246 -0.010190082 0.070254594 0.10854871
0.03364765 0.08907503 0.039118364 -0.010353679 0.0061241635 0.099917725 0.007573312 0.05239708
0.07532297 0.024404857 0.027211398 -0.0015706561 0.010035896 -0.020463528 -0.063640855 0.029045343
-0.045709852 0.08169978 0.009175636 0.05774907 0.13670532 0.030587647 0.030093186 0.0015960599
-0.051096622 0.018829828 -0.180143 -0.04182443 -0.0973859 -0.17456086 -0.038171314 0.011384398
0.06468186 -0.020784682 0.007032303 0.03805385 -0.034025487 -0.0033896938 -0.0142370295 -0.039582323
-0.024385983 -0.041749053 -0.01001527 -0.015435997 0.03299241 0.011264895 -0.017012076 0.018344259
-0.018709028 0.01810798 -0.0064545884 0.029679291 -0.000975044 -0.09982596 0.022105211 0.021742478
-0.011140665 0.07308316 -0.020992015 0.04059458 -0.010585375 -0.06470186 0.019899577 0.023028566
-0.014712394 -0.022569796 0.014788731 -0.062249742 -0.06836101 -0.033809777 -0.0065946886 0.016079381
-0.056116845 -0.056027405 0.018707005 -0.041227914 0.08839769 0.05394575 0.054614697 0.06408368
-0.032521565 0.046052456 0.07953511 -0.0025439379 0.04201577 0.012468907 0.015045423 0.0010543966
0.024470823 0.030448215 0.012174381 0.038415343 0.042372216 0.019475888 0.019399378 0.04050184
0.04062415 0.042517338 0.11816714 0.08445782 -0.039812595 0.06112196 0.052785672 -0.037869647
-0.07277997 -0.03535612 -0.0756086 -0.19718266 -0.07794893 -0.009777163 -0.117622495 -0.057438914
0.06626327 0.1383725 0.20400195 0.09065074 0.17131227 0.17520705 0.10113323 0.1453757
0.11961027 0.026685592 -0.033735458 -0.06133494 -0.012403081 -0.04323765 -0.08460694 -0.02681787
-0.06915468 -0.054984502 -0.061507616 -0.05338961 -0.097359814 -0.05480945 -0.07600305 -0.07585982
-0.05830779 -0.06920302 -0.06200913 0.08719178 0.026139138 -0.073456846 0.09036536 0.021425113
-0.0692804 0.013414364 -0.052549805 -0.04215549 0.0038702048 0.01604875 0.012545953 -0.019446397

layer1.0.conv1.bias f4 [16]
00000000: d18a 86b8 bb9c 3bb8 eb7f 9038 c065 40b8
00000010: 69f0 eeb8 1ae8 d437 1ab2 bfb8 9ac9 3d38
00000020: e3a4 c536 4f4f bab7 9d5a a3b7 0433 d738
00000030: cf92 f2b7 29cb bfb5 a1b9 b938 6848 b9b8
-6.4154745e-05 -4.473024e-05 6.890282e-05 -4.587113e-05 -0.00011393504 2.538045e-05 -9.140764e-05 4.5248868e-05
5.890253e-06 -2.2209859e-05 -1.947331e-05 0.00010261501 -2.8917011e-05 -1.4289736e-06 8.8560635e-05 -8.834974e-05

layer1.0.bn1.weight f4 [16]
00000000: 6f91 fb3e b783 133f 38f4 173f ff80 223f
00000010: 00b4 083f 4965 233f 6191 203f 1ac3 0a3f
00000020: c327 223f 507e 0d3f 457c 103f 4616 193f
00000030: 8e92 153f 5f56 143f 8039 e53e 0075 213f
0.49134395 0.57622856 0.59357023 0.6347808 0.5339966 0.63826424 0.6272183 0.5420395
0.6334192 0.5527086 0.5643962 0.5979961 0.5842675 0.5794429 0.44770432 0.6306915

layer1.0.bn1.bias f4 [16]
00000000: 2925 99bb e1d7 743e 6eff a23b b3e7 4c3e
00000010: f33b 003e 2c2e 283d d6ff 5b3e 85e8 143d
00000020: 7949 2b3e 86da 8c3d b5fe 823d 59e5 093e
00000030: 9f61 6e3e 1119 133d 8b8b 823e da29 433e
-0.0046736193 0.23910476 0.0049742972 0.20010261 0.12522869 0.041059658 0.21484312 0.03635456
0.16727246 0.068776175 0.06396238 0.13466395 0.23279427 0.035912577 0.25497088 0.19058934

layer1.0.bn1.running_mean f4 [16]
00000000: a4d1 aa3c c3fe 883b 9f26 cebb ce5f 2f3b
00000010: 8852 143d 712d f9bc e102 b2bc 3e94 91bc
00000020: 39a2 db3b 2e36 a53a 005f 503d 33bd abbc
00000030: ffd7 83bc 3b3b d53b 3632 2ebc 25fe 33bd
0.020851918 0.0041807606 -0.006291225 0.0026759985 0.03621152 -0.030417176 -0.021729888 -0.017770883
0.006702688 0.0012604648 0.05087185 -0.02096424 -0.016094206 0.006507305 -0.010632088 -0.043943543

layer1.0.bn1.running_var f4 [16]
00000000: 6546 763d 6cd5 8c3d 7aca 603d 26b9 b53d
00000010: 60b8 aa3d 253a 8e3d 8ce7 ba3d f9a4 f13c
00000020: 6c9a e03d 6c66 553d 3649 f33d a4c1 9c3d
00000030: b68c ac3d 14e6 953d 4c15 423d 46cd eb3d
0.060125727 0.068766445 0.054880597 0.08873205 0.08335948 0.06944684 0.09126195 0.02949761
0.10966954 0.05209963 0.11879198 0.076541215 0.08425276 0.073192745 0.04738359 0.11513762

layer1.0.conv2.weight f4 [16, 16, 3, 3, 3]
00000000: a54d babc 7a29 86bd 7977 91bb f0e5 1b3d
00000010: a147 9939 4cfd febc 9703 6d3d 4379 603d
00000020: d09b cdbc dccf afbc 9998 d23b c59b 833c
00000030: 574d 5a3c f57a 08bd fff8 8c3d cdf7 cc3c
00000040: 927c 7c3d 6414 d13c 0dbb 4f3c b700 0f3d
00000050: a0f2 03bc 33cc 3abd add0 c0bd 7486 78bc
00000060: fcd9 44ba 8514 7c3c 01a1 16bd 1fb3 04bd
00000070: c0b9 f0bc 3e94 abbc 030a 6cbc c3d6 e9bd
00000080: 4c89 50bc 4b8d 9fbc 1d5b 64bd 2062 77bc
00000090: 4f54 c3bd aa56 29bd 841d 5f39 7ecf afbd
000000a0: e927 34be 3598 163d 6528 32bc 407c 7b3d
000000b0: 6010 0fbd 58d3 f9bd c97b 85bd 7a99 043d
000000c0: 6db2 fdbd 28e0 48be 8964 f13d 140f e1bc
000000d0: fb9b a93d aec7 693d 14bb 2e3d 398c 3ebd
000000e0: 633f 13bd 43ac 123d 2046 98bc 4c90 07bc
000000f0: 9c41 2b3d 6dba 023d eb83 23bc d610 c93c
00000100: b0a4 55bd 6441 41bd 745c b33d 0cbf 53bc
00000110: f142 51bd f56b 853d f73b 9fbc fde0 bebd
00000120: 59da bf3d 215f eabc b7fc 873b f7a8 b93d
00000130: 4ace fdbd e05a a2bd be5b 853d 29d9 69bd
00000140: 42c7 debd 1fd5 bfbc e2b1 99bd c2ef e33b
00000150: 5497 80bd f070 debd dd19 ca3d aadf 47bc
00000160: 0f8b a23d 099c 833d e87f 96bd 43d9 0abe
00000170: 949d b2bd a5ba 3cbd d943 efbd 5068 803d
00000180: 252a 99bb c27f 073e 59e8 bb3d 2853 01bd
00000190: 2c5f b0bd 9f6a 76bc ea4e 33bd c0b8 bdbd
000001a0: 283e 953d 86d2 7c3b 1ab2 d03d 5083 de3d
000001b0: 77a1 173d ca7d 1dbc 4fdd 16bd 141d ef3c
000001c0: 9445 5eba 7137 d1bd 96fc dd3c 9527 f7bc
000001d0: 5971 e6bc 9539 f03c 3e81 4c3b d133 dbbc
000001e0: e9d2 473b b3cb 25bd 1dfa c2bd 8f14 643b
000001f0: 5759 95bd e9e4 08bd 422a 473b 7ef4 723d
00000200: 64eb 173c b2d6 43bd 25b1 19bc fe70 1abd
00000210: 9564 793d 70f9 cebc d170 09bd f593 e03d
00000220: 11d3 f73b b66d 90ba 1730 c63d f57b 273d
00000230: 6767 2fbd a9ef 5d3b 19ac 8bbd fc85 9d38
00000240: a8c3 0f3e d97d 433d 76c8 fb39 ccda c23d
00000250: ab56 b63c cbdc 33bd 7213 d1bc 74a8 c4bd
00000260: cb0e cebc c0c2 f03d f375 7abb b65e 8abd
00000270: 8e3e c03d bd1b 293d bbfa 07be 201b 373d
00000280: 9372 b4bd 8a14 80bd c26a 02be 1c68 25bd
00000290: 89b6 c93c b75d 4ebd ce48 bbbd 2c34 763d
000002a0: fc6c e23c c0e0 babb eb65 4b3d f3fd 2abe
000002b0: 288f 99bd 9558 dfbc 71b0 05be 1eee cbbd
000002c0: 68c3 bebd 5b92 8e3b f7c7 b2bb ea3f a9bd
000002d0: 33b3 15be 84b1 18be 4ae4 323d dd90 c8bd
000002e0: 4d0d d3bd 113d 183d bd8b c53c 6573 a83d
000002f0: c847 453d 6d75 5d3d 70c2 723b 29f2 16bb
00000300: d14c f33d 559d a4bd dee2 cc3c a4e0 063d
00000310: b721 9dbd bf56 97bc e07d 5a3d fb14 a23d
00000320: af5d a3bc 8af8 f23d 4501 93bd 3458 933a
00000330: c66e 0f3d b04c c23a a078 d33c 698e 8437
00000340: d670 cfbb f8b7 ee3c 9d8e 0c3d 4a03 c1bd
00000350: c256 1cba 7bf4 a23d 0182 afbc 5a64 4e3c
00000360: 9a9a 353e 10a7 523d 014e 8bbd e728 053e
00000370: 8f02 a13d 3e04 7bbd 7233 6cbd 79ce b2bc
00000380: b889 2dbd 59eb 0d3e 6179 a53d e296 90bd
00000390: 6ae4 e83d 577f 173d 3d9b 9bbd 74c2 26bd
000003a0: 410e a5bd 5fe8 d6bc 6fbe bd3d a1c7 ab3d
000003b0: ecd0 d3bc e55a 6e3d 5cc3 7ebc 548b ffbb
000003c0: 1ea5 bcbc c90a 3ebd 3dee d23c cf22 2a3d
000003d0: 43e3 19bd 28bd c03b a197 2abd 442e 433d
000003e0: d04e c8bc 9307 85bd b594 583d ee36 2bbd
000003f0: d32b a33c 902d bdbd 0fc3 943b a228 53bc
-0.022742102 -0.0655088 -0.004439291 0.038061082 0.00029235802 -0.03112664 0.05786475 0.054803144
-0.025098711 -0.02146142 0.0064268825 0.016065488 0.013324103 -0.033320386 0.0688343 0.025020504
0.061642237 0.025522418 0.012678874 0.03491279 -0.008053452 -0.045604896 -0.09414802 -0.015168775
-0.0007509289 0.015385752 -0.03677464 -0.032397386 -0.029385448 -0.02094471 -0.014406684 -0.11417916
-0.012728047 -0.019476553 -0.055750955 -0.015099078 -0.09537565 -0.041342415 0.00021277933 -0.08584498
-0.1759335 0.03676625 -0.010873889 0.06139779 -0.034927726 -0.12198514 -0.06517751 0.03237293
-0.12387548 -0.19616759 0.11786754 -0.02747301 0.08281704 0.057075195 0.04265888 -0.046520445
-0.035949122 0.035808813 -0.018588126 -0.008274149 0.041810617 0.03191607 -0.009980182 0.02454416
-0.05215901 -0.047181502 0.087578684 -0.012923967 -0.05108923 0.06514732 -0.019437773 -0.09320257
0.093678184 -0.028609814 0.004149999 0.090654306 -0.12392862 -0.07927489 0.06511639 -0.057091866
-0.10877849 -0.023417054 -0.075046316 0.0069560716 -0.062788635 -0.10861385 0.09868214 -0.012199322
0.079366796 0.06426246 -0.07348615 -0.13559441 -0.08721462 -0.046076436 -0.11682863 0.06269896
-0.0046742135 0.1323233 0.09175176 -0.031573445 -0.086119026 -0.015040069 -0.04377643 -0.09263754
0.07287246 0.003857763 0.1019022 0.108648896 0.03701922 -0.00961251 -0.03683215 0.02918867
-0.0008478996 -0.10215653 0.027097981 -0.030170241 -0.02813022 0.029324332 0.0031204964 -0.026758106
0.0030490702 -0.040477466 -0.095203616 0.0034802293 -0.07292431 -0.03342143 0.0030390178 0.059315197
0.00927243 -0.04781217 -0.009380613 -0.037705414 0.060886938 -0.025265425 -0.033554856 0.109657206
0.007563003 -0.0011019025 0.09677141 0.0408897 -0.04282322 0.0033864772 -0.068199344 7.5113e-05
0.1403948 0.04772744 0.00048023806 0.095143884 0.022258123 -0.043911736 -0.025521968 -0.096024424
-0.025153538 0.117558956 -0.0038217276 -0.06756346 0.09386931 0.04128622 -0.1327924 0.044703603
-0.08810916 -0.062539175 -0.12736037 -0.04038249 0.024623172 -0.050382342 -0.09144746 0.06010835
0.027639858 -0.005703062 0.049657743 -0.16698436 -0.07498008 -0.027263919 -0.13055588 -0.099575266
-0.093146145 0.004350943 -0.0054559666 -0.08264144 -0.1461914 -0.14911467 0.043674745 -0.097932555
-0.10305271 0.037167612 0.024114484 0.08225135 0.04816416 0.054067064 0.0037042163 -0.0023032522
0.11879886 -0.08037821 0.025010522 0.032929078 -0.07672446 -0.018473981 0.0533427 0.07914158
-0.019942133 0.11863811 -0.071779765 0.0011241497 0.03501775 0.001482388 0.025814354 1.5801941e-05
-0.0063305898 0.029140458 0.034315694 -0.094244555 -0.00059638557 0.07956787 -0.021424295 0.012597168
0.17734757 0.051428854 -0.068019874 0.13003884 0.07861816 -0.061283343 -0.05766625 -0.02182697
-0.042367667 0.1385931 0.08079792 -0.070600286 0.113716915 0.036986675 -0.07597969 -0.04071279
-0.08059359 -0.02623385 0.09264838 0.083876856 -0.025856458 0.058192153 -0.015549507 -0.0077985916
-0.023027953 -0.046397004 0.025748366 0.041537102 -0.03757025 0.005881924 -0.04164851 0.047651544
-0.024451643 -0.06495585 0.052876193 -0.041800432 0.019918358 -0.09237206 0.0045398544 -0.012888106

layer1.0.conv2.bias f4 [16]
00000000: bb5a 3d37 ca0c b336 d4fe 2ab7 3761 2033
00000010: 3960 5336 be56 3136 33ac bc37 b7a8 b537
00000020: 8193 b836 4d31 79b7 c139 fe36 56b6 0e38
00000030: 5f44 f8b6 f9cd 7738 42d2 0eb7 324c 9bb6
1.1286403e-05 5.3361046e-06 -1.0192121e-05 3.734132e-08 3.149746e-06 2.6425546e-06 2.2491533e-05 2.1655445e-05
5.500799e-06 -1.4853035e-05 7.5765133e-06 3.402525e-05 -7.3989354e-06 5.9081216e-05 -8.512814e-06 -4.6282303e-06

layer1.0.bn2.weight f4 [16]
00000000: 979a 1b3f 302d 1c3f 02a1 313f 5976 1e3f
00000010: 6f8b 0f3f 54c6 113f 5d41 323f 734e 1c3f
00000020: 6d10 263f d040 fd3e 17f7 073f 2ca7 193f
00000030: 331f 213f 3a99 413f c8ba 193f 30a4 193f
0.6078276 0.6100645 0.69386303 0.61899334 0.56072134 0.5694325 0.69630986 0.61057204
0.64868814 0.4946351 0.53111404 0.6002071 0.6293823 0.7562443 0.6005063 0.60016155

layer1.0.bn2.bias f4 [16]
00000000: 0c39 17bd db90 2c3d 682c 67bd d632 0ebc
00000010: a6c8 d6bd c0ba d03d c8b5 343e 131e 683d
00000020: a0a4 973c 0ef6 853c 0909 5dbc 0c40 663c
00000030: d333 9c3d e460 e53d 0444 8ebc 2db3 a43d
-0.03691964 0.042130332 -0.056438833 -0.008679112 -0.104874894 0.1019187 0.17647469 0.056669306
0.018511117 0.01635268 -0.013490924 0.014053356 0.07627072 0.11200121 -0.017366417 0.080419876

layer1.0.bn2.running_mean f4 [16]
00000000: 1e7c bcbe a83a 963e c80c 15bf 5726 c9bd
00000010: cac2 a63e 57de 08bf 9ebf dbbe 06d0 c23c
00000020: 52f9 35be dc52 a0be 8e84 e53e f61e 69be
00000030: 6bb8 3bbd df97 f13c f6d2 c1bc ab38 1e3f
-0.36813444 0.29341626 -0.5822263 -0.09821766 0.32570487 -0.53464264 -0.4291963 0.023780834
-0.1777089 -0.31313217 0.44827694 -0.22765717 -0.04583017 0.029491363 -0.023660164 0.6180522

layer1.0.bn2.running_var f4 [16]
00000000: 2873 663f 99a5 3e3f a583 733f e51e 683f
00000010: 191d a13f e09a f53e 26d4 303f 0cb8 8c3f
00000020: 5d1a 233f 0738 043f 20f0 273f bd41 283f
00000030: a88f 0f3f f0cf 333f ce7c 793f 263c 5e3f
0.90019464 0.7447143 0.9512275 0.9067214 1.2587005 0.47969723 0.6907371 1.0993667
0.637121 0.5164799 0.65600777 0.6572531 0.5607858 0.7023916 0.9745606 0.8681053

layer1.0.conv3.weight f4 [16, 16, 1, 1, 1]
00000000: 6272 8b3c f567 c7bb 7769 50be 3eff 903d
00000010: 1948 50bd 4c0d 56bd 5b67 16be bcff b63d
00000020: 93e1 f4bc c201 3a3c 0c63 efbd 3e35 89bc
00000030: e5aa efbd 2fb8 8bbe 75d4 eabd 7c58 3fbd
00000040: 7862 8bbe 1210 00bd a868 c33d 02c3 04be
00000050: 2806 25bc f857 9a3a 5925 e1bc c4a4 e6bc
00000060: cbe0 7bbd 6317 c5bc f5fc 09bd 392e 2cbe
00000070: 980b de3c 7779 a6bd 9e46 69bd 3887 8bbb
00000080: a1ec ab3d d7c7 1fbd 6db1 cc3d 01c2 393d
00000090: c121 20bd 706d 01bc 8631 1dbe 8d4d 283e
000000a0: d0ba 6cbe f6be 143b 295e 443d d900 c2bc
000000b0: 7410 a63d 3f3e 97bd a504 983d 5085 b53d
000000c0: 87bf c3bd 42b0 993d ac59 043e 5507 dd3d
000000d0: d9c0 063d 621d 28be 60cd 36be 5384 13be
000000e0: 9605 16be 03f1 843d 4f95 8bbd bb76 c33b
000000f0: b0a9 b7bc c3f3 eebd 2194 3dbd f768 ccbd
00000100: 0b22 ca3c 47d5 dd3d 2991 a83c 302b 853d
00000110: e32c d83b cded 893c cfee e63c 5f06 3b3d
00000120: 3f7d 0a3c dd3e 2b3d 055e f83c 128e 993d
00000130: d8bd a93d a041 483e 0fba 2e3e 2347 103e
00000140: 0bb2 07be 2669 48bd 37b1 1a3d 2d5d 77bd
00000150: 6f86 8ebd 8a0b 40bd 983a 55bd 7ab6 49bd
00000160: 28c0 9a3b 0bf0 11bd 4e1e afbc 4db4 e7bd
00000170: 6838 9dbd 4e06 78bd ecd3 52be 878c 55bd
00000180: 576a e5bc 2c00 28be cd39 21be c81b 65bd
00000190: 17ab bebc b26a 253d c0c6 f23d 319a 413d
000001a0: e7ba f63d f81d 03be a578 85bd 96a9 c3bd
000001b0: bc16 a43d df51 ed3d 424c c63d 218c d93c
000001c0: 66b9 393c 931a c7bc 2628 17bc 26a1 5bbc
000001d0: 6388 dcbd d2cb f03d d3c4 75bd 3372 2cbe
000001e0: 62dc bf3d 0610 c53d 6dd0 82bc fb9d a53d
000001f0: a553 cdbd 65f4 cd3d 54fd bebd 89ac 99bd
00000200: 41b4 96bd 81ec 8abd 967b c0bd 6df1 14bc
00000210: 4aac 9dbb e08e d33d db71 b5bd 8d30 8bbd
00000220: 2cbe 7a3d 3ec8 a2bc 779c 81bc cc1b f6bd
00000230: d0e8 29be 1706 253d 8b77 bfbd 2caa 2fbd
00000240: 7467 553d b41e 03be b09b 52bd ccb5 b13c
00000250: a86e d0bd ff63 97ba bb26 2bbe b100 493d
00000260: f813 bbbd db54 1c3e 3578 edbd cc05 eb3d
00000270: 097b 45bd a93e 4fbe 7a74 183d e202 e4bd
00000280: de0d a0bb bc18 c23c 35dd cd3c e739 b43d
00000290: f270 883d c636 ab3b acf4 f3bd d6d2 dbbc
000002a0: 4487 c63d 8bda 90bb 3a81 893d 27c0 113d
000002b0: 431d 2bbd 9bb9 613e 18e8 823d b4fc e83d
000002c0: e370 983b 8495 73be 7cbe 2d3a b68a 3abd
000002d0: 6f72 43be 0cb9 213e 2f21 95be b02d 663d
000002e0: a00d c0bd ba19 17bd 9480 853d ed6c 21bc
000002f0: fc57 8b3d 9488 16be 614b 0dbe b53b 0abe
00000300: 0e4f 9f3c feb8 123d a595 4cbe 0f89 d63d
00000310: e8de 94bd 425d 90bd 4627 dcbc d7a1 c5bd
00000320: 6a0b 37bd d101 b2bc f244 14be dd46 86bd
00000330: 9aa3 fbbd 739d 73bd 5e00 a33c a9d7 1f3d
00000340: 97ea 54be f3db d6bc f7bf 2cbe a11a fdbc
00000350: 7210 513d eca0 ce3d b811 1f3c 5183 89bc
00000360: 333a be3d 3f5d 35be 6685 4e3c 0082 9cbd
00000370: 55e0 9bbd fcbe c23c 7750 a4bc 39e6 f3bc
00000380: f082 b4bd b43c 583b a220 85be 444b 38be
00000390: a1c0 a0bc b689 fabd cb26 e23d 0189 bd3a
000003a0: a170 d53d 8b8a 78b9 6a1f 8cbb 589e 2ebe
000003b0: 8416 dabd 664d bf3b fa1e 7f3c 2aa4 15bd
000003c0: dc58 88bd af32 12bd e993 9abd 711b 53bb
000003d0: 3662 6cbd 04ce 38be d8d1 4a3b 20de ad3c
000003e0: 0640 953c ac4c 243d 7b5a f9bd ece3 9cbd
000003f0: bce3 52be 3ff3 b63d 748c 8abc 4292 623c
0.017022315 -0.0060853907 -0.20352732 0.070799336 -0.050850008 -0.052258775 -0.14687864 0.08935496
-0.029892718 0.011352958 -0.116888136 -0.01674902 -0.117025174 -0.27288958 -0.11466304 -0.046715245
-0.27223563 -0.031265326 0.09541446 -0.12965015 -0.010072269 0.0011775484 -0.027483629 -0.028154738
-0.061493676 -0.024059003 -0.033688504 -0.16814508 0.027105138 -0.08128636 -0.05695211 -0.0042580627
0.08394743 -0.03900894 0.09994779 0.045351032 -0.03909469 -0.007899627 -0.15350923 0.16435833
-0.23118138 0.002269683 0.04794136 -0.023682045 0.08108607 -0.073849194 0.07422761 0.08863318
-0.09558015 0.07504322 0.12924832 0.10792414 0.032898758 -0.16417459 -0.17851782 -0.14405946
-0.14650568 0.06491282 -0.06815588 0.0059650815 -0.02241978 -0.116675876 -0.046283845 -0.09980958
0.024674436 0.10831695 0.02057703 0.06502378 0.006597148 0.016837025 0.028190045 0.045660373
0.008452713 0.041807998 0.03031827 0.07497801 0.08288163 0.19556284 0.17063163 0.14089637
-0.13251512 -0.048928402 0.03776666 -0.060391594 -0.06959235 -0.046886005 -0.052057832 -0.04924629
0.004722614 -0.035629313 -0.021376755 -0.113136865 -0.07676774 -0.060552888 -0.20588654 -0.05213597
-0.028004808 -0.16406316 -0.15744705 -0.055934697 -0.023274941 0.040384956 0.11854315 0.04726619
0.120473675 -0.12804401 -0.06517152 -0.0955383 0.08012149 0.11587881 0.09682514 0.026556076
0.011335706 -0.024304664 -0.009225881 -0.01340512 -0.10768201 0.11757626 -0.06000216 -0.16840439
0.093682066 0.09622197 -0.015968526 0.08086773 -0.100257196 0.1005638 -0.09325662 -0.075036116
-0.073585995 -0.06783391 -0.09398572 -0.0090907635 -0.004811798 0.103299856 -0.08859607 -0.0679637
0.06121652 -0.019870874 -0.015821679 -0.120170206 -0.16592717 0.04028901 -0.09348973 -0.042886898
0.052100614 -0.12804681 -0.051418006 0.021693133 -0.10177356 -0.0011550187 -0.16713993 0.049072925
-0.09134668 0.15266745 -0.11595193 0.11475715 -0.04821304 -0.20238747 0.037220456 -0.11133362
-0.0048844656 0.023693435 0.025129894 0.088001065 0.066621676 0.0052250354 -0.11911902 -0.026833933
0.096937686 -0.0044205836 0.06714101 0.03558364 -0.041775953 0.22043459 0.063919246 0.11376324
0.004652129 -0.23787504 0.00066278107 -0.04554244 -0.19086622 0.15793246 -0.2912688 0.056195915
-0.09377599 -0.03688977 0.06518665 -0.00985263 0.06803891 -0.14700538 -0.13798286 -0.13499339
0.019446876 0.035820954 -0.1997896 0.104753606 -0.072690785 -0.070490375 -0.026874196 -0.09650009
-0.04468862 -0.021729382 -0.14479426 -0.06556485 -0.12287064 -0.059476327 0.019897636 0.03902403
-0.20792614 -0.026227927 -0.16870104 -0.030896487 0.051041074 0.10089287 0.009708814 -0.01678625
0.09288444 -0.17711352 0.012605047 -0.07641983 -0.07611147 0.02377271 -0.0200579 -0.029772865
-0.08814037 0.0032995166 -0.2600146 -0.17997462 -0.019623103 -0.122332975 0.110425554 0.0014460386
0.10421873 -0.00023702734 -0.004276206 -0.17052591 -0.10648826 0.005838084 0.01557135 -0.036533512
-0.066575736 -0.035692867 -0.07547743 -0.0032212401 -0.05771085 -0.18047339 0.003094783 0.021224082
0.018219005 0.040112182 -0.12175461 -0.0766066 -0.20594686 0.08933114 -0.016912676 0.013828816

layer1.0.conv3.bias f4 [16]
00000000: 6c9a 20b8 d933 85b7 233b 7cb7 3c6b e036
00000010: 672c 6f37 18d2 5a37 db58 d036 1f0f 68b7
00000020: 10e6 5436 1495 27b7 c78c 41b7 2ef2 97b7
00000030: dadc 9838 e08c 88b8 33b7 4db6 a5d5 4237
-3.829079e-05 -1.5878979e-05 -1.5034139e-05 6.688204e-06 1.4255848e-05 1.3042729e-05 6.209227e-06 -1.3831798e-05
3.1724376e-06 -9.988686e-06 -1.1536474e-05 -1.8113376e-05 7.2890616e-05 -6.5112254e-05 -3.0654016e-06 1.1613044e-05

layer1.0.bn3.weight f4 [16]
00000000: b59f 283f 04cf 453f 060a ed3e 1f4a 113f
00000010: e4db c93e 5e86 4b3f 49a8 ea3e 6b88 db3e
00000020: 0bad 3c3f 1585 d53e b027 d63e 7e6e e93e
00000030: f01a 233f 8c73 4b3f 4ed1 7e3f 8366 193f
0.65868694 0.77269006 0.4629671 0.56753725 0.39425576 0.79501903 0.45831516 0.42877516
0.7370154 0.41703096 0.41827154 0.4559211 0.6371298 0.79473186 0.99538124 0.59922045

layer1.0.bn3.bias f4 [16]
00000000: 0998 103d 6bab 063e 5fbf 6e3d ab08 163e
00000010: d91d 09bd e6bb 5c3e 15ba 8c3d 5bf8 5b3e
00000020: 9ea9 9c3d 7016 54bb f4b7 ec3d c4b1 6ebd
00000030: 8b1d 9c3d 0587 233e 9424 2c3e 4c99 b7bd
0.035301242 0.13151328 0.058287974 0.14651744 -0.03347573 0.21556053 0.0687143 0.21481459
0.076495394 -0.0032362007 0.11558524 -0.058275 0.076228224 0.15969475 0.16810828 -0.08964786

layer1.0.bn3.running_mean f4 [16]
00000000: fa3b 22be 57e8 bebd 8316 b3bc 0fe0 0bbe
00000010: 47f6 143e 2f2a fabd 5bf8 173d 4b68 34bc
00000020: a60d a6bd 0ccd e9bd 4ed7 813d 7356 17be
00000030: 17cd c1bd 096a 2bbd bbaf 88bd 2176 a6bd
-0.15843192 -0.09321659 -0.02186132 -0.1365969 0.14547072 -0.12215077 0.037102085 -0.0110111935
-0.08108072 -0.11416063 0.06339894 -0.14779072 -0.09462946 -0.04184917 -0.06674143 -0.08128

layer1.0.bn3.running_var f4 [16]
00000000: ec0f 233d 6404 eb3c 05f3 f33c 682b 043d
00000010: 53bb 723d 0c11 1b3d 5498 1f3d 8b91 1d3d
00000020: 9df2 e73c 472c 083d 8b0a 0d3d 9c2a 953d
00000030: 96d3 aa3c a669 b23c 07ae 193d b6eb b23c
0.039810106 0.028688617 0.029778967 0.032267958 0.059260678 0.037858054 0.03896363 0.03846888
0.02831393 0.03324535 0.034433883 0.07283518 0.020852845 0.021778893 0.03751948 0.021840911

layer1.0.shortcut.0.weight f4 [16, 8, 1, 1, 1]
00000000: 28da c4bb 93c7 53bd afef 55bd dfe3 b53d
00000010: ddd6 23be e121 d2bd 7d81 79bd e136 bebd
00000020: 2325 1ebc 390e 55be 4211 70bd 3d4a 173e
00000030: 6d87 01bd 96ed fe3d 8e79 6a3c 8aa7 55bb
00000040: e10b 4c3c 6ce3 9cbe 7d45 59be b886 13bd
00000050: 511d 433c b58a d93c 589c d8bb c09f a6bd
00000060: f81d 113b 004b fabc 937c d8bd 9d83 153e
00000070: e905 ea3c e20e ac3d 0856 413e ab62 12bd
00000080: 2534 27be a2f9 703d cd8b 9e3d 4377 e3bd
00000090: e5c8 2c3d 2b66 a03d 3234 32bd ae29 bbbd
000000a0: e36c 863d d9f9 5b3d c00d a5bd a26d a83c
000000b0: 753e 463c 431b 0bbe 70c5 01be e686 da3d
000000c0: aa38 41bd 035b 36be 9745 72bd 6d48 edbc
000000d0: 11f3 bfbd 2f27 6dbd a314 93bd f58b 3f3c
000000e0: e2ed 87bd 238e a33d 51eb 7c3d 1deb c9bd
000000f0: 10fd 09ba 131f 6abe 3ea6 8fbd 1b0d d0bd
00000100: 905a 04bd a80f 08be 4e44 3fbc 6114 ba3c
00000110: a4a8 60bd c868 ad3d 98fe 3e3d 0f8b 1e3e
00000120: 8c8e 2b3e 69da a8bd 7820 a4bd 90e6 20bd
00000130: 7d2f 14be d700 e4bd b7d7 873b 3dba 293d
00000140: f9a7 d5bc fdad cabd ba79 2dbe b353 b63d
00000150: 438d 8b3c a278 20be 2f83 153d 3071 80bd
00000160: 73cf 973d 1975 19be f635 b2bd 0c3d d63d
00000170: 4589 a9bd 3d10 3fbe 8c84 453c 2b19 29bc
00000180: c0d6 25bd 77d9 c6bd 6ef1 81bc be87 29be
00000190: ede6 c83b 6550 0f3e 28e2 c2bd 1a05 82bd
000001a0: 08c9 133e 82f1 113d 897c 9bbd ba40 a73d
000001b0: 6001 013c 1f15 16bc 376f 393d aa63 55be
000001c0: 7d0d 973c b9f4 6dbc 26b5 893d 8b8a 7c3d
000001d0: e85c f23d 28d3 013e 101f 213e a3ad 2d3e
000001e0: 09e7 1bbd f237 0bbe 25af bdbc 2487 b33c
000001f0: 7431 413d 215e 9a3d a849 693d c2a4 043e
-0.0060074516 -0.051704 -0.052230533 0.088813536 -0.15999933 -0.10260368 -0.060914505 -0.09287811
-0.009652409 -0.20806207 -0.05861021 0.14774413 -0.031623293 0.1244766 0.014311207 -0.0032601082
0.012454004 -0.3064226 -0.21217914 -0.03601715 0.011908845 0.026555398 -0.0066104345 -0.08135939
0.0022143107 -0.03055334 -0.10570636 0.14600988 0.028567271 0.08401276 0.18880475 -0.03573863
-0.16328485 0.05883182 0.07741509 -0.11106732 0.042183775 0.07831987 -0.04350681 -0.09138809
0.06563737 0.05370507 -0.08059263 0.02056009 0.012099852 -0.13584618 -0.12672973 0.10670261
-0.04717318 -0.17808156 -0.059148397 -0.0289652 -0.09372533 -0.057898697 -0.071816705 0.011691083
-0.066371694 0.07986095 0.061747853 -0.098592974 -0.00052638445 -0.22863416 -0.0701413 -0.1015875
-0.03231293 -0.13287222 -0.011674 0.022714796 -0.05484833 0.08467251 0.04662952 0.15482734
0.16753596 -0.082447834 -0.080140054 -0.03928238 -0.1447124 -0.11132973 0.0041455883 0.041437376
-0.026081072 -0.09896467 -0.16940966 0.08902683 0.017035132 -0.15671018 0.03650206 -0.06271589
0.07412615 -0.14986075 -0.087016985 0.104608625 -0.08278135 -0.18658538 0.012055527 -0.010320942
-0.040488005 -0.09709447 -0.015862193 -0.16555688 0.006131044 0.13995512 -0.09515792 -0.06348629
0.14432156 0.03563071 -0.075921126 0.081666425 0.007873863 -0.009160309 0.04527208 -0.208388
0.018439049 -0.014523678 0.067240044 0.061655562 0.11834127 0.12678206 0.15734506 0.16960768
-0.03806213 -0.1359556 -0.023154804 0.021915026 0.047166303 0.07537485 0.05695501 0.12953475

layer1.0.shortcut.0.bias f4 [16]
00000000: 0bf7 e8b7 7ca7 2a37 7595 95b7 5a6a 0337
00000010: 5b97 3db8 7931 37b7 cc85 9036 0a5d 0ab8
00000020: ab4d 0bb6 0fe4 9db6 0398 b5b7 b354 9ab8
00000030: 059c 8d37 3474 ba37 da1f 39b7 a9c9 b736
-2.7771594e-05 1.0171785e-05 -1.783178e-05 7.83297e-06 -4.5202072e-05 -1.0919169e-05 4.3071104e-06 -3.2988413e-05
-2.0757823e-06 -4.705514e-06 -2.1647667e-05 -7.359069e-05 1.6881162e-05 2.222704e-05 -1.1034275e-05 5.4773013e-06

layer1.0.shortcut.1.weight f4 [16]
00000000: eac9 263f 53a3 193f d81c 143f 7504 9f3e
00000010: fb6a 1c3f 3367 fb3e d157 1f3f 0ebc 203f
00000020: ebe3 0b3f 2c46 4a3f a377 4f3f 6e75 723f
00000030: 4c1e 2b3f e6bf fc3e 5962 f13e 1a4f 0c3f
0.65151846 0.6001484 0.5785651 0.31058088 0.6110074 0.49102172 0.6224337 0.6278695
0.5464465 0.79013324 0.81041926 0.94710433 0.66843104 0.49365157 0.47145346 0.548082

layer1.0.shortcut.1.bias f4 [16]
00000000: 0998 103d 6bab 063e 5fbf 6e3d ab08 163e
00000010: d91d 09bd e6bb 5c3e 15ba 8c3d 5bf8 5b3e
00000020: 9ea9 9c3d 7016 54bb f4b7 ec3d c4b1 6ebd
00000030: 8b1d 9c3d 0587 233e 9424 2c3e 4c99 b7bd
0.035301242 0.13151328 0.058287974 0.14651744 -0.03347573 0.21556053 0.0687143 0.21481459
0.076495394 -0.0032362007 0.11558524 -0.058275 0.076228224 0.15969475 0.16810828 -0.08964786

layer1.0.shortcut.1.running_mean f4 [16]
00000000: b47b c7bd 98a2 21bd f106 3abe a964 3c3d
00000010: e135 cbbc 5827 40bc f1d2 0abe 19d0 a0bd
00000020: 4893 143b 232b 63bd d284 d8bd 7178 bdbd
00000030: 52c8 abbd 5d2f 3f3b e417 163e d751 d43b
-0.097403914 -0.039461702 -0.1816671 0.045994435 -0.024805965 -0.01172813 -0.1355703 -0.078521915
0.0022670794 -0.05546106 -0.105722085 -0.09251488 -0.083878174 0.0029172518 0.14657551 0.0064794826

layer1.0.shortcut.1.running_var f4 [16]
00000000: 4a5f 523c f1d4 aa3c 3000 5d3d 4407 6e3c
00000010: fce9 853b cfb7 213c 0b74 a03c 5068 b83c
00000020: dd1f a43c 7275 e43b 0fd9 353c 11bc 0e3c
00000030: 51bf 6f3c 78db 4c3c 6698 003d cfa5 9c3c
0.0128401015 0.020853492 0.053955257 0.014528099 0.004086731 0.009870484 0.019586584 0.022510678
0.020034725 0.0069720084 0.011099114 0.008711831 0.014633016 0.012503497 0.03139534 0.019122032

layer1.1.conv1.weight f4 [32, 16, 3, 3, 3]
00000000: 07b0 993c d52e d0bd d271 08be 00e1 22bd
00000010: 9abb 21be 2232 bebd 8fd4 b5bd 9e10 d7bd
00000020: ae35 1bbc ce77 693d e284 963d 5e62 f43c
00000030: 3219 aa3d 0928 bd3d 7cb2 a1bc d15a 823d
00000040: f706 35bd 2946 b5bd 69d1 abbd 7a27 2b3c
00000050: 3c8a a93d 2d9d 69bd cd58 493d 3603 cd3d
00000060: 4168 963c 4312 1d3e cae1 f93d dbe8 a6bd
00000070: 8c11 c83d ceed d13d b7ed 863d bc31 383e
00000080: 344e 023e ec2d e63d 6459 303e 115d 523d
00000090: 3120 86bd d5e9 19be c5e5 d1bc c230 0abe
000000a0: c366 cfbd 7735 393d 0322 93bd 9f2b 223d
000000b0: c3b6 a03d 5bf4 1a3e ee3f b63d dc8e 97bd
000000c0: 51b6 d63d eb98 c7bd 5454 23be 096f 46bd
000000d0: cc26 5cbe 813b 0cbe d109 753c 9c29 683c
000000e0: 4391 1b3d 47e2 fa3c 3a39 db3b f35c af3b
000000f0: eb59 343d 47b6 a63c fb38 87bc 7c8c 833d
00000100: 3245 bd3c c69e 2c3c 12a8 7c3c 3746 15bd
00000110: 9012 27bc 788f 553a 4029 bcbb 10df 31bc
00000120: 965d b0bd 3817 3fbd f747 4dbd b276 16bd
00000130: fd95 383d 321a 983c 2cf4 fdbc 8edd a3ba
00000140: 67ea e23c 72da c5bc a7dc 583c cdf3 fb3c
00000150: a497 89bb a980 383d f0c8 3e3d 0b93 103d
00000160: 115e 513d 510d 873d 6677 29bc a11d 19bd
00000170: 99db caba 7698 11bd 46f3 11bd cf56 e63c
00000180: c8c8 76bc e0c4 9839 a28c 513d 8d69 6a3d
00000190: e2aa 463d 91f4 b2bc 6b92 823d 11f9 c93c
000001a0: 1c75 9ebd 96e9 7fbc 9308 58bd 8eea d1bd
000001b0: 3121 b7bb fd67 a2bb 04c3 9e3c 5ce9 8b3c
000001c0: 13c8 c5bc f471 923c f563 e63c 6e5c 7ebb
000001d0: d655 093d 51c7 ab3b a3ff 26bb 7b68 ce3c
000001e0: 1672 29bc b695 083d fe8c 7f3c 3f2d bebc
000001f0: a686 f53b 039a 50bc b9e9 6fbb 293b e03c
00000200: ed7f f3bc faba e93b 0fcb e6bb a944 92bc
00000210: 6918 763c 1028 683c 8c3c a13b efc6 15bd
00000220: 84d6 d53d b562 d93d 533c 3f3c 120e 1e3e
00000230: f26c cc3d 3a7a 2c3d f5df f43d 9d19 b33c
00000240: 4c62 a63c 2958 a4bd 171b c4bc f915 e6bc
00000250: f501 afbd 1678 1fbc 2314 8dbc 3b11 873c
00000260: c9c9 f33c 9c8c 723c 4cbb f5bc 3e48 9abd
00000270: 6feb 243c 8ace b2bd 6d5f a2bd dd9b 2bbd
00000280: f1a2 0ebe 237f 52bd 8fb7 97bc cd84 eebc
00000290: bee8 eb3c d64b e3bc 1967 4bbd f2e3 303d
000002a0: cfa9 44bd 4519 c9bc 5d4c 083d ee38 243d
000002b0: b88a 813c 09f2 54bc 3721 e33c 4e19 053d
000002c0: d8cb 4ebd 0468 993c 1918 8b3c 0e00 23bd
000002d0: 2169 25bd 01b8 8d3c 1a4f 8e3c b7d8 42bc
000002e0: 5793 9c3b 610e 3d3d 49bb 013d f463 7a3c
000002f0: 15d6 303d 0ce1 89bc 2890 cd3c 10e5 5a3d
00000300: bc47 6bbc ee09 2a3d c807 b73d d9a2 f6bb
00000310: 6cdc 043d 45be 7c3d a09e 963b 0aee ad3a
00000320: 44c5 cebb f580 ca3b c062 a13c c811 9ebc
00000330: 24e5 62bc 54c3 3b3c 2077 d5ba 8910 013c
00000340: 1240 33bc 5a99 1ebd 1635 203c 9795 3ebd
00000350: 5372 88bd a29b ed3c 1c50 26bd e93b 92bd
00000360: 63cb a93a 3138 1a3c 22e1 39bc 6998 17bc
00000370: d431 893c 94ed c2bc ca1e 41bc 37c1 11bc
00000380: f49e 17bd 60d2 a4bc d24f 53ba 6803 95bb
00000390: 99ee 503c 8b79 24bc eabc 6f3c 08e2 9dbc
000003a0: e990 c0bc 0920 3ebc 04ad 8c3c 22f6 d7bb
000003b0: 8680 cd3c 1410 1c3a 7a2e 0c3c 3f77 c53c
000003c0: 6009 183d 7b0b 3c3d 7532 833d 9fe5 bebc
000003d0: 6f35 99bd fb39 01bd 96e8 7ebd 665c abbd
000003e0: 4008 b63c 18ac 27bc cc89 9dbb 6465 153d
000003f0: 5575 a53d fc04 913d 4034 95bb 8f35 653d
0.018760694 -0.101651825 -0.13324669 -0.039765358 -0.1579422 -0.09286906 -0.08878433 -0.10501216
-0.009473247 0.05699902 0.07349564 0.029832061 0.08305587 0.09236152 -0.019738428 0.06364978
-0.044196095 -0.088512726 -0.08389551 0.010446424 0.08278319 -0.05703466 0.049156953 0.10010378
0.018360259 0.15338998 0.12201269 -0.081498824 0.09768972 0.10250436 0.06588309 0.17987722
0.12725145 0.11239228 0.172216 0.051358286 -0.06549109 -0.15030606 -0.025622258 -0.13495162
-0.10127022 0.045217004 -0.071842216 0.03959238 0.07847359 0.15132277 0.08898912 -0.07400295
0.10483993 -0.09745964 -0.15950137 -0.048445735 -0.21499175 -0.13694574 0.014955954 0.014170077
0.03798033 0.030625476 0.0066901715 0.0053516566 0.044031065 0.020350588 -0.016506663 0.0642328
0.023104284 0.010535901 0.01542093 -0.036443915 -0.010197297 0.00081466837 -0.005742222 -0.010856405
-0.086116 -0.046653003 -0.05011746 -0.03673429 0.045064915 0.018567178 -0.03100022 -0.0012501942
0.027699662 -0.024152014 0.013236201 0.030755902 -0.004198985 0.045044575 0.046578348 0.03529648
0.0511151 0.06594337 -0.010343408 -0.037381772 -0.0015476822 -0.03554579 -0.035632394 0.028117565
-0.015062518 0.00029138383 0.05115951 0.057229567 0.04850281 -0.021845134 0.06375583 0.024654897
-0.077371806 -0.015619656 -0.052742552 -0.10249816 -0.0055886735 -0.004956244 0.0193801 0.017079048
-0.024143254 0.017876603 0.028123835 -0.0038812417 0.033529125 0.005242266 -0.0025481961 0.025196305
-0.010342142 0.0333459 0.01559758 -0.023214934 0.007492858 -0.012732032 -0.0036607815 0.02737196
-0.029724086 0.007132885 -0.0070432494 -0.017855005 0.015020468 0.014169708 0.004920548 -0.03656667
0.10441306 0.1061453 0.011672097 0.15435055 0.09981717 0.04210875 0.11956779 0.0218628
0.020310543 -0.08024628 -0.023938699 -0.02808665 -0.08545295 -0.009733221 -0.017221516 0.016487708
0.029759305 0.014804032 -0.029996537 -0.0753331 0.010065897 -0.087308004 -0.07928357 -0.04189669
-0.13929345 -0.05139078 -0.018520145 -0.029116059 0.028797504 -0.027746122 -0.04965887 0.043186136
-0.048013505 -0.024548182 0.03327595 0.040093355 0.015813217 -0.012997159 0.027725799 0.032494836
-0.05048737 0.018726356 0.016979264 -0.039794974 -0.040383462 0.017299654 0.017371703 -0.011892489
0.0047783065 0.04615629 0.03167275 0.01528262 0.043172915 -0.016830944 0.025093153 0.053441107
-0.0143603645 0.041513376 0.08937031 -0.007526737 0.032436773 0.061704893 0.0045965463 0.0013269794
-0.006310137 0.0061799237 0.019700408 -0.019295588 -0.013848577 0.011460144 -0.0016286112 0.007877477
-0.0109405685 -0.038720466 0.009778282 -0.04652938 -0.066624306 0.029004876 -0.040603742 -0.07140333
0.0012954291 0.009412811 -0.01134518 -0.009252646 0.016747393 -0.023794927 -0.011787126 -0.008896164
-0.037016824 -0.020119846 -0.00080609054 -0.004547525 0.012752199 -0.010038744 0.014632443 -0.01927282
-0.023506599 -0.011604317 0.017172344 -0.0065906206 0.025085699 0.00059533236 0.008556003 0.024104713
0.037118316 0.045909386 0.06406108 -0.023302851 -0.07480895 -0.031549435 -0.06223353 -0.08367233
0.02222073 -0.010233901 -0.0048076864 0.036473647 0.0807902 0.07081029 -0.004553348 0.05595928

layer1.1.conv1.bias f4 [32]
00000000: 5cd1 98b6 3944 67b5 1247 b8b6 4933 99b6
00000010: 5cb1 88b5 e1c7 a936 64ee 7837 7cf1 10b7
00000020: a7cb 3cb7 65eb 4f37 ee31 6137 ca17 ad36
00000030: aa17 d0b6 ea88 44b7 0d39 8137 d714 5235
00000040: a180 e336 9064 8b36 85f6 3f37 b3b0 aab6
00000050: a322 8eb7 7a32 c7b5 9052 5e35 fc29 3eb6
00000060: f8c9 2f37 4967 da35 f4a5 76b7 e428 4e35
00000070: 4069 8c37 0e7b 51b7 0f96 1937 03d4 2636
-4.5543256e-06 -8.6153483e-07 -5.491901e-06 -4.5657257e-06 -1.0184408e-06 5.0598615e-06 1.4837457e-05 -8.639294e-06
-1.125309e-05 1.23929685e-05 1.342267e-05 5.158571e-06 -6.201638e-06 -1.1714388e-05 1.5404565e-05 7.826142e-07
6.7801016e-06 4.15423e-06 1.1441884e-05 -5.0869653e-06 -1.6943848e-05 -1.4841346e-06 8.282159e-07 -2.8336644e-06
1.0477837e-05 1.6272326e-06 -1.4701382e-05 7.6800484e-07 1.6738311e-05 -1.2486022e-05 9.154449e-06 2.4859335e-06

layer1.1.bn1.weight f4 [32]
00000000: fb08 093f 9a25 d33e 4de1 0f3f dd46 c63e
00000010: c860 dd3e b68d c13e e4ac 073f 3b07 063f
00000020: e174 053f bbc9 483f 112e e83e 1c04 0e3f
00000030: 29a8 e53e b496 f33e 6555 d83e 9c02 b73e
00000040: f33c 133f be9e f13e 8b14 1a3f 15a5 2c3f
00000050: 6287 e33e 9274 fb3e f523 f83e 8b77 e23e
00000060: 3cfa 1d3f b157 223f 83a8 473f 9bad f53e
00000070: 5d6e 043f 919f a43e a755 ce3e 0363 243f
0.5352933 0.41239625 0.56203157 0.3872594 0.432379 0.3780343 0.52998185 0.5235478
0.5213147 0.78432816 0.45347646 0.5547502 0.4485486 0.47575915 0.4225265 0.35744178
0.57514876 0.47191423 0.60187596 0.67439395 0.44439226 0.49112374 0.48464933 0.4423183
0.6170995 0.63415056 0.77991503 0.47984013 0.517309 0.3215299 0.40299723 0.6421358

layer1.1.bn1.bias f4 [32]
00000000: b002 29bd 13b1 f8bd 6f8a 96bd 098f a83d
00000010: 4e7b 22bd e769 103e 9ed4 393e 6600 f63d
00000020: 498b 213d 3ae0 03bd fd0e 2b3e 3673 d63d
00000030: ac8b d33d 76c5 0b3e f88f 873d bfb7 f4bd
00000040: 5ae9 6a3d da44 253e 1d4b e4bd 0355 783d
00000050: 0b0f fdbb 22eb bcbd 2f75 233e 0013 36bc
00000060: 50ba c2bd 53d0 d0bd 33ac 743d a0a4 10be
00000070: 4fd5 1b3e 2b15 2c3d 8b9d 9d3d 4419 06be
-0.04126233 -0.12143149 -0.07350623 0.08230407 -0.039668374 0.14102899 0.18147513 0.12011795
0.039439473 -0.03219626 0.16704936 0.104711935 0.10329375 0.13649544 0.06619257 -0.11949109
0.057351448 0.16139546 -0.11147139 0.06062795 -0.0077227405 -0.092245355 0.1596267 -0.011112928
-0.095081925 -0.10195985 0.059734534 -0.141253 0.1521809 0.042012375 0.076960646 -0.13095576

layer1.1.bn1.running_mean f4 [32]
00000000: a533 edbb fe83 0ebc 32ba 9f3c 3dbe 9f3a
00000010: a914 efbb d03b 5a3d 0e6a 92bd 1130 cdbd
00000020: e680 8ebb 1a29 c13c b5f3 94bc 7e6a 433c
00000030: e98e c3bc b34c 38bd ce7d c6bd 5363 e63c
00000040: 7af9 e73c fdc8 d2bd f0d1 8e3c 00d8 29bc
00000050: 0e7d 11bd a18c d33d 3bee 233d 6a35 64bd
00000060: 05a1 1b3c 31e8 903d a6bc a73c 216d 043d
00000070: 972a 153d 3b50 c43c cc12 adbc 6c13 19bc
-0.0072388225 -0.008698462 0.019497965 0.0012187433 -0.007296164 0.053279698 -0.071491346 -0.100189336
-0.004348862 0.023579169 -0.018182615 0.011927245 -0.023871856 -0.04499502 -0.09691964 0.028123533
0.028317202 -0.10292242 0.01743409 -0.01036644 -0.035519652 0.10329557 0.040022116 -0.055715002
0.009498839 0.07075537 0.020475697 0.032330636 0.03641757 0.023964038 -0.021127127 -0.009343009

layer1.1.bn1.running_var f4 [32]
00000000: 37c1 793e 2bf9 be3e 6d6c 4f3f fc84 c63e
00000010: 3bd7 d53e c6bc c13e 3322 5b3f 8b8d 063f
00000020: 52fd a43e fc6e 733f 0aab 1e3f 01a8 1f3f
00000030: 3e39 043f 9a1b 793f 76e3 f43e 07ed 103f
00000040: 3466 233f ac4a 493f 0ce2 c03e 1099 583f
00000050: 4a4c c43e fe42 9f3f e89e f33e 48ec c73e
00000060: 9f39 d73e 4c4e 683f e4ce 9d3f 2f1c 573e
00000070: 0d2d 3f3f 8b70 8e3e ae53 0f3f 3c0d 003f
0.24390112 0.37299475 0.8102482 0.38773334 0.4176577 0.37839335 0.8559906 0.5255973
0.32224518 0.95091224 0.61979735 0.6236573 0.51649845 0.9730774 0.4782979 0.56611675
0.63827825 0.78629565 0.3767246 0.84608555 0.38339454 1.2442319 0.47582173 0.39047456
0.4203615 0.9074447 1.2328763 0.21006845 0.7467812 0.27820238 0.5598706 0.50020194
