log/sem_seg/RGB-T__2025-01-14_15-27__SoftLoUloss_DeepPro-Plus_DataL40/checkpoints/best_model.pth (torch, 937131 bytes, 213 tensors)

conv_in.0.weight f4 [8, 1, 5, 7, 7]
-0.08331589 -0.086546116 -0.06540653 -0.112361826 -0.13760565 -0.14870411 -0.15301256 -0.111285
-0.04954705 -0.0025098738 -0.035759386 -0.057108305 -0.0739673 -0.08535407 -0.17408325 -0.05699863
-0.008168769 0.00016558406 -0.0031351177 -0.02103347 -0.042551294 -0.15790996 -0.043214697 -0.032104164
0.06019119 0.020348882 -0.03948286 -0.08340369 -0.09850612 -0.012796559 -0.044304706 -0.053301416
-0.038030494 -0.07637681 -0.11378035 -0.07183468 0.002003968 -0.029724864 -0.061196543 -0.033889197
-0.025012478 -0.03861367 -0.048949067 -0.013865027 -0.02440723 -0.044016138 -0.012131522 -0.035066593
-0.012005052 -0.071439624 -0.056050625 0.006515962 0.0022540058 -0.07190081 -0.06468959 -0.058260288
-0.07130679 -0.008908137 0.03999245 0.020674853 -0.038674556 -0.03235532 -0.032876123 -0.10483245
-0.0044912603 0.015452761 0.006019886 0.022451762 0.029683918 -0.015572427 -0.08126645 0.011980691
-0.030666798 0.10418462 0.18365163 0.104766175 0.018274825 -0.03223567 0.035629153 -0.049318783
-0.04541038 0.1195749 0.09643284 0.027113954 0.0059152907 0.08043991 0.023499176 -0.0028959815
0.050686825 0.05553063 0.058464523 0.041723166 0.09666604 0.102220565 0.07671862 0.06030343
0.02068863 0.048681077 -0.16208073 -0.13345288 -0.065379 -0.028570503 -0.11802112 -0.112994514
-0.08719018 -0.10239635 -0.028160756 0.0271812 0.008459888 -0.06903932 -0.031669877 -0.023562534
-0.1457486 -0.037070524 0.014805443 -0.017185602 -0.042274848 0.029722812 0.01756203 -0.18929471
-0.066227965 -0.012904949 0.16936606 0.09656985 0.10503952 0.057171192 -0.15386957 -0.058269955
-0.050975982 -0.038380414 0.05792941 0.0753576 0.03477375 -0.08412337 -0.013742408 -0.038377207
-0.030095326 0.00038786707 0.023840861 -0.009967958 -0.04627243 -0.00024706064 -0.026133081 -0.009751214
-0.026978122 -0.039862443 -0.060236663 -0.07074564 -0.04699582 -0.030623365 -0.032508433 -0.10266353
-0.1179611 -0.13448168 0.019018287 0.061053783 0.06447146 -0.0014322785 -0.065015115 -0.032191608
-0.05238939 -0.030660758 0.014993278 0.01302725 -0.10173267 -0.108395524 -0.0043595536 -0.011532211
-0.09908254 -0.02029746 0.049729723 0.1356017 -0.024298297 0.040573012 0.017274495 -0.059213568
0.04474761 0.11655947 0.14292346 0.024735639 0.006517363 -0.01478254 0.0066064424 0.045884166
0.054344654 0.04780813 0.0065876176 0.0029392892 -0.065315396 -0.013188474 0.020341186 -0.0018794879
-0.012180246 -0.00869864 -0.043830507 -0.12783056 -0.035194844 -0.035153616 -0.07057516 -0.050130952
-0.048571788 -0.020963991 -0.058650915 -0.021266345 0.019179227 -0.006484949 0.0047331415 0.012510409
0.03132514 -0.030407807 -0.029767599 0.0054228874 -0.031035757 -0.07270521 -0.033446036 0.027044844
-4.4506683e-05 -0.034676608 -0.0051518506 0.010157398 0.14693242 -0.02198069 0.002705901 0.01589047
-0.016767554 0.010555017 0.056692965 0.11621701 0.006750044 -0.028103072 -0.025634782 0.038103398
0.015210874 0.00026163855 -0.0022603585 -0.032789752 -0.02564432 -0.037663557 0.015711829 0.024303094
-0.012201892 -0.017517159 -0.0044622496 -0.0015618115 -0.033618964 -0.010171474 0.02504393 0.051010724
0.037169766 9.2099865e-05 -0.035969596 -0.055119347 -0.0012142983 0.051848214 0.13160557 0.14877538
00000000: 85a1 aabd 173f b1bd dcf3 85bd f51d e6bd
00000010: 7fe8 0cbe e445 18be 53af 1cbe 64e9 e3bd
00000020: d9f1 4abd b27c 24bb 6f78 12bd 66ea 69bd
00000030: 2b7c 97bd 1dce aebd e142 32be 6577 69bd
00000040: 4dd6 05bc a2a0 2d39 8c76 4dbb 624e acbc
00000050: 444a 2ebd 26b3 21be e501 31bd a87f 03bd
00000060: 0a8b 763d b3b2 a63c c8b8 21bd 8ecf aabd
00000070: 94bd c9bd a9a8 51bc da78 35bd 9652 5abd
00000080: ddc5 1bbd 726b 9cbd ac05 e9bd 101e 93bd
00000090: 0155 033b 8f81 f3bc 3aa9 7abd 66cf 0abd
000000a0: f8e6 ccbc 5e29 1ebd d17e 48bd 232a 63bc
000000b0: acf1 c7bc 444a 34bd 4bc3 46bc fda1 0fbd
000000c0: d6b0 44bc f04e 92bd 5795 65bd da83 d53b
000000d0: f1b7 133b bb40 93bd fa7b 84bd 57a2 6ebd
000000e0: 4b09 92bd 6ff3 11bc 20cf 233d 4f5e a93c
000000f0: 3669 1ebd 0387 04bd 1da9 06bd 65b2 d6bd
00000100: 6c2b 93bb 942d 7d3c 7742 c53b c2ec b73c
00000110: b02b f33c 7e23 7fbc 066f a6bd a94a 443c
00000120: f038 fbbc bf5e d53d 2c0f 3c3e a68f d63d
00000130: 16b5 953c 8d09 04bd e0ef 113d 7e02 4abd
00000140: 3c00 3abd afe3 f43d 957e c53d 151e de3c
00000150: 0ed5 c13b aebd a43d 5881 c03c 82ca 3dbb
00000160: fd9c 4f3d 1674 633d 7f78 6f3d e9e5 2a3d
00000170: d8f8 c53d 0459 d13d a71e 9d3d bb00 773d
00000180: 347b a93c cf65 473d 7ef8 25be dfa7 08be
00000190: 6de5 85bd b00c eabc 0fb5 f1bd ab69 e7bd
000001a0: c490 b2bd 2db5 d1bd 63b1 e6bc 1cab de3c
000001b0: 589b 0a3c 7d64 8dbd 46b8 01bd 3706 c1bc
000001c0: 1f3f 15be 43d7 17bd 8792 723c d2c8 8cbc
000001d0: 6428 2dbd 417d f33c 3fde 8f3c 79d6 41be
000001e0: 87a2 87bd 476f 53bc 4c6e 2d3e 6ac6 c53d
000001f0: f61e d73d 572c 6a3d fc8f 1dbe 7aac 6ebd
00000200: 31cc 50bd c834 1dbd 6447 6d3d 1655 9a3d
00000210: eb6e 0e3d e048 acbd d627 61bc 6b31 1dbd
00000220: 798a f6bc a35a cb39 e94d c33c a550 23bc
00000230: 2988 3dbd eb87 81b9 0b15 d6bc 8ec3 1fbc
00000240: 3901 ddbc cd46 23bd b8ba 76bd 17e3 90bd
00000250: b07e 40bd dadd fabc 9027 05bd 4241 d2bd
00000260: 9795 f1bd 91b5 09be 3dcc 9b3c 8813 7a3d
00000270: 9d09 843d 4bbb bbba a526 85bd 59db 03bd
00000280: 4296 56bd 452c fbbc 5ea6 753c 3f70 553c
00000290: 3859 d0bd 79fe ddbd 96da 8ebb 99f1 3cbc
000002a0: c9eb cabd dc46 a6bc 65b1 4b3d 2cdb 0a3e
000002b0: 390d c7bc e32f 263d 3e83 8d3c ed89 72bd
000002c0: 4549 373d bbb6 ee3d 875a 123e 65a2 ca3c
000002d0: 9a8f d53b 7732 72bc db7a d83b 09f1 3b3d
000002e0: 8098 5e3d 75d2 433d f1dc d73b 17a1 403b
000002f0: 14c4 85bd 7814 58bc 8fa2 a63c 2659 f6ba
00000300: a88f 47bc be84 0ebc 9e87 33bd 04e6 02be
00000310: 7828 10bd 3dfd 0fbd b689 90bd 1d56 4dbd
00000320: 36f3 46bd adbc abbc f13b 70bd c236 aebc
00000330: c11d 9d3c b27f d4bb 7818 9b3b 75f8 4c3c
00000340: ca4e 003d cb19 f9bc 2edb f3bc 7ab2 b13b
00000350: b33e febc 78e6 94bd b6fe 08bd 268d dd3c
00000360: b0ac 3ab8 0f09 0ebd dbd0 a8bb 376b 263c
00000370: 7475 163e d910 b4bc 7c55 313b bb2c 823c
00000380: 1c5c 89bc f3ee 2c3c e236 683d 2f03 ee3d
00000390: 792f dd3b 6a38 e6bc 0900 d2bc 4f12 1c3d
000003a0: 0837 793c 882c 8939 8622 14bb 8c4e 06bd
000003b0: 0914 d2bc 1a45 1abd 18b6 803c 4817 c73c
000003c0: 72ea 47bc 2580 8fbc 1038 92bb b3b5 ccba
000003d0: 0ab4 09bd 41a6 26bc ee28 cd3c 9ff0 503d
000003e0: 533f 183d bd25 c138 db54 13bd d3c4 61bd
000003f0: 1729 9fba cb5e 543d 9cc3 063e 9358 183e

conv_in.0.bias f4 [8]
8.594225e-05 1.857948e-05 -3.384514e-05 -5.9297545e-06 -9.2527865e-05 9.412272e-05 4.959119e-05 -5.4107146e-05
00000000: e53b b438 21db 9b37 f1f4 0db8 34f8 c6b6
00000010: 850b c2b8 c063 c538 2300 5038 1bf1 62b8

conv_in.1.weight f4 [8]
0.6058116 0.54257715 0.6894943 0.6064031 0.6139703 0.6216655 0.686754 0.71401656
00000000: 7816 1b3f 56e6 0a3f b382 303f 3c3d 1b3f
00000010: 282d 1d3f 7825 1f3f 1ccf 2f3f cac9 363f

conv_in.1.bias f4 [8]
-0.008101677 -0.032780748 -0.24539028 -0.24186566 -0.03521208 0.0780029 -0.095486976 0.005189026
00000000: e5bc 04bc 1b45 06bd 9747 7bbe a2ab 77be
00000010: 8b3a 10bd fcbf 9f3d ad8e c3bd b408 aa3b

conv_in.1.running_mean f4 [8]
-0.085686475 -0.03872715 -0.030486945 0.08852266 -0.03427582 0.029566916 0.03178877 0.044583306
00000000: 647c afbd 5ca0 1ebd c2bf f9bc 5e4b b53d
00000010: cd64 0cbd 5136 f23c f134 023d fc9c 363d

conv_in.1.running_var f4 [8]
1.0885127 1.4878957 0.8135683 0.88969207 0.8565788 1.9991858 1.9178978 1.2804266
00000000: 6254 8b3f 5e73 be3f 0346 503f dcc2 633f
00000010: c048 5b3f 52e5 ff3f ad7d f53f 05e5 a33f

layer1.0.conv1.weight f4 [16, 8, 3, 3, 3]
0.07109319 0.0661715 0.07836357 0.108278066 -0.0057210824 -0.0226199 0.07596991 -0.02275365
-0.065858014 -0.04200203 -0.08837391 -0.07995876 0.0013006856 0.023657488 0.010671875 0.016884645
0.0045087677 -0.051398825 -0.010879767 0.0462507 0.026745742 -0.08742454 -0.0247896 -0.0029483847
-0.093140505 -0.0035694954 0.094739266 0.08175421 0.124449 0.085718974 0.058732722 0.050690923
0.11886039 0.09805881 0.037242122 0.109527424 -0.07737633 -0.105415694 -0.037353627 -0.078087196
-0.031027744 -0.012015444 -0.15696701 -0.031074924 -0.04997364 0.029569572 0.002742058 -0.033000212
0.0261559 -0.006037959 -0.065941304 0.052318726 0.012640516 -0.022002274 0.081840605 0.08606959
0.07806048 0.063270345 0.043135967 0.034051232 0.082812704 0.061079875 0.055217706 -0.077239886
-0.021654673 0.07005421 -0.07249826 0.058269348 0.101753555 -0.04122147 0.048553865 0.022592077
0.00265094 -0.059142243 -0.15699162 0.02639886 -0.096113004 -0.14346571 -0.023200339 -0.090588786
-0.07018332 0.04192178 -0.043110978 -0.11128705 -0.017287392 -0.0728406 -0.08767358 -0.08722631
-0.13108128 -0.04932884 -0.014243043 0.039796058 0.03664502 -0.012455174 0.038342603 0.05419186
0.010928943 0.10710966 0.015084805 -0.014846955 0.013213836 0.063193135 0.04265907 0.04189872
0.03516854 0.1014962 0.028195268 0.039221082 0.13568516 0.09322084 0.10701732 0.06708101
0.07340167 0.099924706 0.035612293 0.14341412 0.101483 -0.12637685 -0.09667679 -0.060174353
-0.17625865 -0.092580855 -0.023207257 -0.14293976 -0.15002266 -0.08627404 0.00831857 0.015791593
-0.032722898 0.152365 0.030747134 -0.059205215 0.1370416 0.021322427 -0.0009544136 -0.017372673
-0.0008599596 -0.06698696 0.008189737 -0.014001321 -0.05941741 0.00029000637 0.0049818265 -0.031731695
0.04292297 0.013805612 0.056964718 0.045989018 0.012681874 0.083640076 0.026049882 0.0064549036
0.049478922 -0.025519766 -0.0023003595 -0.0030991235 -0.07713713 -0.006974125 -0.03583269 -0.047041055
0.006310507 -0.01669335 -0.0828072 -0.10814187 0.070728764 0.012324906 -0.09029244 0.068535306
0.14506027 0.043433353 0.046340283 0.024602748 0.07290289 0.014692242 0.06478568 0.12620886
0.03900294 0.081443444 0.061791513 0.039320342 0.06507691 0.00952248 -0.060251128 -0.0813973
-0.060461093 -0.08804697 -0.22255814 -0.11178438 -0.081057586 0.09656793 -0.045837235 -0.04727626
0.16149956 0.07968777 0.0873676 0.077578746 0.04162089 0.09872713 0.07399626 0.08797573
0.069671005 -0.010646166 0.027153578 0.022003878 0.010314362 0.08876051 0.030970987 -0.15663363
-0.05523342 -0.03340796 -0.16528066 -0.11066105 -0.12013253 -0.08109515 -0.15571918 -0.13586093
-0.023841253 -0.04628739 -0.06828415 0.04097899 -0.0193863 -0.050807383 0.001945449 -0.06996065
-0.044696033 0.037343662 0.04996547 0.008282562 -0.042347215 -0.0121879615 -0.0041931253 -0.006867414
0.022004496 0.006133282 0.0032228744 0.003284819 0.07294801 0.023173155 0.045167774 0.05886582
0.004848173 0.039836496 0.038733907 0.04846903 0.047874946 0.06434743 -0.014870692 -0.055617202
-0.05369358 -0.010372268 -0.06596763 -0.12896715 0.003926497 0.0039972537 0.0072447797 0.011415666
00000000: 4e99 913d ec84 873d 147d a03d e4c0 dd3d
00000010: eb77 bbbb 5e4d b9bc 1d96 9b3d dd65 babc
00000020: 91e0 86bd 520a 2cbd 61fd b4bd 6bc1 a3bd
00000030: c47b aa3a 59cd c13c 17d9 2e3c ab51 8a3c
00000040: 49be 933b 9387 52bd 0d41 32bc 6071 3d3d
00000050: e319 db3c a30b b3bd 8f13 cbbc b039 41bb
00000060: 73c0 bebd 32ee 69bb a906 c23d c06e a73d
00000070: 1edf fe3d 6e8d af3d b991 703d 49a1 4f3d
00000080: 136d f33d 0fd3 c83d 328b 183d ea4f e03d
00000090: 7b77 9ebd 2fe4 d7bd 1e00 19bd 2eec 9fbd
000000a0: e52d febc 6ddc 44bc f6bb 20be d790 febc
000000b0: 29b1 4cbd e33b f23c 19b4 333b 3b2b 07bd
000000c0: e644 d63c 12da c5bb 3c0c 87bd 294c 563d
000000d0: 2b1a 4f3c 1d3e b4bc 0c9c a73d 4145 b03d
000000e0: 2cde 9f3d e293 813d 57af 303d 4e79 0b3d
000000f0: b599 a93d e42e 7a3d f62b 623d f22f 9ebd
00000100: 2465 b1bc 9578 8f3d f879 94bd d7ab 6e3d
00000110: 2b64 d03d d8d7 28bd 6be0 463d 0513 b93c
00000120: 65bb 2d3b 233f 72bd 69c2 20be 6c42 d83c
00000130: e5d6 c4bd ade8 12be a30e bebc 9d86 b9bd
00000140: 46bc 8fbd 2cb6 2b3d 2395 30bd 77ea e3bd
00000150: 4a9e 8dbc 742d 95bd 358e b3bd b5a3 b2bd
00000160: 2c3a 06be 0a0d 4abd a75b 69bc 3101 233d
00000170: 1719 163d c910 4cbc 220d 1d3d 49f8 5d3d
00000180: 4f0f 333c 4f5c db3d 4226 773c a540 73bc
00000190: d87e 583c 676b 813d 47bb 2e3d fe9d 2b3d
000001a0: e30c 103d 3ddd cf3d c3f9 e63c 49a6 203d
000001b0: 0df1 0a3e 91ea be3d e62b db3d c561 893d
000001c0: 9d53 963d 53a5 cc3d 32de 113d 27db 123e
000001d0: 52d6 cf3d ef68 01be 7bfe c5bd 6279 76bd
000001e0: 267d 34be 089b bdbd 251d bebc cd5e 12be
000001f0: 8a9f 19be 72b0 b0bd 9d4a 083c 5f5d 813c
00000200: 7208 06bd 9205 1c3e 6ae1 fb3c 2b81 72bd
00000210: a254 0c3e 5fac ae3c 9d31 7aba 2351 8ebc
00000220: e96e 61ba 7630 89bd 3f2e 063c cc65 65bc
00000230: ac5f 73bd ff0b 9839 973e a33b 18f9 01bd
00000240: ffcf 2f3d ef30 623c d653 693d fb5e 3c3d
00000250: a3c7 4f3c 7d4b ab3d 9066 d53c a883 d33b
00000260: 69aa 4a3d d40e d1bc a1c1 16bb aa1a 4bbb
00000270: 12fa 9dbd 3387 e4bb 4cc5 12bd 1fae 40bd
00000280: 5fc8 ce3b 7ec0 88bc d296 a9bd 7c79 ddbd
00000290: 3eda 903d 67ee 493c 3eeb b8bd 3d5c 8c3d
000002a0: ae8a 143e 2ce7 313d 4fcf 3d3d b48b c93c
000002b0: 1c4e 953d bbb7 703c 5bae 843d e53c 013e
000002c0: 8cc1 1f3d d2cb a63d 1919 7d3d 5e0e 213d
000002d0: 0b47 853d 2d04 1c3c e3c9 76bd a1b3 a6bd
000002e0: 0da6 77bd f851 b4bd 48e6 63be 36ef e4bd
000002f0: 8501 a6bd 68c5 c53d d3bf 3bbd c0a4 41bd
00000300: 2460 253e 5733 a33d c9ed b23d 9be1 9e3d
00000310: ab7a 2a3d 7331 ca3d 5a8b 973d 9f2c b43d
00000320: acaf 8e3d 426d 2ebc 2e71 de3c 7a41 b43c
00000330: 92fd 283c 12c8 b53d deb6 fd3c 9164 20be
00000340: 703c 62bd c9d6 08bd 553f 29be 43a2 e2bd
00000350: 0b08 f6bd 3715 a6bd d974 1fbe 211f 0bbe
00000360: bb4e c3bc d997 3dbd 8fd8 8bbd 96d9 273d
00000370: 05d0 9ebc 671b 50bd 70fe fe3a 8747 8fbd
00000380: 3013 37bd abf5 183d 98a8 4c3d 95b3 073c
00000390: 4674 2dbd 04b0 47bc 7c66 89bb 0b08 e1bb
000003a0: c642 b43c b3f9 c83b dc36 533b 1e46 573b
000003b0: c465 953d a1d5 bd3c d801 393d 491d 713d
000003c0: 6cdd 9e3b 982b 233d 72a7 1e3d 7687 463d
000003d0: 8518 443d 96c8 833d 34a4 73bc ddce 63bd
000003e0: cded 5bbd 72f0 29bc 091a 87bd f70f 04be
000003f0: d8a9 803b 65fb 823b 9e65 ed3b c608 3b3c

layer1.0.conv1.bias f4 [16]
-6.040951e-07 9.479151e-05 -2.6610549e-05 4.825869e-05 6.2900646e-05 0.00010473933 0.00013543098 1.4240462e-05
0.00013596473 -4.0508472e-05 3.3422864e-05 4.4815435e-05 -7.720978e-05 1.9908036e-06 -6.1522274e-05 4.150415e-05
00000000: 1929 22b5 ceca c638 b839 dfb7 6069 4a38
00000010: 87e9 8338 80a7 db38 7a02 0e39 52ea 6e37
00000020: c191 0e39 a4e7 29b8 872f 0c38 35f8 3b38
00000030: afeb a1b8 bf99 0536 8505 81b8 be14 2e38

layer1.0.bn1.weight f4 [16]
0.72656876 0.53229547 0.47036347 0.59103096 0.6151665 0.5685087 0.5424565 0.6118007
0.5133645 0.59169835 0.58800334 0.5751957 0.63947916 0.5713744 0.53160244 0.6459725
00000000: 6900 3a3f 8444 083f 7bd3 f03e ce4d 173f
00000010: 8d7b 1d3f c989 113f 6ede 0a3f f89e 1c3f
00000020: db6b 033f 8b79 173f 6387 163f 0740 133f
00000030: e8b4 233f 9845 123f 1917 083f 745e 253f

layer1.0.bn1.bias f4 [16]
-0.20309743 -0.08923962 -0.049790688 0.049486946 -0.13532192 0.055626832 0.038370863 -0.19904946
-0.0059547946 -0.054685563 -0.09908573 -0.14986755 0.2597667 -0.007208346 -0.13153602 -0.12831643
00000000: c6f8 4fbe 43c3 b6bd 52f1 4bbd d3b2 4a3d
00000010: d491 0abe f6d8 633d c42a 1d3d 9fd3 4bbe
00000020: 7020 c3bb f8fd 5fbd 76ed cabd e176 19be
00000030: 2400 853e fd33 ecbb 61b1 06be 6265 03be

layer1.0.bn1.running_mean f4 [16]
-0.003787586 0.015309124 -0.0086384 0.0028515554 0.026821297 0.02767749 -0.01415105 0.021658089
-0.016385676 -0.020278819 -0.041368295 0.0014610119 -0.06573895 0.007821331 -0.010134269 -0.010213787
00000000: 2639 78bb 1fd3 7a3c 1388 0dbc 29e1 3a3b
00000010: 56b8 db3c e7bb e23c ced9 67bc 4e6c b13c
00000020: 413b 86bc c41f a6bc cd71 29bd 6d7f bf3a
00000030: 25a2 86bd 0a25 003c 340a 26bc ba57 27bc

layer1.0.bn1.running_var f4 [16]
0.09085349 0.084142335 0.053137004 0.055191092 0.08139383 0.0708936 0.06352286 0.077026166
0.049658358 0.062942 0.08844134 0.0660324 0.16744956 0.037369173 0.10621307 0.07387226
00000000: 6511 ba3d d152 ac3d 30a6 593d 0e10 623d
00000010: cfb1 a63d aa30 913d 4618 823d e5bf 9d3d
00000020: 9066 4b3d bce7 803d bc20 b53d ff3b 873d
00000030: e677 2b3e 6b10 193d 3d86 d93d 574a 973d

layer1.0.conv2.weight f4 [16, 16, 3, 3, 3]
-0.033854496 -0.031208586 -0.03171701 0.07615283 -0.15256634 0.11415773 0.08757752 0.044294573
0.030081304 -0.03992116 -0.027973 -0.047712404 0.083078 -0.14295389 0.13541427 0.04542359
0.07422561 0.03164416 -0.0058114966 0.08384785 -0.099008754 0.08341547 -0.07865422 0.01380565
0.053866368 0.07679561 0.04557347 0.017299213 -0.07947407 0.014723857 0.019262651 -0.094613455
0.046752017 0.07269922 0.014092403 0.011323824 -0.070247695 -0.041290578 -0.0025159693 -0.0016689996
-0.1410827 0.056558035 0.06036452 0.04488985 0.01671953 -0.07284724 0.039522294 -0.03922001
0.073213965 -0.108083196 0.050387163 0.119946815 0.051834803 0.026770515 0.043463457 -0.0094291335
-0.037149485 0.08766397 -0.04222307 0.008930545 0.053205147 -0.044379916 -0.07634438 -0.0059306254
-0.014085955 -0.06815526 0.03810371 -0.067140274 -0.025676738 0.10042149 -0.010911084 -0.0710812
0.039470777 0.047561403 -0.011221139 0.051659904 -0.029219188 0.0023586547 0.12789848 0.077983305
-0.027238727 0.018430458 -0.0044485554 -0.13826156 0.0336592 -0.113265075 -0.1006161 0.062944174
-0.028409328 -0.007126214 0.0062395646 -0.0012662114 -0.07350561 0.045027815 -0.12044788 -0.029728938
0.09708417 0.03536774 -0.07368097 -0.03658795 0.056121822 -0.0048198993 0.09636272 -0.07414975
-0.022258403 0.15773124 0.042851698 -0.08247556 -0.090503536 0.046983507 -0.042920835 0.00646836
-0.1052976 -0.014577948 0.06056312 -0.09054428 0.027039252 -0.07352095 0.048573643 -0.01170417
-0.048558228 -0.17516321 -0.12368818 0.02181401 0.07377858 0.032004684 0.001540339 -0.03281865
-0.043428253 0.029730385 -0.14721638 -0.17053454 0.060312998 0.051804632 0.011191107 -0.051879365
0.04675932 0.008622892 0.016823558 -0.108944066 0.021370258 -0.020953573 -0.043794263 0.044895526
-0.031741895 -0.0024134577 -0.045478866 -0.05770551 -0.15253444 -0.021379806 -0.05483861 -0.021816533
0.04265123 -0.010608309 0.01564113 -0.032159664 -0.14410193 -0.12199735 -0.012692212 -0.05913927
-0.0074366704 0.06626229 -0.062458444 -0.017477272 0.07355545 -0.019489838 -0.15303627 -0.027600082
-0.00013960084 0.060306586 0.06501584 -0.075147435 -0.07197922 0.026511507 -0.013220819 -0.1236697
-0.048646577 0.04284628 0.021217244 0.07671725 -0.16275123 -0.18776688 0.033134244 -0.0729091
-0.1118089 -0.066810295 -0.07666361 -0.037643313 0.06132411 0.07467922 0.04654179 0.06433008
0.1278444 -0.08518661 0.04264496 0.11335831 -0.03670656 0.0901141 0.025838627 0.052246187
0.018020125 0.04938667 -0.14410987 -0.05252331 0.07016034 0.03220431 0.041850906 0.027172746
0.053865347 -0.048751835 0.071182884 -0.14127731 -0.11169599 0.13556568 0.020258114 0.007589963
-0.0061211507 -0.020671852 0.02212842 0.01809333 -0.08954498 0.06297746 0.00084758725 0.008232532
0.04879639 -0.016990697 -0.022812707 0.04604109 0.019063588 -0.092674665 0.08536344 -0.01384656
-0.04421491 0.017507438 -0.020115353 -0.07378671 0.03892859 0.010172032 -0.06351815 0.05960311
-0.035884764 -0.006311226 0.034519583 0.0624599 0.06554251 0.06644507 0.017753532 0.018217858
0.061275937 -0.0076589696 -0.055237994 -0.06579775 0.044602115 0.06547338 0.026141865 0.016808892
00000000: 03ab 0abd 26a9 ffbc b2e9 01bd 04f6 9b3d
00000010: 5a3a 1cbe 87cb e93d d85b b33d 3a6e 353d
00000020: 116d f63c 5f84 23bd a227 e5bc 156e 43bd
00000030: cc24 aa3d 8162 12be 0aaa 0a3e 160e 3a3d
00000040: 9903 983d 4f9d 013d 5e6e bebb 6cb8 ab3d
00000050: 1ac5 cabd bbd5 aa3d 7715 a1bd 1831 623c
00000060: fba2 5c3d 0447 9d3d 3fab 3a3d 14b7 8d3c
00000070: 4dc3 a2bd 553c 713c b5cc 9d3c b3c4 c1bd
00000080: 0b7f 3f3d 54e3 943d d3e3 663c 8f87 393c
00000090: 06de 8fbd 4f20 29bd f6e2 24bb 55c2 daba
000000a0: fc77 10be 66a9 673d c940 773d 6bde 373d
000000b0: 65f7 883c ef30 95bd 21e2 213d 29a5 20bd
000000c0: 34f1 953d b95a ddbd c562 4e3d ada6 f53d
000000d0: bb50 543d d74d db3c bd06 323d a77c 1abc
000000e0: 0f2a 18bd 2b89 b33d 19f2 2cbd 6c51 123c
000000f0: a4ed 593d b7c7 35bd 715a 9cbd b155 c2bb
00000100: c7c8 66bc fc94 8bbd a312 1c3d d780 89bd
00000110: 0658 d2bc c8a9 cd3d 67c4 32bc 0593 91bd
00000120: 1cac 213d bfcf 423d ded8 37bc 5699 533d
00000130: 145d efbc a993 1a3b d2f7 023e b6b5 9f3d
00000140: c023 dfbc 79fb 963c 30c5 91bb 7094 0dbe
00000150: 3bde 093d 85f7 e7bd d00f cebd e0e8 803d
00000160: aeba e8bc 0483 e9bb 4375 cc3b 01f7 a5ba
00000170: 1c8a 96bd 166f 383d 61ad f6bd 1a8a f3bc
00000180: 11d4 c63d c3dd 103d 0ce6 96bd 3fdd 15bd
00000190: ffdf 653d 3ff0 9dbb d159 c53d d3db 97bd
000001a0: 4157 b6bc 4c84 213e 4385 2f3d f2e8 a8bd
000001b0: eb59 b9bd c771 403d c2cd 2fbd 89f4 d33b
000001c0: 45a6 d7bd 58d8 6ebc 0911 783d 486f b9bd
000001d0: 6c81 dd3c 2792 96bd 28f5 463d d9c2 3fbc
000001e0: fee4 46bd fc5d 33be 3b50 fdbd 4bb3 b23c
000001f0: 3919 973d 5817 033d 33e5 c93a d96c 06bd
00000200: d3e1 31bd 238d f33c e4bf 16be 9ba0 2ebe
00000210: c30a 773d 1831 543d e85a 373c 757f 54bd
00000220: b386 3f3d 0847 0d3c 8fd1 893c 111e dfbd
00000230: ae10 af3c d4a6 abbc 9d61 33bd 5fe4 373d
00000240: ca03 02bd 1a2b 1ebb 0c48 3abd 9d5c 6cbd
00000250: fd31 1cbe b424 afbc 739e 60bd 96b8 b2bc
00000260: 0eb3 2e3d 79ce 2dbc d421 803c dab9 03bd
00000270: 758f 13be bfd9 f9bd fff2 4fbc 053c 72bd
00000280: 50af f3bb 86b4 873d 6dd4 7fbd 7f2c 8fbc
00000290: 3da4 963d 27a9 9fbc 8ab5 1cbe 9119 e2bc
000002a0: d161 12b9 0a04 773d 0627 853d e6e6 99bd
000002b0: d769 93bd a92e d93c 229c 58bc 8a46 fdbd
000002c0: a241 47bd 957f 2f3d c9cf ad3c ef1d 9d3d
000002d0: 42a8 26be f645 40be c6b7 073d 5e51 95bd
000002e0: 11fc e4bd d6d3 88bd d001 9dbd e02f 1abd
000002f0: fd2e 7b3d 6bf1 983d 9ba2 3e3d 7dbf 833d
00000300: a4e9 023e 5176 aebd 7bac 2e3d 6728 e83d
00000310: 9e59 16bd be8d b83d 87ab d33c 1900 563d
00000320: f19e 933c ad49 4a3d 8a91 13be af22 57bd
00000330: 39b0 8f3d abe8 033d db6b 2b3d 6199 de3c
00000340: e9a1 5c3d 01b0 47bd 55c8 913d 00ab 10be
00000350: dec0 e4bd bbd1 0a3e 58f4 a53c 39b5 f83b
00000360: ef93 c8bb 0458 a9bc a946 b53c 7738 943c
00000370: 5c63 b7bd 54fa 803d 9e30 5e3a bee1 063c
00000380: b9de 473d 1330 8bbc b7e1 babc 9595 3c3d
00000390: 3e2b 9c3c 37cc bdbd 07d3 ae3d afdc 62bc
000003a0: b21a 35bd c26b 8f3c f4c8 a4bc 7d1d 97bd
000003b0: 9673 1f3d 98a8 263c ce15 82bd 6422 743d
000003c0: e7fb 12bd 67ce cebb 6864 0d3d f4d5 7f3d
000003d0: 273b 863d 5a14 883d db6f 913c 9e3d 953c
000003e0: 7afc 7a3d 18f8 fabb 3c41 62bd f9c0 86bd
000003f0: b5b0 363d e816 863d 7727 d63c cdb2 893c

layer1.0.conv2.bias f4 [16]
3.6450492e-05 -5.1433617e-05 -5.877329e-05 2.9419612e-05 -2.823674e-05 -2.8804621e-05 1.4766431e-05 1.995558e-05
-4.794617e-05 2.7415352e-05 1.3350431e-05 -7.431763e-05 -1.8202333e-06 -2.1108117e-05 -0.0001102852 -0.00011434141
00000000: 6be2 1838 6dba 57b8 5783 76b8 23ca f637
00000010: f0dd ecb7 74a1 f1b7 57bd 7737 4866 a737
00000020: cf19 49b8 05fa e537 aafb 5f37 f9da 9bb8
00000030: bd4e f4b5 5611 b1b7 ea48 e7b8 94ca efb8

layer1.0.bn2.weight f4 [16]
0.5675863 0.46747196 0.47539252 0.49029076 0.52664995 0.5180946 0.48091963 0.5950567
0.49382353 0.5205694 0.59642637 0.637495 0.50527066 0.5681175 0.56675553 0.71952504
00000000: 564d 113f 7c58 ef3e a666 f33e 6407 fb3e
00000010: 88d2 063f d9a1 043f 193b f63e a355 183f
00000020: 70d6 fc3e 0944 053f 66af 183f df32 233f
00000030: 6b59 013f 2670 113f e416 113f cb32 383f

layer1.0.bn2.bias f4 [16]
-0.13192709 0.08433687 0.014721515 -0.0458673 -0.15935025 -0.040409278 -0.13817982 -0.12080772
-0.14012973 -0.14137943 -0.1312747 -0.10870591 -0.20213825 -0.08334938 0.09878445 -0.1507309
00000000: e517 07be cfb8 ac3d 8232 713c 5adf 3bbd
00000010: b62c 23be 3384 25bd 037f 0dbe 0a6a f7bd
00000020: 2b7e 0fbe c5c5 10be e06c 06be 34a1 debd
00000030: 54fd 4ebe 14b3 aabd 804f ca3d 3359 1abe

layer1.0.bn2.running_mean f4 [16]
-0.49188706 -0.28319892 -0.2881691 -0.33509588 -0.36822158 -0.36585483 -0.19966695 -0.57088304
-0.40973136 -0.36935082 0.5237756 -0.5699041 -0.41408157 -0.4977031 -0.4335535 -0.55567455
00000000: 9fd8 fbbe 73ff 90be e68a 93be b091 abbe
00000010: 8a87 bcbe 5351 bbbe 7e75 4cbe 6425 12bf
00000020: 4fc8 d1be 8d1b bdbe 2816 063f 3ce5 11bf
00000030: 8002 d4be f1d2 febe b9fa ddbe b040 0ebf

layer1.0.bn2.running_var f4 [16]
1.0408478 0.82869333 0.5200121 0.885109 0.63888407 0.830661 0.50436527 1.2534969
0.92999405 0.71770674 0.74320817 1.1316273 0.91646606 0.8349888 1.0257982 1.3240502
00000000: 803a 853f 3f25 543f 831f 053f 8196 623f
00000010: e88d 233f 33a6 543f 151e 013f 9672 a03f
00000020: 1714 6e3f a1bb 373f e442 3e3f 2ad9 903f
00000030: 859d 6a3f d3c1 553f 5b4d 833f 7a7a a93f

layer1.0.conv3.weight f4 [16, 16, 1, 1, 1]
0.005827876 -0.07767821 -0.046549227 0.11663623 0.010516715 -0.13841681 -0.033492904 -0.04579011
0.029724272 0.0004005239 -0.064303026 -0.20176616 -0.029246898 0.11012224 0.14496617 0.21888128
0.08395955 -0.09311845 0.05711417 -0.06745254 0.13560033 0.033325452 -0.004353557 -0.11022054
0.06960865 0.0690744 -0.124764346 -0.05627342 -0.010620325 0.16410488 -0.025774999 0.22269726
0.057650153 -0.062567405 -0.07947856 0.0065845726 0.11327842 0.07546252 -0.08890735 0.083521575
0.11485816 0.06628163 -0.10001531 0.054328326 0.085978456 0.070157 0.022394566 0.21356589
-0.07836547 0.021577617 -0.008332578 0.006886551 -0.08066622 0.060338307 -0.09674425 0.08989132
0.05524052 -0.1367374 -0.13241637 0.060172696 0.010867224 -0.10592865 0.020339938 0.06172777
-0.07907838 -0.16143495 0.06891584 -0.08173463 -0.027905477 -0.088252015 0.06356982 0.05946226
-0.18948723 -0.18474741 -0.04522024 0.16753723 -0.08438569 0.1487249 -0.073581845 0.09259599
-0.15914698 0.04106184 -0.014810249 -0.08916801 -0.052157655 0.014876863 -0.011031259 0.13641042
-0.0064072027 -0.06716723 -0.13179338 0.14418855 0.056414932 0.11420387 0.01762563 0.04537794
-0.14040697 0.018352358 -0.0605942 0.048239674 -0.24017167 -0.06907465 -0.030441599 0.015092532
-0.032451835 -0.042458635 0.0005773554 -0.054249134 -0.22555426 0.030129217 0.020424122 -0.016299238
-0.10844178 -0.09449386 -0.009669597 -0.08709949 0.06783624 0.046113804 -0.0033113246 0.07427012
0.116809 -0.11770979 -0.04490464 -0.081897855 0.10030447 -0.14115728 -0.1342378 -0.24072467
-0.13709268 0.094799735 -0.027797092 0.020380555 0.013797384 -0.1764242 -0.1505109 -0.031151325
0.14250201 -0.008657918 0.027300265 -0.015350627 -0.04655089 -0.020351784 0.020128574 -0.20036925
0.029881239 0.13100074 -0.018878317 0.035052862 -0.080758244 -0.09694018 0.0043531223 0.033303868
-0.067289464 -0.113660954 -0.09090737 -0.061365966 -0.19240735 0.03814898 0.0273152 0.0065893834
-0.12281832 -0.0025678065 -0.006645115 -0.08652857 -0.19558984 -0.04225968 0.013377778 0.0890239
-0.010384889 -0.045229085 -0.07667597 -0.021617904 -0.22184364 -0.00578854 0.024337362 -0.050134692
-0.11704031 -0.006560204 -0.096400335 -0.11288053 -0.04282557 0.050631132 -0.069156095 0.17838296
0.08809088 -0.06393973 -0.06649749 0.1816589 0.07119566 0.044269342 -0.05350747 -0.037163123
0.15466776 -0.13560505 0.029192002 -0.080311164 0.04577219 -0.011683411 -0.048960704 0.18375176
-0.1133823 0.02385083 -0.04770775 0.11689508 0.111309916 0.051166836 -0.21135847 0.14407781
0.16370477 -0.08901775 -0.052814208 -0.05197772 0.05290566 -0.15651003 -0.06485237 -0.04463345
-0.044605885 0.0031927577 -0.043627303 -0.14507765 0.050682534 0.08400884 -0.08424334 0.23649964
0.008715993 -0.15676862 -0.06836649 -0.120119855 0.05775653 0.1221092 -0.05531662 0.11937612
-0.017399179 0.11317872 -0.07905585 0.06817712 0.08485274 -0.07448183 -0.12515113 0.12746637
0.10002014 0.07132875 -0.041627057 0.12553495 -0.038718034 0.028985882 -0.060951497 0.024415277
0.11628779 -0.074854985 -0.091295004 0.11884538 0.05100438 -0.16722767 -0.14961855 0.13604447
00000000: c4f7 be3b c115 9fbd 67aa 3ebd fade ee3d
00000010: 4d4e 2c3c 23bd 0dbe db2f 09bd 698e 3bbd
00000020: 5180 f33c 68fd d139 4eb1 83bd ca9b 4ebe
00000030: 3197 efbc c587 e13d 0372 143e 6a22 603e
00000040: fcf2 ab3d e3b4 bebd 8cf0 693d 8f24 8abd
00000050: d0da 0a3e 4580 083d 48a8 8ebb 4ebb e1bd
00000060: fb8e 8e3d e176 8d3d 7384 ffbd f57e 66bd
00000070: df00 2ebc 1c0b 283e 1726 d3bc c00a 643e
00000080: 9122 6c3d 5723 80bd a8c5 a2bd 66c3 d73b
00000090: 84fe e73d 188c 9a3d 0f15 b6bd 5c0d ab3d
000000a0: c13a eb3d aabe 873d d4d4 ccbd 6187 5e3d
000000b0: 7915 b03d 79ae 8f3d cf74 b73c 04b1 5a3e
000000c0: 137e a0bd 8bc3 b03c 5e85 08bc 94a8 e13b
000000d0: 5534 a5bd 4d25 773d d921 c6bd f118 b83d
000000e0: e243 623d e404 0cbe 2898 07be a577 763d
000000f0: 710c 323c 1ff1 d8bd f19f a63c 42d6 7c3d
00000100: d8f3 a1bd 344f 25be bf23 8d3d 7c64 a7bd
00000110: 079a e4bc 79bd b4bd e530 823d b38e 733d
00000120: f108 42be 6d2e 3dbe dc38 39bd e18e 2b3e
00000130: 68d2 acbd 574b 183e 14b2 96bd f7a2 bd3d
00000140: 6df7 22be 7630 283d b0a6 72bc b89d b6bd
00000150: 44a3 55bd 16be 733c 74bc 34bc 2caf 0b3e
00000160: 83f3 d1bb f98e 89bd d8f4 06be 2aa6 133e
00000170: 5813 673d b8e3 e93d a063 903c 38de 393d
00000180: d8c6 0fbe af57 963c a031 78bd f796 453d
00000190: 90ef 75be 0377 8dbd a960 f9bc ab46 773c
000001a0: 37ec 04bd 1be9 2dbd aa59 173a 5734 5ebd
000001b0: b2f7 66be 8cd1 f63c 7d50 a73c fb85 85bc
000001c0: b916 debd ff85 c1bd 3b6d 1ebc 3861 b2bd
000001d0: baed 8a3d d4e1 3c3d cf02 59bb ef1a 983d
000001e0: 8f39 ef3d d511 f1bd eeed 37bd 10ba a7bd
000001f0: 6e6c cd3d 898b 10be a275 09be 8780 76be
00000200: 0662 0cbe 5d26 c23d bab6 e3bc 1ff5 a63c
00000210: 6c0e 623c 8ca8 34be 881f 1abe 1031 ffbc
00000220: 0cec 113e f1d9 0dbc cea4 df3c 3281 7bbc
00000230: 25ac 3ebd c9b8 a6bc aee4 a43c 992d 4dbe
00000240: 80c9 f43c 0f25 063e b3a6 9abc 9793 0f3d
00000250: 9464 a5bd 9388 c6bd a3a4 8e3b a369 083d
00000260: 0fcf 89bd 13c7 e8bd a52d babd e15a 7bbd
00000270: 6f06 45be 1b42 1c3d 20c4 df3c c1eb d73b
00000280: 2c88 fbbd a548 28bb 44bf d9bb e435 b1bd
00000290: b448 48be 7c18 2dbd 782e 5b3c 2a52 b63d
000002a0: 6225 2abc 2242 39bd 4a08 9dbd 0818 b1bc
000002b0: fb2a 63be cbad bdbb 265f c73c 095a 4dbd
000002c0: d4b2 efbd fbf6 d6bb 8a6d c5bd e82d e7bd
000002d0: dd69 2fbd 9762 4f3d b6a1 8dbd 06aa 363e
000002e0: fe68 b43d d5f2 82bd d62f 88bd ca04 3a3e
000002f0: 08cf 913d c553 353d a62a 5bbd 5c38 18bd
00000300: 3a61 1e3e 0ddc 0abe 1124 ef3c 2e7a a4bd
00000310: 9f7b 3b3d c76b 3fbc 058b 48bd 6c29 3c3e
00000320: fb34 e8bd d162 c33c 3469 43bd b066 ef3d
00000330: 74f6 e33d 5194 513d 5b6e 58be 2289 133e
00000340: 39a2 273e f04e b6bd b653 58bd 97e6 54bd
00000350: 9bb3 583d 2a44 20be 52d1 84bd 91d1 36bd
00000360: a9b4 36bd 963d 513b 8bb2 32bd 3c8f 14be
00000370: 7d98 4f3d d40c ac3d c687 acbd f62c 723e
00000380: 86cd 0e3c f487 20be bb03 8cbd 6601 f6bd
00000390: 1c92 6c3d 6314 fa3d ae93 62bd 787b f43d
000003a0: b988 8ebc 3fca e73d 09e8 a1bd 72a0 8b3d
000003b0: 46c7 ad3d ee89 98bd 9e27 00be 8b86 023e
000003c0: 5cd7 cc3d cf14 923d 2281 2abd 3c8c 003e
000003d0: cd96 1ebd cd73 ed3c 47a8 79bd 8c02 c83c
000003e0: 4b28 ee3d 924d 99bd e0f8 babd 3565 f33d
000003f0: f8e9 503d bb3d 2bbe 9b35 19be 3e4f 0b3e

layer1.0.conv3.bias f4 [16]
0.00018560732 -5.7454567e-05 2.3988987e-05 -4.0594394e-05 -2.0099209e-05 7.6127544e-05 0.00011077662 -0.00013641085
-1.1089889e-05 1.861785e-05 -0.0001793694 0.0002757324 0.00011311111 -0.00012523876 2.1302954e-05 4.7588317e-05
00000000: 969f 4239 5ffb 70b8 f53b c937 e643 2ab8
00000010: b99a a8b7 aaa6 9f38 bf50 e838 8209 0fb9
00000020: b60e 3ab7 872d 9c37 1b15 3cb9 2d90 9039
00000030: 1136 ed38 8652 03b9 bfb3 b237 9199 4738

layer1.0.bn3.weight f4 [16]
0.6001761 0.508049 0.6548557 0.531115 0.45681196 0.5424888 0.41114855 0.40891397
0.28686497 0.468521 0.4030732 0.668599 0.5152862 0.5839568 0.5181828 0.5839172
00000000: 24a5 193f 800f 023f a0a4 273f 27f7 073f
00000010: 42e3 e93e 8ce0 0a3f 1082 d23e 2c5d d13e
00000020: f7df 923e fce1 ef3e 9c5f ce3e 4e29 2b3f
00000030: cce9 033f 317e 153f a1a7 043f 997b 153f

layer1.0.bn3.bias f4 [16]
-0.18838783 -0.061774492 -0.15604563 0.22660744 0.06231719 0.11739651 -0.060894016 -0.03146277
0.19001998 -0.0766173 0.011261273 -0.1780116 -0.084861495 -0.15720296 -0.010772407 -0.06380661
00000000: bde8 40be 4007 7dbd 6dca 1fbe c80b 683e
00000010: 4f40 7f3d 956d f03d 016c 79bd 1bdf 00bd
00000020: 9994 423e 88e9 9cbd 3481 383c ac48 36be
00000030: ddcb adbd d0f9 20be c07e 30bc 0aad 82bd

layer1.0.bn3.running_mean f4 [16]
0.005771335 -0.008351836 0.005308731 -0.009029115 -0.031124856 0.006613752 -0.01315303 -0.07247904
-0.011493237 0.0052150465 -0.020427946 -0.019865392 -0.045574214 -0.047998205 -0.05176393 -0.0197292
00000000: 781d bd3b 24d6 08bc ddf4 ad3b daee 13bc
00000010: 8ef9 febc 2cb8 d83b ce7f 57bc e46f 94bd
00000020: 214e 3cbc fbe2 aa3b 8258 a7bc bfbc a2bc
00000030: 07ac 3abd c499 44bd 6a06 54bd 229f a1bc

layer1.0.bn3.running_var f4 [16]
0.0032194783 0.005152331 0.00535009 0.0073038423 0.00335449 0.006313061 0.0010958873 0.0023547756
0.0021246031 0.0030819518 0.0022935243 0.0037900484 0.0023003414 0.0020996623 0.0039830212 0.0034998707
00000000: e2fd 523b e3d4 a83b cf4f af3b 1255 ef3b
00000010: 01d7 5b3b cbdd ce3b e0a3 8f3a 9452 1a3b
00000020: ed3c 0b3b 92fa 493b f44e 163b 7662 783b
00000030: 53c1 163b 7d9a 093b 0184 823b 165e 653b

layer1.0.shortcut.0.weight f4 [16, 8, 1, 1, 1]
-0.13215977 -0.03679111 0.015062419 -0.019884752 0.01882905 -0.23762847 -0.016089026 0.019962601
-0.10906562 0.03451563 0.031596955 -0.016944116 -0.16618945 -0.08895766 -0.06515163 -0.030174233
0.08447455 -0.16349842 -0.24016541 0.03175886 -0.04625516 0.10775495 -0.25060645 -0.15720621
-0.097879335 -0.022011098 0.073203824 -0.049277723 -0.026963813 -0.10094678 -0.21875413 0.027901359
0.16059765 -0.035849307 -0.055257175 0.0010536595 0.070403725 0.009770515 0.054792132 -0.21133125
-0.005042371 -0.11355023 -0.17352611 0.012783897 -0.013483258 -0.11189855 -0.19034217 0.013986252
0.12276659 0.11983513 0.042597592 -0.012013253 0.10664766 0.010255752 0.114833616 -0.03434287
-0.045708586 -0.047415193 -0.0486183 0.052044835 -0.039611578 -0.13687678 -0.11433074 0.0007087365
0.028425122 -0.10811839 -0.036006693 -0.066817366 -0.053026397 -0.104380436 -0.12616412 -0.039988503
0.056103498 0.057216898 -0.023386607 0.036613803 0.19450974 -0.07079092 0.062370196 0.08112673
0.105063155 0.025661891 0.07212534 0.0183847 0.021704717 0.09521855 0.14536092 0.15258966
0.021075947 -0.13642126 -0.07137276 0.021549078 -0.0062467763 -0.21515957 -0.079145595 0.07205979
-0.033462733 -0.004980933 -0.023018485 0.056695692 -0.11128782 -0.09875981 0.13070369 -0.109114766
0.04658406 0.04024475 -0.0667856 -0.101351865 -0.1580448 -0.004433913 -0.088955194 -0.1154029
0.024111867 0.12425616 -0.1221678 0.23748112 0.040126473 0.12142108 0.005132382 -0.0435413
0.043693177 -0.015104691 -0.023138285 0.0026242665 -0.037416637 -0.23236494 -0.13784868 0.04940397
00000000: e454 07be 46b2 16bd 5dc8 763c 59e5 a2bc
00000010: 613f 9a3c e154 73be 22cd 83bc 9c88 a33c
00000020: cc5d dfbd 4360 0d3d cf6b 013d 63ce 8abc
00000030: 912d 2abe 6f2f b6bd 386e 85bd f42f f7bc
00000040: fe00 ad3d 216c 27be eced 75be 9415 023d
00000050: 0d76 3dbd a1ae dc3d 7d4f 80be aafa 20be
00000060: f674 c8bd 9e50 b4bc e3eb 953d 70d7 49bd
00000070: 37e3 dcbc 2fbd cebd 1501 60be 6491 e43c
00000080: b673 243e b9d6 12bd 5955 62bd f21a 8a3a
00000090: d42f 903d 8314 203c b76d 603d 3867 58be
000000a0: 793a a5bb 068d e8bd d4b0 31be 8d73 513c
000000b0: e2e8 5cbc 112b e5bd 0fe9 42be 9826 653c
000000c0: 0d6d fb3d 1f6c f53d d07a 2e3d 3cd3 44bc
000000d0: 176a da3d be07 283c e32d eb3d 1cab 0cbd
000000e0: ed38 3bbd 6f36 42bd fc23 47bd f72c 553d
000000f0: c03f 22bd 6d29 0cbe 3c26 eabd 80ca 393a
00000100: cddb e83c 2d6d ddbd c17b 13bd 8bd7 88bd
00000110: 3532 59bd 69c5 d5bd 2b31 01be fcca 23bd
00000120: c8cc 653d 445c 6a3d 4595 bfbc 5bf8 153d
00000130: 902d 473e d4fa 90bd e477 7f3d c525 a63d
00000140: 5a2b d73d e338 d23c 73b6 933d 839b 963c
00000150: 17ce b13c f101 c33d 7ed9 143e 7740 1c3e
00000160: 77a7 ac3c 04b2 0bbe e22b 92bd b187 b03c
00000170: c2b1 ccbb ca52 5cbe 1617 a2bd 1594 933d
00000180: 3810 09bd 1837 a3bb 4391 bcbc be39 683d
00000190: deea e3bd 9542 cabd 30d7 053e 9077 dfbd
000001a0: edce 3e3d aed7 243d e3c6 88bd 9191 cfbd
000001b0: 7fd6 21be 5c4a 91bb 242e b6bd 5b58 ecbd
000001c0: 4086 c53c 037a fe3d 1d33 fabd 402e 733e
000001d0: a85b 243d 9dab f83d 8a2d a83b 5d58 32bd
000001e0: 9ef7 323d aa79 77bc 808c bdbc e3fb 2b3b
000001f0: 3042 19bd 13f1 6dbe 3428 0dbe d15b 4a3d

layer1.0.shortcut.0.bias f4 [16]
0.00011923967 5.6099293e-06 0.00011170654 -3.088395e-05 -1.6692966e-05 0.00023316374 2.219982e-05 1.4011951e-05
8.95862e-06 9.099217e-06 -3.3901476e-06 8.029759e-05 7.979089e-05 4.7355297e-06 1.42436165e-05 -1.8181045e-05
00000000: 4f10 fa38 ed3c bc36 fe43 ea38 6489 01b8
00000010: df07 8cb7 6a7d 7439 c039 ba37 df14 6b37
00000020: fb4c 1637 d7a8 1837 4b82 63b6 7165 a838
00000030: 6855 a738 e4e5 9e36 def7 6e37 7f83 98b7

layer1.0.shortcut.1.weight f4 [16]
0.5267226 0.515268 0.4768389 0.47647554 0.31449705 0.55570245 0.5596812 0.35012743
0.5775234 0.4690697 0.57964015 0.5346904 0.5254613 0.48407763 0.46799308 0.5002007
00000000: 4bd7 063f 9be8 033f 3a24 f43e 9af4 f33e
00000010: c205 a13e 8442 0e3f 4447 0f3f e743 b33e
00000020: 93d8 133f e729 f03e 4c63 143f 78e1 083f
00000030: a284 063f 06d9 f73e ca9c ef3e 270d 003f

layer1.0.shortcut.1.bias f4 [16]
-0.18838783 -0.061774492 -0.15604563 0.22660744 0.06231719 0.11739651 -0.060894016 -0.03146277
0.19001998 -0.0766173 0.011261273 -0.1780116 -0.084861495 -0.15720296 -0.010772407 -0.06380661
00000000: bde8 40be 4007 7dbd 6dca 1fbe c80b 683e
00000010: 4f40 7f3d 956d f03d 016c 79bd 1bdf 00bd
00000020: 9994 423e 88e9 9cbd 3481 383c ac48 36be
00000030: ddcb adbd d0f9 20be c07e 30bc 0aad 82bd

layer1.0.shortcut.1.running_mean f4 [16]
-0.067311496 -0.06237287 -0.059975296 -0.056600396 0.0014181753 -0.06813258 0.058574878 -0.05438231
-0.060454853 0.047017448 0.090972014 -0.050361168 -0.038730394 -0.05176927 0.047188595 -0.048118755
00000000: 9cda 89bd b27a 7fbd a8a8 75bd d1d5 67bd
00000010: 11e2 b93a 1889 8bbd 36ec 6f3d fcbf 5ebd
00000020: 829f 77bd 5e95 403d 894f ba3d 8347 4ebd
00000030: c3a3 1ebd 040c 54bd d448 413d 2c18 45bd

layer1.0.shortcut.1.running_var f4 [16]
0.011594702 0.012143162 0.037552334 0.012578976 0.013264373 0.027518315 0.019799354 0.011177476
0.015133644 0.014487805 0.023864582 0.019315394 0.010364298 0.014319542 0.013183698 0.011757093
00000000: b4f7 3d3c 1df4 463c 7ad0 193d 0d18 4e3c
00000010: d052 593c 176e e13c 4132 a23c bb21 373c
00000020: 1bf3 773c 425e 6d3c a87f c33c 513b 9e3c
00000030: 04cf 293c 839c 6a3c 7000 583c d2a0 403c

layer1.1.conv1.weight f4 [32, 16, 3, 3, 3]
0.029966861 0.009894811 -0.052317396 0.035949532 0.0015731829 -0.022053916 -0.004499564 -0.012049884
-0.002731267 -0.045480467 -0.06306721 0.017409101 -0.0036488818 0.022938281 0.031603564 0.012482384
0.053827215 -0.0012790762 0.024612501 0.068669476 0.019020703 -0.026053948 -0.028979046 -0.025768403
-0.0060837637 -0.05767372 1.1218191e-05 0.024540495 -0.07747517 -0.11731922 -0.0014010308 0.036974486
0.0050238864 -0.0035141383 -0.016156191 0.03654068 0.0025204525 0.09033047 0.10276927 0.037214793
-0.060964353 -0.009017375 -0.011222164 -0.014740439 -0.051332977 -0.014802083 -0.050457925 -0.032547873
-0.050021406 0.04196799 0.015770676 0.029374218 0.031471644 0.036932465 0.07394352 -0.019121839
-0.038121164 0.071767025 0.058896687 0.025820186 0.0045752265 0.03537732 0.015813135 -0.06879564
0.01748239 -0.005100714 -0.027094902 -0.004596519 -0.03578735 -7.598687e-05 0.024974069 -0.0007422072
0.005772069 -0.0137455845 0.034926247 -0.04032978 -0.05464054 0.017153956 0.0041569383 -0.053894132
-0.0062921164 -0.041383684 0.04119121 0.11333573 -0.00901807 0.025640896 0.053044897 0.015845299
0.014413482 -0.01036474 0.043485723 -0.06323639 -0.13034734 -0.032181967 -0.07088972 -0.057928734
-0.06468506 -0.019822394 0.05159825 -0.028252091 0.029453313 0.041263472 0.03439452 0.054314565
0.016903346 0.0564632 0.021153286 -0.04348941 -0.020531448 0.047227982 -0.04740783 -0.0127692
0.07119556 -0.052731838 0.0059231357 0.021830726 -0.02147557 0.021167232 -0.020478709 0.0920949
0.0046261824 -0.058529336 0.09039548 -0.015487657 -0.007167953 0.05182052 -0.0035145218 -0.01293509
-0.05689501 -1.4473208e-05 0.022845099 -0.049698703 0.033246085 0.0105353035 -0.034628384 0.00950203
0.044038672 0.028012998 0.015100365 0.025851222 -0.053834595 0.009595196 -0.0014784673 -0.060517464
-0.042066835 -0.07623135 -0.04503634 -0.05678318 -0.029321523 0.11738714 -0.045916907 0.059319526
0.19382495 0.025739577 0.04572538 0.054616548 0.041175015 0.01128952 -0.07357967 0.04698372
-0.03921645 -0.13261835 0.026768439 0.0087589985 -0.03762998 0.0054106107 0.00039843912 0.0024678374
-0.010367372 -0.004671859 0.0134072285 -0.03057524 0.013563226 0.048595026 0.019996118 0.025288505
-0.0030982129 0.014273667 -0.02126435 -0.04780623 0.015764644 -0.019825432 -0.016133882 -0.011838077
-0.02247996 0.007908503 0.006615791 0.030961083 0.05399915 -0.0029055898 -0.022250386 0.05387641
-0.04341866 -0.0067222402 0.059723567 -0.027201544 -0.020552145 0.029528217 0.012226308 0.06508031
-0.040702373 0.032765035 0.013973645 -0.051068228 0.021073446 0.025928859 -0.003035696 -0.023295827
-0.06164437 -0.017632723 -0.00018760911 -0.014109046 -0.0005203643 0.0070875245 -0.015202225 -0.027922433
-0.052455295 -0.021990728 0.048301812 -0.030146714 0.011080541 0.02780879 0.017350886 0.0347462
0.05927309 0.027225321 0.05982637 0.00048122564 -0.015983772 -0.0075798286 -0.006875596 -0.05522661
-0.038612135 -0.051436134 0.023703758 -0.046743423 -0.053773265 0.05317897 -0.0027268021 -0.03472352
0.054414026 0.0071553215 -0.010026742 0.008075794 0.021837382 -0.009653764 0.035015065 0.010310623
-0.010454501 -0.008808778 0.0062801647 -0.016716952 -0.0012046092 -0.010240138 -0.02765137 -0.025969474
00000000: 107d f53c d81d 223c c44a 56bd d13f 133d
00000010: 4233 ce3a 6aaa b4bc 1471 93bb e06c 45bc
00000020: 0eff 32bb ba49 3abd 6229 81bd 889d 8e3c
00000030: 1422 6fbb 10e9 bb3c bd72 013d ea82 4c3c
00000040: ed79 5c3d ada6 a7ba 28a0 c93c 95a2 8c3d
00000050: 4ed1 9b3c 176f d5bc 7765 edbc 4218 d3bc
00000060: 4f5a c7bb 473b 6cbd c335 3c37 2609 c93c
00000070: 4dab 9ebd 0f45 f0bd cba2 b7ba 8f72 173d
00000080: 6a9f a43b 754d 66bb fd59 84bc aeab 153d
00000090: 2d2e 253b 2eff b83d b278 d23d 8a6e 183d
000000a0: c2b5 79bd 9dbd 13bc 2bdd 37bc e281 71bc
000000b0: 8742 52bd 7084 72bc f8ac 4ebd eb50 05bd
000000c0: 3fe3 4cbd a1e6 2b3d 8131 813c 33a2 f03c
000000d0: 69e8 003d 7f46 173d b36f 973d 67a5 9cbc
000000e0: f024 1cbd 97fa 923d a73d 713d db84 d33c
000000f0: c8eb 953b cfe7 103d 8c8a 813c bae4 8cbd
00000100: 3b37 8f3c e423 a7bb 21f6 ddbc 659e 96bb
00000110: c295 12bd 245b 9fb8 6b96 cc3c af90 42ba
00000120: a023 bd3b 2935 61bc d30e 0f3d d730 25bd
00000130: c2ce 5fbd 7486 8c3c ed36 883b 18c0 5cbd
00000140: 192e cebb f081 29bd 1db8 283d 901c e83d
00000150: 87c0 13bc db0c d23c 9b45 593d 00ce 813c
00000160: 8626 6c3c dfd0 29bc 161e 323d 1582 81bd
00000170: c679 05be 3dd1 03bd a12e 91bd ae46 6dbd
00000180: 9a79 84bd 9362 a2bc b058 533d ee70 e7bc
00000190: 1348 f13c e303 293d 45e1 0c3d f378 5e3d
000001a0: e378 8a3c f545 673d a849 ad3c f421 32bd
000001b0: 9131 a8bc 2172 413d b62e 42bd e835 51bc
000001c0: face 913d 57fd 57bd dd16 c23b 5ad6 b23c
000001d0: 89ed afbc e766 ad3c f7c2 a7bc 409c bc3d
000001e0: 3b97 973b 75bc 6fbd 4421 b93d f1bf 7dbc
000001f0: 26e1 eabb c141 543d e453 66bb b3ed 53bc
00000200: be0a 69bd f4d1 72b7 a525 bb3c de90 4bbd
00000210: 0c2d 083d 449c 2c3c 7ed6 0dbd 67ae 1b3c
00000220: e561 343d 847b e53c 8567 773c f1c5 d33c
00000230: aa81 5cbd 2b35 1d3c 21c9 c1ba 29e1 77bd
00000240: 464e 2cbd 2f1f 9cbd 0678 38bd 7b95 68bd
00000250: b133 f0bc ab68 f03d 5e13 3cbd 08f9 723d
00000260: 0c7a 463e cedb d23c 894a 3b3d 9ab5 5f3d
00000270: 22a7 283d aef7 383c f0b0 96bd 0072 403d
00000280: 6ea1 20bd 1bcd 07be 7c49 db3c e781 0f3c
00000290: e521 1abd 7e4b b13b 98e5 d039 71bb 213b
000002a0: e9db 29bc 6516 99bb fea9 5b3c ed78 fabc
000002b0: 4b38 5e3c 940b 473d e6ce a33c d729 cf3c
000002c0: 630b 4bbb 19dc 693c 9332 aebc 77d0 43bd
000002d0: db24 813c f268 a2bc 342b 84bc 7ef4 41bc
000002e0: e527 b8bc aa92 013c 47c9 d83b 19a2 fd3c
000002f0: 362e 5d3d b56b 3ebb 7146 b6bc 83ad 5c3d
00000300: c4d7 31bd 3d46 dcbb b3a0 743d c6d5 debc
00000310: f95c a8bc 29e5 f13c da50 483c d348 853d
00000320: 88b7 26bd a134 063d b7f1 643c eb2c 51bd
00000330: 38a2 ac3c c268 d43c 87f2 46bb e4d6 bebc
00000340: cf7e 7cbd 8072 90bc f0b8 44b9 a129 67bc
00000350: 0f69 08ba 773e e83b c112 79bc 96bd e4bc
00000360: 5ddb 56bd e625 b4bc 1fd8 453d 3ef6 f6bc
00000370: 288b 353c 42cf e33c 7223 8e3c 0852 0e3d
00000380: 57c8 723d a307 df3c 7f0c 753d 034d fc39
00000390: 66f0 82bc 3660 f8bb ae4c e1bb 4c35 62bd
000003a0: c227 1ebd b2ae 52bd 622e c23c 0876 3fbd
000003b0: 5b41 5cbd 31d2 593d 26b4 32bb 403a 0ebd
000003c0: 3ee1 5e3d 3077 ea3b 3447 24bc 5650 043c
000003d0: 4fe4 b23c d22a 1ebc f56b 0f3d e3ed 283c
000003e0: 5b49 2bbc b152 10bc d7c9 cd3b fdf1 88bc
000003f0: fae3 9dba 40c6 27bc 2085 e2bc efbd d4bc

layer1.1.conv1.bias f4 [32]
-8.122414e-06 -2.8279868e-05 1.5245895e-05 4.6243502e-05 -1.3048544e-05 -1.9942783e-05 -1.2617138e-05 -2.548013e-05
1.7804032e-05 -6.9848816e-06 -8.738837e-06 -1.9675851e-06 2.1941167e-05 3.2373857e-06 1.5912989e-05 -2.4096411e-05
-3.3346882e-06 -2.176885e-05 1.5047885e-05 5.2137184e-06 -1.5243153e-06 -1.3094383e-05 1.1847974e-05 1.586553e-05
-1.0661464e-06 -2.236581e-05 2.7676477e-05 2.7877943e-06 1.9916268e-05 8.270595e-05 -2.768607e-06 -7.916259e-05
00000000: 8145 08b7 8e3a edb7 9fc8 7f37 95f5 4138
00000010: 12eb 5ab7 cd4a a7b7 32ae 53b7 2abe d5b7
00000020: de59 9537 ad5f eab6 059d 12b7 db0a 04b6
00000030: 4c0e b837 dd41 5936 e27c 8537 a622 cab7
00000040: 82c9 5fb6 409c b6b7 2d76 7c37 80f1 ae36
00000050: 1397 ccb5 f2af 5bb7 a9c6 4637 f716 8537
00000060: 8318 8fb5 369e bbb7 c82a e837 f115 3b36
00000070: dc11 a737 6b72 ad38 4ecc 39b6 1804 a6b8

layer1.1.bn1.weight f4 [32]
0.33505225 0.46419552 0.39720294 0.42611784 0.39188 0.3839952 0.38581535 0.42966065
0.42670485 0.39877662 0.5263815 0.47334132 0.40546456 0.33302036 0.43549612 0.36275375
0.63181967 0.31767544 0.47079656 0.5078809 0.4548279 0.53454316 0.48091385 0.39875284
0.39292273 0.3918385 0.49069324 0.54385304 0.36614344 0.4247392 0.426645 0.4423758
00000000: f88b ab3e 09ab ed3e 2f5e cb3e 1e2c da3e
00000010: 7fa4 c83e 059b c43e 9789 c53e 7bfc db3e
00000020: 0f79 da3e 732c cc3e f0c0 063f cb59 f23e
00000030: 0d99 cf3e a581 aa3e 59f9 de3e dcba b93e
00000040: efbe 213f 5ba6 a23e 3f0c f13e 7c04 023f
00000050: 34df e83e d2d7 083f 573a f63e 5529 cc3e
00000060: 2b2d c93e 0e9f c83e 253c fb3e f439 0b3f
00000070: 2777 bb3e 6b77 d93e 3771 da3e 157f e23e

layer1.1.bn1.bias f4 [32]
-0.070999786 0.0025332319 0.11298139 0.21681546 -0.06882845 -0.09907258 -0.10054529 -0.094204254
-0.046987507 -0.023701629 -0.02196923 0.09350285 0.01609389 -0.110503584 0.037876565 -0.13284247
-0.00860557 -0.058185365 -0.009149341 0.013279325 0.074680954 -0.10973488 -0.1071608 0.08312507
-0.1179119 -0.071827434 -0.026800143 -0.06431851 -0.14743246 0.059896972 -0.05452248 0.1544916
00000000: 5668 91bd 9404 263b c962 e73d df04 5e3e
00000010: eef5 8cbd 91e6 cabd b0ea cdbd 29ee c0bd
00000020: f975 40bd eb29 c2bc d1f8 b3bc 6c7e bf3d
00000030: 55d7 833c b44f e2bd 7524 1b3d db07 08be
00000040: 60fe 0cbc c753 6ebd 1ee7 15bc 8791 593c
00000050: 54f2 983d aebc e0bd 1f77 dbbd 7a3d aa3d
00000060: cb7b f1bd 431a 93bd f98b dbbc 6cb9 83bd
00000070: 89f8 16be 8756 753d f752 5fbd 0c33 1e3e

layer1.1.bn1.running_mean f4 [32]
-0.024840258 -0.022968568 0.025081826 -0.024769185 -0.0034434018 -0.029312227 -0.009348161 0.04014899
-0.0028411346 -0.017990101 -0.015094794 0.034969963 0.027044835 0.04004651 -0.03899283 -0.0070056147
0.022579093 0.023554774 0.049016025 0.0021374468 -0.027181564 -0.058821686 -0.001902335 0.058263823
-0.024371067 0.04741009 0.06796712 -0.014326044 0.016645074 -0.025030643 -0.024490744 -0.050636746
00000000: cc7d cbbc 9428 bcbc 6778 cd3c bfe8 cabc
00000010: b2aa 61bb 3220 f0bc 0729 19bc 4473 243d
00000020: 5432 3abb fa5f 93bc 2850 77bc aa3c 0f3d
00000030: 218d dd3c cf07 243d f2b6 1fbd 5b8f e5bb
00000040: caf7 b83c f1f5 c03c 07c5 483d 6814 0c3b
00000050: dfab debc 02ef 70bd c557 f9ba 0ca6 6e3d
00000060: d5a5 c7bc 1531 423d 5832 8b3d c9b7 6abc
00000070: 405b 883c 100d cdbc d0a0 c8bc 7a68 4fbd

layer1.1.bn1.running_var f4 [32]
0.15985587 0.3279321 0.21443066 0.31867987 0.1640705 0.16944157 0.19654186 0.23949817
0.20050047 0.13716471 0.33237958 0.2963377 0.21056832 0.19268824 0.13188784 0.23478974
0.27895933 0.17822523 0.18737136 0.3646791 0.2727714 0.2610118 0.28910893 0.22856809
0.1561894 0.25480804 0.36718544 0.30058187 0.15773854 0.21192408 0.28257883 0.17606726
00000000: 42b1 233e b7e6 a73e b693 5b3e 022a a33e
00000010: 1902 283e 1782 2d3e 4542 493e 023f 753e
00000020: ff4f 4d3e e874 0c3e a82d aa3e 93b9 973e
00000030: 399f 573e 1150 453e 9b0d 073e b96c 703e
00000040: c2d3 8e3e ad80 363e 47de 3f3e 38b7 ba3e
00000050: b1a8 8b3e 57a3 853e 1606 943e c10d 6a3e
00000060: 1df0 1f3e 3376 823e bbff bb3e dee5 993e
00000070: 3686 213e a002 593e 2cae 903e fa4a 343e
