log/sem_seg/SatVideoIRSDT__2025-06-19_18-10__SoftLoUloss_DeepPro-Plus_DataL40/checkpoints/best_model.pth (torch, 940587 bytes, 213 tensors)

conv_in.0.weight f4 [8, 1, 5, 7, 7]
0.019407526 -0.00886237 0.010720899 0.06596816 0.061901003 -0.02880993 -0.01278713 0.07708651
-0.021693388 -0.05908063 0.055840593 0.035233796 -0.033723604 0.03969936 0.051074054 -0.016055202
-0.03548654 0.11987526 0.06476684 0.029047955 0.0029033949 0.060939636 0.07565266 0.093791716
-0.10092955 -0.010917608 0.03741927 0.011380278 0.0038076174 0.0028521945 0.038093936 0.04233632
-0.03471103 -0.017644813 -0.022620155 0.008316014 -0.061128955 -0.003437368 0.038361896 0.0026089612
-0.018809605 -0.024830876 0.086650215 0.024800025 0.042021826 0.09932074 0.072308615 -0.0009813693
-0.022805806 -0.07848616 -0.014947982 -0.005228825 0.119416445 0.07189777 -0.015630923 -0.0497693
-0.09378628 -0.033710957 -0.06389247 0.11083986 0.07372473 0.011063775 -0.021961857 -0.073918864
0.048604555 -0.012710748 0.16717865 0.12093229 0.012226291 -0.052340977 -0.019190412 0.048728064
0.07541518 -0.09364422 0.0968764 -0.03604464 -0.058845323 -0.045992084 -0.035504267 -0.06376602
-0.005106167 -0.06391699 -0.026848245 -0.072187215 0.010404891 0.053580865 -0.026018443 0.050019775
-0.00596235 -0.003845244 0.013618711 -0.03132126 0.062426202 0.0030008762 0.02281776 -0.0063052406
-0.07843389 -0.057675518 -0.0617063 -0.019088574 -0.0041348618 0.044453435 -0.027274868 -0.020158317
-0.013802872 -0.008437815 0.07984628 0.18131028 0.22853722 0.059516262 -0.022551633 -0.051492658
-0.012852289 0.09153576 0.094760306 0.09267666 0.027049845 -0.0043665073 -0.031011168 -0.0058218506
0.025581112 -0.08216225 -0.07416879 0.0071390043 0.068625644 0.047265336 -0.041275058 -0.010936891
-0.061286632 -0.112202406 -0.02869902 0.003163878 -0.033532344 0.011286703 0.08900955 0.093529925
0.08480964 0.0883658 0.0648136 0.024996227 -0.09695999 -0.02958812 -0.012623742 0.08552054
0.036613192 -0.002508626 -0.016679326 -0.029146686 -0.060602725 -0.07676569 -0.11803639 -0.15521088
-0.13064857 -0.040720794 -0.103599854 -0.19720769 -0.08558738 -0.009911379 -0.06553355 -0.16940467
-0.16483141 -0.11451947 -0.14891732 0.12056663 0.35259488 0.14371689 -0.08317193 -0.11107658
-0.098970585 -0.06646352 0.18714605 0.033011995 0.22744925 -0.026240116 -0.080711104 -0.09530366
-0.08747328 0.15212537 0.27164826 0.057621278 -0.14207724 -0.14827326 -0.026579034 -0.08511012
-0.025267709 0.036961924 -0.12533292 -0.10445273 -0.08529096 -0.07706254 -0.10919624 -0.09520057
-0.08113815 -0.10125567 -0.03041222 -0.018724635 0.053079657 0.05584619 0.050990954 -0.0041836496
0.02224405 0.006452907 0.10969947 0.040325455 -0.015601294 0.0643477 0.18814684 0.1621871
0.09569832 0.0910916 0.10271587 0.16775076 0.27346835 0.31411573 0.31686947 0.30266172
0.121736445 0.101830386 0.34425962 0.18999884 0.039307322 0.025744634 0.30551952 0.11838224
0.104080506 0.20737332 0.23143485 0.08858488 0.16618848 0.15462527 0.09893273 0.062039595
-0.00070900656 0.075954534 0.13039224 0.06607666 0.0520321 0.10724395 0.03811797 0.03016363
-0.018559238 -0.014834822 0.04045151 0.09795818 0.12343512 0.07621043 0.035865914 -0.03477719
-0.08161139 -0.00090270926 0.04295953 0.07876721 0.061430275 0.035789296 -0.039751664 -0.120716564
00000000: 88fc 9e3c 7933 11bc b6a6 2f3c 511a 873d
00000010: e88b 7d3d cd02 ecbc 1c81 51bc 88df 9d3d
00000020: 55b6 b1bc 88fe 71bd 1bb9 643d 5051 103d
00000030: c321 0abd cc9b 223d 0733 513d 3386 83bc
00000040: 565a 11bd 2981 f53d 7aa4 843d faf5 ed3c
00000050: e246 3e3b d79b 793d c8ef 9a3d df15 c03d
00000060: 27b4 cebd c4df 32bc f344 193d 5874 3a3c
00000070: 3889 793b e2eb 3a3b 6308 1c3d d968 2d3d
00000080: 272d 0ebd db8b 90bc e74d b9bc e43f 083c
00000090: 5b62 7abd 7745 61bb 5d21 1d3d 1bfb 2a3b
000000a0: 9a16 9abc 1f6a cbbc ab75 b13d 6c29 cb3c
000000b0: 141f 2c3d ac68 cb3d 8a16 943d 4aa1 80ba
000000c0: 3ed3 babc 5abd a0bd 61e8 74bc 9056 abbb
000000d0: 9c90 f43d 233f 933d 6c0c 80bc e5da 4bbd
000000e0: 0513 c0bd 8014 0abd 0eda 82bd 0200 e33d
000000f0: fefc 963d d644 353c 5ae9 b3bc c662 97bd
00000100: 9215 473d be40 50bc e130 2b3e 59ab f73d
00000110: c850 483c 7e63 56bd 3635 9dbc 1497 473d
00000120: 4673 9a3d 8ac8 bfbd 2267 c63d 8ba3 13bd
00000130: cb07 71bd 3262 3cbd ec6c 11bd c297 82bd
00000140: a251 a7bb e9e6 82bd daf0 dbbc e4d6 93bd
00000150: 4779 2a3c 9c77 5b3d a124 d5bc 89e1 4c3d
00000160: d15f c3bb 7d00 7cbb 0421 5f3c b94a 00bd
00000170: 9eb2 7f3d 59aa 443b 50ec ba3c 319c cebb
00000180: f3a1 a0bd 2a3d 6cbd bfbf 7cbd a45f 9cbc
00000190: bc7d 87bb ce14 363d 8b6f dfbc 0e23 a5bc
000001a0: 7125 62bc c33e 0abc 7286 a33d 67a9 393e
000001b0: a905 6a3e 53c7 733d 34be b8bc f7e9 52bd
000001c0: 6892 52bc 1a77 bb3d b111 c23d 43cd bd3d
000001d0: a397 dd3c eb14 8fbb 220b febc 39c5 bebb
000001e0: 7b8f d13c af44 a8bd cee5 97bd 4fee e93b
000001f0: 9a8b 8c3d 4c99 413d 0910 29bd a530 33bc
00000200: b107 7bbd 60ca e5bd 351a ebbc 1159 4f3b
00000210: 3659 09bd ddeb 383c a44a b63d 9e8c bf3d
00000220: adb0 ad3d 21f9 b43d febc 843d e3c4 cc3c
00000230: f692 c6bd c962 f2bc d0d3 4ebc 6525 af3d
00000240: b7f7 153d c367 24bb 15a3 88bc 08c5 eebc
00000250: 903a 78bd 5537 9dbd 10bd f1bd 9aef 1ebe
00000260: bdc8 05be d9ca 26bd 292c d4bd d0f0 49be
00000270: 7048 afbd 5663 22bc 7436 86bd 6b78 2dbe
00000280: 91c9 28be 2f89 eabd c87d 18be a3eb f63d
00000290: 5187 b43e 852a 133e 0b56 aabd 1e7c e3bd
000002a0: 17b1 cabd 071e 88bd 37a3 3f3e 9637 073d
000002b0: 75e8 683e 83f5 d6bc dd4b a5bd 912e c3bd
000002c0: 3125 b3bd c1c6 1b3e 7b15 8b3e 4a04 6c3d
000002d0: b27c 11be f2d4 17be 46bc d9bc 374e aebd
000002e0: 3afe cebc 6365 173d 4657 00be 50eb d5bd
000002f0: 07ad aebd f7d2 9dbd 47a2 dfbd 84f8 c2bd
00000300: c22b a6bd 225f cfbd 0c23 f9bc 6864 99bc
00000310: 0e6a 593d f9be 643d e4db 503d ff16 89bb
00000320: 2739 b63c e872 d33b 1eaa e03d 4e2c 253d
00000330: 929c 7fbc bac8 833d 91a9 403e 6014 263e
00000340: 7bfd c33d 3c8e ba3d b35c d23d dbc6 2b3e
00000350: 0b04 8c3e c7d3 a03e b73c a23e 7af6 9a3e
00000360: f550 f93d 738c d03d cc42 b03e 0e8f 423e
00000370: b700 213d 69e6 d23c 0e6d 9c3e 6372 f23d
00000380: 2928 d53d ac59 543e 42fd 6c3e fd6b b53d
00000390: 502d 2a3e 1656 1e3e 3e9d ca3d 3b1d 7e3d
000003a0: a0dc 39ba 0d8e 9b3d 8b85 053e 3353 873d
000003b0: 9c1f 553d b7a2 db3d 9721 1c3d b819 f73c
000003c0: 8b09 98bc c10d 73bc 7cb0 253d 4c9e c83d
000003d0: 8dcb fc3d 3714 9c3d 23e8 123d 8772 0ebd
000003e0: df23 a7bd cba3 6cba 55f6 2f3d b450 a13d
000003f0: 509e 7b3d cc97 123d a4d2 22bd 3f3a f7bd

conv_in.0.bias f4 [8]
4.0249768e-05 -4.9658905e-05 -1.1987232e-05 3.9883844e-06 7.875922e-06 3.3724806e-05 7.081514e-05 -5.5104567e-05
00000000: dcd1 2838 d848 50b8 c51c 49b7 f6d3 8536
00000010: d422 0437 bc73 0d38 9782 9438 1420 67b8

conv_in.1.weight f4 [8]
0.5290351 0.61836624 0.628515 0.52931005 0.70027953 0.6975431 0.5813519 0.634148
00000000: d86e 073f 404d 1e3f 5ce6 203f dd80 073f
00000010: 8545 333f 2f92 323f 7ad3 143f 8657 223f

conv_in.1.bias f4 [8]
-0.14530316 -0.050771512 0.02243809 0.061280094 0.021515908 0.0025860544 -0.08053703 0.08378485
00000000: 5aca 14be caf5 4fbd 16d0 b73c d600 7b3d
00000010: 2142 b03c cb7a 293b 99f0 a4bd 6497 ab3d

conv_in.1.running_mean f4 [8]
0.083457716 0.03339185 -0.15564889 -0.0042191823 -0.049155287 -0.010389956 0.03703073 0.12163182
00000000: e1eb aa3d e4c5 083d 6c62 1fbe 1141 8abb
00000010: 0e57 49bd a23a 2abc 89ad 173d 1b1a f93d

conv_in.1.running_var f4 [8]
1.9554871 9.849422 4.578116 4.8842435 3.7633502 7.996338 2.2162511 8.742332
00000000: 674d fa3f 3c97 1d41 ed7f 9240 b94b 9c40
00000010: bbda 7040 00e2 ff40 0fd7 0d40 98e0 0b41

layer1.0.conv1.weight f4 [16, 8, 3, 3, 3]
-0.13581055 -0.1335736 -0.12744506 -0.002555805 -0.0005029731 -0.089757964 -0.12599851 0.088240035
0.20853055 0.085321106 0.059825297 0.089976855 0.004997013 -0.10464488 0.08009782 0.053522993
0.00416514 -0.10136693 -0.008952607 0.07821173 0.014414816 0.014767547 0.14215405 -0.017043458
0.057139985 -0.0808082 -0.1221251 0.09844307 0.0028839693 0.01930298 -0.051153313 -0.040674567
0.105293654 -0.10766422 -0.08820246 0.04286055 -0.11339327 -0.01851635 -0.008712884 0.036385007
0.020940794 -0.053312786 0.10008762 0.07335843 -0.007987413 0.035832312 0.0011097206 -0.019561479
0.018149717 0.020736212 -0.022974126 -0.048643727 -0.01781975 -0.027410029 -0.08386174 -0.008935729
-0.034780674 -0.013811325 -0.03247187 -0.037110794 -0.22842526 -0.00048725907 0.22849792 0.0072630905
-0.056089178 0.08930975 -0.00033223286 -0.062117077 0.011893977 0.14081891 0.09925796 -0.11223651
0.08198313 0.12471249 -0.08103894 0.032805488 0.14379318 0.005583397 0.022811241 -0.1200424
-0.122142114 0.018741699 0.048386388 0.052770734 0.00465237 -0.078200735 0.008676331 0.030867705
-0.11204075 -0.059698418 0.0032819845 -0.03555744 0.021908952 -0.05043494 0.005298433 0.0055877864
-0.019382063 0.06469649 0.07349213 -0.024019819 0.013766937 -0.0744519 0.066920735 0.085578814
0.0025246718 -0.0114839645 0.042389654 -0.03050303 0.07116782 -0.0018601395 0.04507671 0.048298936
0.07605753 -0.059541333 -0.36476818 0.043445736 0.20050779 -0.046571113 -0.007980417 0.0051787556
-0.042052574 -0.11830301 0.0101796845 0.12225771 0.1141371 0.019671053 -0.03130378 -0.0013041885
-0.058487505 -0.0105888685 0.068474464 0.04529812 0.28272647 -0.1896194 -0.21264924 0.06162854
0.00064070243 0.086861305 -0.008826913 -0.037480846 0.018050391 -0.23385586 -0.3579966 -0.1566831
-0.0036678526 0.0069271466 -0.025659023 -0.06653702 -0.120541036 -0.06724842 0.05881867 0.042518105
-0.03233937 -0.06291605 -0.0031838974 -0.030789651 0.09299959 0.17306863 0.065373585 0.17274521
0.29755723 0.16515566 0.102520436 0.06960976 -0.015167142 0.09571254 0.058531374 -0.15962045
-0.10766075 -0.06629764 0.01832345 -0.08310398 -0.06421389 0.006167965 -0.07305264 -0.14458877
0.011225539 -0.035035282 -0.0040193866 -0.040116634 0.02968566 0.036513723 0.017560482 0.017480832
0.1261391 0.114734136 0.14698048 0.057266496 0.028829467 -0.004106267 0.03166398 0.06341853
0.05359497 0.113265984 -0.027157145 -0.21590693 0.14031313 0.20135662 -0.020113079 -0.010171146
0.0004074803 -0.0047708983 -0.10732333 -0.024194628 0.042683106 0.025535686 -0.08978191 0.011913191
-0.03153277 -0.073244326 -0.056327164 0.006374642 0.05396254 0.19624422 -0.16061853 -0.08557518
0.008826996 0.06264575 0.09153356 -0.23371425 0.11449803 0.08872819 -0.16777523 0.20575202
0.11954496 -0.0524146 -0.1017439 0.05055979 0.19052482 -0.16536953 -0.04785022 0.031672332
-0.09197867 -0.005821678 0.07782805 0.08534404 -0.15236008 -0.039101146 0.1340948 -0.020012487
0.1277924 -0.078646794 -0.117396586 0.06845546 0.09729963 0.051802903 0.02839832 0.12200488
0.090607464 0.04109514 0.048498746 -0.0041451603 0.07512036 0.033480976 -0.052324075 -0.011107416
00000000: ec11 0bbe 85c7 08be f580 02be 4b7f 27bb
00000010: f4d9 03ba 06d3 b7bd c105 01be 31b7 b43d
00000020: 0889 553e d5bc ae3d 5f0b 753d c945 b83d
00000030: fcbd a33b 0e50 d6bd 530a a43d ed3a 5b3d
00000040: ba7b 883b 7799 cfbd f5ad 12bc 792d a03d
00000050: 1f2c 6c3c 95f3 713c d590 113e b99e 8bbc
00000060: 9e0b 6a3d c57e a5bd b91c fabd 859c c93d
00000070: fa00 3d3b 4821 9e3c 2386 51bd 609a 26bd
00000080: 33a4 d73d 0f7f dcbd 7ea3 b4bd 8b8e 2f3d
00000090: bb3a e8bd 9aaf 97bc 7cc0 0ebc 7208 153d
000000a0: 078c ab3c 825e 5abd bdfa cc3d f23c 963d
000000b0: a3dd 02bc e7c4 123d 0b74 913a 653f a0bc
000000c0: b7ae 943c fdde a93c 3c34 bcbc a53e 47bd
000000d0: b9fa 91bc ff8a e0bc b4bf abbd 2a67 12bc
000000e0: 2e76 0ebd e548 62bc 3901 05bd 7d01 18bd
000000f0: 50e8 69be ce76 ffb9 5cfb 693e 38ff ed3b
00000100: c4bd 65bd 08e8 b63d 8a2f aeb9 7a6e 7ebd
00000110: f5de 423c d532 103e c247 cb3d 41dc e5bd
00000120: c5e6 a73d 4369 ff3d bef7 a5bd 0c5f 063d
00000130: 853e 133e eef4 b63b a4de ba3c cad8 f5bd
00000140: a525 fabd 3188 993c ce30 463d 2026 583d
00000150: e872 983b b527 a0bd 2b27 0e3c 45de fc3c
00000160: 9f75 e5bd 5486 74bd 9016 573b aea4 11bd
00000170: 677a b33c de94 4ebd 7a9e ad3b c019 b73b
00000180: 22c7 9ebc 987f 843d 0b83 963d 36c5 c4bc
00000190: b88e 613c 3d7a 98bd bd0d 893d f243 af3d
000001a0: f774 253b 3d27 3cbc c6a0 2d3d 7ee1 f9bc
000001b0: 6fc0 913d edcf f3ba 5ba2 383d 1bd5 453d
000001c0: 0dc4 9b3d 9de1 73bd e5c2 babe 28f4 313d
000001d0: ea51 4d3e 5ac1 3ebd 4cc0 02bc 8db2 a93b
000001e0: 523f 2cbd d948 f2bd b1c8 263c 4062 fa3d
000001f0: b6c0 e93d 3025 a13c 6438 00bd 4ef1 aaba
00000200: 9890 6fbd ef7c 2dbc 573c 8c3d 858a 393d
00000210: 86c1 903e 972b 42be b9c0 59be 356e 7c3d
00000220: d0f4 273a 57e4 b13d c29e 10bc 8485 19bd
00000230: 6ade 933c e977 6fbe 554b b7be 8971 20be
00000240: 5b60 70bb 1efd e23b df32 d2bc 9044 88bd
00000250: 38de f6bd 8ab9 89bd d9eb 703d 7727 2e3d
00000260: 4a76 04bd 21da 80bd efa8 50bb 943a fcbc
00000270: 9276 be3d e738 313e 96e2 853d 1fe4 303e
00000280: 6c59 983e 911e 293e 3cf6 d13d 908f 8e3d
00000290: 9b7f 78bc f004 c43d 98be 6f3d 8b73 23be
000002a0: 3d7d dcbd 0fc7 87bd 0f1b 963c 6b32 aabd
000002b0: 9282 83bd a41c ca3b 9f9c 95bd 140f 14be
000002c0: 53eb 373c 2881 0fbd 0fb5 83bb 5751 24bd
000002d0: 572f f33c 6a8f 153d 00db 8f3c f633 8f3c
000002e0: 9c2a 013e bbf9 ea3d 0d82 163e 4690 6a3d
000002f0: c62b ec3c dd8d 86bb 17b2 013d 93e1 813d
00000300: 6686 5b3d fff7 e73d a978 debc b516 5dbe
00000310: 3fae 0f3e 6e30 4e3e 2fc4 a4bc e1a4 26bc
00000320: 14a3 d539 3255 9cbb 56cc dbbd d033 c6bc
00000330: 7bd4 2e3d 3730 d13c 94df b7bd 8b2f 433c
00000340: 8128 01bd 1f01 96bd 50b7 66bd 5fe2 d03b
00000350: d307 5d3d 3ff4 483e 2f79 24be 0a42 afbd
00000360: 1b9f 103c 6a4c 803d f275 bb3d ca52 6fbe
00000370: f17d ea3d 20b7 b53d 45cd 2bbe a8b0 523e
00000380: fdd3 f43d b1b0 56bd 1b5f d0bd c817 4f3d
00000390: f018 433e a156 29be 98fe 43bd d9ba 013d
000003a0: 505f bcbd c6c3 bebb 5064 9f3d dbc8 ae3d
000003b0: 4804 1cbe 8628 20bd 2650 093e 3af1 a3bc
000003c0: 03dc 023e 9211 a1bd 9f6d f0bd 6032 8c3d
000003d0: 0745 c73d 482f 543d 98a3 e83c b2dd f93d
000003e0: 6890 b93d 6153 283d 9fa6 463d 20d4 87bb
000003f0: b4d8 993d 5923 093d c551 56bd e1fb 35bc

layer1.0.conv1.bias f4 [16]
2.3415443e-05 0.000108047796 -1.1994738e-05 2.4176472e-05 -0.00014129779 2.783092e-05 -6.5479835e-05 -4.683237e-05
-1.3725906e-05 3.479998e-06 -4.449511e-05 5.962367e-05 -2.0915537e-05 -5.2792147e-06 -3.408385e-05 1.9115278e-05
00000000: 486c c437 b897 e238 023d 49b7 94ce ca37
00000010: 5629 14b9 7276 e937 3852 89b8 e06d 44b8
00000020: 5148 66b7 e989 6936 43a0 3ab8 6e14 7a38
00000030: c673 afb7 1c24 b1b6 41f5 0eb8 bf59 a037

layer1.0.bn1.weight f4 [16]
0.45766354 0.5103434 0.48985556 0.588487 0.5856136 0.46104154 0.47815794 0.5463833
0.4972227 0.5238278 0.5603522 0.5667603 0.62157106 0.46773615 0.5219112 0.60663944
00000000: e052 ea3e dda5 023f 59ce fa3e 16a7 163f
00000010: c6ea 153f a30d ec3e 1ed1 f43e c7df 0b3f
00000020: f993 fe3e 9419 063f 3e73 0f3f 3417 113f
00000030: 481f 1f3f 1d7b ef3e f99b 053f b94c 1b3f

layer1.0.bn1.bias f4 [16]
-0.029575516 -0.07180504 -0.035450608 -0.37941077 -0.019254914 0.08780117 -0.0026262295 0.06391336
0.020148447 -0.043911744 -0.115416355 0.49511036 0.009178167 -0.023924671 -0.019301942 0.033239745
00000000: 5a48 f2bc 850e 93bd a834 11bd 2142 c2be
00000010: 7bbc 9dbc 1ad1 b33d d21c 2cbb 02e5 823d
00000020: 5b0e a53c cddc 33bd 695f ecbd 1b7f fd3e
00000030: 0660 163c acfd c3bc 1b1f 9ebc 6626 083d

layer1.0.bn1.running_mean f4 [16]
-0.010533629 0.006713955 0.0017159262 0.04410475 0.013861805 0.062367633 0.024254093 0.069581226
0.013937264 -0.009724415 0.0021622062 -0.081607714 0.013946337 0.0018425775 -0.013223517 0.034273922
00000000: 3e95 2cbc bd00 dc3b eee8 e03a 2fa7 343d
00000010: a01c 633c 3475 7f3d 85b0 c63c 9a80 8e3d
00000020: 1f59 643c 2753 1fbc cdb3 0d3b f221 a7bd
00000030: 2d7f 643c a482 f13a 73a7 58bc d062 0c3d

layer1.0.bn1.running_var f4 [16]
0.37658876 0.35443902 0.44563624 0.7940182 0.60825306 1.3452221 1.0081078 0.9112124
0.86780405 0.57133543 0.66653115 0.9050576 0.5562257 0.4824807 0.51567954 1.0381684
00000000: 3ed0 c03e 0879 b53e 6f2a e43e c744 4b3f
00000010: 79b6 1b3f 3d30 ac3f ad09 813f 3745 693f
00000020: 6828 5e3f 0a43 123f c9a1 2a3f dbb1 673f
00000030: cf64 0e3f b607 f73e 9303 043f b4e2 843f

layer1.0.conv2.weight f4 [16, 16, 3, 3, 3]
0.057553124 -0.03461393 0.18380886 0.11084577 -0.0630221 0.12748496 0.18566424 0.13346365
0.1271192 -0.047797468 -0.12319376 0.030165982 0.052086256 -0.03622186 0.0042253844 0.0093990415
0.08990318 0.08066815 0.013504005 -0.048859615 0.057002228 0.02260656 0.04662212 -0.0044919206
0.11405389 0.060608786 0.08754172 -0.00061013625 -0.05806578 0.026669243 0.022949366 -0.085267894
-0.06936954 0.06942433 0.045752984 -0.007271093 -0.07140567 0.04373683 -0.028866604 -0.024861606
-0.0051422385 -0.034860138 -0.011850474 -0.0375183 -0.016675437 -0.014443889 -0.030024849 0.01747409
-0.019435223 -0.06376567 0.010610239 0.06023387 0.048889354 0.021141568 0.11248206 -0.02066908
0.062556356 0.15137577 -0.09871457 -0.0035003447 0.09377872 0.032196686 0.05291744 0.0039300057
-0.09957969 0.006359881 -0.056127258 -0.04520295 0.015159966 0.073014356 0.05187194 0.012884366
-0.012316986 0.07684387 0.16793482 0.15406364 -0.07792887 -0.06283335 0.0446543 -0.018594157
0.046491638 0.08799683 0.06532196 0.11123363 0.062121727 -0.04049244 -0.020293444 0.09230792
-0.033416003 0.054995548 0.077954285 0.06812761 0.118939646 0.014449822 -0.032526784 -0.010891248
0.085700944 -0.008817277 0.029734371 0.1333636 0.31036338 0.226183 0.22232701 -0.041896623
0.16812125 0.21788456 0.09153483 0.14562148 0.071944386 0.10711945 0.064283155 0.09052904
-0.15136416 -0.035057247 0.07387414 -0.0685785 0.023081325 0.034348715 0.27447906 0.22631255
0.214303 -0.15627104 -0.070635885 0.16326259 -0.11460861 -0.10863801 0.15127681 0.10374782
0.15649298 0.06000109 -0.0045733918 0.035671648 0.10626371 -0.06524092 -0.03502069 -0.04836047
-0.119841024 -0.057147466 -0.02392839 -0.14612582 -0.13807683 0.0061102225 -0.11076754 -0.0729592
-0.023119073 -0.14914894 -0.1643388 -0.05477729 -0.024936456 -0.06046826 -0.025438314 -0.069214135
-0.045548707 -0.0053693447 -0.03560572 -0.02063809 0.026591219 -0.11242514 -0.008516292 0.03331481
-0.020937745 -0.025034761 0.06393931 0.082072645 0.08751657 0.21289665 -0.046540536 0.11159924
0.17484201 0.17321974 0.1264168 -0.012624084 -0.053255435 -0.012347288 -0.053415846 -0.08254853
-0.110956796 0.026559124 -0.078082666 0.0180913 0.1168628 0.05845495 0.13778396 0.09126453
-0.080368385 0.019544566 0.13863924 0.011859326 0.12151145 0.047275595 0.0057530357 -0.009234806
0.15004992 -0.14316514 -0.064719975 0.099685304 -0.06091852 -0.0039315186 0.05500326 0.059059665
-0.061862387 0.009997691 -0.060851745 0.0017950422 0.083048455 0.0055329953 -0.07213755 0.11105484
0.11658681 0.049998023 0.09528548 -0.11281059 -0.075842746 0.12986657 -0.033270814 -0.00722414
0.016898287 -0.035434958 -0.11319366 -0.10063236 -0.22891438 -0.060872994 -0.052478235 0.055472393
-0.0006116913 0.01157938 -0.047078162 -0.025516914 0.010288022 -0.15962568 -0.106615596 -0.075857066
-0.0009945513 -0.05338871 -0.03834513 0.0013817323 -0.08248854 -0.022352828 -0.20400433 -0.065702744
-0.07734999 -0.05467603 -0.17365979 0.050300166 0.071991935 0.090370536 -0.054788876 -0.08180563
-0.019492779 0.009836458 -0.13033299 -0.025970854 0.0055788765 -0.07182041 0.032580502 0.037318688
00000000: d3bc 6b3d 56c7 0dbd 6438 3c3e 1b03 e33d
00000010: bb11 81bd 6b8b 023e c41e 3e3e b2aa 083e
00000020: 892b 023e 47c7 43bd 034d fcbd a61e f73c
00000030: 6658 553d 605d 14bd 1875 8a3b 70fe 193c
00000040: 291f b83d 5835 a53d e73f 5d3c 0521 48bd
00000050: 2b7b 693d 6431 b93c d6f6 3e3d f630 93bb
00000060: 1695 e93d eb40 783d 1349 b33d 8df1 1fba
00000070: 62d6 6dbd 7579 da3c 4f00 bc3c efa0 aebd
00000080: 9e11 8ebd 582e 8e3d 7b67 3b3d 5942 eebb
00000090: 233d 92bd 6425 333d a879 ecbc 91aa cbbc
000000a0: 3980 a8bb 81c9 0ebd 7e28 42bc caac 19bd
000000b0: ed9a 88bc 10a6 6cbc acf6 f5bc d325 8f3c
000000c0: 9e36 9fbc 9397 82bd 91d6 2d3c cab7 763d
000000d0: 3440 483d 1531 ad3c ff5c e63d 3452 a9bc
000000e0: 8c1d 803d 4002 1b3e dd2a cabd 0a66 65bb
000000f0: 0f0f c03d ace0 033d f5bf 583d 47c7 803b
00000100: 70f0 cbbd 8c66 d03b b2e5 65bd ba26 39bd
00000110: 8261 783c 8d88 953d ac77 543d f318 533c
00000120: 2fcd 49bc 5260 9d3d 1bf7 2b3e dcc2 1d3e
00000130: 2c99 9fbd c5ae 80bd 6de7 363d c652 98bc
00000140: 046e 3e3d af37 b43d 85c7 853d 75ce e33d
00000150: 5a73 7e3d 67db 25bd 703e a6bc ef0b bd3d
00000160: 38df 08bd 0343 613d 7fa6 9f3d 7d86 8b3d
00000170: a196 f33d f2be 6c3c ce3a 05bd 3471 32bc
00000180: fa83 af3d 5776 10bc 7f95 f33c 7890 083e
00000190: f3e7 9e3e 849c 673e b1a9 633e cb9b 2bbd
000001a0: fa27 2c3e 211d 5f3e 9d76 bb3d cc1d 153e
000001b0: 9457 933d 7161 db3d e3a6 833d 4a67 b93d
000001c0: 35ff 1abe 3098 0fbd 534b 973d e272 8cbd
000001d0: 0c15 bd3c 3db1 0c3d 8588 8c3e 7abe 673e
000001e0: 3f72 5b3e 8405 20be 8ca9 90bd 4f2e 273e
000001f0: ebb7 eabd 9b7d debd 4fe8 1a3e bd79 d43d
00000200: b23f 203e b4c3 753d 64dc 95bb 6f1c 123d
00000210: caa0 d93d 089d 85bd db71 0fbd a115 46bd
00000220: 366f f5bd 7613 6abd 7905 c4bc 02a2 15be
00000230: 0364 0dbe 4338 c83b 18da e2bd a26b 95bd
00000240: 3664 bdbc 80ba 18be 6e48 28be 275e 60bd
00000250: 8a47 ccbc 91ad 77bd 0364 d0bc 24c0 8dbd
00000260: 4891 3abd 54f1 afbb 4ed7 11bd 3611 a9bc
00000270: d4d5 d93c 273f e6bd eb87 0bbc 1c75 083d
00000280: a285 abbc b315 cdbc 9df2 823d b415 a83d
00000290: e33b b33d 9401 5a3e 4aa1 3ebd 248e e43d
000002a0: c909 333e 8460 313e 6873 013e 3fd5 4ebc
000002b0: 5f22 5abd 484c 4abc 93ca 5abd 340f a9bd
000002c0: 513d e3bd 8592 d93c cee9 9fbd 3534 943c
000002d0: c455 ef3d 756e 6f3d 3d17 0d3e e6e8 ba3d
000002e0: 2e98 a4bd ed1b a03c 72f7 0d3e 9e4d 423c
000002f0: ffda f83d 0ea4 413d f683 bc3b 954d 17bc
00000300: b0a6 193e e299 12be e88b 84bd cf27 cc3d
00000310: b385 79bd f8d3 80bb 194b 613d 8ce8 713d
00000320: 6a63 7dbd 5bcd 233c ae3f 79bd 9f47 eb3a
00000330: 4f15 aa3d 214e b53b dabc 93bd b870 e33d
00000340: 11c5 ee3d baca 4c3d 0925 c33d 3d09 e7bd
00000350: 7153 9bbd befb 043e fa46 08bd 7bb8 ecbb
00000360: 476e 8a3c 3f24 11bd 14d2 e7bd 5718 cebd
00000370: 8868 6abe f655 79bd 6bf3 56bd 0537 633d
00000380: e959 20ba 71b7 3d3c 08d5 40bd d908 d1bc
00000390: 188f 283c ea74 23be 4759 dabd f35a 9bbd
000003a0: 9b5b 82ba 1fae 5abd c80f 1dbd 3e1b b53a
000003b0: c0ef a8bd 471d b7bc 83e6 50be 298f 86bd
000003c0: ac69 9ebd f9f3 5fbd dfd3 31be 8c07 4e3d
000003d0: 8270 933d 3014 b93d 4d6a 60bd b689 a7bd
000003e0: 52af 9fbc 1829 213c 0376 05be d4c0 d4bc
000003f0: 02cf b63b 9416 93bd 2273 053d 7bdb 183d

layer1.0.conv2.bias f4 [16]
1.4175048e-05 2.0227579e-05 -3.213183e-05 9.1718375e-06 -2.782414e-05 -3.2369957e-05 5.833527e-05 4.1624287e-05
9.267278e-06 6.181557e-05 -6.43547e-06 2.274911e-05 -1.04240635e-05 6.9576265e-05 6.417898e-05 1.3418281e-05
00000000: 5ed1 6d37 65ae a937 4ac5 06b8 bee0 1937
00000010: e367 e9b7 fac4 07b8 05ad 7438 bd95 2e38
00000020: a87a 1b37 fba2 8138 44f0 d7b6 57d5 be37
00000030: 03e3 2eb7 79e9 9138 d497 8638 141f 6137

layer1.0.bn2.weight f4 [16]
0.5280718 0.537737 0.40271023 0.45406485 0.57825875 0.4528108 0.6181253 0.43101007
0.47276405 0.5184708 0.3357989 0.4038444 0.54070044 0.5532215 0.60602516 0.36834314
00000000: b72f 073f 22a9 093f 0930 ce3e 307b e83e
00000010: c408 143f d1d6 e73e 763d 1e3f 5aad dc3e
00000020: 210e f23e 81ba 043f d5ed ab3e b1c4 ce3e
00000030: 586b 0a3f ed9f 0d3f 7724 1b3f 7997 bc3e

layer1.0.bn2.bias f4 [16]
-0.2824673 -0.077671394 -0.033092238 0.052289575 -0.049646813 0.2891048 -0.26054448 -0.2673242
-0.27711433 0.018453712 -0.25978038 -0.02024376 -0.16302286 -0.14387499 0.03647662 0.56756693
00000000: 8e9f 90be 2e12 9fbd ba8b 07bd 982d 563d
00000010: 755a 4bbd 8b05 943e 1666 85be b8de 88be
00000020: eee1 8dbe 3d2c 973c ef01 85be 3ed6 a5bc
00000030: 77ef 26be f753 13be 8268 153d 114c 113f

layer1.0.bn2.running_mean f4 [16]
-0.9538041 -1.1913362 -0.79775196 -1.060995 -1.2932204 -0.0578286 -1.5329784 1.1723936
-1.0795318 -1.2889866 0.1062098 -1.0120066 -1.2475792 -0.6968416 -1.5141766 0.41550702
00000000: 812c 74bf b47d 98bf 7939 4cbf afce 87bf
00000010: 3f88 a5bf afdd 6cbd a338 c4bf fe10 963f
00000020: 192e 8abf 83fd a4bf 8684 d93d 6f89 81bf
00000030: adb0 9fbf 3664 32bf 8ad0 c1bf 56bd d43e

layer1.0.bn2.running_var f4 [16]
3.706094 1.7321298 0.9850157 1.1630083 1.0831413 1.8553445 1.6495681 2.3814802
1.2271022 1.1148393 1.4115179 1.2008164 1.5759742 1.011829 1.2325412 2.0214894
00000000: a530 6d40 6eb6 dd3f fd29 7c3f 75dd 943f
00000010: 60a4 8a3f ee7b ed3f 0c25 d33f 2c6a 1840
00000020: af11 9d3f 0eb3 8e3f 9eac b43f 5ab4 993f
00000030: 86b9 c93f 9d83 813f e9c3 9d3f 1560 0140

layer1.0.conv3.weight f4 [16, 16, 1, 1, 1]
-0.10607589 -0.106492124 0.130957 -0.009435533 0.047712985 -0.058794394 -0.10486392 -0.12886366
0.032832615 -0.09569649 -0.1739441 -0.14316477 0.049824573 -0.2972581 -0.057212193 -0.1535518
0.043866195 0.027806709 0.0037771848 0.146257 0.2474415 0.10937524 -0.033537664 0.18537614
0.0762147 0.056272306 0.09772563 -0.0707218 0.13722514 0.016346348 -0.07515651 -0.17372464
0.11675528 0.09958571 -0.017529022 0.08255467 -0.052532934 -0.037556022 0.037100717 -0.24865358
0.07077345 0.062646 0.042780742 -0.1462816 0.21799529 0.0007071458 -0.10339076 -0.12611936
0.09731167 -0.18851982 -0.08373358 -0.03412242 -0.06664076 -0.18412703 0.1465883 -0.10742961
0.009059778 -0.15190302 -0.05612959 0.06402074 0.0016103865 -0.06827327 0.14347877 -0.20891042
0.034745008 -0.006215975 0.07927597 0.040462986 0.1707181 -0.11094342 0.07818426 -0.10952385
0.23412482 -0.07193488 -0.055710416 0.08466728 0.17951109 0.22063138 0.111325614 -0.00021771784
-0.2625969 -0.01717608 -0.10974032 -0.0069482448 0.032016896 0.13313931 0.05707893 -0.009799233
-0.083442606 -0.069852985 -0.29777503 0.016330795 0.03192269 -0.024013083 0.01645171 -0.049135357
-0.21292879 0.22349453 -0.029507976 0.0749952 0.03889161 0.024494175 0.12848513 -0.07235164
0.05293853 0.10130627 -0.08412552 -0.0077841687 -0.06452592 -0.008910648 0.20332412 -0.11535266
-0.17172167 -0.036092613 0.15961768 -0.07111749 0.14158781 0.16626635 -0.13144965 0.1121269
-0.05202867 0.11728961 -0.017032653 -0.05152389 0.0035257936 0.060281735 -0.028824301 0.23661272
-0.13569927 -0.12254011 0.02307411 0.0020868392 0.18953112 0.11069828 0.061567474 -0.12808941
-0.12759896 0.075935066 0.0019465033 -0.12293511 -0.009320183 -0.09805222 0.06899263 0.08096668
0.07788332 0.14774117 0.032663476 0.17062858 0.07574238 -0.16692798 0.028423892 -0.046504986
0.07572169 0.22100899 0.056789685 -0.10803179 0.114434995 0.106922545 -0.050594006 -0.18043442
-0.033747397 -0.08693533 -0.1832787 -0.09674648 -0.14052556 0.0009890796 -0.3223265 0.08851653
-0.08973535 -0.20467691 0.06968567 -0.07890768 0.047722746 -0.034304265 -0.27585134 0.004414757
0.1253704 -0.31752384 -0.1813937 -0.11863108 -0.21803969 0.025256705 -0.14053687 0.08791438
-0.09923458 -0.23991622 0.103687584 0.055647574 -0.072533265 -0.04054235 0.009431096 0.04453136
0.023156013 0.011917256 0.06815747 -0.07319644 0.07037222 0.17089806 0.15254419 -0.18157314
0.12589741 -0.06763256 -0.04434545 -0.035766806 0.1536633 0.19657889 0.04085993 -0.10741586
0.11105135 0.08097777 -0.08077076 0.05739815 -0.00045367447 -0.13830459 0.23965506 0.050641667
0.056398273 0.117853254 0.038254783 0.15709123 0.040582668 0.0015528406 0.23475493 -0.14915626
0.07059867 -0.020649364 -0.117956534 -0.049326427 -0.1760414 -0.14204435 0.12457814 -0.116845556
0.15795851 -0.10712377 -0.18932359 0.054577053 0.10100947 0.14617704 0.11675116 -0.08673414
-0.031285524 0.0848622 -0.008989696 0.019773409 0.17275949 0.0002888185 0.13662076 -0.11081793
0.17093532 0.12102531 -0.095368214 -0.08029596 0.10761272 0.072491 -0.32325134 -0.14248064
00000000: 513e d9bd 8b18 dabd 9819 063e 7e97 1abc
00000010: b16e 433d 64d2 70bd e5c2 d6bd d6f4 03be
00000020: 7e7b 063d 85fc c3bd 671e 32be c999 12be
00000030: da14 4c3d 3732 98be 5557 6abd af3c 1dbe
00000040: 0aad 333d e5ca e33c a58a 773b 65c4 153e
00000050: 4e61 7d3e 2000 e03d ca5e 09bd 3ed3 3d3e
00000060: 7416 9c3d ca7d 663d 6024 c83d 97d6 90bd
00000070: bf84 0c3e c7e8 853c a8eb 99bd dfe4 31be
00000080: 641d ef3d 98f3 cb3d 0699 8fbc 6c12 a93d
00000090: c62c 57bd 58d4 19bd ecf6 173d 0b9f 7ebe
000000a0: acf1 903d 8c4c 803d dc3a 2f3d d8ca 15be
000000b0: 283a 5f3e c05f 393a 89be d3bd 6f25 01be
000000c0: 574b c73d 570b 41be 837c abbd f3c3 0bbd
000000d0: f37a 88bd cc8b 3cbe 3e1b 163e 0e04 dcbd
000000e0: 776f 143c 778c 1bbe 24e8 65bd 4e1d 833d
000000f0: 9b13 d33a dbd2 8bbd 19ec 123e 9dec 55be
00000100: c850 0e3d 61af cbbb 715b a23d 84bc 253d
00000110: bad0 2e3e 4e36 e3bd 121f a03d 0a4e e0bd
00000120: 6bbe 6f3e 9852 93bd 9b30 64bd 0a66 ad3d
00000130: c1d1 373e 31ed 613e affe e33d 304b 64b9
00000140: 1a73 86be dab4 8cbc 88bf e0bd 1aae e3bb
00000150: 2624 033d ac55 083e 99cb 693d f68c 20bc
00000160: f5e3 aabd 150f 8fbd f875 98be 29c8 853c
00000170: 5ec1 023d 16b7 c4bc bdc5 863c 2842 49bd
00000180: 010a 5abe c0db 643e b6ba f1bc 1597 993d
00000190: cf4c 1f3d 02a8 c83c 9b91 033e 192d 94bd
000001a0: 12d6 583d a979 cf3d 004a acbd 5712 ffbb
000001b0: 2a26 84bd f7fd 11bc 3334 503e 043e ecbd
000001c0: ced7 2fbe d9d5 13bd d172 233e 0ca6 91bd
000001d0: 65fc 103e ba41 2a3e bd9a 06be caa2 e53d
000001e0: 041c 55bd 8935 f03d 1088 8bbc b70a 53bd
000001f0: 0011 673b fbe9 763d f120 ecbc 9b4a 723e
00000200: c0f4 0abe 4ff6 fabd ea05 bd3c 5ac3 083b
00000210: 7214 423e c8b5 e23d 2d2e 7c3d df29 03be
00000220: 4da9 02be d883 9b3d d021 ff3a 67c5 fbbd
00000230: aeb3 18bc 9acf c8bd 024c 8d3d dcd1 a53d
00000240: 4a81 9f3d 7649 173e 23ca 053d 42b9 2e3e
00000250: d21e 9b3d 2bef 2abe 39d9 e83c 037c 3ebd
00000260: f913 9b3d 2e50 623e 4d9c 683d c53f ddbd
00000270: e55c ea3d 35fa da3d a93b 4fbd cdc3 38be
00000280: b63a 0abd 260b b2bd 69ad 3bbe 0523 c6bd
00000290: efe5 0fbe 01a4 813a fb07 a5be 2848 b53d
000002a0: 2bc7 b7bd d396 51be 5cb7 8e3d 5a9a a1bd
000002b0: ed78 433d a182 0cbd 633c 8dbe aaa9 903b
000002c0: 1961 003e 7c92 a2be 45bf 39be daf4 f2bd
000002d0: cc45 5fbe 26e7 ce3c e6e8 0fbe 740c b43d
000002e0: 803b cbbd 99ac 75be 285a d43d b6ee 633d
000002f0: 528c 94bd bc0f 26bd e284 1a3c 8466 363d
00000300: aeb1 bd3c 9840 433c 2596 8b3d 04e8 95bd
00000310: 4f1f 903d e7ff 2e3e 8b34 1c3e 4fee 39be
00000320: 40eb 003e f182 8abd 93a3 35bd 3780 12bd
00000330: ea59 1d3e fa4b 493e be5c 273d d9fc dbbd
00000340: e46e e33d acd7 a53d 246b a5bd 531a 6b3d
00000350: 28db edb9 b89f 0dbe 2368 753e a36d 4f3d
00000360: e001 673d 0c5d f13d 0cb1 1c3d 86dc 203e
00000370: 033a 263d af88 cb3a 9963 703e 6bbc 18be
00000380: 0996 903d db28 a9bc 3293 f1bd 820a 4abd
00000390: 3244 34be 1374 11be d322 ff3d b94c efbd
000003a0: e0bf 213e b563 dbbd 0bde 41be 308c 5f3d
000003b0: 0ede ce3d 6faf 153e 3b1b ef3d aba1 b1bd
000003c0: 4025 00bd 3ccc ad3d 8549 13bc d8fb a13c
000003d0: dde7 303e 906c 9739 50e6 0b3e 83f4 e2bd
000003e0: ab09 2f3e 1edc f73d 6950 c3bd 3572 a4bd
000003f0: 0f64 dc3d 2976 943d 3381 a5be 72e6 11be

layer1.0.conv3.bias f4 [16]
3.6772835e-05 0.00013424981 -1.346339e-05 -0.00016346014 0.0005026242 7.912862e-06 0.00014398158 2.7601833e-05
-4.5658984e-05 -6.364487e-05 5.66989e-06 -2.922262e-06 3.4628676e-05 1.5476166e-05 -3.111054e-07 8.5302345e-05
00000000: 883c 1a38 69c5 0c39 d2e0 61b7 7f66 2bb9
00000010: 8ac2 033a 7cc1 0437 c3f9 1639 7c8a e737
00000020: f681 3fb8 1479 85b8 fc3f be36 141c 44b6
00000030: 423e 1138 d0d2 8137 0006 a7b4 59e4 b238

layer1.0.bn3.weight f4 [16]
0.41370818 0.33200848 0.576466 0.57986337 0.6184894 0.37607402 0.4658709 0.6220912
0.4156131 0.45611808 0.5222727 0.4847849 0.573103 0.42624032 0.62279284 0.6598256
00000000: 8fd1 d33e 04fd a93e 4793 133f ed71 143f
00000010: 5255 1e3f c68c c03e a186 ee3e 5e41 1f3f
00000020: 3ecb d43e 4f88 e93e aab3 053f ba35 f83e
00000030: e1b6 123f 2c3c da3e 5a6f 1f3f 55ea 283f

layer1.0.bn3.bias f4 [16]
0.48443353 -0.35736194 -0.36233917 -0.30646998 -0.1292789 0.02816855 -0.14613947 -0.45603153
-0.006671514 -0.36076847 0.09311602 -0.08121691 -0.16103713 -0.37539494 -0.2596576 -0.34007555
00000000: ac07 f83e 25f8 b6be 8584 b9be a2e9 9cbe
00000010: b061 04be bbc1 e63c 96a5 15be f77c e9be
00000020: b79c dabb a5b6 b8be 9db3 be3d 0d55 a6bd
00000030: ebe6 24be c433 c0be d7f1 84be 621e aebe

layer1.0.bn3.running_mean f4 [16]
-0.21457165 0.035577927 -0.07972411 -0.2276281 0.083650276 -0.029210687 0.038257536 0.22201683
0.09302038 -0.040285427 -0.21553767 -0.13976859 0.039944988 0.015679797 -0.113419056 -0.07803002
00000000: acb8 5bbe 29ba 113d 6546 a3bd 5717 69be
00000010: d650 ab3d 404b efbc efb3 1c3d 6158 633e
00000020: 7881 be3d 5502 25bd e8b5 5cbe 7f1f 0fbe
00000030: 5b9d 233d eb72 803c 4048 e8bd 34ce 9fbd

layer1.0.bn3.running_var f4 [16]
0.009038807 0.014707166 0.0114986915 0.014806834 0.012695968 0.009441237 0.018865723 0.014972511
0.009801198 0.021878384 0.027839404 0.03134469 0.00999259 0.023730915 0.0081168385 0.011503453
00000000: 8117 143c 53f6 703c 0265 3c3c 5d98 723c
00000010: c002 503c 6baf 1a3c 4a8c 9a3c 434f 753c
00000020: 3495 203c 4c3a b33c 760f e43c 4a63 003d
00000030: f6b7 233c 5667 c23c 7dfc 043c fb78 3c3c

layer1.0.shortcut.0.weight f4 [16, 8, 1, 1, 1]
-0.062285118 -0.27741152 -0.046095494 -0.114735864 -0.052953616 -0.11078644 -0.036077492 -0.037707876
-0.029229598 -0.10030368 -0.0124373175 0.06964206 0.05379174 0.2152012 0.08751039 -0.1395906
0.0692675 -0.10276609 -0.15720293 -0.0987931 -0.16985692 -0.09631562 -0.11379331 -0.05679106
-0.090507105 -0.11662834 -0.0604299 -0.12135635 0.01827417 -0.09318411 -0.08290943 -0.15049493
-0.13636097 -0.07225331 -0.063049994 -0.07762996 -0.0075472905 -0.05053931 -0.13321862 -0.2045953
-0.0145156095 0.3597676 0.005975205 -0.021467464 -0.0057058493 -0.00476262 0.013670547 -0.04192969
-0.39845255 -0.18757346 -0.04485372 0.08115932 0.030448586 0.036315396 -0.0052673 0.030131597
-0.12593691 -0.050516963 0.06040204 0.21170634 0.009233061 0.19253975 -0.011988525 -0.059884958
-0.07390629 0.062054694 -0.20470707 -0.050148886 0.082684316 0.09377775 -0.05810205 -0.15123516
0.123215064 0.40046912 -0.06048225 -0.013492413 0.051523972 0.016500104 0.01617047 0.055052675
0.028622871 -0.30231708 0.06330211 0.051171955 0.05773344 -0.048287224 0.08313537 0.00989241
0.15890521 0.18109417 -0.03009113 0.032555275 -0.035687122 0.03425103 0.076745406 -0.20730615
-0.02504663 -0.20793101 -0.09440496 -0.051857434 -0.068893515 -0.012551176 -0.12287294 0.06695576
0.06668506 0.164239 -0.034963205 -0.058962423 0.0019401836 0.015761532 0.011699261 0.29552525
0.029712433 0.045003366 -0.09348985 0.009884176 -0.14557518 -0.08774102 -0.20098783 -0.1651239
-0.029232932 -0.16760358 -0.109217316 -0.12667154 0.05364556 0.09055911 -0.0827693 -0.08103439
00000000: ae1e 7fbd e208 8ebe a1ce 3cbd a3fa eabd
00000010: e4e5 58bd 00e4 e2bd fec5 13bd 9373 1abd
00000020: e972 efbc 046c cdbd e4c5 4bbc 7fa0 8e3d
00000030: ba54 5c3d b45d 5c3e a638 b33d d7f0 0ebe
00000040: 1edc 8d3d 0777 d2bd cef9 20be 0954 cabd
00000050: f9ee 2dbe 2041 c5bd 780c e9bd be9d 68bd
00000060: ca5b b9bd d7da eebd 5885 77bd ae89 f8bd
00000070: b6b3 953c 50d7 bebd 6bcc a9bd 581b 1abe
00000080: 36a2 0bbe 8bf9 93bd 5b20 81bd 75fc 9ebd
00000090: 434f f7bb 4f02 4fbd 766a 08be 6e81 51be
000000a0: e1d2 6dbc 7533 b83e a7cb c33b 89dc afbc
000000b0: 22f8 babb c10f 9cbb 6efa 5f3c 77be 2bbd
000000c0: f901 ccbe 4213 40be 89b8 37bd dc36 a63d
000000d0: 506f f93c 74bf 143d 5199 acbb 8ad6 f63c
000000e0: 9bf5 00be e0ea 4ebd 2168 773d 8cc9 583e
000000f0: 4446 173c 2429 453e 856b 44bc ee49 75bd
00000100: 2e5c 97bd 102d 7e3d bb9e 51be eb68 4dbd
00000110: 6556 a93d 8d0e c03d 6afc 6dbd 64dd 1abe
00000120: 2e58 fc3d 4a0a cd3e 3cbc 77bd 480f 5dbc
00000130: cd0a 533d 3a2b 873c ef77 843c ea7e 613d
00000140: 837a ea3c 4ec9 9abe 89a4 813d af99 513d
00000150: e679 6c3d d3c8 45bd e042 aa3d c613 223c
00000160: 0cb8 223e c070 393e ac81 f6bc ae58 053d
00000170: a92c 12bd cf4a 0c3d b22c 9d3d 1048 54be
00000180: 972e cdbc deeb 54be 6357 c1bd 7668 54bd
00000190: 0b18 8dbd 73a3 4dbc cfa4 fbbd 1a20 893d
000001a0: 2d92 883d 452e 283e 9435 0fbd 9582 71bd
000001b0: c24d fe3a 541e 813c 42ae 3f3c 164f 973e
000001c0: 7d67 f33c 7355 383d 9b77 bfbd 3df1 213c
000001d0: a911 15be 90b1 b3bd c1cf 4dbe 3d16 29be
000001e0: e779 efbc 46a0 2bbe 54ad dfbd 2fb6 01be
000001f0: 72bb 5b3d 0e77 b93d f382 a9bd 5cf5 a5bd

layer1.0.shortcut.0.bias f4 [16]
-4.5811412e-05 2.6437992e-05 2.5638783e-06 4.5448953e-05 -5.369008e-05 -2.1153412e-05 9.563053e-05 6.776798e-05
9.4015675e-05 -0.00018650792 2.224608e-05 -2.5589754e-05 -6.0859405e-05 6.0208346e-05 5.5580946e-05 -3.393359e-05
00000000: a125 40b8 28c7 dd37 180f 2c36 71a0 3e38
00000010: 4931 61b8 9b72 b1b7 408d c838 a81e 8e38
00000020: 482a c538 5791 43b9 189d ba37 94a9 d6b7
00000030: 4a43 7fb8 3888 7c38 961f 6938 ea53 0eb8

layer1.0.shortcut.1.weight f4 [16]
0.50323915 0.3185105 0.2591576 0.19047457 0.48267183 0.47039488 0.60937077 0.27439618
0.39256322 0.45499068 0.40523466 0.3795758 0.56050855 0.43929288 0.39318752 0.36230382
00000000: 48d4 003f cf13 a33e 4eb0 843e c40b 433e
00000010: c320 f73e 99d7 f03e b9ff 1b3f a87d 8c3e
00000020: 0cfe c83e 8af4 e83e eb7a cf3e c257 c23e
00000030: 7d7d 0f3f ffea e03e e04f c93e e37f b93e

layer1.0.shortcut.1.bias f4 [16]
0.48443353 -0.35736194 -0.36233917 -0.30646998 -0.1292789 0.02816855 -0.14613947 -0.45603153
-0.006671514 -0.36076847 0.09311602 -0.08121691 -0.16103713 -0.37539494 -0.2596576 -0.34007555
00000000: ac07 f83e 25f8 b6be 8584 b9be a2e9 9cbe
00000010: b061 04be bbc1 e63c 96a5 15be f77c e9be
00000020: b79c dabb a5b6 b8be 9db3 be3d 0d55 a6bd
00000030: ebe6 24be c433 c0be d7f1 84be 621e aebe

layer1.0.shortcut.1.running_mean f4 [16]
-0.13069773 0.025698274 -0.1452622 -0.12965532 -0.13743265 0.041764475 -0.048272718 0.053867344
-0.05652073 0.093468174 -0.007461585 0.00578038 -0.08360424 0.09736207 -0.1268697 -0.07914256
00000000: a0d5 05be 3085 d23c 9dbf 14be 5dc4 04be
00000010: 25bb 0cbe 3a11 2b3d 9db9 45bd 01a4 5c3d
00000020: 4882 67bd 3e6c bf3d 5080 f4bb 5869 bd3b
00000030: b338 abbd c465 c73d 21ea 01be 7f15 a2bd

layer1.0.shortcut.1.running_var f4 [16]
0.038444795 0.014669653 0.026662448 0.021018166 0.020324202 0.022281181 0.01709319 0.024240937
0.017348867 0.02978055 0.021751402 0.022632182 0.016027635 0.012959608 0.025695823 0.008730138
00000000: 4a78 1d3d fc58 703c 356b da3c 4a2e ac3c
00000010: f17e a63c 0687 b63c 0507 8c3c ee94 c63c
00000020: 361f 8e3c 57f6 f33c ff2f b23c 2067 b93c
00000030: 634c 833c 8954 543c 0c80 d23c da08 0f3c

layer1.1.conv1.weight f4 [32, 16, 3, 3, 3]
-0.030664485 0.069299884 -0.02263144 -0.07331784 0.03782823 0.026927091 -0.09120079 -0.013952977
0.028340787 0.03508756 -0.0700918 0.16313687 -0.0267627 -0.06541747 0.11867682 -0.052892383
-0.1108673 0.031990934 -0.022749668 0.016658867 -0.13657364 0.085388556 0.033610016 -0.1591269
0.12996638 0.1301769 -0.039991044 0.017464172 0.015122838 0.036167912 0.030854136 -0.04487281
0.053906277 0.07473399 -0.036425795 0.045976333 0.014603747 -0.061728407 -0.06691014 0.041926544
0.03879633 -0.09838977 -0.06369096 0.080194876 -0.09300116 -0.024503184 0.041065875 0.041391555
-0.055208076 -0.008679032 0.052613683 0.0112950215 -0.060562495 0.05194265 -0.0059097977 0.10042696
0.070609145 0.005266296 -0.009778455 0.0043508997 0.094373755 0.026936555 0.023758603 0.02577305
-0.1472042 -0.04532988 0.12172846 0.02379065 -0.116611585 -0.0050395494 0.055810705 -0.07617875
0.0021736312 0.054884385 -0.023804016 -0.13318227 -0.029258111 0.110584065 -0.084854186 -0.093372546
0.044067886 -0.013075714 -0.001142613 0.012741191 0.022158213 -0.011384454 0.025693696 0.06378864
0.06747813 0.052339118 0.002924455 -0.050668124 -0.018685319 -0.022089114 -0.031056166 -0.065058224
-0.098294504 -0.07188116 -0.047717404 0.01432218 0.06279297 -0.0021150024 0.033634543 0.053837184
0.04933104 0.059705254 0.020815063 -0.0013189178 0.0032525226 -0.009316687 -0.028638989 -0.019880192
-0.059190582 0.0059021595 0.08286921 0.05757636 0.04882314 0.038381502 -0.008148056 -0.0156675
0.08680332 0.0949795 -0.038235538 -0.03976375 0.040093534 -0.02888549 -0.03580846 0.0061378735
0.04004367 -0.10094504 -0.06086126 0.04385742 -0.06364333 -0.09352971 -0.043311413 -0.047193363
-0.003018567 0.009834823 -0.04389929 -0.032295868 -0.023532646 -0.044887453 -0.03216448 -0.051783554
0.08176402 0.034726877 -0.019196196 0.06573666 0.019995907 0.0049225427 0.029614002 -0.015931956
0.063872196 -0.06189828 -0.03484629 0.03559699 -0.03754246 0.020500125 0.012144792 0.019286491
0.05221812 -0.02289189 -0.01271813 0.031954903 0.04579422 -0.061111603 -0.04307629 0.052656624
-0.07032702 -0.06178535 0.04182989 0.042595454 -0.09518907 -0.049873117 0.13609053 -0.017797632
-0.14360277 0.14163633 0.07083843 -0.11803221 -0.034066632 0.07144421 -0.0027277442 -0.107303746
0.067620665 0.09041249 -0.08993112 -0.02371352 0.086438306 0.0023093843 0.037567455 0.09380887
0.029936371 0.027123805 0.09300971 0.02418736 0.11338683 0.0762875 0.009265993 -0.038750216
-0.13517585 -0.022390163 -0.05535838 -0.104408436 -0.05033013 -0.1331404 -0.08406417 0.009152807
0.008106962 0.06678938 0.025200764 0.041438784 0.042245932 0.047024973 0.050806683 0.035175636
-0.0061079785 0.060463987 0.058075145 0.025272265 0.008512629 0.062623635 -0.004389126 0.024354078
0.024936745 -0.008460851 -0.054560985 -0.038713716 -0.013163647 0.0008752792 -0.062233284 -0.009443697
-0.046660442 -0.034631744 0.0090424735 -0.0048164846 0.0017809655 -0.03125544 -0.02519941 0.0039314595
0.004581697 0.036834586 0.015225513 -0.001801098 0.04105871 0.018696893 -0.0030389598 -0.046111804
-0.011881081 0.0651004 -0.0453338 0.031438313 0.08144433 -0.0757335 0.01807684 0.08741265
00000000: 1634 fbbc 19ed 8d3d 9265 b9bc aa27 96bd
00000010: c6f1 1a3d 3496 dc3c 7bc7 babd 079b 64bc
00000020: f02a e83c f9b7 0f3d 4a8c 8fbd 5a0d 273e
00000030: 733d dbbc 98f9 85bd d50c f33d afa5 58bd
00000040: 650e e3bd ed08 033d 835d babc 2d78 883c
00000050: f6d9 0bbe 32e0 ae3d a8aa 093d 29f2 22be
00000060: e815 053e 184d 053e a6cd 23bd 0611 8f3c
00000070: c8c5 773c ce24 143d d0c1 fc3c 8dcc 37bd
00000080: d4cc 5c3d 220e 993d 3733 15bd ae51 3c3d
00000090: 8e44 6f3c edd6 7cbd 2f08 89bd 2bbb 2b3d
000000a0: e7e8 1e3d 9380 c9bd 6870 82bd 363d a43d
000000b0: 6477 bebd e7ba c8bc b134 283d 318a 293d
000000c0: dd21 62bd 8032 0ebc 7281 573d c10e 393c
000000d0: 6110 78bd d1c1 543d faa6 c1bb a6ac cd3d
000000e0: 879b 903d e590 ac3b d035 20bc fe91 8e3b
000000f0: 0747 c13d 0daa dc3c 67a1 c23c 0122 d33c
00000100: b3bc 16be d3ab 39bd c54c f93d 9ce4 c23c
00000110: 0ed2 eebd ce22 a5bb c499 643d 9b03 9cbd
00000120: 7b73 0e3b 73ce 603d a400 c3bc ef60 08be
00000130: b5ae efbc e679 e23d 08c8 adbd 1b3a bfbd
00000140: 8780 343d 853b 56bc bbc3 95ba 6ec0 503c
00000150: 2485 b53c dc85 3abc 967b d23c 9ea3 823d
00000160: f931 8a3d 8b61 563d 37a8 3f3b 6189 4fbd
00000170: f411 99bc 3bf4 b4bc 8069 febc 3f3d 85bd
00000180: a14e c9bd 6e36 93bd 5373 43bd 94a7 6a3c
00000190: 9a99 803d da9b 0abb 60c4 093d 6184 5c3d
000001a0: 580f 4a3d 7f8d 743d 5a84 aa3c 8adf acba
000001b0: 4628 553b 04a5 18bc 509c eabc c9db a2bc
000001c0: d371 72bd e766 c13b 55b7 a93d 30d5 6b3d
000001d0: c6fa 473d ec35 1d3d 6d7f 05bc 2159 80bc
000001e0: f0c5 b13d 9d84 c23d de9c 1cbd 50df 22bd
000001f0: 1e39 243d 43a1 ecbc e4ab 12bd 3720 c93b
00000200: d504 243d 46bc cebd a849 79bd d7a3 333d
00000210: 6f57 82bd 818c bfbd 4f67 31bd d44d 41bd
00000220: 27d3 45bb 3d22 213c becf 33bd ac48 04bd
00000230: 89c7 c0bc e8db 37bd e7be 03bd fe1a 54bd
00000240: e573 a73d c53d 0e3d 5741 9dbc f1a0 863d
00000250: 75ce a33c 484d a13b 1099 f23c bc83 82bc
00000260: 6dcf 823d 0d89 7dbd fcba 0ebd 26ce 113d
00000270: 1fc6 19bd e1ef a73c f3fa 463c b4fe 9d3c
00000280: abe2 553d c687 bbbc b45f 50bc 25e3 023d
00000290: b892 3b3d 2950 7abd c470 30bd 79ae 573d
000002a0: 9d07 90bd a312 7dbd d255 2b3d 9278 2e3d
000002b0: 7df2 c2bd c147 4cbd 515b 0b3e 57cc 91bc
000002c0: 9b0c 13be 1d09 113e bd13 913d dfba f1bd
000002d0: 7489 0bbd 5851 923d f4c3 32bb 11c2 dbbd
000002e0: b47c 8a3d 2f2a b93d cf2d b8bd db42 c2bc
000002f0: 9106 b13d 0a59 173b 55e0 193d dd1e c03d
00000300: 1f3d f53c be32 de3c e07b be3d 9224 c63c
00000310: 5b37 e83d 9f3c 9c3d 64d0 173c 8cb8 1ebd
00000320: 8a6b 0abe 936b b7bc 78bf 62bd 17d4 d5bd
00000330: f726 4ebd f555 08be d629 acbd a8f5 153c
00000340: 10d3 043c dfc8 883d d571 ce3c b7bb 293d
00000350: 120a 2d3d 429d 403d ab1a 503d 5414 103d
00000360: 7025 c8bb 16a9 773d 34e0 6d3d c807 cf3c
00000370: 8e78 0b3c d240 803d a8d2 8fbb 3482 c73c
00000380: 2548 cc3c 629f 0abc 577b 5fbd 4692 1ebd
00000390: 56ac 57bc fe72 653a 54e8 7ebd bcb9 1abc
000003a0: 051f 3fbd 04da 0dbd e226 143c 9ad3 9dbb
000003b0: 496f e93a b405 00bd fe6e cebc 79d3 803b
000003c0: 0f22 963b dddf 163d 6e74 793c d212 ecba
000003d0: 2e2d 283d 3a2a 993c 4929 47bb bbdf 3cbd
000003e0: dea8 42bc 5c53 853d efaf 39bd 76c5 003d
000003f0: 49cc a63d 2a1a 9bbd e215 943c 6705 b33d

layer1.1.conv1.bias f4 [32]
-2.53896e-06 2.5023655e-06 4.2743354e-06 -1.4983357e-05 2.021442e-06 4.537902e-06 -1.0653295e-06 -8.02318e-06
-1.2178206e-11 -4.912098e-06 -1.170431e-05 -3.0538704e-06 -9.807567e-06 1.3252684e-05 -9.676124e-06 1.0409176e-06
-1.6065854e-07 5.1156303e-07 8.545689e-06 -5.9453687e-06 0.000111025365 1.5829978e-06 -3.2246467e-06 2.4753612e-05
2.0304196e-05 2.6514435e-05 -3.1413736e-06 2.3869757e-06 -8.582936e-06 6.034765e-06 2.6039189e-08 3.0926018e-05
00000000: 0063 2ab6 50ee 2736 436c 8f36 0761 7bb7
00000010: 1ca8 0736 4844 9836 71fc 8eb5 4c9b 06b7
00000020: c43d 56ad 9ad2 a4b6 a15d 44b7 18f1 4cb6
00000030: 2e8b 24b7 d857 5e37 a356 22b7 a8b5 8b35
00000040: 7c81 2cb4 5852 0935 745f 0f37 547e c7b6
00000050: 4ad6 e838 6477 d435 0267 58b6 faa5 cf37
00000060: ee52 aa37 516b de37 63d0 52b6 ee2f 2036
00000070: 6eff 0fb7 3d7e ca36 c8ac df32 8fb6 0138

layer1.1.bn1.weight f4 [32]
0.30372834 0.42533937 0.20633537 0.43524027 0.19413619 0.43088534 0.2020977 0.221952
0.00047736752 0.44875565 0.34019256 0.36870632 0.5386865 0.3191844 0.2775906 0.24726033
0.21336938 0.13245441 0.30788305 0.3425273 0.5343229 0.42812142 0.28487232 0.4614157
0.32976213 0.40925613 0.18250495 0.34257835 0.36726105 0.27612588 0.027962029 0.2581388
00000000: 4882 9b3e 15c6 d93e 9449 533e d0d7 de3e
00000010: a3cb 463e 019d dc3e b3f2 4e3e 6347 633e
00000020: 2f47 fa39 4dc3 e53e b82d ae3e 13c7 bc3e
00000030: 5ce7 093f 236c a33e 5b20 8e3e d031 7d3e
00000040: 817d 5a3e 21a2 073e d9a2 9d3e bd5f af3e
00000050: 63c9 083f bb32 db3e c9da 913e ae3e ec3e
00000060: 95d6 a83e 058a d13e 94e2 3a3e 6e66 af3e
00000070: a409 bc3e 5f60 8d3e a010 e53c c52a 843e

layer1.1.bn1.bias f4 [32]
-0.33783668 -0.20509243 -0.18415137 -0.24142751 -0.21083176 -0.12323061 -0.22326064 -0.19070362
-0.046916526 -0.22940013 -0.3112759 -0.10023222 -0.17716345 0.20874883 -0.22551025 -0.23483486
-0.36539254 -0.23831896 -0.3520447 -0.25027856 0.61318415 -0.17319484 -0.21650115 -0.21356866
-0.2817702 0.19235918 -0.17938685 -0.089839295 -0.29316455 -0.2423853 -0.12517907 0.11501097
00000000: eef8 acbe c003 52be 2d92 3cbe c638 77be
00000010: 48e4 57be 5460 fcbd 709e 64be cf47 43be
00000020: 8b2b 40bd dee7 6abe 8e5f 9fbe 8d46 cdbd
00000030: 566a 35be 41c2 553e 29ec 66be 8d78 70be
00000040: bb14 bbbe e309 74be 343f b4be 8324 80be
00000050: a3f9 1c3f fd59 31be 7ab2 5dbe beb1 5abe
00000060: 2f44 90be cef9 443e 30b1 37be aafd b7bd
00000070: aa19 96be da33 78be f12e 00be df8a eb3d

layer1.1.bn1.running_mean f4 [32]
-0.0041445578 0.0035409818 0.016693728 -0.086927034 0.005824243 -0.08637881 -0.028205248 -0.016868966
0.0002522909 0.021478256 0.029243398 -0.034470674 0.01739465 -0.09455865 -0.010867388 -0.033333268
0.01198141 0.08009838 0.016013073 0.11572695 -0.06272144 0.03307925 -0.004088844 -0.029082084
-0.0027874378 0.13264479 -0.0019470175 -0.12415599 -0.01703139 0.012044709 -0.035998017 0.11581847
00000000: 12cf 87bb d10f 683b 49c1 883c cd06 b2bd
00000010: 4bd9 be3b 60e7 b0bd b10e e7bc c930 8abc
00000020: e945 8439 2bf3 af3c da8f ef3c 1f31 0dbd
00000030: 3a7f 8e3c f7a7 c1bd 210d 32bc 7788 08bd
00000040: ad4d 443c 9f0a a43d d92d 833c 4002 ed3d
00000050: 1974 80bd 1c7e 073d b6fb 85bb 8d3d eebc
00000060: 72ad 36bb 09d4 073e 1133 ffba 7f45 febd
00000070: 6a85 8bbc 2c57 453c a872 13bd 3c32 ed3d

layer1.1.bn1.running_var f4 [32]
0.63550705 0.9405482 0.42118582 0.8568514 0.28879645 1.4456401 0.27152276 0.5487182
0.0004479135 1.0102317 0.72855824 0.77165115 1.10854 1.9230944 0.5334925 0.5425584
0.45622283 0.30958283 0.7377568 0.86211634 1.8571239 0.7516235 0.6270149 0.5828615
0.78297156 1.4137543 0.39455742 1.0962205 0.476491 0.5133106 0.0512025 0.8678949
00000000: 97b0 223f c4c7 703f aba5 d73e 9d5a 5b3f
00000010: 21dd 933e bc0a b93f 0805 8b3e cc78 0c3f
00000020: efd5 ea39 464f 813f cb82 3a3f ee8a 453f
00000030: a4e4 8d3f f527 f63f f792 083f 1be5 0a3f
00000040: 0a96 e93e a481 9e3e a1dd 3c3f a8b3 5c3f
00000050: 3cb6 ed3f 666a 403f 0c84 203f 6936 153f
00000060: d370 483f e7f5 b43f 6e03 ca3e f450 8c3f
00000070: a1f6 f33e 5368 033f b6b9 513d 5c2e 5e3f
