log/sem_seg/SatVideoIRSDT__2025-07-22_19-41__SoftLoUloss_DeepPro-Plus_DataL40/checkpoints/best_model.pth (torch, 940587 bytes, 213 tensors)

conv_in.0.weight f4 [8, 1, 5, 7, 7]
00000000: 4372 0dbe d213 53bd 5fe3 143d 504b 1f3e
00000010: 41d1 b23d 35bf ddbc 133e 00be 49e1 92bc
00000020: fbb9 9f3c edd1 9b3c f194 073e ef01 a03d
00000030: bd14 673c f7f4 12bd d1f3 8eba 51ae 5a3b
00000040: 6919 083d 56ff af3d 0078 563d 0994 6c3c
00000050: ad7a 78bc b3a7 d5bb c082 24bd 8a11 1a3c
00000060: 534f bb3b 7d53 6dbd 5acb 5a3b 4d56 6b3d
00000070: a37f 0abd fd5f aebd 29a1 8ebd cb32 993d
00000080: fe52 a0bc f953 14bd a584 54bb d55f 6a3d
00000090: 3a1f 603d d679 4c3d 495e 103e 69d8 0c3d
000000a0: 9fec 8dbd db31 52bd d405 2eba 1f21 863d
000000b0: ab34 f43d 4a2d 0c3e 8036 b83c 40fd 9abd
000000c0: ebda 1dbd fc98 06be 437d e6bd 03a0 d0bd
000000d0: 26d8 62bd 98ee 70bd d6fa 1abd 4db7 0ebd
000000e0: 37c0 80bd cacb 3c3c b283 fd3d 02b7 663e
000000f0: 9de9 373e 5d75 ca3d 3a0a b53c 3bbc 9abc
00000100: a95c 393b 6336 a33d 4de5 9a3e 5c0a 6b3e
00000110: 7b63 f93d f57f febb a348 c03c e7ed e3bc
00000120: 387d aebd 3558 243d 4968 e33d 5174 1e3e
00000130: 44a9 1c3c a3d6 96bc 2671 4bbd 233e a2bd
00000140: 3e7f 293d 048c e9bc 2595 303b 5e5a 8bbd
00000150: a2a2 3bbd f518 21bc 6b46 98bc 7645 333d
00000160: 4181 273c 4eb9 90bc 302d 0ebd 6299 b1bd
00000170: 33f5 9dbd 26ca 53bd 1c31 633b 6116 e23a
00000180: 5ae3 aabb ee8c debc 91e4 563d 108e 073d
00000190: 5ac4 f9b9 3712 0abd 492f 4dbd e4fa a4ba
000001a0: 4901 dbbc 59dd 253d beda d03c 50d3 073d
000001b0: 0974 bb3d 349c 5a3c dbb6 d3bb d44a 3abd
000001c0: 9849 133d b7bc 90bc fc05 163d 07e6 0d3e
000001d0: f929 8db8 04cb daba 0b68 04bd d36e 863d
000001e0: c9bb 8d3b d799 2f3b 75e2 8a3b 54a8 a13b
000001f0: e885 9f3d 9abe 24bc c16d 383d ce11 1cbd
00000200: 7521 eabd c95b 60bd 20bf e3bd 4771 9ebd
00000210: 7c64 c1bd b6b9 043d fdec f7bc 0a63 c7bd
00000220: e0ad 54bd 8cef 83bd 1622 b5bd 907f b4bd
00000230: bf8b dd3c a38c 18ba 5806 0cbd b0f2 2bbb
00000240: 63d6 3dbc a0ee ccbc 61e1 b9bd 3292 353e
00000250: 7709 b63d f9fb 3b3d 238e 7e3d 4978 e93d
00000260: ecc8 3d3e 5042 203e b9ed 823e a11e a63d
00000270: 286f 343e e734 483e 8c6b f03d 864f b43d
00000280: b66f 483d 1ffd 503e 8c41 2a3e bf1a b33e
00000290: 6c9d 403e cc91 3f3e 3398 013e 64c8 1cbc
000002a0: d1e6 273e 40dc 723e de36 aa3e f87f 293d
000002b0: 7100 173e 422f 4c3e 7fc8 be3d ae00 cb3d
000002c0: b917 1e3e dacb 523e 6104 1a3e 5331 7c3e
000002d0: 6273 e33d 5371 693d 3207 043e f268 ba3d
000002e0: 2cbc 0f3e 875d 453e 5cdc 3c3e 7c59 ff3c
000002f0: 65e9 313d 509f 513e 5656 0f3e d0f5 e03d
00000300: fe3f bd3d 2907 ee3d 1a76 bc3d f0f8 f63d
00000310: 42db 83bc e728 273d eab2 50bd d543 aebd
00000320: f614 86bd 4cd5 97bc 3bf3 1ebd 3ddb 8e3c
00000330: bd17 443c 13c4 3cbd 21fa 8ebd cae0 92bd
00000340: 4e3b b1bc 0819 6abc 5c16 e43c b6f2 b1bc
00000350: ccbf 5bbc 9879 efbc 0200 77bd 0998 1dbd
00000360: 1eab 0dbc c6ee ce3d 8569 c43c 4157 143d
00000370: 6463 353d a457 dc3c f171 4f3d a676 2d3d
00000380: 5b56 7c3d ecdf e7bc 0a42 89bc 0273 7d3d
00000390: a33a a23d 4b2c e03c d684 cf3c 43c8 1d3c
000003a0: 3ac3 12bd add8 50bd 4473 95bc a579 813c
000003b0: f36e 023c 0244 1e3d cb2f 3f3b acf8 0cbd
000003c0: ba7a 9ebd c45f 83bd 4f71 203c 3d6a 583d
000003d0: 91e4 643d ce5f f13c f272 063d eb94 44b9
000003e0: 4ee3 24bd e7e4 ad3c d2ed 7a3d bd11 d03c
000003f0: 1991 523d 6cbe 713d b4b8 633d 50a0 993d
-0.13813119 -0.051532574 0.03634965 0.15556073 0.08731318 -0.027068714 -0.1252368 -0.01792969
0.019497862 0.019020999 0.1324041 0.07812869 0.0141040655 -0.035878148 -0.0010906403 0.003336806
0.033227358 0.08593623 0.052360535 0.014439591 -0.015165967 -0.0065202354 -0.040163755 0.009403596
0.0057162433 -0.05794095 0.0033385367 0.05745535 -0.03381313 -0.08514402 -0.069643326 0.07480391
-0.019570824 -0.036212895 -0.0032427695 0.0572203 0.05471728 0.04992088 0.14098467 0.034386072
-0.069298975 -0.051317077 -0.00066384417 0.06549286 0.11924108 0.13689151 0.022486925 -0.07567835
-0.038538855 -0.13144296 -0.112543605 -0.1018677 -0.055381916 -0.05882129 -0.037836872 -0.034842778
-0.06286662 0.0115231965 0.123786345 0.2253075 0.1796021 0.098856665 0.022099603 -0.018888583
0.002828399 0.07969358 0.30253068 0.2295317 0.121771775 -0.0077667185 0.023472136 -0.027823402
-0.08519977 0.040123183 0.11103875 0.15474059 0.00956184 -0.018412894 -0.049668454 -0.07922008
0.041381113 -0.028509147 0.0026944366 -0.068043455 -0.045809396 -0.00983261 -0.018588265 0.043767415
0.010223688 -0.017666485 -0.034711063 -0.086718336 -0.07712784 -0.051706456 0.0034666723 0.0017249101
-0.0052150907 -0.02716681 0.05246407 0.033094466 -0.00047639274 -0.033708777 -0.050093923 -0.0012586978
-0.026734011 0.040494297 0.02549493 0.033160508 0.09152991 0.013342906 -0.006461007 -0.045481518
0.035958856 -0.017668111 0.0366268 0.1385728 -6.731222e-05 -0.0016692583 -0.032325786 0.06564107
0.0043253643 0.0026794577 0.0042384216 0.0049333964 0.077892125 -0.010055209 0.045026544 -0.038102917
-0.11432163 -0.054775033 -0.111204386 -0.0773645 -0.09442994 0.03240367 -0.030264372 -0.09735687
-0.051923633 -0.06442174 -0.08844392 -0.08813393 0.027044175 -0.00058192963 -0.034185737 -0.0026237182
-0.011586758 -0.025016129 -0.09076191 0.1773155 0.08888524 0.045894597 0.06214727 0.11399896
0.18533677 0.15650296 0.25571993 0.08111311 0.17620528 0.1955143 0.11739263 0.088042304
0.04893466 0.20409058 0.16626567 0.34981343 0.18810052 0.18707961 0.12655716 -0.009569261
0.16396643 0.23716831 0.33244985 0.041381806 0.14746262 0.19939902 0.09315585 0.09912239
0.15438737 0.20585576 0.15040733 0.2462819 0.11105992 0.05699284 0.1289337 0.09102048
0.14036626 0.19273959 0.18443435 0.0311706 0.043435473 0.20470929 0.13997778 0.10984385
0.09240721 0.116224594 0.092022136 0.120592 -0.016095761 0.040810492 -0.050951876 -0.08509032
-0.06546967 -0.018534325 -0.03880618 0.017438525 0.01196855 -0.04608543 -0.06981302 -0.07171781
-0.021634724 -0.0142881945 0.027842693 -0.021722179 -0.013412427 -0.029232785 -0.06030274 -0.03847507
-0.008646755 0.10104136 0.023976097 0.036216024 0.04428424 0.026897259 0.050645772 0.04234948
0.061605792 -0.028305016 -0.016755123 0.061877258 0.0792134 0.02736487 0.025331896 0.009630266
-0.035830714 -0.050987888 -0.01824344 0.015805075 0.007961023 0.038639076 0.0029172774 -0.03441684
-0.07738252 -0.0641475 0.00979264 0.05283569 0.05588204 0.029464629 0.032824464 -0.00018747493
-0.040255837 0.021227313 0.06126196 0.025399083 0.051407907 0.05901949 0.05559607 0.0750128

conv_in.0.bias f4 [8]
00000000: e0af 8d35 e2a0 8a37 aeb3 16b7 68bd 2836
00000010: fb18 0f36 707d a935 4a74 c5b7 b8f9 b9b6
1.0556505e-06 1.6525799e-05 -8.982532e-06 2.51442e-06 2.13232e-06 1.2627988e-06 -2.3538381e-05 -5.5425007e-06

conv_in.1.weight f4 [8]
00000000: b20d 363f 6e43 573f 5971 0f3f 3799 f43e
00000010: 89e3 2f3f 3ad3 273f b25e 473f 7600 163f
0.7111465 0.84087265 0.5603233 0.47773144 0.68706566 0.6555668 0.7787887 0.58594453

conv_in.1.bias f4 [8]
00000000: fa50 e33d a6ef 0c3c ca2c ac3c a113 ebbc
00000010: edf1 c0bb b5d6 03bd 8b6d c7bd f8bb 283c
0.110994294 0.0086020585 0.02101745 -0.028695883 -0.005888215 -0.032187182 -0.097376905 0.0102987215

conv_in.1.running_mean f4 [8]
00000000: 4228 693c 7389 afbb 7929 b9bd b2cc e0bc
00000010: 8ddf 0eba 3553 a7bb 606b 08bc 44c0 b23c
0.01423079 -0.0053569614 -0.090411134 -0.027441356 -0.0005450182 -0.0051063546 -0.008326381 0.021820195

conv_in.1.running_var f4 [8]
00000000: 146d 1f41 f0ab 9441 3300 9b41 32d5 2a41
00000010: f256 1341 bdcf 5441 e6ea 5240 4265 8641
9.96413 18.583954 19.375097 10.67705 9.208727 13.300717 3.295587 16.799442

layer1.0.conv1.weight f4 [16, 8, 3, 3, 3]
00000000: 8ee3 363d 2748 f43d de55 543e 9eb5 04bd
00000010: 19b4 eabd 3f43 01be b200 d13d dbc0 603d
00000020: 88e1 f93d dfb8 7dbc aff9 bbbc 62df 18bd
00000030: eec3 3dbc 7bca 7dbc d3d1 1c3d 6438 0fbb
00000040: 586e ee3b ba45 dc39 933e 55bd b101 bbbd
00000050: f2b4 1fbe 4f92 883d 13cc 0c3e 3301 9d3d
00000060: 7110 04be da41 7bbd 784d eebd 56ab 42bd
00000070: 7371 a4bc e86e 8c3e 0054 0f3b 8379 d7bd
00000080: efb7 00be 7c31 e73d 70f9 dfbc 6799 0d3e
00000090: 7acc e83c 940d cc3d c7cd 293c e25f 6f3d
000000a0: e134 a53c c58d 963b 2f1c 8ebc d6f2 033c
000000b0: ed4f e13c 4be6 043d bd20 a7bd 3255 7dbe
000000c0: 858c 73bd 6e1d a63d de28 0b3e 1b3a a4bd
000000d0: 3091 6d3c 9eac 33be 16dc 003d d1b5 e13d
000000e0: d1ea 843c 0567 95bd f94d 5dbd 9eae 2abd
000000f0: 35f3 df3c 91d9 903d f323 423d 18a5 c63b
00000100: 705e b6bd dea7 fe3b 4b0a 123d 59ef 0ebd
00000110: af2e ce3d 684c 17bc 3ead 96bd 6bc6 fcbb
00000120: ff52 2ebd 67ee d93b 0dd2 e0bc bb4a f03c
00000130: 7a2d c53d 5758 d2bd 99fb 5bbc 9b81 9b3c
00000140: 8c16 89bd f613 5bbd 79d8 2e3c 8afe dc3d
00000150: ab36 1dbd 3a81 ad3b cf94 ba3d 9fe4 3a3d
00000160: f43b 06bc dca5 bb3c 4c43 5dba a0e5 1ebc
00000170: bf36 6ebc b194 b1bc 9994 d63b affe 08bd
00000180: 986c 00bd 57ca 9d3c 6bf0 48bc 7720 4a3d
00000190: 1563 4dbc ac88 bebd e2f0 833d c542 efbc
000001a0: 8f70 36bd 2a19 b0bc d1ec b2bc 7d3e 08bc
000001b0: 29de 3f3d c42f 133d 22f2 f4bc 4252 d63d
000001c0: fc31 943d 1d92 7fbd 1f75 9bbd 74d4 11be
000001d0: c92c eebd 05a8 5ebd 093b b23a 14ec b73c
000001e0: f84b 18be 87a6 d4bd 5f19 893c cd7d 173d
000001f0: 9b0e a93d 159c f93d 407d cd3c 1ff3 ccbc
00000200: f899 ad3a 989e ca3d 81cd a33d 1367 353d
00000210: 98b5 1f3d 9642 ba3c 0010 8dbd 5bc5 34bb
00000220: 0f65 3c3d 7288 cf3c 4f5e 92bd 4def 253d
00000230: 1408 5fbd afa7 bdbb 39d6 783d 22be 183d
00000240: c50c 12bd 7eab 3cbd 8ce5 42bb 3eb7 c2bc
00000250: 2ab0 02bd bd89 f13d 55a9 98bb 3f71 2b3d
00000260: 93e4 a83d cdaa 0d3d 4865 c83b 2088 e9bc
00000270: fc1e e33d 9f57 283c c6f5 e2bd 4382 fcbb
00000280: da2f 07be 6df7 19be e1c8 463c 1aad 363d
00000290: 3f94 bf3d d9de d53d fcad cdbd 8d7e 3cbe
000002a0: d3b3 733d 4066 66bd f9ed bd3d 83d4 09bc
000002b0: 8b16 dd3d 03b8 8a3d 262a febd 60b0 6cbe
000002c0: b9ac 78bd 833e f73d 877a 1b3e d75b 4f3d
000002d0: 3ddb 2c3c 2565 52be 5e9e 1fbe b3d4 e03d
000002e0: d6c6 d13e 846c 853e 623b 7bbe f0f8 54be
000002f0: e8d9 2bbe 021d 0cbd 0483 a7bb 9aa9 4b3d
00000300: 379c c6bd 2434 313d 626d 993d 7d41 b9bd
00000310: b8e3 94bd 8db8 eb3c ee16 f9bc 1c3d 2e3d
00000320: 2265 febb 032c 613d aef8 083d 1a24 14bc
00000330: f3c9 2abb 71fa b73c fd7d 5cbc 1e20 a33d
00000340: 32fc 8bbc 24b1 08bd 9eba 603d dd95 a8bd
00000350: e6dd 5bbd 768c c03d 3d1b 283d 81e0 56bc
00000360: 82d8 5b3d d91d c53d 407d 9cbd 2d34 43be
00000370: 0e97 ef3d 94a2 f53d 77b4 b2be b648 7f3c
00000380: 2a53 483b da3c 1cbb ae82 243a 376a 623d
00000390: 433e ef3d b3b4 8fbc 4cd8 07be ce66 453e
000003a0: 750e 193d bf36 b6bc e3f1 4cbd a791 ccbd
000003b0: 3aa3 bd3b bb6f fa3c bbe9 a1bd c5d9 303d
000003c0: 525d 493d d59d 7bbd b5f3 053d 693f d2bd
000003d0: 8b0b 693d 6dcf 19be 6d17 31bd d30c c73d
000003e0: 1670 c93d 4c45 febd 8669 3c3d d10c 29bb
000003f0: aeed 8c3d 046b 4ebd eccb 563d 4585 b2bd
0.044650607 0.119278245 0.2073588 -0.032399766 -0.11460132 -0.12623309 0.10205211 0.05487142
0.1220122 -0.015485971 -0.022946207 -0.03732241 -0.011582358 -0.01549017 0.03828604 -0.002185368
0.0072763376 0.0004201362 -0.05206163 -0.09131182 -0.15596369 0.06668531 0.13749723 0.07666244
-0.12896897 -0.061342098 -0.1163587 -0.04752668 -0.020073628 0.27428365 0.0021870136 -0.105212234
-0.12570165 0.11288735 -0.02734062 0.1382805 0.028417815 0.09963527 0.010364003 0.05844105
0.020166816 0.004594537 -0.017347423 0.008053502 0.027503932 0.032446187 -0.08160541 -0.2473953
-0.05946018 0.08111082 0.13589808 -0.08018895 0.014499947 -0.17546317 0.03145989 0.11021007
0.01622525 -0.0729504 -0.05402944 -0.041670434 0.02733765 0.070727475 0.047397565 0.006062161
-0.08904731 0.007771476 0.035654347 -0.03489623 0.10067498 -0.009234525 -0.07357262 -0.007714083
-0.04255962 0.006650734 -0.02744391 0.02933251 0.096278146 -0.10270756 -0.013426685 0.0189827
-0.066937536 -0.053485833 0.010671728 0.10790737 -0.038382214 0.005294946 0.09110414 0.045628186
-0.008193005 0.022906236 -0.0008440509 -0.009698302 -0.01453942 -0.021677347 0.006548476 -0.03344601
-0.031353563 0.019261522 -0.012264351 0.049347367 -0.01253583 -0.09303412 0.06442429 -0.029206643
-0.044540938 -0.021496374 -0.021841438 -0.00831568 0.046842728 0.035934225 -0.029900614 0.10464908
0.07236096 -0.062395204 -0.075906985 -0.142412 -0.11629636 -0.054359455 0.0013597916 0.022451438
-0.1487273 -0.10383325 0.01673573 0.036985207 0.08254739 0.121879734 0.025084138 -0.025018273
0.0013244739 0.098935306 0.07998181 0.044287752 0.03899154 0.022736829 -0.068878174 -0.0027583453
0.045994814 0.025333617 -0.07146894 0.040511418 -0.054451063 -0.0057878117 0.060751174 0.0372907
-0.03565671 -0.046061985 -0.0029738871 -0.023769017 -0.031906284 0.117938496 -0.004658858 0.041856047
0.08246722 0.034586716 0.0061155893 -0.028507292 0.11089894 0.010274797 -0.11082034 -0.007705958
-0.13201848 -0.15035792 0.012132854 0.044598676 0.093544476 0.104428954 -0.100429505 -0.1840765
0.059497666 -0.056249857 0.09273905 -0.008412483 0.10795315 0.06773379 -0.12410383 -0.23114157
-0.060711596 0.1207247 0.15183459 0.050624695 0.010550317 -0.20546396 -0.15587756 0.10978069
0.40972012 0.26059353 -0.24534371 -0.20798087 -0.16782343 -0.03420735 -0.005112054 0.04972229
-0.09697764 0.043262616 0.07491566 -0.09045694 -0.072699964 0.028774524 -0.030406442 0.042538747
-0.007763521 0.054973613 0.033440284 -0.00904181 -0.0026060313 0.022458287 -0.013457772 0.0796511
-0.01708803 -0.03337206 0.054865472 -0.08231709 -0.053678416 0.09401791 0.0410416 -0.013115049
0.053673275 0.096248336 -0.07641077 -0.19062872 0.11698733 0.119939 -0.3490331 0.0155813005
0.0030567148 -0.0023839981 0.00062755763 0.055277076 0.11681797 -0.017542219 -0.13266104 0.19277498
0.037367303 -0.022242902 -0.05003537 -0.099887185 0.0057872804 0.030570855 -0.07905909 0.04317643
0.049161263 -0.061429817 0.03270312 -0.10266001 0.056895774 -0.15020533 -0.04323523 0.09719243
0.09835832 -0.12415561 0.045999072 -0.0025794993 0.06881271 -0.050395027 0.05244057 -0.087168254

layer1.0.conv1.bias f4 [16]
00000000: 5029 4e39 8245 7c38 5c6e 28b8 ec44 73b8
00000010: c65e 9fb8 38c2 8db6 00df 40b5 bed5 84b9
00000020: ef10 c6b8 0089 0ab8 6241 2a39 7be5 1b38
00000030: 1dc2 8138 e3fd e237 44a0 7c38 63a6 19b8
0.00019661081 6.0146216e-05 -4.01571e-05 -5.7999903e-05 -7.599364e-05 -4.2247375e-06 -7.185008e-07 -0.00025336252
-9.44453e-05 -3.3029355e-05 0.0001623682 3.71686e-05 6.187356e-05 2.7059525e-05 6.023074e-05 -3.6633002e-05

layer1.0.bn1.weight f4 [16]
00000000: 636e ef3e bde1 053f e379 313f 620a 1a3f
00000010: f234 183f e6a6 293f ac9a 1d3f de65 003f
00000020: 7c6c ee3e d770 1a3f 89cc 1f3f bac8 053f
00000030: 0889 033f b26f 093f baa4 783f f605 183f
0.46763906 0.52297574 0.6932661 0.6017209 0.5945579 0.6627029 0.61564136 0.50155437
0.46567142 0.6032843 0.6242147 0.5225941 0.5138097 0.5368606 0.9712635 0.59384096

layer1.0.bn1.bias f4 [16]
00000000: 998e 2cbd b3e8 b8bc 76f7 223d 7342 be3c
00000010: 48ce 2fbc 89fc 003e f650 393d 86a4 07bc
00000020: 56f3 64bd 0b6a 68bc c760 3f3e 2696 2fbe
00000030: 4a80 cebd 6f3b 7fbb 7a59 4cbd 8d4e d7bd
-0.04212818 -0.022571897 0.03978678 0.023225045 -0.010730334 0.12596335 0.045243226 -0.008278972
-0.055896126 -0.014185439 0.18689261 -0.17147121 -0.10083063 -0.0038945337 -0.04989002 -0.10513029

layer1.0.bn1.running_mean f4 [16]
00000000: e5c1 083c 6690 fb3b 92d6 063d 089d 34ba
00000010: da17 7f3c ca51 0bbd 25fc 493d f641 36bb
00000020: e067 203c 619e eb3c e058 8eba 4164 1c3c
00000030: 8765 a13c 1739 153d 50e6 9fbd d846 af3c
0.008347009 0.0076771257 0.032919474 -0.00068898546 0.0155696515 -0.034013547 0.04931273 -0.0027810312
0.009790391 0.028762044 -0.0010860227 0.009545387 0.019701732 0.0364314 -0.078076005 0.021396086

layer1.0.bn1.running_var f4 [16]
00000000: e99f 6e3e 5a16 953e acbf 593f 4c1d 863f
00000010: e095 f63e 9a93 183f 0482 fd3e c428 0a3f
00000020: 0aae be3e 910b db3e 29bf 0b3f a221 6f3e
00000030: 29f0 b33e 038a f03e b5d3 583f 547c bf3e
0.23303188 0.29118615 0.85058093 1.0477691 0.4816122 0.5960022 0.49513257 0.53968453
0.37242156 0.42782262 0.5458856 0.23352674 0.35144165 0.46980295 0.8469804 0.37399542

layer1.0.conv2.weight f4 [16, 16, 3, 3, 3]
00000000: 8a4e 8b3d afcb 993d cb7a 84bd 2b13 d03d
00000010: 1248 d3bd fce3 95bd d58d 3c3d 1ab6 b53a
00000020: cb29 e33c 7c8b b83d dd36 d43d 7891 13bd
00000030: 5dc3 433d 4369 c1bd c9fb b8bd 319b 8f3c
00000040: 4808 5f3d 9715 a43c c4a6 923d 324c 273d
00000050: cba0 52bc 8af3 863d f176 01be 70d8 b3bd
00000060: 51cd 793d 533f 12bd b626 9f3b a011 443d
00000070: c1ec 87bd f9d2 5f3c 7e11 86bd 1a89 53be
00000080: 9c01 d13b 76c4 60bd 4386 b9bd 2123 a53d
00000090: 33b7 133d 67d8 6f3d b320 583d 50b3 943d
000000a0: 9d21 cbbd 7a1f 46bd b6e2 26bd b957 923c
000000b0: f246 b43d 3b5f 5cbd 5d71 1ebd bbdd c7bd
000000c0: efce 893d 5b63 35be 08eb f0bd e16e 88bd
000000d0: 3c1d 8f3d 098e 65bd 920f d23c f0a4 e53d
000000e0: 74aa 053e 49db 9b3d 46e9 b3bd f52f 113d
000000f0: 8398 7e3a cf23 303d 21e1 34bc cfbb 703c
00000100: c707 643c 2e5a a3bc d1b8 40bd a275 fbbd
00000110: 5442 a539 a755 06bd de27 43bd ee09 a4bd
00000120: 802c f73b 97ae e53d 6a3e e6bd d7cf 573c
00000130: 2106 27be 0ed1 a3bb af7e a03c dfb8 febd
00000140: 36e2 6fbd 0021 d53c 95a9 0c3d 297c 6abd
00000150: e313 8abc c424 6ebd f5d6 1d3e 3c58 9c3d
00000160: 6e50 45bc 4bb6 b63d 69df 06bd 3150 273d
00000170: cd01 d8bd d06a 8cbd 84f2 d2bd 555e e73d
00000180: 11f8 62bd 0ee3 cc3c 71db c2bd 04a3 d6bb
00000190: 086a aebc b22a acbd 2209 5c3d 6d77 02be
000001a0: cba1 fcbd 26c4 e6bc b444 0e3e 4d6e 1dbe
000001b0: 8add 58bd f709 303d 7009 73be 5e10 b2bd
000001c0: b0ca 53be 14c5 69bb 284e 4bbd 970a 17bd
000001d0: 6c88 cdbd 6847 8cbc ea1b b03c 86c5 c8bc
000001e0: 592b 54bd 5802 d2bd c5d5 3b3d 3412 44bd
000001f0: b8ab 8fbc a924 eabd 314b 6f3d 20da 0cbd
00000200: 15fa 033d f2b5 223d 6cf6 8abd eeb6 30bc
00000210: 1481 593d f5b4 c03c 0f45 e1bd 0aa2 6b3b
00000220: b60a 033e 4f62 823d e7fa 003d 2146 97bd
00000230: 0a05 68be 67ff 443d 20f6 fb3c 9aac 0dbe
00000240: 5cdf 98bd 2743 043b a85a 50bc 084b 14bd
00000250: 795a 13be 31ce 303d 247d 073b e0b2 2f3d
00000260: 50c6 d83d 1772 5abd e70b f0bd 79e7 03be
00000270: 7c70 03bd 7d26 89be 63a0 0f3e 826a a5bd
00000280: 63b5 eabc 050a 443e 71b3 443d 6794 933a
00000290: e148 f8bd e487 7d3d ce57 29be 5e1a 12bd
000002a0: a8dd 84bc 8da5 953c 57eb cb3b fe48 b73c
000002b0: 8f5c 59bd d8ef 5dbd 5a3e d53c c844 f1bd
000002c0: 62be e8bc 6529 303c 67ea 4f3d 7583 633d
000002d0: 4adb 393c 7ab8 cdbd 6e67 913d c559 ccbc
000002e0: d6fb 94be 410e 89bc 0ce7 c5bd 9f91 37bd
000002f0: c96e f4bc d913 9f3c e936 21bd 33da 1dbe
00000300: 58c5 ca3d 457f 01be 8fbb 82bd 47ba 9bbc
00000310: 2054 f4ba f900 803c f1a0 503d 1464 82bc
00000320: a310 4f3d 5937 c0bc fce1 debd f660 f63d
00000330: 92b0 403d 46b3 8dbd 96ca 94bd 6ef7 a43d
00000340: 2079 de3b 4601 15bd c89e 6e3c fb7e 04be
00000350: e80a bf3d 59f7 5cbc 2295 ddbd bf62 003d
00000360: 622e cf3c 17d3 283d c419 df3c aff0 b83d
00000370: 6be0 f3bd 6276 6abd 3a38 0abc e049 42bd
00000380: 002a a1bc 1841 693a 4f52 d2bc 9a79 ddbd
00000390: 31dc 633d b345 b7bd 3bff 77bd 3112 b83c
000003a0: a0b4 e6bb 8e28 ed3d 423d ab3c 4928 d1bd
000003b0: b550 dabd 2aec ac3d 31b0 edbd 1c82 823d
000003c0: 6278 b53c 887e ae3d 4db5 943d ca36 c03c
000003d0: 5e9c 74bb cc72 b3b8 47e8 b43c 1ba3 1abe
000003e0: 46be 9f3b f276 c73c d9d4 da3d 6aab 10be
000003f0: 5b8d 0d3d 5104 34bd 459c 7cbd a910 43bd
0.068020895 0.07509553 -0.064687334 0.10159906 -0.10316481 -0.07318875 0.0460337 0.0013863475
0.02772989 0.090109795 0.10362027 -0.0360274 0.047793735 -0.09443905 -0.09032399 0.017530056
0.054451257 0.020029826 0.07160714 0.04084415 -0.012855719 0.0658942 -0.12643029 -0.087815166
0.06098682 -0.035704922 0.0048569096 0.04786837 -0.06636954 0.01366114 -0.06546305 -0.20657769
0.0063783657 -0.05487486 -0.090588115 0.08063341 0.036063384 0.058555987 0.05276556 0.07260764
-0.099185206 -0.048369862 -0.040743552 0.017864095 0.08802594 -0.053801756 -0.03868233 -0.097590886
0.067289226 -0.17713682 -0.11763579 -0.066617735 0.06987998 -0.05604366 0.02564219 0.112131
0.13053304 0.07610185 -0.08784728 0.035446126 0.0009712057 0.0430029 -0.011040003 0.014693215
0.01391787 -0.019940462 -0.047051255 -0.12278296 0.0003152067 -0.03279653 -0.047645442 -0.080097064
0.0075431466 0.11214941 -0.11242373 0.0131721115 -0.16310932 -0.0049992865 0.019591657 -0.12437605
-0.05856534 0.026016712 0.034341414 -0.057247315 -0.016855186 -0.05814053 0.15414031 0.07634017
-0.012043102 0.089214884 -0.032927904 0.04084796 -0.105472185 -0.0685631 -0.103001624 0.11297289
-0.055412356 0.025010612 -0.095145114 -0.0065501947 -0.021290794 -0.08406581 0.053719647 -0.1274087
-0.12335547 -0.028169703 0.13893396 -0.15374108 -0.05294565 0.042978253 -0.23734069 -0.08694528
-0.20682788 -0.0035670446 -0.049635082 -0.036875334 -0.10035786 -0.017123893 0.021497685 -0.024508249
-0.051799152 -0.10254353 0.045858163 -0.047868922 -0.017537937 -0.114327736 0.058421317 -0.034387708
0.03222092 0.039724298 -0.067852825 -0.010785801 0.053101614 0.023523787 -0.109995 0.0035954737
0.12797055 0.06366407 0.03148928 -0.07386423 -0.22658172 0.048095133 0.03075701 -0.13835374
-0.074644774 0.0020181627 -0.012716927 -0.036204368 -0.14389981 0.04316539 0.0020673955 0.042895198
0.105847 -0.05333146 -0.1172102 -0.12881269 -0.032089695 -0.26787177 0.14026026 -0.080769554
-0.028650945 0.19144447 0.04802269 0.0011259437 -0.121232755 0.061897174 -0.16537401 -0.035669677
-0.016218975 0.018267417 0.006223123 0.022373673 -0.053066786 -0.05418381 0.026030708 -0.11780697
-0.028411094 0.010752057 0.050760653 0.05554529 0.0113437865 -0.10044952 0.07099806 -0.02494515
-0.29098386 -0.01673043 -0.09663209 -0.04481661 -0.029837983 0.019418644 -0.039359007 -0.15415268
0.099009216 -0.12646206 -0.0638343 -0.019009722 -0.0018640794 0.015625464 0.050934736 -0.015916862
0.050552975 -0.023463892 -0.10882947 0.120302126 0.04704339 -0.06918959 -0.07265203 0.08055006
0.0067893416 -0.036378168 0.014564224 -0.12939064 0.09328252 -0.013486707 -0.108194605 0.03134417
0.025290672 0.041216936 0.027233966 0.09030282 -0.11908039 -0.057241805 -0.008436257 -0.047433734
-0.019673347 0.00088979444 -0.025674013 -0.10814209 0.055629913 -0.08948841 -0.06054614 0.022469612
-0.007040575 0.11580001 0.020903233 -0.10212762 -0.10659925 0.08443482 -0.116058715 0.06372473
0.02215213 0.08520228 0.07261143 0.023463625 -0.0037324647 -8.556768e-05 0.022083415 -0.15101282
0.0048749773 0.02434871 0.10685129 -0.1412789 0.034558635 -0.04394943 -0.061672468 -0.04762331

layer1.0.conv2.bias f4 [16]
00000000: 3798 2837 6b4f 0b38 ca47 aab7 6718 5738
00000010: 66da 0fb7 3ff2 b9b7 4ad8 f238 2cb2 e4b7
00000020: 4677 e736 0aa7 b7b7 a023 e637 5e97 9736
00000030: 8011 6137 6034 0437 b269 e737 ddc5 f137
1.0049021e-05 3.3214146e-05 -2.0299009e-05 5.128272e-05 -8.574314e-06 -2.2166523e-05 0.00011579746 -2.7262686e-05
6.8982217e-06 -2.1893084e-05 2.7434726e-05 4.517772e-06 1.341512e-05 7.880008e-06 2.7586564e-05 2.8821576e-05

layer1.0.bn2.weight f4 [16]
00000000: 498a 243f 9e77 0b3f 73fe 293f fef3 f23e
00000010: 57e7 d93e 30e5 003f fbfc 263f 6384 2e3f
00000020: af1c 233f 5c7f fa3e 09a6 123f b658 b13e
00000030: 3a32 023f a485 3d3f b99d 0f3f 8d86 0f3f
0.64273506 0.54479396 0.66403884 0.47451776 0.4255931 0.5034971 0.6522977 0.68170756
0.6371564 0.48925292 0.572846 0.34637994 0.5085789 0.74032044 0.5610004 0.56064683

layer1.0.bn2.bias f4 [16]
00000000: d103 12be 20b9 093d 745d 28be c3aa c13d
00000010: a125 b63e 2505 2dbe 2e93 abbd 3316 31be
00000020: 1046 32be 5417 79be 1beb 23be 2e9e e4bd
00000030: 2af4 3a3e e031 01be ca22 e2bd 0954 b93c
-0.14259268 0.033623815 -0.164419 0.09456398 0.35575584 -0.16896494 -0.08377682 -0.17293625
-0.17409539 -0.24325305 -0.16007654 -0.11162983 0.18257204 -0.12616682 -0.11041792 0.022623079

layer1.0.bn2.running_mean f4 [16]
00000000: 67fd 96bf 7495 74bf 661d b8bf 1c59 14bf
00000010: 5c21 27bf b310 a6bf e45e a3bf 42ce aebf
00000020: d0dc 943f 3252 443e 4068 843f e34f 32bf
00000030: d33d 32bf 64bd b3bf 7bad 8bbf 11f4 b3bf
-1.1796082 -0.9554055 -1.4383972 -0.5794847 -0.6528528 -1.2973846 -1.2763333 -1.3656695
1.1629887 0.1917198 1.0344315 -0.6965315 -0.69625586 -1.4042172 -1.0912317 -1.4058858

layer1.0.bn2.running_var f4 [16]
00000000: f109 0940 6597 be3f e256 ec3f ad22 db3f
00000010: fce9 1740 9b8a 0040 bf42 c53f 5626 8d40
00000020: 3f97 c840 2cc6 2140 d2fb 3d40 8b6d b33f
00000030: 8847 c43f e660 0140 3cc2 1140 5913 3140
2.1412318 1.4889952 1.8464015 1.7119957 2.3736563 2.0084598 1.5410994 4.4109297
6.2684627 2.5277205 2.968495 1.4017805 1.533433 2.0215392 2.2774801 2.766806

layer1.0.conv3.weight f4 [16, 16, 1, 1, 1]
00000000: 76b8 75bc 352f 61bd 6974 ebbd d6f5 be3d
00000010: 5a5e f73d 7f3d 07bd 9e8a 06bc 0806 f3bd
00000020: f16e 22bd cdc6 b3bd 8abb 10be 883d 6c3b
00000030: 278e 39be bc64 22bd 08ed 9ebd 2fa5 8fbd
00000040: 25a1 ad3b 85e3 49bd 9eec 1fbe 549a c53d
00000050: ddcb eb3d 0ffd c3bc c75a 11be 84f7 5dbe
00000060: 0777 fcbd a5a8 623d e651 64bd e711 b53c
00000070: 475f b33d 5799 593d 278a 1ebe 00f1 c6bc
00000080: dbdc 5fbe cdaf 843d 19be 013e 2d91 72bd
00000090: 8fe8 17be 8919 5f3e 738e 233d 8d16 0b3e
000000a0: 9d9e a2bd d228 0bbd 7f6d 0dbe f9fb 19bc
000000b0: 8639 e73c 94a1 f13d 288b 0e3c 2d05 553e
000000c0: 67d6 88bd 77e8 27be 04af 23be 2006 993d
000000d0: 7870 7fbc 2a2f 20bc a423 92be 85f8 21be
000000e0: 015e 7d3c f368 e83d e9d0 723d 9806 28be
000000f0: 3dd6 9abc b63e 1d3e 112c 38be a73f adbc
00000100: cab8 1c3c 790c 673c 749b 08be ea6d ce3d
00000110: 93df 0c3e 0712 183c dd65 4abd 4288 a83d
00000120: 8a82 dc3d 0cb6 093e 3dc9 383e f8f4 ba3d
00000130: 517f 5f3e 3e27 bc3d d9c1 01be faf1 973d
00000140: 227a acbd dd41 c0bc b00e 073e debe 25be
00000150: 021f 61be d40f 003e bc88 13be 343a 9d3d
00000160: bf6f 66bd d6fe d23c f3d5 8fbd 65ca d3bd
00000170: 2a07 00bc 30f7 843e 3116 53be 9ba7 ed3d
00000180: 5ceb 80bd 7acb b8bd 0d84 35bd 2927 963c
00000190: b5c6 0ebe bb55 7f3c 2ad1 ce3d 4918 583e
000001a0: f4dc 013e c25b 00bc 6b0f 543d 76dc 2dbe
000001b0: b029 05be 23ad 77be aaa9 e13c 1b82 21be
000001c0: 9ab4 23be ab84 1ebe 09a6 fa3d 8fa8 b5bd
000001d0: 7f26 bbbd 057c 723d ca88 da3d d7fd 223e
000001e0: 228f 21be 19c0 aeb9 b074 c5bd 1445 ce3c
000001f0: 1584 babd dd21 853d 7fe8 17be c4a6 ee3c
00000200: c75e 90bb 77bc 743d 24a2 653e e67d 8fbd
00000210: 9a05 3bbe 1f33 593d 6fef 693e 3ff9 8e3c
00000220: 9ce0 aabd 893d 00be 8bb4 40bd 515d bfbd
00000230: 3f98 3fbe 833b 813d c250 d23d 2c44 a6bd
00000240: fd8b 643d 8b52 ff3d d812 48be 7c7c 9e3d
00000250: 80eb 583d a0ec 07bd 5d0e 19be df81 26be
00000260: 215c 31bc a8ee be3d 86e6 a83d 80ae 1ebe
00000270: 2d7b ba39 86fc 2ebe 556e 22bd 6ad6 7dbe
00000280: 7727 3dbe 3793 26be 17eb 1cbe 415c 8e3c
00000290: d8e8 afbc 04ac 843d ca06 58be f9d2 163e
000002a0: 232d 893d e343 ddbd 9602 02be 5e84 b5bd
000002b0: 2f50 2d3c 631b 93bd 9c42 06be bff2 ea3d
000002c0: e7d8 9b3d e462 133e 6a55 1f3e 7c61 8e3e
000002d0: 4af8 f6bc 039a 4f3d ffe3 ae3d 1ed4 3bbd
000002e0: b714 28bd fba4 61be 108c 9dbd 43cc 8ebd
000002f0: f306 553d 707b 103e 71d7 a03d 1529 7ebc
00000300: bdeb 0bbd a97f 9b3d 28b7 0abe 9e40 583d
00000310: 8d8c e6bc 9b16 21bd 3c07 bbbd e010 30bd
00000320: 1156 9a3d f8e7 863d 2026 de3d d7f3 8a3d
00000330: 536e 95bd 6be2 b2be b8ad 28be 719f 3ebe
00000340: 155e 23bd 139d 88be 9da0 03be e9eb 393d
00000350: 615e 74bd c01f 5abd 8592 14be 4400 57be
00000360: cdee ea3d cff5 9d3c d449 903c c31c a4bd
00000370: 4ed4 09bd 622e 2f3d 80ee 26be a90d 7d3d
00000380: 8bfa 31bd fabf 323e 0c45 143e eedc 5f3d
00000390: 8de3 5abe 4b39 533d c5c9 993c 30f8 21bc
000003a0: af34 4bbe 79f1 1dbd 8fd6 ccbc 7dcd 9ebd
000003b0: 4f83 88be 25b7 e1bd ef91 803d 76a3 aebd
000003c0: 7868 8f3e 8803 d5bb 5328 e63b 8fef 4dbc
000003d0: 247e 13be 0b3c 873a 8936 bd3d 0560 ee3d
000003e0: ca71 07be ac42 4ebe ba55 23bd 87e4 263d
000003f0: 00bd 713d 5fcb 03be 4c29 f83c a0af 2cbd
-0.014997592 -0.05497666 -0.11496813 0.09324233 0.12078543 -0.03301763 -0.00821176 -0.11866385
-0.039656583 -0.087781526 -0.1413404 0.0036047418 -0.18120633 -0.03964685 -0.07760054 -0.07013928
0.005298751 -0.049289245 -0.15617606 0.096485764 0.11513493 -0.023924379 -0.14194785 -0.21676451
-0.1232739 0.055336613 -0.055742167 0.022103263 0.08758407 0.053124752 -0.15482388 -0.02428484
-0.21861593 0.06478844 0.12670173 -0.05922048 -0.14834808 0.21787085 0.039930772 0.13582821
-0.07940409 -0.033974476 -0.138113 -0.009398454 0.028225671 0.11798397 0.00870017 0.20802756
-0.06681519 -0.16397272 -0.15984732 0.074718714 -0.0155907795 -0.00977687 -0.28542817 -0.15817459
0.015464307 0.113481425 0.059281264 -0.16408765 -0.018900985 0.15355954 -0.1798556 -0.021148516
0.0095655415 0.014102095 -0.1334055 0.10079558 0.13757162 0.009281642 -0.04941355 0.08229114
0.10767086 0.13448352 0.18045516 0.09128755 0.21825911 0.09187172 -0.12671603 0.074192
-0.084217325 -0.023468906 0.13189197 -0.16186091 -0.21984485 0.12506038 -0.14407629 0.07677117
-0.056258913 0.02575628 -0.070232294 -0.10341338 -0.007814208 0.2596984 -0.20613934 0.11604234
-0.06294891 -0.09023185 -0.044315387 0.01832922 -0.13942988 0.015584405 0.10098489 0.21103014
0.12681943 -0.007834377 0.051772516 -0.1697863 -0.13004184 -0.2418714 0.027546722 -0.15772288
-0.15986863 -0.15480296 0.122387 -0.088700406 -0.09138202 0.059200305 0.10670622 0.15917145
-0.15777257 -0.0003333099 -0.09641397 0.025179423 -0.09107224 0.065005995 -0.14834784 0.029132254
-0.0044058296 0.059750047 0.22425133 -0.07006435 -0.18263856 0.05302727 0.22845243 0.017452834
-0.08343622 -0.12523474 -0.04704718 -0.093439706 -0.18710421 0.06310179 0.102693096 -0.081184715
0.055797566 0.12466916 -0.19538438 0.07738587 0.052958965 -0.033184648 -0.14946885 -0.1626048
-0.010825188 0.09322864 0.08247094 -0.15496254 0.00035568458 -0.17088518 -0.039656002 -0.24788824
-0.18472086 -0.16267096 -0.15324055 0.017377974 -0.021473333 0.06478122 -0.2109634 0.14728917
0.06698062 -0.10803964 -0.12696299 -0.08863138 0.010578199 -0.07182958 -0.13111347 0.114720814
0.0760973 0.14393193 0.15559927 0.2780875 -0.03014769 0.050683986 0.085395806 -0.045856588
-0.04103538 -0.22035591 -0.076927304 -0.069725536 0.05200858 0.14109588 0.07853592 -0.015512724
-0.034160364 0.075927086 -0.13546431 0.052796 -0.028143192 -0.0393282 -0.09132239 -0.042984843
0.07535947 0.06587213 0.108471155 0.0678479 -0.07296433 -0.34938368 -0.16472518 -0.1861551
-0.039884645 -0.26682338 -0.12854238 0.045390997 -0.05966032 -0.053252935 -0.14509018 -0.20996195
0.11471329 0.01928225 0.017613329 -0.08013298 -0.033649735 0.042768843 -0.16301918 0.061780605
-0.043451827 0.17456046 0.14479464 0.054654054 -0.21375866 0.05156831 0.018772969 -0.009885833
-0.19844316 -0.038560364 -0.025004653 -0.077540375 -0.2666268 -0.1102126 0.062778346 -0.085272714
0.2800939 -0.006500665 0.00702385 -0.012569322 -0.14403588 0.0010317577 0.092389174 0.11639408
-0.13227001 -0.20142621 -0.039876677 0.040745284 0.059018135 -0.12870549 0.03029313 -0.042159677

layer1.0.conv3.bias f4 [16]
00000000: 6e82 b337 ae54 2c38 cb30 c5b7 79f2 4a39
00000010: 747c 4637 4063 98b9 86a7 47b9 6b33 3d39
00000020: c8be 74b8 8ad9 bdb8 60d9 80b7 bfe8 153a
00000030: 8154 2d39 394f 12b9 f0f4 59b9 51c7 fab8
2.1399199e-05 4.108686e-05 -2.3506951e-05 0.0001935455 1.1830696e-05 -0.00029065646 -0.00019040526 0.00018043599
-5.8351812e-05 -9.052742e-05 -1.5360012e-05 0.0005718581 0.00016530046 -0.00013953158 -0.00020785979 -0.000119580545

layer1.0.bn3.weight f4 [16]
00000000: 7de5 083f 9bba 233f f20e 273f 0471 123f
00000010: 95d2 083f 1632 553f 6257 fe3e 8224 4f3f
00000020: 7112 343f e572 f23e 5dc3 d03e 2c7d 2c3f
00000030: 81ac ef3e f1ae 063f 91ac 3f3f e6a6 5b3f
0.5347517 0.6395661 0.6525718 0.572037 0.5344632 0.8327955 0.49676043 0.8091508
0.7034064 0.47353283 0.4077405 0.673785 0.46811298 0.5261069 0.7487269 0.8580154

layer1.0.bn3.bias f4 [16]
00000000: bd38 613c d3fb 383d bd18 91be 6070 393e
00000010: 20c9 53be 711d edbe c267 aebd 0d90 49be
00000020: e8dc a9be 0b25 90bc 9849 f9be e786 8dbd
00000030: 3ec8 5b3d aeae abbc f9f4 36be 2d18 84bd
0.013746438 0.045162033 -0.28339186 0.18109274 -0.20682192 -0.46311525 -0.08515884 -0.19683857
-0.3317635 -0.017595788 -0.4868896 -0.06910496 0.053657763 -0.020957317 -0.17866887 -0.06449924

layer1.0.bn3.running_mean f4 [16]
00000000: 90b5 bbbd 3968 dcbc 5852 1e3c b0dd f6bd
00000010: e238 4a3e 22fc d8bd 5268 04be 466b dcbd
00000020: 8f82 9dbd 2d0f a8bd 9352 e8bd f2c3 043e
00000030: 6ee1 0cbe a4a3 12be 69cf 24be 8363 26bd
-0.0916549 -0.026905166 0.009663187 -0.12054002 0.19748262 -0.105949655 -0.1293042 -0.10762648
-0.07690918 -0.082060196 -0.11343875 0.12965372 -0.1375787 -0.14320236 -0.16094746 -0.040622246

layer1.0.bn3.running_var f4 [16]
00000000: d217 253c c33b de3c 4b2f 8a3c c6be a73c
00000010: 47a5 a73c 9fdd 463c 7a4d 0e3d d82d 2d3c
00000020: 2f87 a63c 7527 9e3c cb93 da3c ff51 9d3c
00000030: cf06 b83c 4cc2 773c ac96 9f3c a040 133c
0.01007648 0.027128106 0.016868254 0.02047671 0.020464553 0.0121377995 0.034741856 0.010570012
0.020328132 0.019305924 0.026681801 0.019204138 0.022464184 0.015122008 0.019481026 0.008987576

layer1.0.shortcut.0.weight f4 [16, 8, 1, 1, 1]
00000000: dcdd 363e 912c 15bd 7dd6 6ebd 43f8 fbbc
00000010: ec77 e1bd daf9 0cbe bdbc a73d baa9 adbc
00000020: 658b 2dbe 5b53 87bc 084c 293e d3ed f3bc
00000030: ca41 1abd 7a70 d83d 55de a3bd 9e23 b63d
00000040: c072 d4bd a0a6 2ebe d551 e0b9 2ee3 6ebd
00000050: d2f1 4dbe cb57 94bc fc4d 963c 08de 0fbc
00000060: 8189 4fbc fc7a 2f3e 9a3c 36bd 8ce1 163e
00000070: 14f4 113d 2262 203c 3076 47bd e10d 56be
00000080: c994 e4bc 4f1d a13c d2ce 6ebe 84b7 2fbe
00000090: aef0 77bd 976e f9bd 5d35 183d e1b1 973d
000000a0: d4c5 9fbd 630d 98bc 4949 8bbc aa14 6ebe
000000b0: c0dd b2bd 4bbd 5cbe 9fe9 9f3c 71c4 cf3d
000000c0: 6b34 583d 9315 64bd 8482 5c3d 0e31 0bbe
000000d0: b775 f3bc 4b15 ec3a d62f bf3d a117 b93e
000000e0: 06ca 7cbd c11e 95be f005 e63d 2650 ba3d
000000f0: 510e 67bc 78a6 493d 6532 2a3d 1775 4cbc
00000100: b485 cf3c af47 5f3e 57c8 7abe fcb0 053d
00000110: e829 6b3d b354 37bb 05e2 a03a 0dc3 143c
00000120: c101 293d 89f0 683c a08f d6bc 20a7 543b
00000130: a314 4a3e f0af 493e 6566 9c3d c05f a6bd
00000140: 3e19 efbd 2155 83bd 1786 8c3e 6a99 a43c
00000150: d46f 6fbd 6f97 16bd a5c4 9e3c 277f 353e
00000160: 0543 c4bd 2738 cabd 4dec 063e df6e 863c
00000170: 03b2 90bd 9f48 03bd b455 043d df49 7ebe
00000180: 0906 7d3d 6740 08be 2acd 083d 0ddb abbd
00000190: 5527 4fbe b74c 3ebe 51b4 403d a275 9e3d
000001a0: cf98 28bd 1585 45be 9818 d3bd 1666 09bd
000001b0: 0198 653d 58c2 823d 8d7c 693d adfa 223e
000001c0: 2338 30be 967a a0bd 0abe 1ebd 06c3 0dbe
000001d0: de02 ec3a 3efe 47bd 035d 23be 420e 88bd
000001e0: f89f 71bd a006 24be 3205 8bbd 7aa7 01be
000001f0: 63c7 00be 1aac b13b d0a0 b5bd d5cd 41b9
0.1785807 -0.036419455 -0.05831002 -0.030758029 -0.110092014 -0.13767186 0.08190296 -0.021199096
-0.16947706 -0.01651924 0.1653291 -0.02977649 -0.037660398 0.10568328 -0.08001391 0.08893512
-0.10373449 -0.1705575 -0.0004278558 -0.058322124 -0.20111778 -0.01810827 0.018347733 -0.008780964
-0.012667061 0.17136759 -0.044491388 0.14734477 0.03563316 0.009789022 -0.048696697 -0.20903732
-0.027902978 0.019667296 -0.23321083 -0.1715985 -0.060532264 -0.121792965 0.037160266 0.074069746
-0.078014046 -0.01856107 -0.017002719 -0.2325007 -0.08733702 -0.21556585 0.019520579 0.1014489
0.052784365 -0.055684637 0.053835407 -0.13592932 -0.029719217 0.0018011717 0.09335296 0.3615084
-0.061716102 -0.29125026 0.11231601 0.09097318 -0.014102534 0.049231023 0.041551966 -0.012479088
0.02533231 0.21804689 -0.24490486 0.03263949 0.05741301 -0.0027974069 0.001227439 0.009079707
0.04126144 0.014217504 -0.026191533 0.0032448247 0.19734435 0.19696021 0.07636718 -0.081237316
-0.116747364 -0.064127214 0.27446052 0.020092685 -0.058456257 -0.036765512 0.019380877 0.17724286
-0.095830955 -0.098739915 0.13176079 0.01641029 -0.07065203 -0.03205168 0.032308295 -0.24832867
0.061773334 -0.13305818 0.033398785 -0.0839139 -0.20229848 -0.18583952 0.047046963 0.077372804
-0.041161355 -0.19289048 -0.10307425 -0.033544622 0.056053165 0.063847244 0.057003547 0.15915938
-0.17208914 -0.078358814 -0.038755454 -0.13843927 0.0018006226 -0.04882645 -0.1595345 -0.066433445
-0.05899045 -0.16018152 -0.067881 -0.12661543 -0.1257606 0.0054221274 -0.08868563 -0.00018482593

layer1.0.shortcut.0.bias f4 [16]
00000000: 1e0d 8f38 cacc 40b8 8caa a8b7 1d92 9c38
00000010: 4639 9b38 a4c2 a9b6 7442 87b9 6847 4339
00000020: 6fdc e3b7 c877 6d37 64b2 ca37 b9d3 0c3a
00000030: 7ec0 a337 e930 82b8 ec2f d3b7 9692 dd38
6.8212146e-05 -4.5967092e-05 -2.0106578e-05 7.4658754e-05 7.401644e-05 -5.0592516e-06 -0.00025798718 0.0001862325
-2.7163156e-05 1.415419e-05 2.4163346e-05 0.00053721253 1.952075e-05 -6.207993e-05 -2.5175475e-05 0.00010565405

layer1.0.shortcut.1.weight f4 [16]
00000000: 6a46 9e3e 0004 f33e 9e10 7c3e 5e72 db3e
00000010: 564d dc3e 5ab5 ac3e 99b1 f53e 0f29 c63e
00000020: caf9 033f c788 f53e 7b78 0e3f ff01 203f
00000030: afa1 133f 8a2b ea3e a4fc e53e b823 b13e
0.30913097 0.4746399 0.24615714 0.42860693 0.43027753 0.3373211 0.4798706 0.387032
0.5155302 0.47955915 0.5565259 0.62503046 0.57668585 0.45736343 0.44919312 0.34597564

layer1.0.shortcut.1.bias f4 [16]
00000000: bd38 613c d3fb 383d bd18 91be 6070 393e
00000010: 20c9 53be 711d edbe c267 aebd 0d90 49be
00000020: e8dc a9be 0b25 90bc 9849 f9be e786 8dbd
00000030: 3ec8 5b3d aeae abbc f9f4 36be 2d18 84bd
0.013746438 0.045162033 -0.28339186 0.18109274 -0.20682192 -0.46311525 -0.08515884 -0.19683857
-0.3317635 -0.017595788 -0.4868896 -0.06910496 0.053657763 -0.020957317 -0.17866887 -0.06449924

layer1.0.shortcut.1.running_mean f4 [16]
00000000: a2f0 5fbc 0035 163a 522e eebd edca 3c3b
00000010: 1452 b5bd d603 adbd c037 a73d e99c 22bd
00000020: 6014 883c 374a 9e3d 626b 323d c5d5 9fbd
00000030: b5d0 81bd 8f7a b1bc 860f 0fbe cc10 00be
-0.013668211 0.00057299435 -0.11629929 0.0028807477 -0.08853546 -0.08447997 0.0816493 -0.039700422
0.016611278 0.07728999 0.04355944 -0.07804445 -0.06338636 -0.021664886 -0.13970765 -0.12506407

layer1.0.shortcut.1.running_var f4 [16]
00000000: 8b4e c23c d1fa b53c 2eef d03c 8679 803c
00000010: f9b2 823c 181c 963c 18b2 a43c e579 133d
00000020: e1cc bd3c d7be a03c d02a ae3c e67d ac3c
00000030: eb07 b73c 8f64 e03c f5d9 f43c 4607 b53c
0.023719093 0.022214325 0.025504675 0.015682947 0.015954481 0.018323943 0.020104453 0.03600492
0.023168983 0.01962225 0.021260649 0.021056127 0.022342643 0.0273917 0.029889086 0.022098195

layer1.1.conv1.weight f4 [32, 16, 3, 3, 3]
00000000: 7a22 b2ba 0e87 d0bb 3a9a d33c c52c 17bd
00000010: d608 cebc 2a6a 2d3a 3a00 63bc 3a7f 56bc
00000020: d0a3 973a 0f52 0e3c 08ad 09b9 626b fabc
00000030: 0c04 043d ef84 873c 69e4 97bc 1a0e d43c
00000040: 9f0c eb3c 39b0 943c 4a19 8d3a e8cf 923c
00000050: 357c 743c ba87 2f3b 7953 3a3c 2241 8e3c
00000060: 1200 37bc c5f3 65bb ad21 37bc 8325 d43c
00000070: e4ff 36bb f882 733c adc8 ec3c 0e67 86bc
00000080: 9799 353b 01db 9abb d521 1f3b ea10 903b
00000090: 4de4 22bd 67d0 7a3c ed42 33bd 6591 13bd
000000a0: dd77 303d bd01 0c3b b0bd 5e3c 737f f23c
000000b0: 7f10 853c a6f6 b33c e481 c1bb 645d 0e3d
000000c0: 5772 f93c 8154 e4bc 78a4 9cbb 4cab 16bc
000000d0: a38a 63bc 23bf c1bb 47a4 d5bc 9417 0ebd
000000e0: 8377 263b bdb3 54bc efdb 16bd ef67 13bd
000000f0: b4a0 863b 50f0 87bc bbb9 653b d334 983d
00000100: 74da 653d 03e3 c13c af9b 863c 393b a43c
00000110: 6fd6 8c3d 9822 88bc d17c 473b f075 57bc
00000120: 00e0 0ebd c55d 63bc 7684 1ebd 1494 e43b
00000130: d653 863b eb62 32bd 0b06 e13c b796 963c
00000140: 3f6b 253c 1924 82bc ae62 523c dc7c 0f3d
00000150: b7fb 35bc b318 1abd 93ee 833b f036 4e3c
00000160: 9eb2 b1bc 607f b1bc d047 293d 60c0 073d
00000170: 9a4e 58bd 425e c03c cf8e 123e 4c1a 363d
00000180: 4208 38bd 7c48 aa3d a3c5 863d b548 c2bc
00000190: 55d1 96bc 01d0 4f3d b163 283c 05c9 adbd
000001a0: 24b6 e7bc 700e 7e3c 88d8 62bd 89ec 40bd
000001b0: 7378 a83b d905 3a3b 99f8 103d facd 3e3d
000001c0: 00a1 ae3c be2d c7bb 5132 e23c baa7 cdbc
000001d0: 4d5d 713c 5ab8 2bbc 6e56 813c ea6e 07bd
000001e0: 7d2c 64bd 613e 0abc 55e3 d63c a640 2cbb
000001f0: 3f11 9c3d 7533 4ebb 321e dc3c f7fb bbbc
00000200: 671e a83c 7c50 303d a1a2 fdbb 5fdc 24bc
00000210: c16a ce3b 32a9 10bd 6e8d d73b a59d 74bd
00000220: c3f3 36bd 6fd5 283d 31ae afbb 1041 ba3c
00000230: d1d8 c53c c749 243d 2799 00ba d699 0e3c
00000240: d9f2 8c3d f7b3 913d abb6 82bd ed31 f1bc
00000250: 5ce0 f5bc 27b6 4ebd 9aa7 bbbd a9a7 9b3b
00000260: de9d 7bbc fa44 22bc 5650 3cbc 3ab0 d33c
00000270: 5aec 433d c782 323d f772 b03c 67ec 8d3d
00000280: a344 923c 2da3 153c 5a0e 35bc f6d5 fb3c
00000290: 734a e8bc 8660 a1bc 8b8c 593d 59ea 74bd
000002a0: 2dc1 2dbd 30c1 3cbd 3d1c 25bd 1b7d a83c
000002b0: 1bec 7cbd dc42 413d fbd6 283c 1369 dcbd
000002c0: 5cda 953d e337 0a3d dfee 113d 8b25 2b3d
000002d0: 5952 36bc f4a1 773d 730a a7bc 801d cdbb
000002e0: 89fe ce3d 0904 93bc 61a3 853c 520f 5e3b
000002f0: 37b8 2cbc a425 f6bb cb51 e63c e39e f03b
00000300: b49f d7bb 6e6e b93c 0ded 2a3c 184d d33b
00000310: dd8d 1ebc 05d3 803b 7f57 823c adb2 25bd
00000320: e252 873c 7413 863c c6d2 1ebd 610c 4cbc
00000330: 4f55 50bd 4360 20bc 9f27 5abc a997 b9bc
00000340: 3ffb c03c d0e4 d7bc ff1e 49bc 2f94 ca3c
00000350: e9ee 62bc 7437 5f3d d73c c93c e689 1b3c
00000360: 8bdc dc3c d9d6 38bd 399d babd 7fbc dd3c
00000370: 5ae8 06bb 67a8 e9bd 20d1 453d c176 043d
00000380: 54e0 603d 59e0 12bc 1e92 ebba daa3 e63d
00000390: f2d0 50bc b821 4fbd ade6 023e 7b87 3f3b
000003a0: 7490 46bd b828 ffbd 2188 4dba ec08 223d
000003b0: 755d e6bc 2fb3 39bc e452 683d d731 9abc
000003c0: 7b10 2fbd e6c9 023d e9c5 d93d 6e5d ae3a
000003d0: 42f2 8abc c213 103c 7244 cb39 53fc b0bb
000003e0: 0a20 9fbb 55be 73bc 14ec 8b3c 1832 c23c
000003f0: 5550 2dbb b8f2 453d 1e10 823c 5a50 e03c
-0.0013590597 -0.006363756 0.025830377 -0.03690793 -0.025150698 0.0006615246 -0.0138550345 -0.013091857
0.0011569206 0.0086865565 -0.00013129797 -0.030568782 0.032230422 0.01654288 -0.018541532 0.02588563
0.028692542 0.018150436 0.0010764983 0.017921403 0.014922191 0.002678378 0.0113724405 0.017365042
-0.01116945 -0.0035087925 -0.0111774625 0.025896793 -0.0027923519 0.014862768 0.028904283 -0.016406562
0.0027709955 -0.0047258143 0.002428164 0.0043965476 -0.039768506 0.015308476 -0.043764997 -0.03602733
0.04308306 0.002136334 0.01359503 0.029601788 0.016243218 0.021968197 -0.0059053767 0.034757033
0.03045003 -0.027872326 -0.0047803484 -0.009196114 -0.013888034 -0.005912678 -0.02607931 -0.034690455
0.0025400824 -0.012982306 -0.03683084 -0.03598779 0.004108513 -0.016594082 0.003505333 0.074319504
0.056116536 0.023667818 0.016431658 0.02004777 0.068768375 -0.016618058 0.0030439387 -0.013150677
-0.03488159 -0.013877337 -0.038700543 0.00697566 0.0040993495 -0.043551367 0.027468702 0.018382413
0.01009637 -0.015886353 0.01284091 0.035031185 -0.011107377 -0.03762121 0.004026243 0.01258634
-0.021691617 -0.021667182 0.04132825 0.033142447 -0.052809335 0.023482446 0.1431229 0.044458672
-0.04492975 0.083146065 0.06580665 -0.02371631 -0.018410364 0.050735477 0.0102776745 -0.08485607
-0.028285094 0.015506372 -0.05538228 -0.047100578 0.005141312 0.0028384833 0.03539333 0.046583153
0.021317005 -0.006078451 0.027611883 -0.025104392 0.014731717 -0.010480965 0.015788283 -0.03306476
-0.05570649 -0.008437724 0.026231447 -0.002628365 0.07620477 -0.0031463776 0.026869867 -0.022947295
0.02052231 0.043045506 -0.007740334 -0.010062306 0.006299347 -0.035317607 0.006578139 -0.059720654
-0.044666063 0.04121917 -0.0053613414 0.022736102 0.024151238 0.040109422 -0.0004905634 0.0087036695
0.06882257 0.07114404 -0.063824974 -0.029442752 -0.03001421 -0.050466683 -0.09162827 0.0047502113
-0.015357463 -0.009904141 -0.011493763 0.025840867 0.047832824 0.04358175 0.021539195 0.06929856
0.017854994 0.009133142 -0.011050785 0.030741673 -0.028355813 -0.019699346 0.053112548 -0.059793804
-0.042420555 -0.046082675 -0.040310133 0.020567467 -0.061748605 0.047182903 0.010305162 -0.10762229
0.07317039 0.033744704 0.035628196 0.04178385 -0.011128032 0.060457185 -0.020390725 -0.00625962
0.101071425 -0.01794626 0.016313257 0.0033883643 -0.010541967 -0.0075118113 0.028115174 0.0073431595
-0.0065803174 0.022635665 0.010432494 0.0064483993 -0.0096773775 0.0039314055 0.015910862 -0.0404536
0.016519014 0.016366698 -0.038775228 -0.012454123 -0.050862607 -0.009788576 -0.0133151105 -0.022655325
0.023557303 -0.026354223 -0.012275456 0.024728863 -0.013850906 0.054496244 0.024565144 0.009493327
0.026960632 -0.04512677 -0.09112019 0.027067421 -0.002058527 -0.11409073 0.04829514 0.032339815
0.054901436 -0.008964621 -0.0017972623 0.11261721 -0.012745129 -0.050569266 0.12783308 0.002922504
-0.048477605 -0.12458938 -0.0007840414 0.03955929 -0.028120736 -0.011334225 0.056719676 -0.018822594
-0.042740326 0.031930827 0.106334515 0.0013302991 -0.01696122 0.008793773 0.00038770173 -0.005401173
-0.0048561143 -0.014876922 0.017080344 0.023705527 -0.0026445587 0.048327178 0.015876826 0.027382065

layer1.1.conv1.bias f4 [32]
00000000: 97ba 32b6 f69d f8b6 d86b 84b6 fc52 0037
00000010: 80f7 aab7 9231 9f37 516b 7e36 00c1 0c33
00000020: 3658 71b8 c2ed 0036 daaf fcb6 d869 4ab6
00000030: 3eb5 83b7 08c1 9a36 de85 fb36 d777 39b7
00000040: 749f 0cb6 bb02 36b8 95b7 dc36 d89d 2037
00000050: 6c5b 35b7 64d9 f036 9248 e7b6 8e24 45b6
00000060: 2e15 4eb7 c027 14b4 1d2a cb36 0780 5237
00000070: 1e3e f737 1e20 4537 3551 a037 8677 e0b5
-2.6632677e-06 -7.409365e-06 -3.946461e-06 7.648716e-06 -2.038083e-05 1.897736e-05 3.7911416e-06 3.2771823e-08
-5.754103e-05 1.921188e-06 -7.530657e-06 -3.0161955e-06 -1.5700814e-05 4.6120294e-06 7.495967e-06 -1.1054762e-05
-2.095444e-06 -4.3394724e-05 6.5778827e-06 9.573494e-06 -1.08097265e-05 7.177865e-06 -6.8927848e-06 -2.9376565e-06
-1.2283488e-05 -1.3798035e-07 6.054774e-06 1.2546784e-05 2.947362e-05 1.1749593e-05 1.9111301e-05 -1.6724086e-06

layer1.1.bn1.weight f4 [32]
00000000: 862f 533e 8e96 d23e 7785 593e d493 f23e
00000010: 5be5 0a3f f01f 043f c7e7 8d3e 5057 dc3e
00000020: 161e bb3d 121b 6d3e 61d6 ef3e 6d17 053f
00000030: 2d42 e83e c802 d23e d445 013f 02f3 933e
00000040: 165b ba3e 1039 003f 0643 b53e a5ce 063f
00000050: 6490 b83e f6f0 b83e 9a30 ae3e 08ca a23e
00000060: 7865 c13e 01dc 163f 2473 933e ca12 dd3e
00000070: 618a 143f 0bbf ca3e 45d6 b43e c421 b43e
0.20623598 0.4113049 0.21242319 0.4737841 0.5425622 0.5161123 0.27715895 0.43035364
0.09136598 0.23154858 0.46843246 0.5198887 0.45362988 0.41017747 0.50497174 0.28896338
0.36397618 0.5008707 0.35402697 0.52659065 0.3604766 0.3612134 0.34021455 0.31794763
0.37772727 0.5892945 0.28798783 0.43178397 0.5802365 0.3959888 0.35319725 0.3518201

layer1.1.bn1.bias f4 [32]
00000000: 2907 a8be 5f74 49be 432f b53e 1dae c2be
00000010: c373 38bd c1f6 8dbe 79d9 9abe 2e45 89be
00000020: fc80 fd3e e172 4bbe 5841 70be 1338 a6be
00000030: cdb8 f7bd 895c e9bc d53e cabe 211a 0abc
00000040: d695 66be f318 043f 83d3 9ebe 49a7 8fbe
00000050: 953d b4bd bc1e 81be c319 73be 91d9 cf3e
00000060: f4ff 5abe eb9c e1bd 9669 003c 0c4b 4bbe
00000070: 6c02 78be 0d03 55be b27a 4b3d 5752 b8be
-0.32817963 -0.19673298 0.3538762 -0.38023463 -0.045032274 -0.2772732 -0.30244043 -0.26810592
0.4951247 -0.19868042 -0.23462427 -0.32464656 -0.12095795 -0.028486507 -0.39501062 -0.008429081
-0.22518095 0.5160057 -0.31020746 -0.28057316 -0.08800808 -0.2521876 -0.23740296 0.40595677
-0.21386701 -0.11016258 0.007837674 -0.19852847 -0.24219674 -0.20801945 0.04967756 -0.3600032

layer1.1.bn1.running_mean f4 [32]
00000000: 95c7 b73c 24cf 3c3e 716e a2bd efb1 333e
00000010: d1fb 20bd b718 9f3d 68c9 ae3d 9db7 933c
00000020: 965e e9bb af00 2a3a 9bf7 c73d 4a11 f3bc
00000030: 1372 e9bd 1516 3fbd 9ac4 2b3d c829 283d
00000040: e5ee 083e 22fb 0fbe 9b93 4a3d d4a3 9ebc
00000050: b593 9f3c 7aeb bc3d c6e7 ccbb 4a78 46bb
00000060: fd43 07be 8abc 9d3b 69f1 113e a4ef 5abc
00000070: 3262 bfbd cc28 6e3d e41a b2bb 8cb4 debc
0.022434035 0.18438393 -0.07931221 0.17548345 -0.03930265 0.07768386 0.08534509 0.01803189
-0.007121871 0.0006485087 0.09764024 -0.02967133 -0.11398711 -0.04665192 0.04193554 0.04105547
0.13372381 -0.14060643 0.049457174 -0.019365229 0.019479612 0.09224601 -0.0062532155 -0.00302841
-0.13209529 0.0048137354 0.14252247 -0.013362799 -0.09344901 0.058144376 -0.0054353345 -0.0271857

layer1.1.bn1.running_var f4 [32]
00000000: 2ce8 563f 2bdb 0d40 780d a03f 46ae 0940
00000010: ca28 d33f 7e1e d03f 8a4a 873f e3df c23f
00000020: 35a1 183f ad7e 3b3f fc74 b63f 5b68 bc3f
00000030: c34c a83f 9669 cf3f 758a a43f 2598 733f
00000040: 96a2 a63f 4dd0 0a40 b34e a53f 098d 913f
00000050: 2dd6 1c40 d64b a63f c215 803f b4be dd3f
00000060: fc10 8f3f 96c7 b93f 1d81 a93f 8ef3 a73f
00000070: 7e31 0f40 78d5 9a3f f99c 9d3f 4c86 503f
0.83948016 2.216502 1.250411 2.1512618 1.6496823 1.6259305 1.0569623 1.5224575
0.5962098 0.73240167 1.4254451 1.4719347 1.3148426 1.6204097 1.2854754 0.9515403
1.3018367 2.1689637 1.2914642 1.1371166 2.4505723 1.2991893 1.000664 1.7323823
1.1177058 1.4514034 1.3242527 1.3121202 2.2373958 1.2096395 1.2313529 0.8145492
