log/sem_seg/SatVideoIRSDT__2025-07-22_19-41__SoftLoUloss_DeepPro-Plus_DataL40/checkpoints/epoch_15_model.pth (torch, 941507 bytes, 213 tensors)

conv_in.0.weight f4 [8, 1, 5, 7, 7]
000000 3f 2d d9 bd c5 fa 1e bd a2 f3 39 3d 8e 2c 1f 3e
       -0.10604333 -0.03881337 0.045398362 0.1554434
000010 5f ff c3 3d e0 e6 f1 bc e0 67 fb bd ab 00 03 bc
       0.095701925 -0.029529035 -0.12275672 -0.007995765
000020 e0 8e 99 3c 15 6b 02 3d 8f 1f 07 3e 4b dc b4 3d
       0.018744886 0.031840403 0.13195632 0.0883108
000030 ca 82 4b 3c 41 0e 20 bd 97 7a f4 bb a0 6c ac 3b
       0.012421319 -0.039076094 -0.007460903 0.0052619725
000040 87 52 41 3d 2d ac a5 3d 17 e4 28 3d bb 42 59 3b
       0.047197845 0.080894805 0.04123315 0.0033151347
000050 33 29 1c bd da f3 a5 bc 65 dc 1c bd 34 7b 98 3c
       -0.038125228 -0.020257879 -0.038296122 0.018613435
000060 67 94 39 3c cf 04 71 bd 8f 8b 8d bc 0a 97 50 3c
       0.011326886 -0.058842476 -0.01727846 0.012731323
000070 f7 63 fe bc 03 82 93 bd f4 73 95 bd 13 12 76 3d
       -0.031053526 -0.07202532 -0.07297507 0.06007583
000080 46 01 18 bd b6 e0 6a bd d5 28 2f bd 19 a3 80 3d
       -0.03711059 -0.057343207 -0.04276355 0.062811084
000090 2e c7 8c 3d 45 06 7a 3d fb c7 1d 3e e7 5f 39 3d
       0.06873928 0.061041135 0.15408318 0.045257475
0000a0 db 40 92 bd f2 5a 6f bd 98 b2 9d 3c b7 ff b5 3d
       -0.071412764 -0.05843634 0.0192502 0.08886664
0000b0 5f 18 fd 3d c0 d3 18 3e 25 e9 4b 3d 86 6c 79 bd
       0.12358164 0.14924526 0.04978289 -0.06089451
0000c0 97 7b a2 bc 8a fd b6 bd 8e 92 9f bd 87 1e 86 bd
       -0.019834323 -0.089350775 -0.07791625 -0.065487914
0000d0 e2 ff ea bc 7c ae 40 bd db 6f 9b bc 7f 1f 9e bc
       -0.028686468 -0.0470414 -0.018974235 -0.019302128
0000e0 d6 db 1d bd 86 db e1 3c 55 cb 00 3e b3 2b 53 3e
       -0.03853973 0.027570497 0.12577565 0.20622139
0000f0 c9 bc 1e 3e 7e c3 c0 3d eb 89 d5 3c fb 21 20 bc
       0.15501703 0.09412287 0.026066741 -0.009773727
000100 ea 64 53 3c 9a 1d a0 3d 48 56 8a 3e ba ab 42 3e
       0.012902478 0.07818146 0.27018952 0.19010821
000110 15 58 e5 3d da 2a a0 3a f5 89 81 3c 38 8f 00 bd
       0.11198441 0.0012219802 0.015812853 -0.031386584
000120 ed 65 a6 bd 79 8b 62 3d 0c a0 ad 3d 40 d4 0e 3e
       -0.081249095 0.055308793 0.08477792 0.13948154
000130 58 18 94 3c d2 67 c4 bc 42 c9 69 bd 1d 9b b2 bd
       0.018078014 -0.023975287 -0.0570767 -0.08720992
000140 2e 9f 8c 3c a5 fa 1f bd 98 23 23 3b 3b 98 66 bd
       0.017165747 -0.039057393 0.0024893042 -0.056297522
000150 c4 ba 19 bd f4 1f 2c 3b 3f dd 05 3a d0 0b 59 3d
       -0.03753163 0.0026264163 0.00051065156 0.05298978
000160 30 aa 9e 3c bc f5 4c 3b 54 1a a2 bc d5 1c 95 bd
       0.019368261 0.0031274399 -0.019787945 -0.0728089
000170 e2 af 6d bd 91 04 12 bd bb af 3c 3c 23 2b 7d 3c
       -0.058029063 -0.035648886 0.011516507 0.015452179
000180 30 4a cb 3c 4e eb 71 ba a8 82 a5 3d 02 d1 8c 3d
       0.024815649 -0.00092284835 0.08081561 0.068758026
000190 44 e8 e3 3c 84 91 4f bc 07 c0 1f bd 41 70 ed 3c
       0.027820714 -0.012668971 -0.03900149 0.02898419
0001a0 c3 81 bb 3c 97 ef 6e 3d 0f 34 33 3d 6f 6b 08 3d
       0.022889024 0.05833396 0.04375082 0.03330558
0001b0 19 4b a4 3d 37 54 1d 3c 79 4a 52 3c 07 a4 b9 bc
       0.08022136 0.009602598 0.0128351385 -0.022661222
0001c0 24 5c 43 3d 6c 9a 3f bb 44 ef a5 3c 81 7e d1 3d
       0.047695294 -0.002923633 0.020255692 0.10229207
0001d0 b9 00 9f bb f7 47 3a 3c 36 de 6e bc 5a 80 a2 3d
       -0.004852381 0.011369697 -0.014579346 0.07934637
0001e0 f4 f9 db 3c 3e b3 33 ba 09 f7 81 3c ae 62 da 3b
       0.026852585 -0.0006855017 0.015864866 0.0066645956
0001f0 20 b5 bb 3d b5 44 68 3c 84 8c 60 3d 89 08 b5 bc
       0.09165406 0.014176537 0.054821506 -0.022098796
000200 a1 35 ec bd c7 92 7d bd 86 27 e0 bd e1 c3 62 bd
       -0.115336664 -0.061907556 -0.109450385 -0.055362586
000210 9b b1 82 bd dc f9 3a 3d 0a e8 4a bc 29 f0 b7 bd
       -0.06381532 0.04564844 -0.012384424 -0.08981354
000220 4a 23 85 bd 95 35 9e bd c0 d5 97 bd c9 c7 9f bd
       -0.065008715 -0.07725064 -0.074138165 -0.07801778
000230 ae 8c 30 3d 86 69 21 3c 3f 3f 01 bd 31 37 32 bc
       0.043102913 0.009851819 -0.031554457 -0.0108774165
000240 87 86 8a bc 63 b5 15 bc 07 e0 9f bd b1 fa 1c 3e
       -0.01690985 -0.009137484 -0.07806402 0.15330006
000250 87 09 a1 3d 37 6e 36 3d ca 74 74 3d 50 09 f3 3d
       0.07863145 0.044538703 0.05968169 0.118670106
000260 a4 e8 4d 3e 44 8f 49 3e db 23 5a 3e 2a 62 7d 3d
       0.20108277 0.19683558 0.2130274 0.061861195
000270 8d a5 1d 3e e9 68 32 3e 0c 3b fe 3d 20 40 e6 3d
       0.15395184 0.17422833 0.12413606 0.112426996
000280 33 85 96 3d 3b 8a 33 3e f2 91 24 3e 6f 81 a8 3e
       0.073496245 0.175332 0.16071299 0.3291125
000290 4f e3 31 3e 64 6b 54 3e ac 90 29 3e 36 dd 92 3c
       0.17371868 0.20744091 0.16559094 0.017927747
0002a0 2f eb 31 3e e4 6c 82 3e b8 8b b0 3e 36 dc 14 3d
       0.17374872 0.25473702 0.34481597 0.036342822
0002b0 08 0b 42 3e 15 8f 70 3e 3b 4d f9 3d 9a 00 f1 3d
       0.1894952 0.23492081 0.12172934 0.11767693
0002c0 e0 a3 2f 3e 62 61 5a 3e 92 4c 0b 3e c5 f2 64 3e
       0.17152357 0.21326211 0.13603428 0.22358234
0002d0 5c 44 f3 3d d2 7e 89 3d 63 55 02 3e f3 c5 b6 3d
       0.11878273 0.06713642 0.12727885 0.089244746
0002e0 7f 0a 0b 3e 12 d3 33 3e c8 e2 21 3e 78 12 e4 3c
       0.13578223 0.17560986 0.15809166 0.027840838
0002f0 93 4d 8c 3d 80 4f 60 3e a0 2f 0f 3e b6 42 b2 3d
       0.068507336 0.21905327 0.13983011 0.0870413
000300 5f c7 9f 3d fa 50 d0 3d 1c 20 a9 3d 7e f2 12 3e
       0.07801699 0.10171695 0.082580775 0.14350316
000310 9b 20 61 bc 47 ff 5a 3d fe 94 c9 bc a1 6b 88 bd
       -0.013740684 0.053466108 -0.024607178 -0.066611536
000320 77 13 7f bd df ce 96 bc e2 5b a7 bc d9 63 84 3c
       -0.062274422 -0.01840919 -0.020429555 0.016160892
000330 17 da c5 3c 40 5a e8 bc b1 e7 97 bd 96 cc bb bd
       0.024151845 -0.028363347 -0.074172385 -0.09169881
000340 38 c5 fc bc d1 e3 d5 39 22 15 29 3d 70 2a 5d bc
       -0.03085576 0.00040796262 0.04127992 -0.013498887
000350 6a d1 a3 bc 81 31 56 bd 14 07 98 bd ba 8b 0b bd
       -0.019997317 -0.052293304 -0.07423225 -0.0340688
000360 93 d4 43 3c 0c b9 f7 3d 5c 25 cf 3c 41 62 d1 3c
       0.011952537 0.12095842 0.025286369 0.025559546
000370 b7 da 4b 3d 24 4f 36 3d 0f 16 4b 3d 0f 1d 69 3d
       0.04976913 0.044509068 0.049581584 0.056912478
000380 25 37 b0 3d 9a ff 26 bc 70 db 70 bc af b0 6c 3d
       0.08604268 -0.010192776 -0.0147007555 0.057785686
000390 a9 26 9e 3d f6 86 00 3d 6e d1 2c 3d 73 7c 1e 3d
       0.077222176 0.03137871 0.042191915 0.038692903
0003a0 85 e0 83 bc 93 45 3c bd 3b 47 91 bc 6d 8f 49 3c
       -0.01609827 -0.04596479 -0.01773416 0.012302262
0003b0 47 82 56 3c 77 df 94 3d ac 59 0b 3d 8e 7d a4 bc
       0.013092584 0.07269185 0.034021065 -0.0200794
0003c0 bf 9d a2 bd d8 6a 77 bd e3 43 2e 3c dc d5 6e 3d
       -0.07940244 -0.06040463 0.010636303 0.05830942
0003d0 f5 7c be 3d 58 c4 30 3d f0 06 3b 3d fd 3d 29 3c
       0.093011774 0.043155998 0.045660913 0.010329721
0003e0 81 8d 5d bd e3 03 29 3c 39 4b 89 3d 30 47 45 3d
       -0.054090027 0.010315868 0.06703801 0.048163593
0003f0 05 7a 8b 3d 04 02 96 3d 94 bf 8e 3d 4d 60 74 3d
       0.06810383 0.07324603 0.069701344 0.059662152

conv_in.0.bias f4 [8]
000000 83 d2 55 b8 f9 f5 c6 b8 5e 2c 0f 38 00 af 5d 38
       -5.097921e-05 -9.487192e-05 3.4135177e-05 5.2853487e-05
000010 d2 cb 9e 38 8e 62 95 37 aa 0f 2d b8 0e ad 28 37
       7.5719916e-05 1.7808077e-05 -4.1261002e-05 1.0053873e-05

conv_in.1.weight f4 [8]
000000 e9 4a 34 3f d5 77 5d 3f e5 b7 0b 3f b6 63 fe 3e
       0.70426804 0.86510974 0.54577476 0.49685448
000010 22 57 2f 3f a5 92 28 3f f1 6d 47 3f 6f d4 19 3f
       0.6849233 0.6584876 0.7790213 0.6008977

conv_in.1.bias f4 [8]
000000 be a2 d6 3d dd 9b cc 3c 08 5c 1f 3c 39 5b 2f bd
       0.10480259 0.024976665 0.009726532 -0.042811606
000010 70 02 72 bc 6a 89 ec bb be 30 d8 bd 14 a4 50 bc
       -0.014771089 -0.0072185295 -0.10556172 -0.012734432

conv_in.1.running_mean f4 [8]
000000 5a 11 f8 bd 06 e3 c4 3c 74 21 fa 3e c3 81 e2 3d
       -0.121126845 0.024034034 0.48853648 0.11059906
000010 d0 7d c4 39 0b c7 7e 3d 5e f4 23 3c af 3a 12 be
       0.0003747777 0.06220154 0.010006992 -0.14280199

conv_in.1.running_var f4 [8]
000000 40 c6 8f 41 e3 82 c0 41 56 98 b3 41 24 65 41 41
       17.971802 24.06391 22.449383 12.087193
000010 5c 23 5e 41 b9 d6 a9 41 ea 98 b4 40 24 ad a6 41
       13.883633 21.229845 5.6436663 20.834541

layer1.0.conv1.weight f4 [16, 8, 3, 3, 3]
000000 46 0a 43 3d f8 bd cc 3d aa 95 4d 3e 4a a7 69 bc
       0.04761722 0.09997171 0.20076624 -0.014261076
000010 bc dc d4 bd 69 aa 01 be 6d 95 f6 3d aa c1 49 3d
       -0.10393664 -0.12662663 0.120402195 0.049256958
000020 d2 09 d6 3d c7 87 ef bc 81 d5 c5 bc a5 cf 44 bd
       0.10451092 -0.029239548 -0.024149658 -0.048049588
000030 25 93 b4 bc b8 6a cd bc 3d 9a 28 3d 2c 10 66 bc
       -0.02204282 -0.025075302 0.041162718 -0.014041942
000040 b3 74 18 3c 53 19 82 bb 55 9f 02 bd d3 d4 80 bd
       0.009305167 -0.003970304 -0.031890232 -0.06290593
000050 c6 59 08 be 71 b4 86 3d c7 fd 12 3e 95 09 93 3d
       -0.13315496 0.06577385 0.14354621 0.07179562
000060 46 b8 09 be 57 98 70 bd 6d 1f ba bd 60 0a 47 bd
       -0.13449201 -0.058739033 -0.09088025 -0.04859388
000070 90 aa 8b bb 8a 7d 9f 3e 88 1a 23 3c 73 c3 96 bd
       -0.004262276 0.31150466 0.009955056 -0.07361498
000080 9c 67 bf bd 4c b1 e2 3d 8e d1 fc bc 9f f5 0d 3e
       -0.09345934 0.11068973 -0.030861642 0.13863228
000090 9d b0 2e 3d d1 47 8c 3d a3 ba ab bc 08 62 73 3d
       0.0426489 0.068496354 -0.020963019 0.05941966
0000a0 ff c6 bb bc d5 9b a7 bc 3b 68 09 bc 36 78 5d 3c
       -0.022922037 -0.020460049 -0.008386667 0.01351743
0000b0 f5 99 8e 3c 23 82 86 3c be 9b 77 bd b2 16 7b be
       0.017407397 0.016419476 -0.06045126 -0.24520376
0000c0 69 4d 8c bd 57 11 c6 3d 67 d6 03 3e 52 39 b6 bd
       -0.06850702 0.09671276 0.12874757 -0.08897652
0000d0 f7 16 2b 3c 3c 52 29 be 28 c5 a4 3c 50 21 9a 3d
       0.010442487 -0.16535276 0.020113543 0.07525885
0000e0 a7 6f a8 bc 9c 38 9c bd 4b 46 96 bd 12 de 85 bd
       -0.020561052 -0.07627985 -0.07337626 -0.06536497
0000f0 44 19 17 3d 8e 9e 7e 3d 0c 40 05 3d c7 d1 db bb
       0.03688933 0.06216293 0.032531783 -0.006708357
000100 20 fd 8d bd 05 6f d8 3c 99 c1 c3 3c fa 8f 27 bd
       -0.069330454 0.026420126 0.023896025 -0.04090879
000110 9a a8 cb 3d 7b c7 ec bc 35 0b b8 bd 95 2c 79 bc
       0.099442676 -0.028903713 -0.089865126 -0.015208383
000120 e3 9d 42 bc 14 c2 d2 3c 2c cd 6e bc 31 b1 49 3d
       -0.011878463 0.02572731 -0.014575284 0.04924125
000130 97 ba 00 3e be 84 a3 bd cd d4 0c 3c 36 08 5d 3d
       0.12571178 -0.07984303 0.008595658 0.05396291
000140 e2 33 28 bd 65 58 93 bd 88 61 2e bb 5e 10 c8 3d
       -0.041065104 -0.07194594 -0.0026608426 0.09768747
000150 c9 8f 32 bd b3 e3 61 3c 79 f3 c0 3d f3 d7 29 3d
       -0.043594155 0.013787198 0.09421439 0.04146571
000160 9c cb ca bb 2c 16 7d 3b 06 09 0b 3c 4c 83 90 bb
       -0.006188823 0.0038617952 0.008486038 -0.004410183
000170 0f bb 3e bc c3 ef 3c bc 56 0f 06 bc b1 73 8e bd
       -0.011641278 -0.011531773 -0.008182367 -0.0695566
000180 e4 d9 22 bd 9e 4d f6 3a 5f 72 ad bc 20 a6 60 3d
       -0.039758578 0.0018791442 -0.0211727 0.05484593
000190 ca 31 0a bc e7 e1 b0 bd 08 97 5f 3d 42 aa c3 bc
       -0.008434722 -0.086368375 0.054587394 -0.023884896
0001a0 df 47 73 bb 87 48 b9 bb 6f 02 4b bb d9 f9 a8 3c
       -0.0037121696 -0.005654398 -0.0030976792 0.02062695
0001b0 e2 5c 6f 3d 1e 54 12 3d 25 ff 23 bd 08 54 cf 3d
       0.05843819 0.03572475 -0.040038247 0.101234496
0001c0 cf 5e a0 3d 55 1d 83 bd 86 4e 87 bd 11 76 e2 bd
       0.07830583 -0.06402079 -0.06606774 -0.11057676
0001d0 f6 06 bc bd f8 9a 95 bd 55 ad d2 bb 97 79 d8 3c
       -0.09181015 -0.073049486 -0.006429354 0.026425166
0001e0 08 9a 25 be 4e a8 e6 bd d6 22 87 3c cd 89 c7 3c
       -0.1617204 -0.1126257 0.016496103 0.0243577
0001f0 ad 87 58 3d 4b 68 cc 3d 49 bc 2e 3d b5 cd 49 bc
       0.052863766 0.0998083 0.04266003 -0.012317111
000200 f1 22 95 3b 4c 4f fd 3d 3e 42 b6 3d 1d 19 3b 3d
       0.0045512845 0.1236864 0.088993534 0.045678247
000210 19 fc 4d 3d 25 ca 27 3d ec dd 72 bd 8a e5 1f bd
       0.050289247 0.040964264 -0.059293672 -0.039037265
000220 58 01 2b 3d 7f 17 03 3d fc 44 ad bd b0 29 40 3d
       0.04174933 0.03200483 -0.08460423 0.046914756
000230 10 97 3f bd c1 49 de bb 91 7b 49 3d 68 51 a6 3c
       -0.046774924 -0.0067836945 0.049190108 0.02030249
000240 53 df 7c bc a8 1d 47 bd 61 85 02 bc 95 54 f2 bc
       -0.015434104 -0.048612267 -0.00796637 -0.029581347
000250 2a 89 34 bd ee e3 e9 3d 98 80 1a bc 10 81 2b 3d
       -0.044076122 0.11420427 -0.009430073 0.04187113
000260 eb 80 c0 3d 27 0c 2a 3d 89 41 8a 3c 5f ec e5 bc
       0.09399589 0.041515496 0.016876953 -0.028066812
000270 82 57 0a 3e de 89 d0 3c 73 b0 e8 bd 06 52 48 38
       0.13509944 0.025456365 -0.1136178 4.7760106e-05
000280 d1 19 f5 bd 35 71 1b be 29 ab 56 3d 53 80 0d 3d
       -0.11967815 -0.15179904 0.052409325 0.034546208
000290 b2 7c f2 3d cc bc d3 3d 70 a9 84 bd b7 ca 33 be
       0.1184019 0.103387445 -0.0647763 -0.17557798
0002a0 92 a2 16 3d 0f 5c 82 bd 1c b6 95 3d cc 22 00 bd
       0.036776133 -0.06365215 0.07310125 -0.031283185
0002b0 9e e5 df 3d 6d 58 67 3d 08 bf df bd 01 13 85 be
       0.10932468 0.056480814 -0.10925108 -0.2599106
0002c0 b4 fb 84 bd c3 24 06 3e cd 05 14 3e b3 1b 66 3d
       -0.06493321 0.13099961 0.14455338 0.05617876
0002d0 8b 75 5e 3c 2f 3c 4c be 16 46 25 be b0 db b8 3d
       0.013577829 -0.19944833 -0.16140017 0.09026277
0002e0 52 40 d5 3e bb 79 84 3e fe eb 78 be 95 11 43 be
       0.41650635 0.25874123 -0.24308774 -0.19049676
0002f0 dc ac 21 be a3 9a 28 bd 1f 3a 5b 3b bb bf 1f 3d
       -0.15788597 -0.041163098 0.003345139 0.039001208
000300 7c 7b b8 bd b7 d7 57 3d 49 00 8c 3d 7e 81 ce bd
       -0.09007928 0.052695956 0.06835992 -0.100832924
000310 d4 16 a4 bd 84 1e 26 3d be 30 35 bd d5 db 09 3d
       -0.080121666 0.040556446 -0.044235937 0.033656914
000320 f7 e9 00 3c 10 34 19 3d 5e a1 96 3c a2 71 98 bb
       0.007868282 0.037403166 0.018387493 -0.004652218
000330 d0 9a b5 bb e2 e8 bd 3c c8 ba a6 bc e7 ec dd 3d
       -0.0055421367 0.023182336 -0.020352736 0.10836201
000340 88 c7 5a bc 1b 78 26 bd e6 80 94 3d 54 8f 93 bd
       -0.013353236 -0.040641885 0.07251148 -0.07205072
000350 af c8 5b bd 41 4b df 3d 35 68 40 3d fa a8 65 bc
       -0.053658184 0.109030254 0.04697438 -0.014017338
000360 47 cf 19 3d 10 dc c9 3d 7d ed b1 bd a4 e1 4c be
       0.03755119 0.09856427 -0.086878754 -0.2000795
000370 5a 28 f6 3d 42 06 e9 3d 58 9e af be 8d 72 32 3b
       0.12019415 0.11378147 -0.34300494 0.0027228922
000380 ac 7c 5f bc 8b eb 97 bb 06 23 f7 bb 1b 23 9d 3d
       -0.013640564 -0.004636233 -0.007542017 0.076727115
000390 93 0f 01 3e ac 33 fa bc 2a a1 fa bd 2c 9f 52 3e
       0.12603597 -0.030542217 -0.12237771 0.20568532
0003a0 8e 27 60 3d e3 e6 83 bb 95 cb e4 bc b4 8d b7 bd
       0.054725222 -0.0040253266 -0.027929107 -0.089625746
0003b0 38 9a 91 bc 1c 0d c3 3c a4 0c 82 bd 77 c4 13 3d
       -0.017773733 0.023809962 -0.06350067 0.036076035
0003c0 32 1e 94 3c d2 06 9a bd b0 90 c0 3c 46 a1 b9 bd
       0.018080804 -0.07520832 0.023506492 -0.090639636
0003d0 56 fb a1 3d fb a1 13 be 40 de 7e bd 49 a6 cc 3d
       0.07909267 -0.1441726 -0.062223673 0.09992654
0003e0 77 b4 88 3d 99 7a 18 be 55 ce 10 3d c5 6a ab bc
       0.06675046 -0.14890517 0.035353024 -0.020924935
0003f0 16 3c 9d 3d c0 b8 d7 bc 48 86 b7 3d f5 0e 89 bd
       0.07677476 -0.026333213 0.08961159 -0.06692306

layer1.0.conv1.bias f4 [16]
000000 fe 9b 41 39 cf 8f 6d 38 22 e9 ad 37 e7 4c c7 b7
       0.00018464026 5.6639135e-05 2.0731768e-05 -2.3758459e-05
000010 2e c2 ae b6 50 77 69 37 61 88 88 38 9e fe 85 b8
       -5.2082096e-06 1.3915662e-05 6.510388e-05 -6.38936e-05
000020 0b 4a 93 b8 3a b0 8b 38 2a 96 9f 38 3e a4 e0 b7
       -7.023298e-05 6.660861e-05 7.609681e-05 -2.6779362e-05
000030 ec de 80 b8 fc 5e 74 38 28 fa 85 b6 00 dd 86 b4
       -6.145038e-05 5.8262594e-05 -3.992831e-06 -2.5120244e-07

layer1.0.bn1.weight f4 [16]
000000 e4 9e f4 3e 95 5d 0a 3f 71 e9 33 3f fc a7 1e 3f
       0.47777474 0.54049045 0.7027808 0.61975074
000010 01 7a 15 3f b1 69 2d 3f 25 9e 1c 3f 50 4a 01 3f
       0.5838929 0.677394 0.6117881 0.50504017
000020 d8 f2 f3 3e 9c 9d 1e 3f bd a5 21 3f f8 a9 07 3f
       0.47646213 0.6195924 0.6314352 0.52993727
000030 34 ce 04 3f 48 28 04 3f 9d e7 77 3f 99 e5 15 3f
       0.5187714 0.51623964 0.9683779 0.58553463

layer1.0.bn1.bias f4 [16]
000000 9e 3d 50 bd fd 70 da bc e3 2a 20 3d 7e 16 43 3d
       -0.050840013 -0.026665205 0.0391034 0.047628872
000010 fb 6e 15 bb e1 d7 d1 3d 25 b4 08 3d 65 8a 1c bd
       -0.0022801745 0.10246254 0.033374924 -0.03821792
000020 cb 2a 78 bd aa f3 28 bd 8a d5 32 3e 9f 3d 3b be
       -0.060587686 -0.041248 0.17464271 -0.18285225
000030 62 7f b7 bd f9 69 c3 3b 51 8d 9f bd 82 2f b8 bd
       -0.08959843 0.0059635607 -0.07790626 -0.089934364

layer1.0.bn1.running_mean f4 [16]
000000 b6 6e 7e bb 70 ce 94 3c 2d d9 1c 3d d2 38 cf 3b
       -0.0038823313 0.018164843 0.038293052 0.006323912
000010 be 5b 55 3c be 9a 25 bd b6 35 28 3d 4d 01 0b 39
       0.013022361 -0.040430777 0.041066848 0.00013256558
000020 9e 55 14 3b 56 af ed 3c 93 c3 53 3b 68 a6 6e 3c
       0.002263404 0.02901427 0.0032312616 0.0145660415
000030 c7 30 a6 3c df b3 02 3d 71 f2 9c bd c8 5a a6 3c
       0.02028693 0.03190982 -0.076634295 0.02030696

layer1.0.bn1.running_var f4 [16]
000000 4d ca 8c 3e 8b 21 ae 3e d5 58 6e 3f ba 75 82 3f
       0.27498093 0.34009966 0.93104297 1.0192177
000010 21 2a 0f 3f 9a d2 27 3f eb ea f0 3e c9 03 07 3f
       0.5592366 0.6555573 0.47054228 0.5274015
000020 ac ab e3 3e ab 16 ee 3e 2a ab 17 3f dc 5a 87 3e
       0.44466913 0.4650167 0.5924555 0.26436508
000030 19 d4 c4 3e 69 8d 07 3f b8 c5 62 3f 80 f0 ce 3e
       0.38443068 0.5295015 0.88582945 0.40417862

layer1.0.conv2.weight f4 [16, 16, 3, 3, 3]
000000 b1 d7 b5 3d 20 11 b7 3d 12 66 63 bd 85 75 d9 3d
       0.088790305 0.08938813 -0.055517264 0.10618118
000010 1e b2 c4 bd ca f6 92 bd 4b d1 83 3d ec f6 d0 3c
       -0.09604286 -0.071759775 0.06436404 0.025508367
000020 22 90 17 3d 8c 01 97 3d 43 f3 d5 3d cb 31 5b bd
       0.03700269 0.07373342 0.10446789 -0.053514283
000030 ed 07 66 3d 82 8c cb bd e9 fc b2 bd 12 b6 7c 39
       0.056159902 -0.09938909 -0.08739645 0.00024100419
000040 23 90 58 3d 8b 13 5f 3d 73 3e b8 3d 0c 56 83 3d
       0.052871834 0.054461997 0.08996286 0.064128965
000050 c5 3f 53 ba 11 2a 86 3d 75 5d f7 bd 2e 90 9f bd
       -0.00080585136 0.06550992 -0.120783724 -0.07791172
000060 0a 4b f9 3c 09 ed 05 bd a2 91 f4 3c b7 cf 0f 3d
       0.03043129 -0.032696757 0.0298546 0.0351102
000070 2a 72 e5 bd aa f9 c5 3c e9 ec 66 bd 3b 95 54 be
       -0.11203416 0.0241669 -0.05637828 -0.20760052
000080 17 f2 d7 3b 33 c2 93 bd 31 10 ad bd 67 f2 d1 3d
       0.0065901387 -0.07214775 -0.08450354 0.10251313
000090 64 37 31 3d 65 e1 a6 3d 6b ec f7 3c 34 b3 97 3d
       0.043265715 0.08148459 0.0302641 0.07407227
0000a0 b5 3b d5 bd 30 fb 97 bd 4e 65 23 bd b2 2d 3b bb
       -0.10411779 -0.07420957 -0.039891534 -0.0028561172
0000b0 ed e0 8f 3d 63 b3 79 bc f6 df 73 bc e5 1e fb bd
       0.07025323 -0.015240523 -0.014884939 -0.12261752
0000c0 eb 2b ba 3d 15 a3 18 be 23 d6 9f bd 72 14 76 bd
       0.09090408 -0.14905961 -0.07804515 -0.060078092
0000d0 4c 13 c1 3d 5a 1c ff bc 1d 51 d3 3c ac e1 d4 3d
       0.09427509 -0.031141449 0.025795514 0.10394606
0000e0 97 ae 0a 3e ba 23 8c 3d 1c 53 b4 bd af 55 0d 3d
       0.13543163 0.06842752 -0.08804914 0.034505542
0000f0 bc 01 06 3c b5 dd 7a 3d 2f 2f 0d 3a eb 4a b0 3c
       0.008179124 0.061246593 0.0005385754 0.021520099
000100 bf de 43 3c b5 a8 e6 bc 59 3f b9 bc 30 70 03 be
       0.011954962 -0.028156618 -0.022613214 -0.12835765
000110 d2 8b 88 3b 27 4f ce bc 69 31 68 bd 25 c8 90 bd
       0.0041670585 -0.025184227 -0.056687746 -0.070694245
000120 e4 63 da 3c 4d 82 ee 3d 41 df de bd 53 c9 fc 3c
       0.02665896 0.11645947 -0.10882426 0.030857718
000130 03 9b 27 be 0c 23 3b 3c 3e b1 8a 3c 9b 40 12 be
       -0.16367726 0.01142193 0.016930219 -0.14282458
000140 05 03 56 bd f6 15 30 3d b9 e8 77 3b c4 84 7c bd
       -0.052248973 0.042989694 0.0037827922 -0.061650053
000150 9c 2a 28 bc 74 72 7e bd e2 b3 0a 3e 90 90 5c 3d
       -0.010264065 -0.06212087 0.13545182 0.053848803
000160 6e 41 c7 bc 11 08 bc 3d 81 f4 ea bc 22 44 35 3c
       -0.024323191 0.09181226 -0.028681042 0.011063607
000170 ac 4e 09 be 8c 58 65 bd ba 1f e6 bd 5e 32 64 3d
       -0.13408917 -0.055992648 -0.1123652 0.055712096
000180 d4 ee 49 bd 96 28 36 3b db 0f dd bd b1 91 f4 3a
       -0.04930003 0.0027795187 -0.1079404 0.0018659142
000190 9b 22 fd bb 29 2d 98 bd 23 fc 0e 3d 29 1c 06 be
       -0.0077250726 -0.074304886 0.034908425 -0.1309668
0001a0 49 52 18 be de 0b 20 bd d4 a8 0a 3e b0 e9 3e be
       -0.1487514 -0.039073817 0.13540965 -0.18643832
0001b0 99 96 1c bc b7 df 32 3d 11 3a 6c be 35 18 16 bd
       -0.00955739 0.043670382 -0.23069026 -0.03664418
0001c0 1c e5 46 be 30 4c 6c 3b 3e 7a 2e bd be bf 85 bd
       -0.19423336 0.0036056153 -0.042597048 -0.065307125
0001d0 1a db 8d bd 26 27 e9 bb 73 46 0c 3c 03 ab e5 bc
       -0.06926556 -0.0071152626 0.008561718 -0.028035646
0001e0 89 6c 94 bc a7 40 9e bd 75 0a 36 3d 4f 04 b8 bc
       -0.01811816 -0.07727175 0.044443566 -0.022462992
0001f0 03 13 95 bc 37 67 d4 bd 65 62 9d 3d 49 8f 3e bc
       -0.018197542 -0.10371249 0.07684783 -0.0116308415
000200 68 38 77 3d 03 11 4c 3d 1b e3 74 bd 63 f3 bf 3b
       0.060356528 0.04982091 -0.059786897 0.0058578714
000210 95 8e 03 3d e3 a2 b7 3c c0 e5 ed bd 84 54 63 3a
       0.0321184 0.022416538 -0.11616087 0.00086719566
000220 bf 56 ef 3d e4 80 65 3d f1 93 1a 3d 7e 9d b5 bd
       0.116864674 0.056031123 0.037738744 -0.0886793
000230 12 fd 47 be ab 24 11 3d 4f 21 41 3c cf 78 13 be
       -0.19530132 0.03543536 0.011787727 -0.14401554
000240 35 55 98 bd b7 a3 10 3c 60 b5 19 bc 43 6d 06 bd
       -0.07438127 0.008828095 -0.009381622 -0.032819044
000250 15 25 03 be 84 ab 91 3d 4e 33 03 3c 71 2a 87 3d
       -0.12807114 0.07112792 0.008007837 0.06599892
000260 a2 fb ef 3d 8d d6 25 bd 3e b8 b3 bd e2 6a 02 be
       0.11717917 -0.040487815 -0.08775376 -0.12736085
000270 fc 81 4d bd 11 71 82 be a5 db 11 3e 97 36 a1 bd
       -0.05017279 -0.25476888 0.14243944 -0.0787174
000280 9e 6e c8 bb 31 3b 43 3e 10 7b 54 3d c1 e4 84 3c
       -0.006116702 0.19065548 0.051875174 0.01622236
000290 1e 89 e6 bd 9a 9d 99 3c 2a 70 2f be 72 65 06 bd
       -0.11256622 0.018751908 -0.17132631 -0.03281159
0002a0 e1 4f 16 bd 4b 0b 2d 3d ff 86 41 3b 8d 74 e6 3c
       -0.036697272 0.042247098 0.0029529927 0.028131748
0002b0 42 03 e1 bc 95 23 73 bd 57 6c c6 3c 37 78 e8 bd
       -0.027467374 -0.059360106 0.024221582 -0.11351054
0002c0 a0 88 c3 ba e0 cd da 3c c1 bf 4e 3d 29 cb 54 3d
       -0.0014918037 0.026709497 0.05047584 0.05195156
0002d0 42 65 04 3d cf 97 92 bd 14 0e 9c 3d dd 05 9f bc
       0.03232313 -0.071578614 0.07619873 -0.019411976
0002e0 1d 71 86 be 62 04 95 3b cd 45 85 bd 6c 2c 41 bd
       -0.26258174 0.0045476416 -0.06507454 -0.047161505
0002f0 7c f8 2d 3b d5 62 06 3d b3 01 ca bc 64 e1 09 be
       0.0026545813 0.032809097 -0.024659013 -0.13464886
000300 57 1c 95 3d 80 d6 e8 bd b6 aa 19 bd a4 cb b0 bc
       0.07280796 -0.11369038 -0.03751632 -0.021581478
000310 e0 52 7d 3c 29 e4 17 bc d5 d1 2d 3d 5b fc 19 3c
       0.0154616535 -0.009270706 0.04243644 0.009398545
000320 36 0d 1f 3d ef 31 c8 bb b4 d4 d2 bd 2e 7f 00 3e
       0.03883096 -0.006109468 -0.10294476 0.12548515
000330 19 8a 76 3d 58 e4 b5 bc 95 dc c1 bd 47 f4 90 3d
       0.060190294 -0.02220361 -0.09465901 0.07077842
000340 a7 bc 4a bc 5b c4 34 bd 45 bc 0c 3c ce 45 1a be
       -0.01237408 -0.04413257 0.008589809 -0.15065691
000350 07 65 b9 3d b9 8f eb bc d8 ce ff bd b5 54 96 3c
       0.090524726 -0.028755056 -0.12490624 0.018350938
000360 ca 92 8a 3c 78 07 fa 3c ed 82 96 3c c2 7e bb 3d
       0.016915698 0.03052114 0.018372977 0.091550365
000370 2f 2b 01 be 79 ff 89 bd b2 f0 bc bc ea 00 92 bd
       -0.1261413 -0.06738181 -0.023063991 -0.071290806
000380 6e 23 20 bd e1 59 7f ba d2 09 e5 3b 97 fa a1 bd
       -0.03909629 -0.0009740871 0.006989696 -0.07909124
000390 20 2e 82 3d 23 4e af bd 4b 33 59 bd 2e 11 4c ba
       0.06356454 -0.08559825 -0.053027432 -0.00077845424
0003a0 32 e3 f1 bb de 5d bd 3d 3f 8d bb 3c b0 ad 82 bd
       -0.00738182 0.09246419 0.0228945 -0.063807845
0003b0 dd f9 06 be 11 8e c1 3d 57 cc dd bd 0a 0b 73 3d
       -0.13181253 0.09450925 -0.1082999 0.0593367
0003c0 e1 90 fc 3c 5a 0d b1 3d dd 05 a2 3d 6b 71 a1 bc
       0.030830802 0.08645125 0.079112746 -0.019707402
0003d0 4b d4 be 3a 12 4c 32 ba 0c 4c ae 3b 40 e8 28 be
       0.0014559118 -0.00068014965 0.005319124 -0.16494846
0003e0 ac 77 5e 3c b6 d5 61 3c 80 c9 af 3d ff b0 19 be
       0.013578337 0.013783863 0.08583355 -0.15008925
0003f0 2e e4 e2 3b 21 cb 38 bd f7 4f 4e bd 39 48 04 bd
       0.006924174 -0.045115594 -0.05036923 -0.03229544

layer1.0.conv2.bias f4 [16]
000000 aa 60 7d 38 e4 03 17 38 42 74 d8 b7 8b b0 60 38
       6.0409926e-05 3.600483e-05 -2.5803343e-05 5.357018e-05
000010 a4 b6 9f b6 10 b4 07 37 a7 44 b8 37 a0 4d 67 36
       -4.7598314e-06 8.088551e-06 2.1966478e-05 3.4466866e-06
000020 0e 36 0e b8 34 67 a1 b7 e8 13 2d b6 c8 1e d4 35
       -3.390578e-05 -1.9240753e-05 -2.5790596e-06 1.5804189e-06
000030 09 5a 3c b8 c8 94 0b b6 60 e1 8a b7 74 81 05 38
       -4.4906545e-05 -2.0799216e-06 -1.655583e-05 3.1830234e-05

layer1.0.bn2.weight f4 [16]
000000 ed 91 26 3f 87 a8 0b 3f 59 42 29 3f 9e 31 f8 3e
       0.65066415 0.5455403 0.66116863 0.48475355
000010 48 bd d5 3e 8f 7d 03 3f 99 61 24 3f 6a ba 2e 3f
       0.41745973 0.5136346 0.6421142 0.68253195
000020 6b d9 23 3f e3 4b 00 3f 5f 65 14 3f bb e2 b0 3e
       0.6400363 0.50115794 0.5796718 0.34547982
000030 1f b4 02 3f 45 89 3b 3f b6 d4 12 3f f9 7b 11 3f
       0.5105609 0.7325633 0.5735582 0.5682979

layer1.0.bn2.bias f4 [16]
000000 e3 43 0c be 85 80 06 bc ac 54 37 be c0 bd c0 3d
       -0.13697772 -0.008209352 -0.17903394 0.09411192
000010 78 45 b8 3e 95 72 20 be 17 fb fc bd 02 ee 2a be
       0.359905 -0.1566871 -0.12352579 -0.16692355
000020 c6 aa 3c be 33 d0 7c be bd 3b 27 be 8f a8 00 be
       -0.1842452 -0.24688797 -0.16331382 -0.125643
000030 29 bd 44 3e 45 79 06 be e0 31 cc bd 7f d7 ce 3c
       0.19212784 -0.13132198 -0.099704504 0.02524924

layer1.0.bn2.running_mean f4 [16]
000000 ec 00 94 bf 20 8a 6e bf 04 3f ac bf 48 30 00 bf
       -1.1562781 -0.9317951 -1.3456731 -0.5007367
000010 ca c7 1b bf 98 81 a8 bf de 35 9f bf 55 b4 a8 bf
       -0.6085173 -1.3164549 -1.2438314 -1.3180033
000020 57 c6 96 3f 3e b9 2c 3e b8 64 87 3f d6 f4 2a bf
       1.1779279 0.1686754 1.0577612 -0.6677984
000030 3b c2 34 bf 11 73 ae bf 6f 6d 85 bf e5 06 ae bf
       -0.7060887 -1.3628865 -1.0424021 -1.3595854

layer1.0.bn2.running_var f4 [16]
000000 00 e7 0d 40 b7 63 c2 3f 79 5b f1 3f d6 9a c5 3f
       2.2172241 1.518668 1.885604 1.5437877
000010 1c 17 f9 3f c9 4d 06 40 c6 74 e1 3f 35 6b 87 40
       1.9460177 2.0984976 1.7613761 4.231837
000020 d1 17 be 40 23 86 2f 40 d4 2d 43 40 ed ff a8 3f
       5.9404073 2.742562 3.0496721 1.3203102
000030 dc a8 d6 3f 93 01 08 40 67 3d 15 40 03 02 30 40
       1.6770282 2.125096 2.3318727 2.7501228

layer1.0.conv3.weight f4 [16, 16, 1, 1, 1]
000000 b4 9a 1f bd 0a 75 82 bd f4 1a c2 bd 4d 08 c5 3d
       -0.038965896 -0.0636998 -0.09477797 0.09620724
000010 2e a2 df 3d a8 12 c2 b9 8a 5c 8a bc 3b 8c 00 be
       0.10919605 -0.00037016463 -0.01688983 -0.12553494
000020 03 45 45 bd 77 c6 d8 bd bc 93 0b be d9 c7 e3 3c
       -0.048161518 -0.10584729 -0.13630575 0.027805256
000030 b2 78 2e be ef 15 a5 bc e9 1a a3 bd b1 4a 93 bd
       -0.17038229 -0.02015206 -0.07964117 -0.07191981
000040 9d 34 a2 3c a4 8d 81 bd fc 01 1c be eb af 0d 3e
       0.019800479 -0.06325844 -0.15235132 0.13836639
000050 2a ff db 3d 15 91 e4 bc 7a 13 32 be 29 b8 18 be
       0.10742028 -0.027901212 -0.17390242 -0.14914002
000060 8e f0 e9 bd 49 5c 55 3d bc bd 8d bd f3 0a f1 3b
       -0.11422835 0.052089963 -0.069209546 0.0073560416
000070 69 a4 99 3d 01 1b 59 3d 05 0c 0b be 58 65 bb ba
       0.07502062 0.05300427 -0.13578804 -0.001429717
000080 53 06 41 be bb ff 9c 3d 1f 15 ea 3d 1d 47 11 bd
       -0.18850069 0.07665964 0.1142981 -0.03546821
000090 8a ea 06 be a3 53 5e 3e b5 a2 18 3d 98 ff 0b 3e
       -0.13175407 0.21711592 0.037264545 0.1367172
0000a0 d4 e0 9b bd bc 87 e0 bc 9a 01 10 be 73 87 0f bc
       -0.07611242 -0.027408473 -0.14063111 -0.008760321
0000b0 5a ea 8b 3c 19 40 fc 3d 95 43 2a bc 22 bc 46 3e
       0.017079521 0.12316913 -0.010392089 0.19407704
0000c0 23 7e 73 bd b6 e2 28 be 21 33 2b be cf f5 68 3d
       -0.059446465 -0.16492733 -0.16718723 0.056875046
0000d0 65 c2 62 bb 3d 5f 55 bb 85 37 90 be b6 a4 0f be
       -0.0034600731 -0.0032557987 -0.28167358 -0.14027676
0000e0 dc ec e1 bb a5 87 cd 3d 7a fb 8d 3d 7b 48 1d be
       -0.006894691 0.10035638 0.06932731 -0.1535968
0000f0 3c 53 a1 bc 8e e1 0f 3e 30 74 46 be 5f d5 c3 bc
       -0.01969301 0.14050886 -0.1938026 -0.023905454
000100 26 92 9e 3c d5 0c e9 bb 42 bf 00 be 97 2a c8 3d
       0.019356798 -0.0071121254 -0.12572959 0.09773748
000110 00 b9 ec 3d e8 f0 30 bc fc 90 92 bd df b0 9e 3d
       0.115587234 -0.010799624 -0.0715656 0.07748579
000120 91 b1 d4 3d cf 43 1c 3e 09 d5 3b 3e ca d9 ce 3d
       0.103854306 0.15260242 0.18342985 0.10100134
000130 15 59 4b 3e 35 e6 b0 3d 0d a5 d5 bd 62 71 b1 3d
       0.19858201 0.086376585 -0.104318716 0.08664204
000140 d5 ce b9 bd e2 26 71 bc 25 47 ff 3d d1 fa 17 be
       -0.09072653 -0.014718743 0.124647416 -0.14841773
000150 f7 60 55 be df f5 f8 3d ab 42 07 be 6d fd 99 3d
       -0.2083777 0.12156271 -0.13209026 0.0751904
000160 e4 40 66 bd 37 f1 95 3c f6 3b 55 bd 60 3d b0 bd
       -0.05621423 0.018303497 -0.052059136 -0.08605456
000170 3f d1 03 bc 45 0b 86 3e 5a 9b 43 be 81 e8 02 3e
       -0.008045494 0.26180473 -0.1910223 0.12784006
000180 44 41 6b bd b6 7b 86 bd db ed 33 bd 4f cf 9e 3c
       -0.05743529 -0.06566565 -0.04392801 0.019385962
000190 a5 ec 0e be 1e a2 1c bb 4c 4f b9 3d 89 48 59 3e
       -0.1395746 -0.002390034 0.09048328 0.21219076
0001a0 e4 24 0e 3e c4 40 13 3c 45 a6 87 3d b2 6d 20 be
       0.1388126 0.008987609 0.0662351 -0.15666845
0001b0 26 e6 f9 bd 11 3e 63 be e9 99 fa 3c 35 10 0f be
       -0.122021005 -0.22191645 0.030590968 -0.13971026
0001c0 6a 0a 30 be ef 99 30 be e0 b5 e2 3d fe 0e ae bd
       -0.17191473 -0.17246221 0.11069846 -0.08498953
0001d0 ec ce c9 bd 16 f7 85 3d 13 1c b8 3d 58 6a 1c 3e
       -0.0985392 0.065412685 0.0898973 0.15274942
0001e0 69 c4 1b be 54 05 9f 3c 47 39 c8 bd c8 77 17 3d
       -0.15211643 0.01941172 -0.0977655 0.036979467
0001f0 8a c8 cb bd 93 a5 6c 3d 2b b0 20 be 5d bb 00 3d
       -0.09950359 0.05777509 -0.15692203 0.031428684
000200 7f e9 c5 3b 56 a6 89 3d 2f 96 70 3e 90 26 8b bd
       0.006039798 0.06721179 0.2349479 -0.067944646
000210 fa af 34 be 23 15 59 3d 55 52 60 3e 6f 6d 03 3d
       -0.17645255 0.052998673 0.21906407 0.032086786
000220 f6 19 a8 bd 51 b0 e6 bd c4 ec 52 bd d7 2e 71 bd
       -0.08208077 -0.112640984 -0.05149533 -0.05888256
000230 6d 30 3e be 39 62 2a 3d f6 34 d6 3d 87 9a 9a bd
       -0.1857316 0.04159758 0.1045932 -0.07549005
000240 9f 2b ca 3d 6c a8 d0 3d 7f 35 4c be 8c 79 a9 3d
       0.09871601 0.10188374 -0.19942282 0.08275136
000250 48 93 86 3d c5 b6 32 bd 92 84 06 be 24 c2 2e be
       0.065710604 -0.043631334 -0.13136509 -0.17066246
000260 ee b4 93 bc 0c b8 a2 3d 29 5c b0 3d 32 73 22 be
       -0.01803061 0.079452604 0.08611328 -0.15864256
000270 b9 38 93 bb ff bc 13 be 92 f1 e6 bc d3 4b 67 be
       -0.004492846 -0.14427565 -0.028191362 -0.22587518
000280 2d 61 39 be 60 4c 08 be ec 13 05 be 9c f1 b6 3c
       -0.18103476 -0.13310385 -0.12995881 0.022332005
000290 40 30 47 bc fe 23 27 3d a1 32 59 be 0d 35 10 3e
       -0.0121575 0.04080581 -0.2121072 0.14082737
0002a0 d4 fb 91 3d 71 54 eb bd e9 9f ec bd d0 e1 df bd
       0.071281105 -0.11490715 -0.11553938 -0.10931742
0002b0 dc c1 bd 3c c4 88 36 bd b9 66 06 be a2 bb 01 3e
       0.023163728 -0.044564024 -0.13125123 0.12669232
0002c0 0d 31 df 3d bf ea 2f 3e 33 cb 0f 3e 3e c8 8d 3e
       0.108980276 0.17179392 0.14042358 0.27691835
0002d0 36 b6 d1 bc 0d 8d b1 3d 9f 5b 9e 3d b5 3d 2e bd
       -0.02559958 0.086694814 0.07732319 -0.042539317
0002e0 e4 2f 03 bd b8 35 50 be fc 9c 81 bd 4d d0 d9 bd
       -0.032028094 -0.20332992 -0.063287705 -0.10635433
0002f0 83 2b 41 3d 51 fb 00 3e 98 b9 97 3d 50 66 b4 3c
       0.047160637 0.1259587 0.07408446 0.022021443
000300 ce 43 49 bd 94 62 e0 3c 72 7c 1a be 7c d1 5e 3d
       -0.04913693 0.027390756 -0.15086535 0.054399
000310 e3 38 02 bd 4f 93 10 bd 8f cf ea bd 92 6b 36 bd
       -0.031792533 -0.035296734 -0.1146537 -0.04453618
000320 00 61 84 3d c5 6c dc 3d 24 47 db 3d a7 86 02 3d
       0.06463814 0.10762934 0.10706928 0.031866696
000330 31 aa a6 bd 2a 41 9e be f3 2b 2b be e8 d5 3e be
       -0.0813793 -0.3090909 -0.16715984 -0.18636286
000340 30 70 8f bd 59 b3 79 be 6b 0a c2 bd 81 4f 8a 3d
       -0.0700382 -0.24384822 -0.09474643 0.067534454
000350 b7 01 62 bd 55 15 90 bc a3 65 01 be f8 cb 53 be
       -0.055177417 -0.017588297 -0.12636428 -0.20683277
000360 fb 1e ec 3d 8b 65 04 3d 14 82 ac 3a 19 94 c8 bd
       0.115293466 0.0323234 0.0013161325 -0.097938724
000370 9b 2e 68 bd 5f 64 af 3b 58 7b 25 be c6 31 72 3d
       -0.05668507 0.0053525413 -0.16160333 0.0591295
000380 9f 42 75 bd e3 fe 26 3e 68 6c 1b 3e 20 4b 05 3d
       -0.059877988 0.16308169 0.15178072 0.032542348
000390 84 05 73 be 63 7c 54 3d 35 a3 6f 3c e1 fd 4e bb
       -0.23732573 0.051876437 0.014626314 -0.003158443
0003a0 83 ba 36 be 19 ce e2 bc 27 74 a5 bc e6 e6 34 bd
       -0.17844586 -0.027686166 -0.020196987 -0.044165514
0003b0 c9 e2 8b be 1f 13 e4 bd 8e ef 8f 3d eb 7a 90 bd
       -0.2732146 -0.111364596 0.07028113 -0.07054695
0003c0 46 7a 88 3e 83 dc 3c bb 8b 10 c7 bb 51 5f 7f bc
       0.26655787 -0.0028817959 -0.00607497 -0.01558669
0003d0 93 f7 0a be 32 78 dd 3c df 8c b2 3d 40 f4 f6 3d
       -0.13571005 0.027034853 0.08718275 0.12058306
0003e0 29 62 07 be f7 ea 59 be f7 ce d0 bc 88 82 53 3d
       -0.13221039 -0.21281038 -0.025489314 0.051638156
0003f0 65 20 81 3d d4 5d dc bd f3 47 af 3b df f0 24 bd
       0.06305007 -0.10760084 0.005349153 -0.040268775

layer1.0.conv3.bias f4 [16]
000000 bf 2a 1c b8 4b f5 13 39 5c ea 5c 38 2c 11 44 b9
       -3.723311e-05 0.00014110391 5.267035e-05 -0.00018698414
000010 16 e2 bb 38 9e de 58 39 cc d4 0c 38 f2 16 b9 b8
       8.958967e-05 0.00020682297 3.3576784e-05 -8.825761e-05
000020 50 45 12 39 44 13 7f 39 6a 43 9d 38 f1 85 84 b8
       0.00013949466 0.00024325872 7.4989e-05 -6.319199e-05
000030 0d ab 38 b9 78 99 6b 38 4a f7 2f 39 a6 28 f1 38
       -0.00017611329 5.6171295e-05 0.00016781423 0.00011499347

layer1.0.bn3.weight f4 [16]
000000 42 36 06 3f 9d 77 23 3f c7 36 25 3f 20 33 16 3f
       0.5242654 0.6385439 0.6453671 0.5867176
000010 27 a4 0d 3f cb 69 54 3f 15 fc 04 3f c5 93 50 3f
       0.553286 0.8297393 0.51947147 0.8147548
000020 31 31 34 3f c7 f4 00 3f 07 03 d8 3e f1 b5 2c 3f
       0.7038756 0.503735 0.4218981 0.6746512
000030 f2 96 f7 3e 50 61 07 3f 13 e1 3c 3f e2 35 5e 3f
       0.4835735 0.5288286 0.73780936 0.8680097

layer1.0.bn3.bias f4 [16]
000000 e9 79 88 3a 6c 75 d5 3c 9b 4d 8a be 21 db 3f 3e
       0.0010412309 0.026056968 -0.27012333 0.18735935
000010 68 5e 51 be a3 c6 e1 be e5 80 c8 bd df d4 2b be
       -0.2044617 -0.4409686 -0.0979021 -0.16780423
000020 ce 17 a0 be 15 ed 9f bc 18 40 f8 be 5a 91 72 bd
       -0.31268162 -0.01952223 -0.484864 -0.05922065
000030 40 31 5d 3d 1f b6 9d bc fe 32 38 be 29 43 86 bd
       0.054002047 -0.019251881 -0.17988202 -0.065557785

layer1.0.bn3.running_mean f4 [16]
000000 7d de bc bd 7a 3a 12 bc b5 2d 89 3c ee 14 e3 bd
       -0.09222124 -0.008925075 0.016745428 -0.110879764
000010 dd eb 3d 3e b6 33 b8 bd e5 81 e5 bd 10 db fe bd
       0.18547006 -0.08994238 -0.11206416 -0.124441266
000020 7f ad ab bd ba 68 7d bd fe f5 a6 bd 37 01 10 3e
       -0.08382701 -0.061867453 -0.08152388 0.14062963
000030 55 9d 18 be bd 08 04 be 3d c1 3a be 6d 07 19 bd
       -0.14903767 -0.12893958 -0.18237777 -0.037360597

layer1.0.bn3.running_var f4 [16]
000000 f7 88 32 3c 3d 67 b1 3c 24 96 7d 3c 06 b4 a3 3c
       0.010896913 0.021655673 0.015477691 0.019983303
000010 c5 92 97 3c 34 c6 40 3c 93 d6 01 3d 10 9e 26 3c
       0.018502602 0.011766005 0.031698775 0.010169521
000020 c9 69 96 3c fe 54 90 3c a1 18 c0 3c 36 c9 89 3c
       0.01836099 0.017618652 0.023449244 0.016819578
000030 27 a5 bd 3c 05 de 4f 3c 6a 91 9d 3c a8 85 0c 3c
       0.02315004 0.012687211 0.019234378 0.008576788

layer1.0.shortcut.0.weight f4 [16, 8, 1, 1, 1]
000000 32 8c 12 3e fe 98 4a bd d4 9f 41 bd 82 0c 4b bd
       0.14311293 -0.04946231 -0.047271565 -0.049572475
000010 2e 3c 09 be 50 32 15 be 20 55 bf 3d 1f 29 4f bd
       -0.13401863 -0.14569974 0.09342408 -0.050576326
000020 20 cb 15 be cd a2 9e bc 54 ec 2a 3e 70 32 60 3b
       -0.14628267 -0.019364739 0.16691715 0.003420975
000030 4e fd a4 bc 12 e8 d8 3d 4f 98 a4 bd 05 ee cd 3d
       -0.020140316 0.10591139 -0.08036863 0.10055164
000040 13 a9 a6 bd f1 e4 33 be ae 80 75 bc fb 92 0c bd
       -0.08137717 -0.17567803 -0.014984293 -0.03431986
000050 e8 48 4d be 01 90 1d bd 57 03 1c bb ea 0e 45 bc
       -0.20047343 -0.03846741 -0.0023805702 -0.012027482
000060 b8 1d 1e 3c 95 d0 32 3e 6e 3f 40 bd 16 42 1d 3e
       0.00965064 0.1746238 -0.04693549 0.15357241
000070 16 a3 32 3d 96 2d 82 3c 11 4a 39 bd 60 95 3b be
       0.043612562 0.015890878 -0.04523665 -0.18318701
000080 5c ad d1 bc c5 83 9a 3c 0d cd 41 be a8 b4 54 be
       -0.02559536 0.01886166 -0.18925877 -0.2077204
000090 9b a1 0b bd 11 80 13 be 48 fb 03 3d 3b 4a 7e 3d
       -0.034089666 -0.14404322 0.032222062 0.06208251
0000a0 ac 3c 89 bd f1 7d c7 bc 12 1f fc bc 30 d3 52 be
       -0.06701025 -0.024352046 -0.030776534 -0.20588374
0000b0 ce bb e0 bd a3 02 61 be 3f 59 c0 3c 91 67 bd 3d
       -0.10973321 -0.21973662 0.023480056 0.09248269
0000c0 21 02 5c 3d a8 69 88 bd 07 3a 4e 3d 73 a7 06 be
       0.053712968 -0.06660777 0.050348308 -0.13149814
0000d0 08 4f fc bb ca 2c 30 3c 44 1d b7 3d ee 88 b6 3e
       -0.007699851 0.010752866 0.08941129 0.35651344
0000e0 64 6e 82 bd f7 68 9a be 7f e5 cf 3d 6a 68 8a 3d
       -0.063687116 -0.30158207 0.10151195 0.06758197
0000f0 56 48 14 bd 08 7f 32 3d 41 62 00 3c 3c 3a c9 bc
       -0.036201797 0.043578178 0.007835926 -0.024563901
000100 b8 7a ef 3c dc f0 72 3e ac 9e 5f be e6 ea 20 bc
       0.029233322 0.23724693 -0.21837872 -0.009821629
000110 66 c3 c2 3c be 43 0d bc 0f e8 e8 bb 88 9e d9 bc
       0.023774814 -0.008622108 -0.0071077417 -0.026564851
000120 91 7d 79 3d 00 87 1d 3d a9 68 06 bd 30 76 c3 ba
       0.060910765 0.038458824 -0.032814655 -0.0014912542
000130 40 82 53 3e 52 2e 32 3e 8d 49 80 3d 1b 65 81 bd
       0.20655155 0.17400482 0.06264029 -0.063181125
000140 51 b9 dd bd 3f 68 33 bd 1a e8 80 3e ae 0d 39 3d
       -0.10826362 -0.04380059 0.2517708 0.04517906
000150 e4 46 6f bd 74 3a 13 bc 9f a1 07 3d 98 b8 43 3e
       -0.058417216 -0.008986104 0.03311312 0.19113386
000160 63 47 d5 bd 27 f4 d1 bd 0d 69 ff 3d ac 17 10 3c
       -0.104140066 -0.102516465 0.12471209 0.008794706
000170 24 f3 50 bd 67 76 a7 bc 51 7a 18 3d c3 ca 7b be
       -0.051013127 -0.0204422 0.037226025 -0.24589066
000180 9a 6d 20 3d f0 52 12 be 56 c8 7c 3c 07 1f c7 bd
       0.039167024 -0.1428945 0.015428623 -0.09722715
000190 07 32 52 be 7d 2a 31 be f0 76 22 3d d4 aa 80 3d
       -0.20526896 -0.17301364 0.03966421 0.06282583
0001a0 95 d9 92 bd ee c7 3c be ad 26 de bd e8 ef 41 bd
       -0.07170407 -0.18435642 -0.108472206 -0.047347933
0001b0 75 47 47 3d 13 5f 84 3d 3d 29 76 3d 69 52 0c 3e
       0.04865213 0.064634465 0.06009792 0.13703312
0001c0 39 16 27 be d4 f0 a0 bd cf 41 28 bd 43 d4 25 be
       -0.16317071 -0.07858434 -0.041078385 -0.16194253
0001d0 49 06 24 3b d3 8a ce bc c3 87 1b be 08 57 48 bd
       0.002502816 -0.02521268 -0.15188508 -0.048911124
0001e0 14 51 8f bd 0a 23 48 be 19 bd 45 bd 3a 62 d6 bd
       -0.06997886 -0.19544616 -0.04827604 -0.10467954
0001f0 55 52 dc bd 75 31 53 3c 7d 91 93 bd 3e 1f 13 3c
       -0.10757891 0.012890209 -0.07205484 0.008979617

layer1.0.shortcut.0.bias f4 [16]
000000 aa 1e 24 b7 d3 75 b9 38 0e bb 8b b8 46 8e 94 b9
       -9.782301e-06 8.843434e-05 -6.662878e-05 -0.00028334762
000010 47 58 37 38 88 70 05 b8 f6 b2 a3 b8 28 41 17 39
       4.3712815e-05 -3.1814474e-05 -7.80578e-05 0.00014424755
000020 6a 4b 87 37 b6 eb 70 39 ff 21 e8 38 9e 01 81 b9
       1.6128371e-05 0.00022975993 0.00011068954 -0.00024606002
000030 63 94 9e b9 f6 75 67 b8 fd a6 ee 38 1c 87 ce b7
       -0.00030246665 -5.518455e-05 0.00011379828 -2.4620029e-05

layer1.0.shortcut.1.weight f4 [16]
000000 36 30 9b 3e f6 90 f9 3e ad d9 8c 3e ac 81 e8 3e
       0.3031022 0.4874341 0.27509823 0.45411432
000010 13 45 e7 3e 86 bb b6 3e ca ec ef 3e 9e 2d d0 3e
       0.45169887 0.35689944 0.46860343 0.40659803
000020 9d 07 07 3f e0 88 e9 3e c7 04 10 3f a7 75 1e 3f
       0.5274599 0.4561224 0.5625729 0.61898273
000030 d1 fb 13 3f 2c 9b ed 3e 48 08 ef 3e 19 27 c5 3e
       0.57806116 0.4640745 0.46686006 0.38506392

layer1.0.shortcut.1.bias f4 [16]
000000 e9 79 88 3a 6c 75 d5 3c 9b 4d 8a be 21 db 3f 3e
       0.0010412309 0.026056968 -0.27012333 0.18735935
000010 68 5e 51 be a3 c6 e1 be e5 80 c8 bd df d4 2b be
       -0.2044617 -0.4409686 -0.0979021 -0.16780423
000020 ce 17 a0 be 15 ed 9f bc 18 40 f8 be 5a 91 72 bd
       -0.31268162 -0.01952223 -0.484864 -0.05922065
000030 40 31 5d 3d 1f b6 9d bc fe 32 38 be 29 43 86 bd
       0.054002047 -0.019251881 -0.17988202 -0.065557785

layer1.0.shortcut.1.running_mean f4 [16]
000000 c9 5d 14 bd fb 70 5d 3c 60 ae f7 bd 15 cd be 3c
       -0.036222253 0.013515706 -0.12093806 0.02329115
000010 dd f5 a3 bd b2 c7 bc bd 23 41 9e 3d 9d 3e 8b bd
       -0.08005879 -0.09217776 0.077272676 -0.06799052
000020 3e 99 8f 3c 22 e4 b5 3d e0 fb 46 3d b3 d4 9c bd
       0.017529126 0.088814035 0.04858005 -0.07657757
000030 9d 39 aa bd 8b bf 11 bd 24 0d 05 be 88 40 f4 bd
       -0.0831177 -0.03558306 -0.12993294 -0.11926371

layer1.0.shortcut.1.running_var f4 [16]
000000 60 7c f1 3c 6f 3a cf 3c 4d d0 c6 3c 9a bf 6d 3c
       0.029478252 0.025296418 0.024269247 0.014511013
000010 df 6a 9f 3c 40 fb ba 3c fc 22 bc 3c b7 ad 15 3d
       0.01946014 0.022824883 0.0229659 0.03654262
000020 ec 30 d5 3c 61 90 9f 3c 43 6f b2 3c 3d c0 8d 3c
       0.026024304 0.019478025 0.02178157 0.01730358
000030 1b b2 c6 3c 68 c3 b9 3c e0 1f ef 3c 57 5a c5 3c
       0.02425485 0.022676185 0.029190004 0.024090929

layer1.1.conv1.weight f4 [32, 16, 3, 3, 3]
000000 f5 a2 60 bc 91 18 3c bc e0 3f 09 3d 8a 8c b8 bc
       -0.013710727 -0.011480466 0.03350818 -0.022527952
000010 53 1d a2 bb c1 09 15 3d c2 f7 58 bc e8 73 25 bd
       -0.0049473434 0.036386255 -0.013242664 -0.04039374
000020 be e7 ff b9 61 8b cc 3c 3e 50 8b ba de a6 a1 bc
       -0.00048810052 0.024968805 -0.0010628772 -0.019732889
000030 ce 08 bf 3c 81 3d 9f ba 8f 8d 29 bd 72 de c6 3c
       0.023319628 -0.0012149067 -0.041394766 0.024275992
000040 4e db 2d 3d be fa d1 3c b9 16 be bc 95 55 cc 3c
       0.042445473 0.025632259 -0.023204194 0.024943152
000050 34 43 4f 3c fe dd 8b bb 84 b8 f3 3c 9c 6d 01 3d
       0.0126503 -0.004268407 0.02975107 0.031598672
000060 63 c4 31 bc b6 e8 f8 39 c4 cd d1 bc e2 90 39 3c
       -0.010850045 0.0004747563 -0.025610812 0.011326047
000070 53 59 b4 bc 15 0a 18 3d a7 bd 1f bb be e2 e9 bc
       -0.02201525 0.03711899 -0.0024374516 -0.028550502
000080 70 87 f7 3c f6 c6 b3 bc 3d e3 d8 bc a3 0e 21 bc
       0.030215949 -0.021945458 -0.026475543 -0.00983015
000090 62 74 e2 bc 5f 31 da 3c 9e 27 5e bd 52 73 d2 b9
       -0.027643386 0.02663487 -0.054237 -0.00040140242
0000a0 b6 a7 64 3d 5d fd c5 bc 8b 3d b0 3c 2a e9 6b 3d
       0.055824004 -0.024168665 0.021513721 0.05759541
0000b0 de 53 36 3d 2e e4 d3 3c 82 79 89 bb 08 b9 29 3d
       0.044513576 0.02586564 -0.004195393 0.041436225
0000c0 70 db 75 3c d0 ba 2c bd 8f c3 92 3c 97 2e b7 bb
       0.015005931 -0.042170346 0.017915515 -0.0055902707
0000d0 89 39 dc bc 09 42 cc bc b7 32 0d bd 84 1c 11 bd
       -0.026882904 -0.024933832 -0.034472194 -0.035427585
0000e0 af b9 73 bc 23 ad 4f bc 96 3b b7 bc 65 8f 39 bd
       -0.014875813 -0.012675556 -0.02236728 -0.045302767
0000f0 5c 4c a0 3c 16 59 b7 bc 47 fe 21 3a f8 5a 86 3d
       0.019567661 -0.022381347 0.0006179553 0.0656032
000100 d6 4e 41 3d b3 7c d7 3c e1 50 70 3c fb d3 04 3b
       0.047194324 0.026304578 0.0146677205 0.0020267952
000110 0a ef 58 3d 41 25 6e bc 47 d5 1b 3c b3 57 da bc
       0.05296234 -0.014535249 0.0095112985 -0.026653146
000120 de 2d 00 bc 51 f9 02 3c b0 24 12 bd e3 95 5f 3c
       -0.007823436 0.007994012 -0.03567952 0.013646576
000130 53 a2 9f 3c 81 95 69 bc 53 4a 8d 3c 39 6a 35 3c
       0.019486582 -0.014256836 0.017247355 0.011072689
000140 be 8c 26 3d 1f d6 43 bd 3e c5 12 bd 7b 40 92 3d
       0.040661566 -0.047811624 -0.035832636 0.07141205
000150 c7 cc 57 bd 30 94 94 bd 15 94 af 3c b5 a4 2f 3d
       -0.052685525 -0.07254827 0.021432916 0.042881686
000160 36 20 18 bd 5f 24 4b bb 60 88 86 3d 72 5a 97 3d
       -0.037140094 -0.003099702 0.0656898 0.07390298
000170 b2 df 4c bd f1 87 6c 3d 3c e5 25 3e 0a b8 f7 3c
       -0.05001802 0.05774683 0.16200727 0.030239124
000180 ec 7f a1 bd 4b 63 a8 3d eb 1f 3c 3d 06 b8 17 bd
       -0.07885727 0.08222064 0.045928877 -0.037040733
000190 f6 58 1e bd 06 4e 10 3d e5 60 82 bb 45 3b a5 bd
       -0.03865906 0.03523066 -0.003978836 -0.080679454
0001a0 3b 04 ef bb eb 68 2f 3d ff 48 1b bd 5c 56 f4 bc
       -0.0072942055 0.042824667 -0.03791141 -0.029826336
0001b0 19 81 02 ba 5e ef 64 3b c6 b1 78 3d 72 06 8c 3c
       -0.00049783435 0.0034932713 0.060716413 0.017092917
0001c0 d4 55 83 3c 9c 8d 97 3c 05 47 65 3c cb 03 46 bd
       0.016032137 0.018500142 0.013993983 -0.04834346
0001d0 f7 53 5d 3c 93 b0 c8 3b 20 1e 08 3c 3c 28 4d bd
       0.013508788 0.006124565 0.008307964 -0.0500872
0001e0 f2 5d b4 bc 10 a5 4b bc cf 85 a8 bb bc f4 b1 3b
       -0.022017453 -0.012429491 -0.0051429044 0.005430786
0001f0 1a 2b ce 3d 9e 61 16 bc 07 e9 43 3c 74 36 14 bc
       0.10066815 -0.009178547 0.0119574135 -0.009046186
000200 bc cb 20 3d 2a 6b b4 3c 1c de e3 3b f7 74 f4 3c
       0.039256796 0.022023756 0.0069539677 0.02984093
000210 d1 37 79 3c ce bc 56 bd b8 84 ed 3c 6e 48 8f bd
       0.015211062 -0.052426152 0.02899395 -0.06996237
000220 83 5a 3b bd 2d 08 3e 3d d7 74 86 bc 81 10 e9 3c
       -0.045740616 0.046394516 -0.016413135 0.028450252
000230 8f 79 c5 3c 67 58 80 3d 3e 7b 2e bc 9c c6 71 bb
       0.024105815 0.062668614 -0.0106495 -0.0036892062
000240 b6 19 86 3d fc 43 8d 3d 66 e9 8d bd 3c 86 94 bc
       0.06547873 0.068977326 -0.06929283 -0.018130414
000250 d8 5a fa bc 45 92 9d bd be b3 c8 bd 42 5f 7d 3c
       -0.030560896 -0.07693914 -0.09799908 0.015464606
000260 b3 e4 82 bc 21 6c 8b 3b e5 3e 0d bb 2d ac 02 3d
       -0.015978193 0.0042548333 -0.002155238 0.03190248
000270 ea 45 2d 3d 6d 8e 50 3d a4 f9 87 3d ef a8 89 3d
       0.042303003 0.050917078 0.06639412 0.06721675
000280 3b f0 52 3c 67 77 ca 3c fc 9e 46 bc 45 2f 9b 3c
       0.012874658 0.024715139 -0.012122866 0.018943438
000290 50 08 d8 bc f1 fc 1d bb 7c c0 6a 3d ce 86 66 bd
       -0.026371151 -0.0024107064 0.057312474 -0.056280904
0002a0 ba 1d 29 bd 12 41 27 bd fe 5f 2e bd 23 32 d8 3b
       -0.041288115 -0.04083354 -0.042572014 0.0065977736
0002b0 50 81 6c bd a2 3e 10 3d 04 a6 11 bc a1 e0 d5 bd
       -0.05774051 0.03521598 -0.008889679 -0.10443235
0002c0 01 7b 90 3d b1 13 31 3d 0d cb 3f 3d 7c 0f 42 3d
       0.07054711 0.04323167 0.046824504 0.04737805
0002d0 ba d8 52 3c f6 1d 90 3d a3 90 11 bb 17 39 ab 3b
       0.012869054 0.070369646 -0.0022211454 0.0052253115
0002e0 10 90 cf 3d d0 e2 94 bc 27 01 97 ba 48 8d ab bc
       0.101348996 -0.018174559 -0.0011520729 -0.020941392
0002f0 13 2d a8 bc 0b 83 85 bc 7a 9b 05 3d be 93 52 bc
       -0.020529306 -0.016297838 0.032618977 -0.012852607
000300 66 23 62 bc 6b 02 8a 3c 62 e5 cc 3c ce e7 6d 3c
       -0.013802385 0.016846856 0.025011722 0.014520599
000310 f5 f4 81 bc ea fe 9a ba 4c 98 51 3b 1f 29 39 bd
       -0.015863875 -0.0011825238 0.0031981645 -0.04520523
000320 c1 aa 18 3d 58 6a c5 3c ae d7 0f bd 66 2a 2e bd
       0.03727222 0.02409856 -0.035117798 -0.042520903
000330 9c fa 24 bd af 81 29 3b 0e 0e 6a bc d0 ef 28 3a
       -0.040278062 0.002586465 -0.014285577 0.0006444426
000340 17 1c 17 3d 38 63 43 bd c4 9b ab bc bc 09 c5 3c
       0.036892023 -0.047702044 -0.020948298 0.024052493
000350 eb be 59 3c 20 88 0c 3d f9 a8 14 3c 21 da 94 3c
       0.013290147 0.034309506 0.009073489 0.018170418
000360 42 c6 10 3c 5b df 8d bd dc f1 f4 bd 55 73 b5 3c
       0.008836331 -0.06927367 -0.119601935 0.022149721
000370 c6 49 94 bc 88 ac 06 be dd fc 35 3d b8 d2 95 3c
       -0.018101584 -0.13151753 0.044430602 0.018288955
000380 4f 4a 59 3d fc de ed 3a 9c ef 46 3c 6c ac 06 3e
       0.05304938 0.001814812 0.012142088 0.13151711
000390 b6 b2 ea ba 8c b4 f0 bc 5d e4 15 3e 5c b1 78 3c
       -0.0017906043 -0.029382966 0.14637895 0.0151790045
0003a0 e4 ee 9d bc a1 e3 ea bd a7 bf 32 3b 42 ff 0f 3d
       -0.019278951 -0.11469198 0.0027274878 0.035155542
0003b0 be 7f 1a bd 95 aa dd bc a3 70 17 3d 96 4c 17 bd
       -0.03771948 -0.027058879 0.036972653 -0.036938272
0003c0 3c 85 79 bd cb a8 d2 3b 2f 23 d2 3d cf e5 b7 bb
       -0.060918078 0.006428813 0.10260617 -0.005612112
0003d0 6a d0 d0 bc 97 ac 8e ba d2 9b 08 bd 17 88 66 bd
       -0.025490005 -0.0010885176 -0.033351727 -0.05628213
0003e0 48 a3 1b bd 48 8a ea bb 07 65 4c 39 a7 a1 c7 3c
       -0.037997514 -0.0071575977 0.00019492592 0.024369074
0003f0 00 35 0e 3c 9d e5 5e 3d c1 48 23 3d fc b7 30 3d
       0.008679628 0.054418195 0.039864305 0.04314421

layer1.1.conv1.bias f4 [32]
000000 d5 47 f0 b4 41 6d a4 b6 00 f5 58 b6 f0 ef 09 35
       -4.4755748e-07 -4.9002997e-06 -3.2329117e-06 5.138563e-07
000010 36 13 3a 37 24 7f 03 b6 c8 0a 28 b6 80 1c a0 33
       1.1090937e-05 -1.9594527e-06 -2.5040226e-06 7.455765e-08
000020 dc f6 b6 b7 98 cc 0f 37 6b 62 0c b7 16 67 85 36
       -2.1811044e-05 8.5711e-06 -8.367565e-06 3.9757097e-06
000030 66 5b 05 38 65 23 99 37 00 18 99 b3 f2 05 34 b8
       3.1794792e-05 1.8255503e-05 -7.128983e-08 -4.292088e-05
000040 74 57 78 36 4c 09 c6 b7 07 8e 60 36 1c dc 07 b6
       3.7005784e-06 -2.3607769e-05 3.3461272e-06 -2.0244688e-06
000050 7a 56 44 38 1c 72 c1 b6 89 c4 a9 36 d3 2b bf b7
       4.681058e-05 -5.7651323e-06 5.059472e-06 -2.2789382e-05
000060 c0 46 b9 b4 7d 8f a2 37 5b 2b 4a b6 c1 4e 00 b6
       -3.4510413e-07 1.9378722e-05 -3.0125582e-06 -1.9119327e-06
000070 2e b7 ec b6 e4 bc 2d b7 9e ac 35 b8 86 ca 1c b6
       -7.054673e-06 -1.0355583e-05 -4.3314525e-05 -2.3363696e-06
