log/sem_seg/SatVideoIRSDT__2025-07-22_19-41__SoftLoUloss_DeepPro-Plus_DataL40/checkpoints/epoch_20_model.pth (torch, 941507 bytes, 213 tensors)

conv_in.0.weight f4 [8, 1, 5, 7, 7]
000000 ce 7a 05 be 52 4a 2c bd b3 b4 63 3d dc c4 30 3e
       -0.13035128 -0.042063065 0.05559225 0.17262596
000010 9a ec d6 3d 83 8b 87 bc 70 14 0b be 18 23 31 bb
       0.10494347 -0.016546017 -0.13582015 -0.0027028974
000020 6b 5c a1 3c 0e dc 69 3c 57 02 06 3e 10 b8 b8 3d
       0.019697389 0.0142736565 0.1308683 0.09019482
000030 95 a0 f2 3c 51 ba 3a bd 73 d8 a4 3c 87 b6 c3 3b
       0.029617587 -0.04558784 0.020122742 0.0059726867
000040 39 66 a3 3c 9e 1c a1 3d 21 9a 55 3d ef f1 ca 3c
       0.019946204 0.078667864 0.052148942 0.024773566
000050 c0 25 ea bc 1a b0 00 3c dc cf 3c bd 79 b2 10 bc
       -0.028582454 0.007854486 -0.046096668 -0.008831614
000060 89 5e 35 3c ce b4 7a bd c6 1d 08 3c a9 a3 4e 3d
       0.011069902 -0.061207585 0.00830788 0.050449047
000070 ab 5e d8 bc 39 a6 c5 bd 8f 7e e5 bd 31 f9 4f 3d
       -0.026412329 -0.09650845 -0.1120578 0.050774757
000080 43 c9 f4 bb a2 52 a5 bc 2d 13 24 bc ac fa 8f 3d
       -0.0074702813 -0.020181004 -0.0100143375 0.07030234
000090 be 94 51 3d 2f 6d d8 3c 7b 50 0c 3e fd 3a 48 3d
       0.051167242 0.02641925 0.13702576 0.04888438
0000a0 90 44 5e bd 16 3d 89 bd 67 9b a4 3c b7 29 ac 3d
       -0.054264605 -0.06701104 0.020093633 0.08406394
0000b0 b4 a8 fb 3d e6 94 13 3e 9b 08 a1 3c 8d 74 bd bd
       0.12288037 0.14412269 0.019657424 -0.09250746
0000c0 1e 2b 98 bd 29 cf e0 bd 69 ad c2 bd 76 f8 d8 bd
       -0.07430099 -0.10977013 -0.095057316 -0.10594265
0000d0 5f 1b 34 bd ed f3 7e bd 58 12 80 bd b7 dc 2b bd
       -0.043971416 -0.062244345 -0.06253499 -0.041958537
0000e0 6a 7e 44 bd 8c 1c 2a 3c c0 39 e8 3d a3 4d 76 3e
       -0.04797212 0.010382783 0.1133914 0.24053054
0000f0 99 f5 39 3e f4 cd 9a 3d b8 d2 ea b9 0c fc 84 bc
       0.18160094 0.07558814 -0.00044788956 -0.016233467
000100 8f 97 50 3b a1 cb 91 3d 21 e2 9f 3e 9c 45 73 3e
       0.0031828617 0.07118917 0.3122721 0.23757023
000110 e4 41 f0 3d 4b 86 a8 bc da 06 0f 3d 9e 45 c4 bc
       0.11731318 -0.020571848 0.034918644 -0.023958977
000120 87 e9 bf bd ce 0d 36 3d 87 cc 0b 3e b1 49 2b 3e
       -0.09370714 0.04444676 0.1365224 0.1672733
000130 3b 34 5a 3c 0e f4 1f bb 6a b7 21 bd 17 14 91 bd
       0.013318117 -0.0024406943 -0.039481558 -0.0708391
000140 10 ea 94 3d b2 84 c0 3b b7 c8 f4 3b 13 0c 89 bd
       0.072712064 0.0058751935 0.007470216 -0.06691756
000150 a0 4a cd bc cb 24 f7 3b ba 5f 82 bc 6a 18 86 3d
       -0.025059998 0.007542228 -0.015914787 0.06547625
000160 67 3c 22 3d 3e 9d 87 bc 2b b5 ed bc af f6 aa bd
       0.039608385 -0.016554471 -0.029017052 -0.083478324
000170 c7 e4 a9 bd 96 a3 a3 bd ea 8f da bb 27 f4 86 3b
       -0.08295589 -0.07990186 -0.006669988 0.0041184607
000180 f6 2a d2 bb 2f 59 ab bc b7 de 93 3d 37 d8 57 3d
       -0.0064138127 -0.02091655 0.07220214 0.052696433
000190 9e fc d1 3c 18 bc 3e 3c 37 74 1e bd 7e ec 10 3a
       0.025633153 0.011641525 -0.03868505 0.0005528404
0001a0 bb 39 19 bd 95 a3 17 3d 44 23 d9 3c 59 f2 26 3d
       -0.03740857 0.03702124 0.026506074 0.040758464
0001b0 3b 3f f6 3d 4b ed 4e 3c 05 72 71 bc 95 55 70 bd
       0.12023779 0.012629817 -0.014736657 -0.058675367
0001c0 9b 03 0a 3d 41 6e 9f bc 30 96 c0 3c 54 a0 1c 3e
       0.033694845 -0.019461753 0.023509115 0.15295535
0001d0 48 cc 3e bc 0a bb ab bc 28 47 2e bd d0 d9 8e 3d
       -0.011645384 -0.02096321 -0.04254833 0.06975138
0001e0 36 fb 42 3c bb 39 b5 bb f8 e6 30 3c 40 5b 36 3c
       0.011900714 -0.0055305636 0.010797255 0.011130154
0001f0 63 47 9f 3d 24 d1 23 3c c6 09 22 3d e8 5a 23 bd
       0.07777288 0.0099985935 0.039560102 -0.039881617
000200 88 09 d0 bd bd 52 27 bd dd 6c af bd b2 f3 84 bd
       -0.10158068 -0.04085039 -0.08565686 -0.06491794
000210 7c 4a 49 bd b0 50 a0 3c 33 71 09 bd ed 41 b1 bd
       -0.0491433 0.019569725 -0.03355522 -0.086551525
000220 d0 19 33 bd 21 33 66 bd ee 9b b6 bd 71 4b 6e bd
       -0.04372579 -0.056201104 -0.0891646 -0.058177415
000230 c3 9e 80 3c 9d fa 82 b9 c0 91 b8 bc 0d 58 f6 bb
       0.015700703 -0.00024982254 -0.022530437 -0.0075178207
000240 5e 66 6c bc 1d b2 e3 bc 43 77 88 bd 7c 3c 1e 3e
       -0.014428703 -0.027794892 -0.06663372 0.1545276
000250 b7 37 b8 3d a1 da a8 3d b3 07 c0 3d 23 ec 0a 3e
       0.08995002 0.08244825 0.093764685 0.13566642
000260 eb a7 55 3e 2d cb 1a 3e 60 fc 61 3e 78 d7 97 3d
       0.20864837 0.15116568 0.2206893 0.07414144
000270 cf 76 4a 3e c7 6f 55 3e af 6a df 3d 51 b9 b1 3d
       0.19771884 0.20843421 0.1090902 0.086779244
000280 06 b9 c4 3c ce b5 41 3e ed 97 2a 3e 23 59 bb 3e
       0.024014007 0.18917009 0.16659518 0.36591443
000290 38 4e 38 3e 6e 41 30 3e 4b ac f3 3d f4 4e 58 bd
       0.17998588 0.1721246 0.11898097 -0.05280967
0002a0 25 e7 2e 3e 43 51 69 3e c5 10 a1 3e e2 14 8c 3d
       0.17080362 0.22784905 0.31458107 0.068399206
0002b0 8e 05 1c 3e c0 af 4f 3e 98 a6 71 3d 5d 03 02 3e
       0.15236494 0.20281887 0.058996767 0.12696595
0002c0 89 ff 1c 3e 56 a6 50 3e cd 75 14 3e a3 f7 86 3e
       0.15331854 0.20375952 0.14498062 0.26360807
0002d0 46 f9 0e 3e 15 fe 85 3d 14 ca 07 3e 72 39 62 3d
       0.13962278 0.06542603 0.1326068 0.055230565
0002e0 1d b7 fc 3d 4a ee 40 3e 49 f3 4a 3e d9 a7 8c 3d
       0.123396136 0.188409 0.19819368 0.06867952
0002f0 20 2f 88 3d 80 90 4b 3e 3b 64 e5 3d 48 95 e1 3d
       0.066496134 0.19879341 0.11200758 0.11014801
000300 f1 da b1 3d 6c 72 ce 3d 53 d2 df 3d db bc 16 3e
       0.08684338 0.10080418 0.10928788 0.1472048
000310 9b 52 24 bb 67 b7 88 3d 8f e1 47 bd 1c e3 b0 bd
       -0.002507365 0.06675606 -0.048799094 -0.08637068
000320 1f 15 55 bd 0f 37 83 bb 08 4a 61 bd b9 e7 4c 3c
       -0.052022096 -0.004004366 -0.055002242 0.012506419
000330 9b 29 04 ba 1d 57 53 bd 38 72 99 bd eb 5d 78 bd
       -0.00050416 -0.05159675 -0.074924886 -0.060636442
000340 c2 81 5e bc 51 39 d5 bc 27 d3 9e 3c 5a 63 0f bd
       -0.013580741 -0.026028307 0.019387795 -0.03500686
000350 ba 5a 4a bc 6d 9a 8c bc 2a c7 39 bd bf 0c 19 bd
       -0.012350732 -0.01716348 -0.045355953 -0.03736567
000360 a2 ae d8 bc 44 91 c6 3d cd 6f 02 3d 17 1a 4b 3d
       -0.026450459 0.09695676 0.031844903 0.049585428
000370 93 6b 88 3d c1 3a 1a 3d 6b 8a 29 3d ed f0 a0 3c
       0.06661143 0.03765369 0.04139177 0.019646132
000380 5a b4 47 3d a9 a9 fe bc 63 48 ca bb 68 e7 5a 3d
       0.04875598 -0.03108676 -0.00617318 0.053443342
000390 3a 09 84 3d e7 bc df 3c 9c 72 81 3c 76 f9 a0 bb
       0.06447072 0.027311755 0.01580172 -0.0049125506
0003a0 d5 9a 2c bd e5 c0 4b bd 3b 3a 0e ba 10 d1 0f 3d
       -0.042139847 -0.049744505 -0.0005425547 0.035111487
0003b0 5d f6 04 3d 6b e0 5f 3d fc c7 9a bc 13 f7 78 bd
       0.032461513 0.05465738 -0.018894188 -0.060782503
0003c0 45 d2 a1 bd fa 39 59 bd 01 a1 c8 3c 02 f3 90 3d
       -0.07901434 -0.053033806 0.024490835 0.070776
0003d0 f8 df 67 3d 63 ab ae 3c a3 39 cf 3c f8 1f e3 ba
       0.056610078 0.021321958 0.025296038 -0.0017328253
0003e0 4a b8 46 bd 8d 46 42 bc e4 ca 24 3d 57 24 6d 3b
       -0.048515595 -0.011857641 0.040232554 0.003618499
0003f0 a1 cd 68 3d f4 b4 96 3d da 65 68 3d cf aa 8c 3d
       0.056836728 0.07358733 0.05673776 0.06868517

conv_in.0.bias f4 [8]
000000 6a ec b7 b8 15 95 97 37 d8 d8 c8 b7 d2 48 90 37
       -8.7701555e-05 1.8070024e-05 -2.3942834e-05 1.7200047e-05
000010 0b 82 6a b7 62 ee d0 38 c8 df 2a 39 96 c2 74 b8
       -1.3977765e-05 9.962615e-05 0.00016295828 -5.8355356e-05

conv_in.1.weight f4 [8]
000000 33 e0 3b 3f da 86 58 3f 75 88 15 3f 7d f3 f0 3e
       0.73388976 0.8458077 0.5841134 0.47060767
000010 22 41 2d 3f 9a 03 23 3f 99 05 46 3f e7 f3 11 3f
       0.6767751 0.6367737 0.7735229 0.5701279

conv_in.1.bias f4 [8]
000000 4a 4c b8 3d 9f 9c 61 3c ea a7 3e 3d c1 a6 d7 bc
       0.08998926 0.013770252 0.046546854 -0.026324632
000010 e8 86 94 39 b1 ed c8 bc 13 6b b7 bd 5a 41 69 bc
       0.00028329273 -0.024527403 -0.0895597 -0.014236772

conv_in.1.running_mean f4 [8]
000000 b0 64 ae bd 62 e5 19 bc ea de a8 3e 13 f7 a0 3d
       -0.08515298 -0.009393068 0.3298257 0.07859626
000010 d0 87 2b 3c 23 ac 06 3d f5 3a 05 3b b6 40 a3 bd
       0.010469392 0.032879006 0.002032933 -0.07971327

conv_in.1.running_var f4 [8]
000000 2b cc 5c 41 d6 f6 c1 41 1b 91 80 41 31 74 2e 41
       13.799846 24.245525 16.070852 10.903367
000010 98 2f 67 41 06 e7 91 41 cf b3 9a 40 3f 92 88 41
       14.44912 18.237804 4.8344493 17.07141

layer1.0.conv1.weight f4 [16, 8, 3, 3, 3]
000000 83 10 74 3d 4b 7d 04 3e 02 23 6d 3e 54 e5 b4 bc
       0.05958606 0.1293842 0.23157886 -0.022082008
000010 3d f7 fe bd 05 6d 12 be 12 cd 00 3e 14 1c 73 3d
       -0.12449501 -0.142994 0.12578228 0.05935295
000020 6c f8 ec 3d da 7e dd bc b4 93 1c bd d6 ac 80 bd
       0.1157082 -0.027038027 -0.0382268 -0.06282966
000030 d1 91 90 bc fd 53 1a bc 08 58 16 3d 19 e9 0b bc
       -0.017647656 -0.009419438 0.036705047 -0.0085394615
000040 b1 d6 43 39 e5 d8 39 3b 1a ee 4d bd 0f 67 9e bd
       0.00018676628 0.002835804 -0.0502759 -0.077345006
000050 8a c1 10 be 1f a4 82 3d 66 5c 0b 3e e9 27 c5 3d
       -0.1413633 0.0637896 0.13609466 0.09626753
000060 18 1a 18 be cb 62 63 bd 75 f4 e6 bd 41 3c 4b bd
       -0.14853704 -0.05551414 -0.11277095 -0.04961801
000070 01 5d f2 ba 21 93 8b 3e 22 ff 95 bb e4 e4 a9 bd
       -0.0018490852 0.27260688 -0.0045775333 -0.082956105
000080 91 85 e4 bd c8 f1 05 3e e8 98 0c bc 7f de 15 3e
       -0.11158288 0.13080513 -0.008581378 0.14635657
000090 12 41 d7 3b 05 26 a5 3d 95 f5 e4 3a d0 0d 22 3d
       0.0065690363 0.08063892 0.0017468209 0.039563954
0000a0 da 11 71 bc 63 a4 9d bc ff 00 2c bd 38 c4 3e bb
       -0.014713729 -0.019243425 -0.041993137 -0.0029108655
0000b0 81 1b 47 3c 3f d9 82 3d ca 45 9b bd 87 1a 76 be
       0.012152554 0.06389093 -0.075816706 -0.24033557
0000c0 2f 7a dc bc 8b 06 ce 3d 16 63 18 3e 76 2c 84 bd
       -0.02691373 0.10059842 0.14881548 -0.06453793
0000d0 3a 80 52 3c 5a 0b 2a be d6 bb 28 3d 99 58 03 3e
       0.012847954 -0.16605893 0.04119476 0.12826766
0000e0 7c e3 23 3c e9 cf 23 bd 27 f8 24 bd af 0b 62 bd
       0.010002967 -0.0399932 -0.04027572 -0.055186924
0000f0 a7 b2 0c 3d a3 17 25 3d 56 c5 65 3c 30 50 05 bc
       0.034350064 0.040305745 0.014024099 -0.008136794
000100 10 53 f7 bd 46 1d 2f bb a1 c0 44 3c ba f9 ed bc
       -0.1207639 -0.002672033 0.012008817 -0.029049743
000110 76 53 bd 3d 73 0e c3 bc ef ef 4b bd 81 a8 8a bb
       0.092444345 -0.0238106 -0.049789365 -0.004231513
000120 90 7b 02 bd fa e4 01 3d 5f a6 63 bb a5 3c 06 3d
       -0.03185612 0.03171251 -0.0034736616 0.03277268
000130 2a be 99 3d eb 0f 8f bd 7b 33 7b 3a 6b 46 38 3c
       0.07506974 -0.06985458 0.00095825613 0.011247258
000140 0a d8 14 bd 77 6d 40 bd 9d 29 ed 3c 7d 49 12 3e
       -0.036338843 -0.046979394 0.028950507 0.14285846
000150 2d e6 f8 bc 3a 97 c4 3c 8d ed bb 3d b1 d7 24 3d
       -0.030383194 0.023997892 0.091761686 0.04024476
000160 59 f4 28 3b 68 69 1e 3d 7f c4 58 3b c5 93 49 bd
       0.0025780408 0.038674742 0.0033076105 -0.04921319
000170 99 2f 9a bd 4e 28 f1 bc 01 fd 0e bd 34 1c 59 bd
       -0.0752861 -0.029438164 -0.034909252 -0.053005412
000180 6c 91 06 bd e8 22 b6 3c f6 a8 ca bc 64 4f 1d 3d
       -0.03285353 0.022233441 -0.02473877 0.03840579
000190 18 f0 a1 3c 85 aa 48 bd cc 0e 88 3d 7c a7 82 3b
       0.019767806 -0.048990745 0.06643447 0.003987251
0001a0 fe e8 b1 bc 12 bf 35 bc 6e 20 0d bd 08 d4 bb bb
       -0.021717545 -0.011092918 -0.034454755 -0.005732063
0001b0 5d 6f 5f 3d ed c4 6a 3c d9 8a 98 bd 1a ff 95 3d
       0.054549564 0.014329177 -0.07448358 0.073240474
0001c0 f6 86 1e 3d c6 6c 91 bd 56 8a d1 bd 69 90 4d be
       0.038702928 -0.07100825 -0.102314636 -0.2007462
0001d0 c7 71 cb bd 75 b1 93 bd fc fe a7 3c 8d 80 7c 3d
       -0.09933811 -0.072115816 0.020507328 0.061646033
0001e0 84 12 0a be c9 20 ab bd a9 99 c9 3c 4a 01 56 3d
       -0.13483626 -0.08355863 0.024609404 0.052247323
0001f0 10 f7 da 3d 39 5b d2 3d 00 64 36 3d af c0 10 bd
       0.10691655 0.102713056 0.04452896 -0.035340007
000200 e0 e6 94 bc 59 c0 d4 3d d0 9d 9e 3d 14 35 24 3d
       -0.018176496 0.1038825 0.07744944 0.04008968
000210 82 ee 25 3d 34 31 20 3d 06 2a 5a bd 91 26 ab ba
       0.040510662 0.039109424 -0.053262733 -0.0013057758
000220 ee 38 81 3d 04 79 fe 3c 0a c1 9e bd 0e 9a 20 3d
       0.063096866 0.031063564 -0.07751663 0.039209418
000230 18 b5 63 bd 38 5e d4 3b a6 f4 9c 3d 1a f5 31 3d
       -0.055592626 0.0064809583 0.076638505 0.043446638
000240 1b 14 e3 bc 77 eb 7a bd 18 35 a6 3b e4 f2 65 bc
       -0.027719548 -0.061259713 0.0050722472 -0.01403496
000250 65 6d 17 bd 20 e0 e3 3d 6c 3c 52 3b bf db 5b 3d
       -0.03696956 0.11126733 0.0032079471 0.053676363
000260 aa 62 82 3d f0 aa a8 3c 5c 14 33 3c 19 8a 40 bd
       0.06366475 0.020589322 0.010930147 -0.0470067
000270 37 2b cd 3d 11 4b a3 3c e7 74 c4 bd 9d b6 fd bc
       0.10018008 0.019933255 -0.0959261 -0.030970866
000280 c8 ae 28 be 1d 23 ff bd 37 76 da 3b e3 64 69 3d
       -0.16472924 -0.12457869 0.0066669243 0.05698098
000290 ef e0 c8 3d 85 fc ae 3d 5a 2a b9 bd cc 68 44 be
       0.09808528 0.08544258 -0.09041281 -0.19180602
0002a0 4c d8 91 3d 25 e8 59 bd 18 78 b2 3d 84 d1 cf 3b
       0.071213335 -0.053199906 0.08714312 0.006342115
0002b0 1c 3a cc 3d 57 b3 94 3d 9a 57 d9 bd 05 be 70 be
       0.09972021 0.07260769 -0.10612412 -0.23509987
0002c0 0f b8 99 bd 12 7a 03 3e 24 81 25 3e 36 9f 59 3d
       -0.075058095 0.12839535 0.16162544 0.05313035
0002d0 58 9d 10 bc 46 f6 4d be 8b 9b 2d be 94 f1 c4 3d
       -0.008826576 -0.20113477 -0.16953866 0.0961639
0002e0 6a 21 cf 3e 49 d5 91 3e 9f d7 89 be 4a 31 65 be
       0.4045518 0.28483036 -0.26922318 -0.22382084
0002f0 d6 7a 28 be da 1b 30 bd 0f 78 94 bc d5 41 3e 3d
       -0.16453108 -0.04299531 -0.018123655 0.0464495
000300 cf a0 e5 bd 48 3e 4c 3d 0c 80 ad 3d 40 b5 5e bd
       -0.112123124 0.049864084 0.08471689 -0.054372072
000310 e9 fa b4 bd 8c a5 99 3c 34 95 f8 bc f4 8e 3a 3d
       -0.0883692 0.018755697 -0.030344583 0.045546487
000320 78 39 6f bc 49 48 80 3d 58 85 0e 3d c6 66 99 bc
       -0.014601104 0.06263787 0.034795135 -0.018725764
000330 26 18 de bc 6f 77 32 3d 3e 77 00 bb 0a 59 b3 3d
       -0.027111124 0.043570932 -0.0019602324 0.08757217
000340 9c 8a 16 bc 5c 06 af bc 07 18 6e 3d 49 bd b4 bd
       -0.0091883205 -0.021365337 0.058128383 -0.08825166
000350 f4 2c 53 bd 61 41 b8 3d a4 ce ed 3c bb 58 9e bc
       -0.051556543 0.08996845 0.029029198 -0.01932942
000360 a8 0d 44 3d 48 b3 b9 3d dc 4e d6 bd e3 0f 51 be
       0.047864586 0.09067398 -0.1046426 -0.20416217
000370 67 41 db 3d 9d 8a bc 3d 95 22 be be 0e f0 ed 3b
       0.10705834 0.09206126 -0.3713576 0.0072612828
000380 d9 c2 ab ba c1 f2 72 bc 1a 63 09 bc d3 8d a9 3d
       -0.0013104334 -0.014828385 -0.008385444 0.08279004
000390 5e d8 dc 3d 46 da 67 bc 3d 4c f5 bd 60 be 4a 3e
       0.10783456 -0.014151162 -0.11977432 0.19799185
0003a0 3e 3e 79 3d 6c 6a 3f bd 48 9a c5 bc b9 18 a0 bd
       0.060850374 -0.04673235 -0.024121419 -0.078172155
0003b0 89 6f 80 bb c1 90 73 3d 18 10 99 bd 86 27 60 3d
       -0.003919546 0.05946422 -0.07473773 0.054725192
0003c0 65 c5 85 3d 2f d1 b5 bd d8 51 9d 3d ab 1e b9 bd
       0.06531791 -0.08877789 0.07681626 -0.090390526
0003d0 70 77 cb 3c d4 5a 1b be 88 4a 74 bd bf 2f d1 3d
       0.024837226 -0.15171367 -0.05964139 0.10214185
0003e0 c1 9d c1 3d 97 70 09 be f7 dd 83 3d 31 e2 dd bc
       0.09453917 -0.13421856 0.06438821 -0.027085396
0003f0 20 80 07 3d 9c 4a 9f bb 91 8b 19 3d 8d 9a bf bd
       0.033081174 -0.004861189 0.037486617 -0.0935565

layer1.0.conv1.bias f4 [16]
000000 a2 95 8c b7 1f cf ad 38 6c a6 80 b8 05 86 4a 39
       -1.6758979e-05 8.287862e-05 -6.134514e-05 0.00019314147
000010 dd 52 ca b7 fa 35 17 b8 a0 3c 89 37 1a c9 b5 38
       -2.4118863e-05 -3.6051475e-05 1.6359903e-05 8.668211e-05
000020 a3 58 ed b8 99 3c 6a b8 fa e6 9d 39 e8 35 0b 37
       -0.000113175505 -5.5846383e-05 0.00030117464 8.297597e-06
000030 f6 97 40 b8 c3 7d 83 38 1d 58 51 38 27 37 df 37
       -4.5917892e-05 6.269992e-05 4.9911545e-05 2.6609354e-05

layer1.0.bn1.weight f4 [16]
000000 d6 a0 f2 3e 28 ea 04 3f 46 63 30 3f 92 68 19 3f
       0.47388333 0.51919794 0.6890148 0.59925187
000010 bf 26 14 3f e9 e8 1d 3f c1 15 1a 3f 88 1d fc 3e
       0.5787162 0.6168352 0.60189444 0.4924128
000020 ff e8 e9 3e 0d 39 1d 3f 25 aa 1e 3f cc 46 00 3f
       0.45685574 0.6141518 0.6197837 0.5010803
000030 bd 6a 01 3f ad fc 07 3f a4 75 7b 3f 1a fd 17 3f
       0.50553495 0.5311993 0.9822638 0.5937058

layer1.0.bn1.bias f4 [16]
000000 7d 53 4a bd 6a b7 44 bd c1 18 13 3d 9f 10 f5 3c
       -0.049396027 -0.04802648 0.03591228 0.029915152
000010 22 7a 48 bc b5 42 02 3e 3b ff 1d 3d ac c3 97 bc
       -0.01223615 0.12720759 0.038573485 -0.01852592
000020 b9 70 47 bd 5f 8d be 3c 09 7a 45 3e 5b 66 2e be
       -0.048691485 0.02326077 0.19284834 -0.17031233
000030 e9 f3 bb bd 17 29 b3 3c 7a 9e a1 bd 20 a7 cc bd
       -0.091773815 0.02187018 -0.07891555 -0.09992814

layer1.0.bn1.running_mean f4 [16]
000000 46 a5 18 ba f6 fe 09 3c e2 d2 1a 3d 98 b9 8e bb
       -0.00058229675 0.008422604 0.03779877 -0.0043556206
000010 b9 c2 53 3c 90 e7 a5 bc ac 50 0b 3d f8 aa 4c bc
       0.0129248435 -0.02025202 0.03401248 -0.012491934
000020 bd d3 a0 3c 27 65 0f 3d 52 6f 47 bb 00 5f de b9
       0.019632215 0.035008576 -0.0030431342 -0.0004241392
000030 75 2a 6e 3c 81 2c c3 3c 16 47 8a bd 38 51 97 3c
       0.01453649 0.023824932 -0.0675184 0.018471345

layer1.0.bn1.running_var f4 [16]
000000 f1 f8 8d 3e 0d d1 96 3e 8d 73 57 3f a3 3c 77 3f
       0.2772899 0.29456368 0.8416069 0.965769
000010 4b d0 05 3f 07 e6 1b 3f 8e f5 fa 3e 47 58 14 3f
       0.52270955 0.6089787 0.49015468 0.579472
000020 33 46 d7 3e 6b 9f db 3e 3e 99 0f 3f 0d df 78 3e
       0.42045745 0.42895064 0.56093204 0.24303837
000030 45 3e aa 3e 0d f1 00 3f 8c eb 5d 3f f3 44 b6 3e
       0.33250633 0.50367814 0.8668754 0.3559948

layer1.0.conv2.weight f4 [16, 16, 3, 3, 3]
000000 5d 02 7d 3d 4e e1 bf 3d b4 c9 67 bd 6f 96 b6 3d
       0.061769832 0.09369145 -0.056588843 0.08915412
000010 e2 ac d9 bd a2 05 4a bd 20 69 4f 3d d4 1b f3 3a
       -0.10628678 -0.049321778 0.050637364 0.0018547722
000020 c3 d4 89 3c bd 33 94 3d c3 cd ad 3d c8 0a 74 bc
       0.016825086 0.07236431 0.084865116 -0.014895149
000030 7e 5b 0c 3d 7f 12 d7 bd cf 5a e5 bd 81 d7 8b 3c
       0.03426694 -0.10501575 -0.11198961 0.017070534
000040 63 88 f1 3c e4 69 ea bc 7a ac aa 3d 2e 2f 50 3d
       0.02948398 -0.028614946 0.083336785 0.050826244
000050 2b 39 b6 3c 6b 10 34 3d 0c dc f8 bd 26 03 be bd
       0.022244057 0.04396097 -0.121513456 -0.09277944
000060 48 96 a2 3d 19 4e 55 bd e1 fb 08 3c 68 7d 63 3d
       0.0793882 -0.052076433 0.008360834 0.05553952
000070 29 13 64 bd ed 0f aa 3b 47 77 8f bc 11 2b 63 be
       -0.055682335 0.005189887 -0.01751293 -0.22184397
000080 6f cd a2 bc 04 d9 9b bd d7 c7 a6 bd 48 cd 8d 3d
       -0.019873349 -0.07609752 -0.08143585 0.0692392
000090 f4 df 31 3c 63 cc 20 3d 0a 7a 82 3d 57 12 8c 3d
       0.010856617 0.03925742 0.06370933 0.068394355
0000a0 57 1e fc bd 62 79 9e bd e6 4d 0a bd 7c 99 50 bc
       -0.12310474 -0.07737996 -0.033765696 -0.012731906
0000b0 fe b2 bc 3d 1b da 5d bd e8 f3 ac bc 1e c5 99 bd
       0.092138276 -0.05416308 -0.021112397 -0.075083
0000c0 ad 57 60 3d 1a e9 36 be 01 17 01 be 11 75 64 bd
       0.054771114 -0.17862359 -0.12606432 -0.055775706
0000d0 f8 7b 26 3d e8 a3 5a bd 52 05 fc bb e2 ba ef 3d
       0.04064557 -0.05337897 -0.007691064 0.11705567
0000e0 5b e0 0d 3e c3 73 d9 3d 99 ff a3 bd 9a 71 58 3d
       0.13855116 0.10617783 -0.08007736 0.052842714
0000f0 8b a6 b3 3b 3c d0 33 3d d2 4b 40 bc e9 6f a9 bc
       0.0054825 0.04389976 -0.011736827 -0.020683246
000100 d9 c6 e4 3c ff af 2a bd d3 51 2a bd 69 bd 08 be
       0.02792685 -0.04167175 -0.04158194 -0.13353504
000110 7c b2 9f 3b 81 9e 3b bd 09 27 5d bd a9 ea 8b bd
       0.004873572 -0.045805458 -0.053992305 -0.06831867
000120 ee d4 77 3c a6 63 bf 3d e1 da c5 bd 91 98 01 3d
       0.01512645 0.09345178 -0.096608885 0.03163964
000130 fd c9 29 be 01 ae 53 bc 6f 32 7d 3d 3b 16 ee bd
       -0.16580959 -0.012919904 0.061815675 -0.11625334
000140 8e c1 4e bd 25 6a 3f 3d 89 b6 0b 3d 7e 06 52 bd
       -0.050477557 0.046732087 0.034109626 -0.051275723
000150 c1 a3 a9 3b 8b e0 3e bd 90 1b 19 3e bb 27 9a 3d
       0.0051769917 -0.04660086 0.1495192 0.07527109
000160 ae b5 09 3d 5f 11 e7 3d fe a6 40 bc 59 a4 8d 3d
       0.03362053 0.1128261 -0.011758564 0.069161125
000170 cc 32 d5 bd d4 d5 a5 bc ce 31 b2 bd 11 1c c5 3d
       -0.10410079 -0.020243563 -0.08700906 0.09624494
000180 41 00 55 3b bf 3c 52 3d 0b 85 68 bd 6c f0 42 3c
       0.0032501372 0.051327463 -0.056767505 0.011898141
000190 9b d7 e2 bc 3c 8e cd bd d1 dc fe 3c 4d a5 1a be
       -0.0276907 -0.10036895 0.031111153 -0.1510212
0001a0 76 79 ef bd 1f 48 b6 bc b2 3b d1 3d 5e 97 11 be
       -0.11693089 -0.022251187 0.10216464 -0.14217898
0001b0 ab a2 40 bd 64 d4 e9 3c 37 e5 6b be 94 66 da bd
       -0.047030132 0.028543659 -0.23036657 -0.106640965
0001c0 93 f3 3f be 77 ea 18 bd 1c 66 0a bd 7d c1 5b bd
       -0.1874526 -0.037332978 -0.033788785 -0.05365132
0001d0 7a c9 57 bd 2e 6d eb 3b c4 87 a5 3c c0 6d 9e bc
       -0.052682377 0.007184646 0.02020634 -0.019339442
0001e0 0a b9 1b bd bc 8c bd bd 24 e7 8f 3c b3 06 84 bc
       -0.038018264 -0.092553586 0.017566271 -0.016116476
0001f0 86 e1 6c bc 08 05 bc bd 29 aa b7 3d 44 40 ec bc
       -0.014458066 -0.09180647 0.08968002 -0.028839238
000200 2a cb 28 3d 7f 3d 14 3d 9e 06 96 bd 7d 16 31 3a
       0.041209377 0.03619146 -0.07325481 0.0006755365
000210 d1 86 c9 3c 07 fd e4 bb 0d 00 ee bd 69 1a 94 3c
       0.024600418 -0.006988171 -0.116211034 0.018079
000220 e5 8e d7 3d 85 2e d1 3d 6e 4b 86 3d 6d 37 8d bd
       0.10525302 0.10213951 0.06557356 -0.06895337
000230 6d 1c 72 be 54 c0 dc 3c 9d 13 88 3c 40 5b 03 be
       -0.23643656 0.026947178 0.016610915 -0.12827778
000240 57 47 42 bd e9 89 ef bb 2d 00 a7 3c 35 05 89 bc
       -0.047431316 -0.0073101413 0.020385826 -0.016726116
000250 8c f9 fe bd 82 a7 76 3d 83 40 99 3c 06 08 b9 3d
       -0.12449941 0.06021834 0.01870752 0.090347335
000260 1c 01 20 3e 9c 8f 53 bd f0 69 b3 bd 4f 33 c1 bd
       0.15625423 -0.05165063 -0.0876044 -0.094336145
000270 d8 41 90 bc a4 9f 80 be 1b 5f 22 3e a2 10 82 bd
       -0.017609522 -0.25121796 0.15856592 -0.06350829
000280 34 12 e2 ba 96 79 4f 3e f7 dc 8e 3d 9c df 96 3c
       -0.0017247857 0.20261225 0.069757394 0.018417172
000290 3c ed 1e be 41 d5 a3 3d 41 48 55 be b9 2e 26 bd
       -0.15520185 0.07999659 -0.20828344 -0.040571902
0002a0 26 2b 3a bd ac 69 47 bc 63 b0 15 3c 5b fd 3b 3c
       -0.045451306 -0.01217119 0.009136292 0.011473979
0002b0 f9 61 7e bd 0a d9 e6 bc b6 ee 99 3a ca 08 f8 bd
       -0.062105153 -0.028179664 0.0011744115 -0.121110514
0002c0 2a 96 b3 bc e3 3b e7 3c 7e a3 ae 3d 3c 12 85 3d
       -0.02192219 0.028226798 0.085272774 0.064976186
0002d0 91 1d fd 3c 1c ef e5 bd ed 01 dd 3d bf e0 31 3d
       0.030897887 -0.11227247 0.10791383 0.043427225
0002e0 ec 23 6e be 4d d4 69 3d fd 23 c3 bc 81 05 40 bc
       -0.2325589 0.05708723 -0.023820871 -0.011720062
0002f0 8e 7a 4a 3c b7 b9 5a 3d 93 82 9b 3a 8b b3 24 be
       0.012358321 0.053399768 0.0011864476 -0.16084115
000300 3c ad cf 3d e2 5b ee bd 46 a8 7e bd a4 54 8f bc
       0.10140464 -0.11638619 -0.062172197 -0.017496414
000310 14 20 8f bc bf b1 7a 3c 49 3b 10 3d e4 2d 25 bc
       -0.01747135 0.015301167 0.03521279 -0.010081742
000320 45 c1 61 3d c8 d4 0c bc a0 29 f6 bd 40 22 e3 3d
       0.055115957 -0.008595653 -0.12019658 0.11090517
000330 5d 6c b1 3d 1d 29 45 bd 2e a9 3c bd b2 55 29 3d
       0.08663247 -0.04813491 -0.04605978 0.04134149
000340 e6 8b 22 bc be f0 a7 bb e6 b2 f3 3b 0f ac 0f be
       -0.00992105 -0.0051251343 0.007437098 -0.14030479
000350 c3 46 e4 3d 19 f4 ae bc e6 8f d5 bd e7 0d 72 3d
       0.11146309 -0.02135663 -0.10427837 0.05909529
000360 e2 62 24 3c 02 c2 d9 3c 8a ca be 3b a9 82 a6 3d
       0.010033341 0.026581768 0.0058224844 0.0813039
000370 1d 11 19 be 6d 1a 90 bd 91 62 d8 ba 99 03 95 bd
       -0.14947934 -0.0703629 -0.0016508867 -0.07276077
000380 00 1b f3 bc a7 95 8e 3c fc 83 c5 bc 9c b5 c9 bd
       -0.02967596 0.017405344 -0.024110787 -0.09849092
000390 89 43 41 3d f1 67 eb bd b5 58 bc bc f5 d4 e0 bb
       0.047183547 -0.114944346 -0.022991518 -0.006861324
0003a0 a2 39 3b bc 4c fb a7 3d 3a a6 dc bb 21 9a d9 bd
       -0.011427315 0.08202228 -0.006733683 -0.10625101
0003b0 ee 5a ce bd ec c2 9e 3d d6 c8 0e be 85 ab 82 3d
       -0.10075937 0.07752022 -0.139438 0.06380371
0003c0 af ee c0 3b 3a ea be 3d f5 fe 9c 3d 06 75 83 3c
       0.0058878283 0.09322019 0.07665817 0.016047012
0003d0 d6 b1 79 3a ca cb a9 ba cd 1b 19 3d ef e7 18 be
       0.0009525096 -0.0012954411 0.03738003 -0.14932226
0003e0 1a 8f a3 3c b1 5b b5 3c 50 1e e8 3d 56 5f 11 be
       0.019965697 0.022138448 0.11333907 -0.14196524
0003f0 68 23 de 3c ba 75 28 bd d0 43 87 bd 0b b7 4b bd
       0.027116492 -0.041127898 -0.06604731 -0.04973511

layer1.0.conv2.bias f4 [16]
000000 d8 64 33 b7 cc 7b f1 b7 9e bf 46 38 08 d0 43 38
       -1.0692711e-05 -2.8787086e-05 4.7385336e-05 4.6685367e-05
000010 7d a5 a5 37 a4 be 23 38 cd 89 8b 38 b0 68 57 37
       1.9746594e-05 3.9039776e-05 6.653704e-05 1.2839373e-05
000020 70 0e 3a b7 6c 72 99 36 75 62 32 b8 a4 36 31 36
       -1.1089825e-05 4.573076e-06 -4.2530202e-05 2.640686e-06
000030 78 ca 5b b7 f8 e9 bc 36 ee c0 5f 38 fe 94 93 37
       -1.3100558e-05 5.630074e-06 5.3347023e-05 1.7593145e-05

layer1.0.bn2.weight f4 [16]
000000 09 73 27 3f 44 c8 12 3f 56 fd 25 3f f4 26 e8 3e
       0.65409905 0.5733683 0.64839685 0.4534222
000010 3a 50 cf 3e a0 4d fd 3e af 49 27 3f 99 19 2e 3f
       0.40490896 0.49473286 0.6534681 0.6800781
000020 74 5d 20 3f 03 b3 f9 3e ae 9d 11 3f 8b f1 b3 3e
       0.626426 0.48769388 0.56881225 0.3514522
000030 9d 77 01 3f 99 51 3d 3f 3f a5 0a 3f 89 cb 0e 3f
       0.5057314 0.73952633 0.54158396 0.5577932

layer1.0.bn2.bias f4 [16]
000000 7d 9e 13 be 2a 26 29 3d 75 9f 38 be c8 46 ab 3d
       -0.14415927 0.04129616 -0.18029578 0.0836311
000010 86 95 c2 3e 33 93 2a be 9b 0a b1 bd f1 0c 3a be
       0.38004702 -0.16657715 -0.08644601 -0.18168999
000020 47 3d 1e be f9 1f 6e be 78 c9 26 be f9 74 14 be
       -0.15453063 -0.23254384 -0.16287792 -0.14497747
000030 5d cc 2b 3e e0 12 1b be 60 8b e8 bd 9a ee 01 3d
       0.16777177 -0.15143919 -0.11354709 0.03172169

layer1.0.bn2.running_mean f4 [16]
000000 be b4 8f bf 23 12 73 bf 59 c2 ab bf 16 b7 1e bf
       -1.1227033 -0.9494955 -1.3418685 -0.61998117
000010 6d 36 0d bf 72 55 a4 bf cb 3d a1 bf 86 cc ac bf
       -0.5516117 -1.2838576 -1.2596983 -1.3499916
000020 1f 70 92 3f b3 7c 1e 3e a7 19 7a 3f 86 41 20 bf
       1.1440467 0.15477256 0.9769539 -0.6259998
000030 14 f1 11 bf fb 82 a8 bf c5 87 89 bf 00 d9 aa bf
       -0.5700848 -1.3164972 -1.0744559 -1.3347473

layer1.0.bn2.running_var f4 [16]
000000 0f 55 0d 40 81 98 ce 3f 08 34 fc 3f 14 52 c0 3f
       2.2083166 1.614029 1.9703379 1.5025048
000010 6d 28 0c 40 65 1a 06 40 fe 4c e6 3f 6b 27 87 40
       2.1899674 2.095361 1.7992246 4.223562
000020 a5 ed bc 40 eb 54 16 40 62 00 3f 40 11 aa 9d 3f
       5.9040093 2.348933 2.9843984 1.2317525
000030 3e 54 bc 3f a6 27 12 40 a6 98 15 40 c0 fd 30 40
       1.4713209 2.28367 2.337442 2.7654877

layer1.0.conv3.weight f4 [16, 16, 1, 1, 1]
000000 45 81 61 3c 28 56 f6 ba 58 c3 bb bd 00 8f e7 3d
       0.01376373 -0.0018793987 -0.09168118 0.11306572
000010 63 bd 06 3e 06 c4 6a bd 3c a8 f5 3c f4 b4 e8 bd
       0.13158183 -0.05731585 0.029987447 -0.11362639
000020 22 fd 45 bd 28 bc a2 bd ed 67 1c be a1 fd 2e 3d
       -0.04833711 -0.07946044 -0.1527402 0.042722348
000030 34 b3 3e be dd 7e 1e bd c1 4d 94 bd 55 9c 50 bd
       -0.18623048 -0.038695205 -0.07241393 -0.05093034
000040 08 fb 35 3d ba 3f 2f bd 5b 6e 28 be d8 3e d9 3d
       0.044428855 -0.042785384 -0.16448347 0.106076896
000050 17 31 19 3e 52 22 6a bd 7c 07 f7 bd d4 d0 49 be
       0.14960133 -0.057161637 -0.120619744 -0.19708568
000060 f7 84 e4 bd 52 f6 35 3d 52 2c c0 bd 6d 3a db bc
       -0.111581735 0.044424362 -0.093834534 -0.026761258
000070 68 b7 86 3d 46 e5 0d 3d 8e fd 1b be 29 19 3a bc
       0.06577951 0.03464248 -0.15233442 -0.011358538
000080 fc 99 74 be c2 fb 6d 3d ff e5 ff 3d 6f 34 b6 bc
       -0.23886865 0.058101423 0.1249504 -0.0222418
000090 ec 48 25 be 4d fd 65 3e 59 23 19 3d db 5e 15 3e
       -0.16141099 0.22459908 0.037387226 0.14586966
0000a0 df 65 b3 bd ea 67 0f bd fb 28 09 be 4d 7b 5b bd
       -0.08759665 -0.03501121 -0.13394539 -0.053584386
0000b0 05 25 95 3c 0e 3c e8 3d 35 90 a6 3b 2f 18 55 3e
       0.018206129 0.113395795 0.005083109 0.20810007
0000c0 b2 ff 69 bd 79 30 2b be a5 71 21 be ca 51 47 3d
       -0.057128616 -0.1671771 -0.15766008 0.048661985
0000d0 7c 82 68 bc 54 fd ad bc f7 28 88 be dd f4 32 be
       -0.014191266 -0.02123896 -0.26593754 -0.1747622
0000e0 09 6b 1e 3d 5f ed 0b 3e e0 7a 87 3d a4 06 2d be
       0.038676295 0.13664769 0.066152334 -0.16897064
0000f0 47 91 a8 bc 4d b4 2a 3e f8 0b 31 be 60 a7 73 bc
       -0.020577086 0.16670342 -0.17289722 -0.014871448
000100 80 97 5d 3b cf da be 3c 08 44 1d be 4f 67 d3 3d
       0.0033812225 0.023297695 -0.15357983 0.10322439
000110 e3 5b 00 3e a6 97 30 3c cf c1 41 bd af fa a0 3d
       0.12535052 0.010778343 -0.04730397 0.07860314
000120 a0 2f cf 3d fc ef 20 3e 0e 8f 42 3e 96 e4 03 3e
       0.101165056 0.15716547 0.18999884 0.12880167
000130 bb e2 66 3e 9d 94 d6 3d df e7 bc bd 5a 49 ed 3d
       0.22547428 0.104775645 -0.092239134 0.11586256
000140 79 40 cb bd 04 59 ff bc af bf 04 3e 5e 6a 2a be
       -0.099244066 -0.031170376 0.12963746 -0.16642138
000150 67 f8 69 be b7 02 00 3e 96 d1 11 be 9d 4d a1 3d
       -0.22848664 0.12501036 -0.14240107 0.07876132
000160 a6 65 6d bd 87 e7 c8 3c 96 7b 9b bd 25 7a f6 bd
       -0.057958268 0.024524463 -0.075919315 -0.12035016
000170 40 25 cc bc ab 97 89 3e 49 f7 5d be 31 83 fe 3d
       -0.024920106 0.26873526 -0.21676363 0.124273665
000180 f1 35 92 bd a2 bd ad bd 4e 39 48 bd 3a 56 28 3c
       -0.07139195 -0.08483435 -0.048882775 0.010274464
000190 31 1a 1d be ea a5 7b 3c ae 3c b6 3d 8c f2 5a 3e
       -0.15342022 0.015359381 0.088982925 0.21381587
0001a0 0e 69 05 3e 8a 54 fb bb 2d 4d 80 3d 78 b0 4a be
       0.13028356 -0.00766999 0.0626472 -0.1979388
0001b0 e3 01 fa bd 4d 19 81 be 37 45 aa 3c 7e b2 18 be
       -0.12207391 -0.25214615 0.020784957 -0.1491184
0001c0 b8 2d 23 be a7 9c 2f be d4 65 e9 3d 26 a5 aa bd
       -0.15935409 -0.17149602 0.11396375 -0.08332281
0001d0 86 12 c0 bd e2 28 80 3d 1e a1 f9 3d de ed 2c 3e
       -0.09378533 0.06257798 0.12188934 0.16887614
0001e0 a6 97 23 be d0 0e f2 bb 55 a6 bc bd 79 f8 c2 3c
       -0.15975818 -0.0073870197 -0.09211413 0.023800122
0001f0 81 cf c4 bd 3f 31 85 3d 69 0d 16 be f9 b9 5d 3d
       -0.09609891 0.065035336 -0.14653553 0.054132435
000200 1c 05 43 bc 29 d1 b2 3d 06 bd 6a 3e 0e 42 6c bd
       -0.011903074 0.087313004 0.22923669 -0.057680182
000210 f2 e6 46 be da 7d d2 3c 61 4a 6f 3e 66 f5 2c 3c
       -0.19424036 0.025694776 0.23368217 0.010556554
000220 74 14 a1 bd 47 56 f5 bd 9b 3d 11 bd 08 9f dd bd
       -0.07865229 -0.11979347 -0.035459142 -0.108213484
000230 a6 49 48 be a3 46 b2 3d ed 99 dd 3d 58 21 aa bd
       -0.19559345 0.08704879 0.10820375 -0.08307141
000240 97 68 b6 3d 72 46 0f 3e 29 58 3e be 1c 4c 2e 3d
       0.08906668 0.13991717 -0.18588318 0.042553052
000250 db 23 9b 3d 9e 95 d9 bd 18 bb 1b be e5 38 19 be
       0.07575198 -0.1062424 -0.1520809 -0.1496311
000260 34 4f 36 bc 57 e9 cd 3d 73 87 b7 3d 02 a5 10 be
       -0.011127282 0.10054272 0.08961382 -0.14125445
000270 d2 78 0a bd 33 2e 1f be e5 64 60 bc e2 7c 85 be
       -0.03380663 -0.15544967 -0.01369593 -0.2607184
000280 d9 dc 3e be 97 cb 32 be c0 fc 1e be 2d df f7 3c
       -0.18638934 -0.17460476 -0.15526104 0.030257786
000290 e7 59 52 bc fd 35 90 3d 04 bf 7b be 13 7a 0c 3e
       -0.012838817 0.070415474 -0.24584585 0.13718443
0002a0 e0 b3 a4 3d 8d 53 bc bd 82 91 e4 bd e5 b6 ca bd
       0.08042121 -0.091956235 -0.11160566 -0.098981656
0002b0 17 8f b1 3c d4 77 d6 bd 0d 66 07 be 38 ee ff 3d
       0.021674676 -0.10472074 -0.13222523 0.124966085
0002c0 95 b7 62 3d da 77 25 3e 7a b5 23 3e 30 88 8a 3e
       0.05535086 0.16159001 0.15987197 0.27057028
0002d0 45 30 1c bd 56 8d 7f 3d 47 a0 cf 3d 7c d2 32 bd
       -0.03813197 0.062390648 0.10137992 -0.043657765
0002e0 a3 ec 22 bd e2 64 5b be 8f 67 e0 bd 92 9a 75 bd
       -0.039776456 -0.21425202 -0.10957252 -0.059961863
0002f0 3c e4 21 3d f8 94 0e 3e a4 68 a7 3d 8f 17 78 bd
       0.039524302 0.13924015 0.081742555 -0.060569342
000300 09 c7 26 bd b7 47 a2 3d 7e 0d d7 bd f6 50 a8 3d
       -0.04071716 0.07923835 -0.1050062 0.08218567
000310 a4 f4 3b bd df b5 dc 3a 4d be ff bd 0a 7f 26 bd
       -0.045887604 0.001683887 -0.12487469 -0.040648498
000320 0a e0 97 3d f5 4f ac 3d 39 ec de 3d b3 7c b4 3d
       0.07415779 0.08413688 0.108849 0.08812847
000330 e9 3b d1 bd 08 19 b5 be 0f 30 19 be 31 85 37 be
       -0.10216505 -0.3537066 -0.14959739 -0.17921902
000340 e0 c4 73 bd f8 d2 8b be d6 be ca bd 4e 35 0d 3d
       -0.059513927 -0.27309394 -0.0989968 0.034474663
000350 f7 87 ee bc 4b 96 42 bb 6a 6e 26 be 7b 6e 5f be
       -0.029117567 -0.0029691632 -0.16253057 -0.21819489
000360 8c e6 e0 3d dd 83 c7 3c 01 64 c0 3c fa 74 9c bd
       0.10981473 0.02435487 0.023485186 -0.07639499
000370 1a 87 11 bd 03 82 ad 3d 7d 6a 38 be 6c a7 9c 3d
       -0.035529234 0.084720634 -0.18009372 0.07649121
000380 75 dd 2e bd 7a 9a 58 3e 1f 6d 0e 3e bd f1 15 3d
       -0.042691667 0.21152678 0.13908814 0.036607493
000390 77 d2 65 be 00 16 1a 3d 99 69 fa 3b 1c 3d 14 3d
       -0.22443567 0.037618637 0.0076419828 0.03619109
0003a0 9e 69 45 be 30 7a 51 bd ee 4e cf bc 20 e8 89 bd
       -0.19278571 -0.051141918 -0.025306191 -0.067337275
0003b0 b9 a1 8d be bf a5 be bd 3f ed a1 3d f6 96 85 bd
       -0.27662447 -0.09308957 0.07906579 -0.06522934
0003c0 fb ed 99 3e 7c 90 20 3c 70 83 8c bc f1 e3 dc bb
       0.30064377 0.009800073 -0.017152518 -0.00674104
0003d0 1e 03 1d be 2b 07 09 3c 03 01 b3 3d 54 dc 06 3e
       -0.1533322 0.008363525 0.08740427 0.13169986
0003e0 34 a0 07 be a5 bd 4c be 99 8c 17 bd 81 76 fe 3c
       -0.13244706 -0.19994219 -0.03699932 0.031062366
0003f0 57 20 3f 3d c5 4b 06 be 71 a3 b9 3c b5 5f 0a bd
       0.0466617 -0.13114841 0.022660943 -0.03378268

layer1.0.conv3.bias f4 [16]
000000 2c d6 64 b9 6c c1 6a 38 c5 cd e4 38 00 68 af b2
       -0.0002182356 5.5970086e-05 0.00010910215 -2.0419975e-08
000010 77 5e ea 38 ae 0d 00 39 a0 09 29 b9 de b3 4a b9
       0.00011175585 0.00012212127 -0.00016120682 -0.00019331227
000020 f4 11 de b8 68 1f 8c b8 4d f7 8a 38 04 21 e8 b9
       -0.00010589129 -6.68157e-05 6.626416e-05 -0.00044275087
000030 8d d4 e5 b8 b0 9c 8b 38 a2 d1 52 39 d3 a0 bb 39
       -0.000109591616 6.657222e-05 0.00020105255 0.00035787243

layer1.0.bn3.weight f4 [16]
000000 c9 bd 09 3f b2 95 1d 3f ed 50 2b 3f 18 07 0a 3f
       0.53805214 0.6155654 0.6692036 0.53917074
000010 99 11 02 3f 5c 2c 55 3f 01 ed e8 3e d0 8d 4d 3f
       0.508081 0.8327081 0.4549332 0.80294514
000020 4e 36 35 3f 51 83 eb 3e 10 88 c2 3e cd a2 2e 3f
       0.7078599 0.45998624 0.37994432 0.68217164
000030 21 a4 df 3e 57 59 05 3f e4 56 44 3f 4c 92 5c 3f
       0.43679908 0.52089447 0.76695085 0.8616073

layer1.0.bn3.bias f4 [16]
000000 f3 7d c5 3c eb 57 d4 3c 89 78 98 be a5 4c 42 3e
       0.024107909 0.025920829 -0.2977946 0.1897455
000010 d5 3a 58 be 4d ae fc be 05 40 a7 bd a3 63 5a be
       -0.21116193 -0.4935173 -0.08166508 -0.21327071
000020 90 69 a3 be cc 35 8c bc 9c 76 04 bf 46 e5 d3 bd
       -0.31916475 -0.017115496 -0.51743484 -0.10346465
000030 4f 31 82 3d 96 75 bb bc 22 b6 30 be 93 73 4a bd
       0.06357061 -0.022883218 -0.17256978 -0.049426626

layer1.0.bn3.running_mean f4 [16]
000000 17 42 40 bd a2 fd c0 bb bc 91 ee bb 19 4c e0 bd
       -0.04693803 -0.0058896104 -0.0072805565 -0.109520145
000010 49 be 55 3e 19 4f 03 be 9a 6b 0c be bd 6e e8 bd
       0.2087337 -0.12823142 -0.13712922 -0.11349247
000020 8f 9c ab bd b0 14 80 bd 8d e0 e4 bd af e4 db 3d
       -0.083794706 -0.06253946 -0.11175642 0.10736977
000030 2a 46 03 be 1d e1 fa bd 3a 07 1f be 82 5c 3f bd
       -0.12819734 -0.12249968 -0.155301 -0.04671908

layer1.0.bn3.running_var f4 [16]
000000 4d 6f 27 3c ea 7d b5 3c 7a 75 80 3c 21 0f 97 3c
       0.010219407 0.022154767 0.015681017 0.018439831
000010 e1 7a 9d 3c 93 aa 44 3c f5 4e 00 3d 0c e3 20 3c
       0.019223632 0.012003559 0.0313253 0.009819757
000020 97 68 98 3c 68 3e 8e 3c 80 b9 d9 3c 27 60 a7 3c
       0.01860456 0.017363742 0.026577711 0.020431591
000030 37 68 b0 3c 2d 9e 80 3c 61 f2 96 3c 48 8b 15 3c
       0.021534069 0.015700424 0.018426122 0.0091274455

layer1.0.shortcut.0.weight f4 [16, 8, 1, 1, 1]
000000 f3 3a 41 3e 85 42 42 bd c2 b7 6c bd b1 5f 9d 3c
       0.18870144 -0.04742672 -0.057792433 0.019210668
000010 2a 82 c4 bd 02 4a 24 be 10 bd 56 3d a8 ff c2 3a
       -0.09595139 -0.16043857 0.052426398 0.0014877217
000020 15 26 11 be bc 8d fa bc a2 94 48 3e 17 1b ff bb
       -0.14174683 -0.030585162 0.19587949 -0.007785212
000030 30 8d 35 bd 00 32 c1 3d cc 1b 84 bd 7f 29 de 3d
       -0.0443241 0.09433365 -0.06450614 0.108477585
000040 75 66 ad bd 69 75 31 be c6 a6 80 3c 3f 5d 36 bd
       -0.08466808 -0.17329945 0.015704524 -0.04452252
000050 55 1c 5b be ce 5b a5 3b e9 d7 33 3d 0f cf 41 3c
       -0.21397527 0.0050463444 0.04390708 0.011829152
000060 4b f0 7a 39 77 aa 26 3e 57 8c 50 bd f8 93 15 3e
       0.00023931374 0.16275965 -0.05091509 0.14607227
000070 52 77 e1 3c f1 f4 0f 3d dd 93 8a bd 1a f6 6a be
       0.027522717 0.035145704 -0.06766484 -0.22945443
000080 2e 9e cd 3a ca 48 d4 3c af 68 8a be cf 71 0c be
       0.00156874 0.025913615 -0.27032992 -0.1371529
000090 10 59 61 bd 68 18 05 be d5 1b 32 3d 3a 30 99 3d
       -0.055016577 -0.12997591 0.043483574 0.074799016
0000a0 00 e0 93 bd 86 92 e4 bc 78 7c 4f bb 5b f9 7e be
       -0.07220459 -0.0279019 -0.0031659883 -0.24899809
0000b0 9d 8a e4 bd a3 6c 55 be 81 00 8d 3b e5 68 ce 3d
       -0.11159251 -0.20842223 0.0043030386 0.10078601
0000c0 c7 98 91 3d f6 df 77 bd 98 50 76 3d a1 22 df bd
       0.07109218 -0.06051632 0.060135454 -0.10895277
0000d0 ce a4 00 bd a0 ac 91 3c 7d 8d e6 3d c4 f6 bc 3e
       -0.03140717 0.01778251 0.112574555 0.36907017
0000e0 03 25 94 bd 08 c1 9e be 49 43 d2 3d ab 4e bc 3d
       -0.07233622 -0.31006646 0.1026674 0.09194692
0000f0 6c c3 b1 bc 11 f8 ff 3c c4 e1 be 3c 30 88 0b bd
       -0.02169963 0.031246217 0.023301013 -0.034065425
000100 d5 0a d4 3c 27 94 5d 3e 09 20 89 be 19 2a 16 3c
       0.025884071 0.21638547 -0.26782253 0.00916531
000110 76 3a 55 3d 6a 0d 31 3c 81 c9 09 3c 0c fe b0 bb
       0.052057706 0.010806421 0.008409859 -0.0054013785
000120 49 4f 85 3d 36 45 e8 3c e4 57 68 bd 0d 7a 35 3c
       0.06509263 0.028353315 -0.056724444 0.011076462
000130 71 8e 73 3e b9 86 23 3e 52 66 3c 3d 12 da a4 bd
       0.23784806 0.15969361 0.045996018 -0.08049406
000140 00 66 6c bd 10 6e 72 bd 86 3c b5 3e 52 10 8f 3c
       -0.057714462 -0.059186995 0.35397738 0.017463837
000150 1d 7c 1c bd 53 d9 f6 bc bc db 58 3c 4a 40 25 3e
       -0.0382043 -0.030132925 0.0132359825 0.16137806
000160 6e ff d9 bd 4a ad f4 bd 6f e6 0e 3e 6a 84 20 39
       -0.106444225 -0.11947115 0.13955091 0.00015308117
000170 b7 72 9a bd da 82 ac bc 7b 1f 24 3d 6a 49 63 be
       -0.07541411 -0.021058489 0.040069085 -0.22195974
000180 c0 0b 38 3d 13 14 1b be fb 2e f5 3c 92 a7 0d be
       0.04493308 -0.15144376 0.029929629 -0.13833454
000190 87 12 4c be 76 df 3b be 58 66 d4 3c c7 f3 8b 3d
       -0.19928943 -0.18346962 0.025927708 0.06833606
0001a0 c7 39 32 bd c0 66 51 be 0c 50 d0 bd c5 2d 31 bd
       -0.043512132 -0.20449352 -0.10171518 -0.04325654
0001b0 e7 94 32 3d 19 d2 57 3d 1e 8a 82 3d 43 3d 30 3e
       0.043599036 0.0526906 0.06374 0.1721087
0001c0 7c c7 51 be ed 77 2c bd 55 6a 00 bd bb eb 0d be
       -0.20486253 -0.042106558 -0.031351406 -0.13859455
0001d0 f8 40 5f bb 75 03 4e bd 43 e8 17 be b1 4e 9e bd
       -0.0034065824 -0.050296266 -0.14834695 -0.07729853
0001e0 67 22 76 bd 29 0d 17 be ea fa 41 bd 7e 9e d5 bd
       -0.060091402 -0.14751114 -0.04735843 -0.104306206
0001f0 d9 29 2a be 31 f8 15 bd 6c 8e d2 bd 76 9c 5b 3c
       -0.16617526 -0.036613647 -0.10281071 0.013404002

layer1.0.shortcut.0.bias f4 [16]
000000 f8 64 70 38 22 a3 e5 b8 36 60 ab 38 4e b1 b2 38
       5.7314493e-05 -0.00010949957 8.171836e-05 8.520727e-05
000010 19 97 2e 39 8e e6 44 38 86 7d 8e b9 60 54 7c b8
       0.00016650221 4.6944762e-05 -0.00027177873 -6.0160062e-05
000020 a5 1a 6b 37 1a ea 8e 37 6a 02 d1 38 0c 7a c0 b9
       1.4013295e-05 1.7036731e-05 9.966346e-05 -0.00036712026
000030 88 6d a9 38 24 36 f7 b6 2a 74 2f 38 38 71 7c 38
       8.07895e-05 -7.3674764e-06 4.1831438e-05 6.0186925e-05

layer1.0.shortcut.1.weight f4 [16]
000000 da 53 96 3e 07 1d ee 3e 8f 36 73 3e 2e a5 d6 3e
       0.2936085 0.4650652 0.23751281 0.41922897
000010 a7 b3 d7 3e dc 3d 9e 3e 67 15 f0 3e d4 14 b8 3e
       0.4212925 0.3090657 0.4689133 0.3595339
000020 e7 f9 00 3f 4b 93 e5 3e 33 d9 14 3f ee 4b 1a 3f
       0.5038132 0.44838938 0.5814392 0.6027211
000030 b3 18 14 3f 6a 22 de 3e 1e 07 e2 3e 61 63 96 3e
       0.5785019 0.4338563 0.44146055 0.29372695

layer1.0.shortcut.1.bias f4 [16]
000000 f3 7d c5 3c eb 57 d4 3c 89 78 98 be a5 4c 42 3e
       0.024107909 0.025920829 -0.2977946 0.1897455
000010 d5 3a 58 be 4d ae fc be 05 40 a7 bd a3 63 5a be
       -0.21116193 -0.4935173 -0.08166508 -0.21327071
000020 90 69 a3 be cc 35 8c bc 9c 76 04 bf 46 e5 d3 bd
       -0.31916475 -0.017115496 -0.51743484 -0.10346465
000030 4f 31 82 3d 96 75 bb bc 22 b6 30 be 93 73 4a bd
       0.06357061 -0.022883218 -0.17256978 -0.049426626

layer1.0.shortcut.1.running_mean f4 [16]
000000 41 84 21 bc bf 05 c5 3c b6 7b b9 bd 9b 24 80 bb
       -0.009858192 0.024050592 -0.09056799 -0.0039106137
000010 30 77 b7 bd b1 83 b4 bd 14 af b7 3d 9a a5 55 bd
       -0.0895828 -0.08814181 0.089689404 -0.052159883
000020 5d 21 58 ba c6 e6 91 3d e6 f0 ad 3d ba 13 8c bd
       -0.00082447176 0.07124095 0.08493213 -0.068397
000030 7d f0 a7 bd 74 da 04 bd 46 16 09 be 07 f3 00 be
       -0.082001664 -0.032434896 -0.13387403 -0.12592708

layer1.0.shortcut.1.running_var f4 [16]
000000 5c 18 ba 3c 94 a7 b9 3c 5f da b5 3c 11 bc 61 3c
       0.022716694 0.022662915 0.022198854 0.013777749
000010 9b 89 98 3c 0e 82 ba 3c d7 71 aa 3c c0 78 28 3d
       0.018620303 0.022767093 0.020806236 0.04113078
000020 ed 2a d8 3c 48 ae ab 3c 6b f8 ab 3c f2 e2 bc 3c
       0.026387656 0.020957127 0.020992478 0.023057435
000030 e4 77 dd 3c cf b0 ce 3c e2 d9 02 3d 0d df d1 3c
       0.027034707 0.025230793 0.03194607 0.025619054

layer1.1.conv1.weight f4 [32, 16, 3, 3, 3]
000000 93 57 c1 3b 7d 3e ac bc f3 28 a6 3b d5 ea 95 bc
       0.0059003322 -0.02102589 0.0050707995 -0.018300453
000010 ec c8 af bc 23 2a 77 3c 63 00 67 3c 36 db 5a ba
       -0.021458112 0.01508573 0.014099213 -0.0008348705
000020 4e b6 10 3b eb bb 4c 3b 3d f4 d5 3c f0 b6 7f bb
       0.0022081318 0.0031239938 0.026117438 -0.0039018951
000030 df 73 34 3c 8b 44 f6 3c 5f 51 ab bb 51 f0 c0 ba
       0.011013954 0.03006198 -0.005228206 -0.0014720057
000040 ad 04 fe 3c cd 0e 48 3d ad 09 b1 3b 89 01 f9 ba
       0.031008089 0.04884224 0.005402765 -0.001899765
000050 42 6c 11 bc e1 3a 91 3c e9 fb 7f bc 94 9d 2a bc
       -0.008875908 0.017728271 -0.015624025 -0.010413546
000060 9c 57 56 3b a0 a4 b6 bc f1 25 7e bd 63 3a bb 3c
       0.0032706028 -0.022295296 -0.062047902 0.02285499
000070 84 ea 9a bc b2 ae aa 3c e7 3d 1f 3c 5d 23 1c bd
       -0.018910654 0.020835254 0.0097193485 -0.038119663
000080 e9 b3 4a 3d 75 ba 0e 3d dd 86 be 3a 52 ee 1f 3d
       0.049487982 0.034845788 0.0014536042 0.03904564
000090 6c c7 9f bc d7 44 be 3c f5 2e 40 bd 17 6b 93 bc
       -0.019504271 0.023226185 -0.04691978 -0.0179954
0000a0 29 b6 72 3d 57 fd 57 bd e3 13 08 bd 24 79 06 3d
       0.059255753 -0.052731838 -0.03322209 0.032830372
0000b0 82 a3 8a 38 e6 d7 e7 bb 32 20 d1 3a 5c 16 0b 3d
       6.6108085e-05 -0.0070752976 0.001595503 0.03395687
0000c0 35 3f 35 3c d9 26 cc bc aa e9 e8 3c 74 c3 d0 3c
       0.011062433 -0.024920868 0.028431732 0.025483824
0000d0 66 8b b5 bc 22 1d a1 bc c7 25 0c bd bb 0c 94 3c
       -0.022161197 -0.019667212 -0.034215715 0.018072477
0000e0 a6 6c 86 3c 8e 2e 4d bc 6e 8b 0c bb cc f3 e0 bc
       0.01640923 -0.0125233065 -0.0021445411 -0.027460001
0000f0 18 12 76 bc 01 83 0e 3b 99 79 6a 3c 55 4d 98 3d
       -0.015018962 0.0021745565 0.014311218 0.07436625
000100 36 f3 99 bb 17 f0 02 3c 83 25 53 3c 8a 04 29 bc
       -0.0046981825 0.007991812 0.012887361 -0.010316024
000110 2b 3b 78 3d d5 74 49 3c da fb cf 3b 6d d2 84 bc
       0.060603302 0.012295921 0.0063471617 -0.01621362
000120 9c 25 ff bc af 78 07 3d e2 39 ab bc c0 81 0f 3c
       -0.031145863 0.033074077 -0.020901624 0.008758962
000130 7c b9 c4 3c e7 d1 1b bd 83 6e 66 bb 4a 3b 71 bb
       0.024014227 -0.038041975 -0.0035161085 -0.003680902
000140 dd 07 01 3b 61 7f e8 3b d7 81 2e bd 7c 0b 6a 3d
       0.0019688525 0.007095263 -0.042604294 0.05713986
000150 57 6e df bc 58 b8 44 bd 20 44 88 3c 73 0b a9 3a
       -0.027274294 -0.048027366 0.016634047 0.0012897089
000160 5c 6c 53 bc a1 6b 47 bd 11 37 30 3b 60 17 73 3d
       -0.012904253 -0.048686627 0.002688829 0.059348464
000170 a6 a8 c4 bd b9 6e ec 3c 15 dc fd 3d 98 d4 c1 3b
       -0.0960248 0.02886139 0.12395493 0.0059152357
000180 57 c8 3e bd 67 da 6a 3d 99 8b c1 3d ed c8 74 3c
       -0.046577778 0.05733719 0.09450454 0.014940483
000190 05 b3 ae bc 4c 6e 9a 3d 65 46 d7 3b 0d 1e 55 bd
       -0.021325598 0.07540569 0.006569671 -0.05203061
0001a0 06 ca 96 3b df 36 15 3d bb 2b bb bc 6d dc 81 bd
       0.00460172 0.036429282 -0.022848 -0.06340871
0001b0 95 f0 9d bc 86 2e fc bc 76 ce 14 3d 3d 90 72 3d
       -0.019279758 -0.030783903 0.03632971 0.059219588
0001c0 57 98 f4 3c b8 9d eb 3c 1e 6e af 3c 35 8a 2f ba
       0.029857798 0.02876173 0.021414813 -0.00066963147
0001d0 e0 3e ce 3c 5f 8b ca 3b 7c a9 35 3d 13 6a 28 bb
       0.025176466 0.006181165 0.044351086 -0.002569799
0001e0 f9 6c 8d bd c6 a3 6f bc 4d 87 a7 3c 6a f0 2f 3c
       -0.069055505 -0.014626449 0.020450259 0.0107384715
0001f0 81 4d 9b 3d 48 a6 7c 3c eb 06 99 3c 0a 0b f8 bc
       0.07583142 0.015420504 0.018680057 -0.030278701
000200 90 ba 1a bd ad c9 26 3d a2 40 f8 bb 82 26 1f bd
       -0.037775576 0.040719677 -0.007576064 -0.038855083
000210 a9 48 b6 bc bd ad 80 bd bc 67 18 bd f6 2c 2a bd
       -0.022251444 -0.06283138 -0.037208304 -0.041546784
000220 a2 5f f1 bc cf a7 83 3d 82 c3 aa bc 71 22 c2 3c
       -0.029464547 0.06428491 -0.020845179 0.023698064
000230 49 85 15 3b fd ac 06 3d 91 48 d9 3c 63 a1 8f bc
       0.002281504 0.03287982 0.02652386 -0.01753301
000240 05 e9 58 3d 73 49 3a 3d dc 09 9f bd 73 95 66 bc
       0.0529566 0.045480203 -0.077655524 -0.014073717
000250 55 27 41 bd b5 d2 a4 bc 8f a2 af bd 91 b3 95 bc
       -0.04715665 -0.020120004 -0.085759275 -0.0182741
000260 6a dd de 3c ea 68 a7 3a 00 57 8b 3c 8a 95 d4 3c
       0.027205188 0.0012772356 0.017009258 0.025950212
000270 88 d5 0e 3d d0 4d 6b 3d eb 3f b6 bb 7e f1 76 3d
       0.034871608 0.057447255 -0.005561819 0.0602889
000280 91 5a c4 3c dd ac 0f bd 7f f9 0c bd 4b d6 07 3d
       0.023968967 -0.035076965 -0.034417626 0.03316335
000290 ac 9c d5 ba be 04 8f bc e1 31 9e 3d e9 06 bb bc
       -0.0016297302 -0.017458316 0.077243574 -0.022830443
0002a0 b0 00 1a bd 44 d8 13 bd 3c 0a 8a bc 79 e4 12 3d
       -0.037598312 -0.03609492 -0.016850583 0.03586242
0002b0 48 3f 6b bd c7 f6 e7 3c e3 3b 1e 3c aa 79 fb bd
       -0.057433397 0.028315915 0.009657833 -0.12279065
0002c0 1a ee 37 3d de ce 33 3d e6 06 53 3d e1 04 1e 3d
       0.044904806 0.043898456 0.05152025 0.03857887
0002d0 f5 b6 cd bb fb 6a 49 3d 6a 49 57 bc e2 f6 bf ba
       -0.0062779137 0.04917429 -0.013140062 -0.001464572
0002e0 42 9c bd 3d 05 c5 30 bc b0 b7 e3 bb 44 35 e5 bc
       0.092583194 -0.010789161 -0.0069493875 -0.0279795
0002f0 d6 5b bd bc 80 83 27 bc cc 91 0f 3d b8 61 b7 bc
       -0.02311508 -0.010224223 0.035051152 -0.022385463
000300 c4 59 82 3c 46 49 fa 3b af f9 80 bc 9d e2 ce bb
       0.015911944 0.0076381294 -0.015744058 -0.0063136355
000310 ba 5c 4f 3b 87 c2 d1 bc a6 bf a1 3c e2 2e 4f bd
       0.0031640963 -0.025605453 0.019744705 -0.05058182
000320 6f 8b 00 3d ca ee d6 bb 7b 80 c9 bc fb b0 9e 3b
       0.031382974 -0.0065592276 -0.024597397 0.004842875
000330 ad a6 e5 bc 09 f3 90 3b 0d 03 88 3c 3c df 98 bc
       -0.028033579 0.0044235033 0.016603017 -0.018661134
000340 56 e2 e1 3c 53 62 92 bc 6b b6 c2 ba ab c3 26 3c
       0.027573746 -0.01786915 -0.001485539 0.010178487
000350 2b f6 0a bc 72 da ec 3c 1b db 26 bc 4c 75 e0 ba
       -0.008481543 0.028912757 -0.010184075 -0.0017124801
000360 a2 4a 61 3c bf 9b 62 bd 87 f2 e6 bd e6 42 09 3c
       0.013750704 -0.055324312 -0.11276727 0.008377766
000370 d7 32 68 bc f9 59 01 be 92 3c 0d 3d 52 e9 92 bc
       -0.014172277 -0.12631978 0.034481592 -0.017933521
000380 59 6f 2f 3d b6 e7 27 bc d5 d8 c6 3b 2a 1e 01 3e
       0.0428308 -0.010248115 0.006068329 0.12609163
000390 e9 24 89 3b fa 05 55 bd 22 94 f6 3d b5 90 99 3b
       0.0041853082 -0.052007653 0.12039973 0.00468644
0003a0 c9 a6 2a bc 2e 43 06 be f2 89 47 3c fb 68 1a 3d
       -0.010415741 -0.13111565 0.012178885 0.037697773
0003b0 29 01 f8 bc 9b 78 6d bc c3 49 8f 3d a0 f4 ce 3b
       -0.03027399 -0.014494087 0.06996491 0.0063157827
0003c0 f1 3c c6 bc 0a 5d c8 3c da 44 ec 3d 7a 5f 02 3d
       -0.024198981 0.024458427 0.1153657 0.031829335
0003d0 20 69 61 bc 58 46 e0 bb 81 62 2e bc 05 21 a5 bc
       -0.013757974 -0.006844323 -0.010643602 -0.020157347
0003e0 bf a9 9e 3a 91 44 f2 bb 65 4a ff 3c c9 eb 49 bc
       0.0012105032 -0.0073934277 0.031163404 -0.012324282
0003f0 2f e5 ad bc 7f de 0e 3d 52 01 d1 3a a5 59 32 3d
       -0.021227447 0.034880158 0.0015945828 0.043542523

layer1.1.conv1.bias f4 [32]
000000 08 42 9a 35 6c ee 89 b7 c8 47 a0 b8 85 58 b5 36
       1.1493112e-06 -1.6442697e-05 -7.642765e-05 5.4045254e-06
000010 62 8e 89 b7 05 79 e4 b6 52 cd 30 b5 75 78 76 37
       -1.6397975e-05 -6.809018e-06 -6.586389e-07 1.4690789e-05
000020 e0 8b 0e b9 1a 65 3b 36 81 2e 6d 37 72 66 79 37
       -0.00013594283 2.792402e-06 1.4137128e-05 1.4865409e-05
000030 df 2f 57 b8 d3 80 4a 38 5c 72 17 36 04 70 a4 b6
       -5.1304578e-05 4.828053e-05 2.256732e-06 -4.900621e-06
000040 aa 77 38 37 f4 58 30 39 d2 5e 52 b7 30 cb 3e 35
       1.0995116e-05 0.00016817806 -1.25390525e-05 7.107619e-07
000050 35 e8 98 36 e4 9a 82 36 f8 7e 1c b7 39 04 f2 b8
       4.5569855e-06 3.8923336e-06 -9.327887e-06 -0.00011540246
000060 a6 0c 07 37 4c d6 31 b6 c8 9c 69 b6 e2 b8 fb 36
       8.049572e-06 -2.6499793e-06 -3.4810964e-06 7.501906e-06
000070 52 07 80 36 93 50 80 b6 33 c8 e4 37 23 f8 9d 37
       3.8155495e-06 -3.8240773e-06 2.7272943e-05 1.8831406e-05
