log/sem_seg/SatVideoIRSDT__2025-07-22_19-41__SoftLoUloss_DeepPro-Plus_DataL40/checkpoints/epoch_30_model.pth (torch, 941507 bytes, 213 tensors)

conv_in.0.weight f4 [8, 1, 5, 7, 7]
0	0xbdefb151	-0.11703742
1	0xbc848bea	-0.016179997
2	0x3d874dc8	0.066066325
3	0x3e2f146e	0.17097637
4	0x3dc83cb1	0.09777201
5	0xbcbd1024	-0.023078986
6	0xbe1c6010	-0.1527102
7	0x3cc5253b	0.024065604
8	0x3d5803ee	0.052738123
9	0x3cc20fb6	0.023689132
10	0x3de776b6	0.11301939
11	0x3d9cda07	0.07658773
12	0x3cc1fe28	0.023680761
13	0xbd74d78f	-0.059775885
14	0x3caf88e8	0.021427587
15	0x3cb84dca	0.02249803
16	0x3cd3f05d	0.02587145
17	0x3d734316	0.05939015
18	0x3c8a2d0d	0.016867185
19	0x3c2bbee9	0.010482528
20	0xbd5f5163	-0.054520976
21	0x3d0385f3	0.032110166
22	0xbd0f74e6	-0.035023592
23	0x3ce4ad43	0.027914649
24	0xbc7b9765	-0.0153559195
25	0xbdc5d8b2	-0.09660472
26	0xbc83036a	-0.015992839
27	0x3cfcd967	0.030865384
28	0xbc1fbeab	-0.009750049
29	0xbdce0412	-0.1005937
30	0xbde09298	-0.109654605
31	0x3ce3e9a1	0.027821364
32	0xbd0350bd	-0.03205942
33	0xbd415197	-0.04719695
34	0xbcd6cdf3	-0.026221251
35	0x3dc4b48c	0.09604749
36	0x3d86dfa1	0.065856226
37	0x3cde7140	0.027153611
38	0x3dee2bca	0.11629446
39	0x3d2fc5cc	0.042913243
40	0xbd4af728	-0.049552113
41	0xbd474a4e	-0.048654847
42	0x3c735b01	0.01485324
43	0x3dbd0e18	0.09231204
44	0x3dfa2b34	0.122152716
45	0x3e194169	0.14966358
46	0x3cef59f6	0.029217701
47	0xbda13269	-0.07870943
48	0xbd880691	-0.066418774
49	0xbdc39cfd	-0.095514275
50	0xbdb49830	-0.0881809
51	0xbdceb6c0	-0.100934505
52	0xbd059cb8	-0.03262016
53	0xbd94608f	-0.072449796
54	0xbdc1acd6	-0.09456794
55	0xbd5243b7	-0.05133411
56	0xbd039967	-0.032128718
57	0x3cb8f4eb	0.022577723
58	0x3e0e7f1b	0.13915674
59	0x3e8d0b95	0.275479
60	0x3e453962	0.19260171
61	0x3da28190	0.07934868
62	0xbc1690de	-0.0091898125
63	0xbce2170c	-0.02759888
64	0xbbdabb23	-0.0066751405
65	0x3daf938e	0.08573066
66	0x3eb92899	0.36163786
67	0x3e767455	0.24067815
68	0x3e09f1da	0.13471165
69	0xbcbbccbb	-0.022924772
70	0x3cb35632	0.021891687
71	0xbd121ba6	-0.0356709
72	0xbdd2b457	-0.10288303
73	0x3d07c0fb	0.033143025
74	0x3df590a2	0.11990477
75	0x3e2b128d	0.16706295
76	0x3c80c19b	0.015717318
77	0xbc007654	-0.007840712
78	0xbc4ac932	-0.01237707
79	0xbd08603c	-0.0332949
80	0x3d9e85f0	0.0774039
81	0xbc03c01b	-0.008041407
82	0xbca7f75c	-0.020503692
83	0xbda43457	-0.080177955
84	0xbc6c7d9f	-0.014434247
85	0x3d44be23	0.04803289
86	0x3cf8a6f2	0.030353043
87	0x3dccb0fb	0.09994694
88	0x3d308015	0.0430909
89	0xbcabe5db	-0.020983627
90	0xbc89d273	-0.016823983
91	0xbda6988b	-0.08134564
92	0xbd994b02	-0.0748501
93	0xbda515b5	-0.08060781
94	0xbc42cf19	-0.011890196
95	0xbc829de0	-0.015944421
96	0xbcf2531c	-0.029580645
97	0xbb8567e7	-0.004071224
98	0x3d9b48ec	0.07582268
99	0x3d9315fe	0.07181929
100	0x3d007110	0.031357825
101	0xbc0a540d	-0.008442891
102	0xbd9b45b5	-0.07581655
103	0x3bc650af	0.0060520987
104	0x3c02d072	0.007984268
105	0x3c422b16	0.011851093
106	0x3c57240f	0.013131156
107	0x3d3bd0d0	0.045853436
108	0x3e105a50	0.14096951
109	0xbbf48c3f	-0.0074630077
110	0xbc6e728e	-0.014553679
111	0xbd3152e2	-0.043291934
112	0xbbaa0b6c	-0.00518935
113	0xbd29859d	-0.04138719
114	0x3d0fb025	0.035080094
115	0x3e3be585	0.18349274
116	0xbcd0eb98	-0.025502965
117	0xbd0241d3	-0.031801056
118	0xbd0d35d9	-0.03447518
119	0x3cae8b7b	0.021306744
120	0xbc27309d	-0.010204461
121	0xbceecbc1	-0.029149892
122	0xbb7f866a	-0.003899003
123	0xbd1b9a37	-0.037988868
124	0x3d834e38	0.064114034
125	0x3d0020c2	0.03128124
126	0xbc85a98b	-0.016316196
127	0xbd8b8872	-0.06813134
128	0xbdd78c7e	-0.10524844
129	0xbd35e5ba	-0.044408537
130	0xbdcba00f	-0.09942638
131	0xbda98ad1	-0.0827843
132	0xbd30e04d	-0.04318266
133	0x3c0514a4	0.008122597
134	0xbd154865	-0.036445994
135	0xbd92aa44	-0.07161382
136	0xbd067311	-0.03282458
137	0xbd85549c	-0.065102786
138	0xbd82ced3	-0.06387105
139	0xbce2cf3b	-0.027686706
140	0x3c6f2689	0.01459659
141	0x3af185bd	0.0018426698
142	0xbc03fbab	-0.008055608
143	0x3c31d24b	0.01085336
144	0xbc88db2b	-0.01670607
145	0xbce53e5a	-0.027983833
146	0xbd3aacc8	-0.045574933
147	0x3e08d471	0.1336229
148	0x3d8dd5fc	0.0692558
149	0x3d233f4d	0.03985529
150	0x3dabad9e	0.08382724
151	0x3e1f2533	0.15541534
152	0x3e685054	0.22686893
153	0x3e43acb8	0.19108856
154	0x3e4be6dd	0.19912286
155	0x3d1328b2	0.035927482
156	0x3e1c97b8	0.15292251
157	0x3e504022	0.20336965
158	0x3e0498bf	0.12948893
159	0x3df07956	0.11741893
160	0x3d83c0e4	0.06433275
161	0x3e3f4117	0.18677174
162	0x3e4b2c5d	0.19841142
163	0x3eb9e285	0.36305633
164	0x3e2e4998	0.17020261
165	0x3e3d212a	0.18469682
166	0x3e04e7b9	0.1297902
167	0xbd323658	-0.043508857
168	0x3e391299	0.180735
169	0x3e909d81	0.28245166
170	0x3e952acf	0.29134223
171	0x3d644bc3	0.055736315
172	0x3e04f27a	0.12983122
173	0x3e452661	0.19252922
174	0x3d855d89	0.06511981
175	0x3db2313e	0.087007985
176	0x3df60b21	0.120138414
177	0x3e44c677	0.19216333
178	0x3dfa293d	0.12214897
179	0x3e829915	0.25507417
180	0x3dd4fae3	0.10399415
181	0x3db31af5	0.08745376
182	0x3dd6fce0	0.10497451
183	0x3cab187c	0.020885698
184	0x3dfc5a36	0.12321894
185	0x3e49769f	0.19674157
186	0x3e2788d1	0.16360785
187	0x3cd266ac	0.025683723
188	0x3db18c6c	0.086693615
189	0x3e3bf4b6	0.18355069
190	0x3db4f054	0.088349015
191	0x3dc5481e	0.09632896
192	0x3dc44aaf	0.09584557
193	0x3dc93b1a	0.09825726
194	0x3db7ae7f	0.08968829
195	0x3e0c2602	0.13686374
196	0xbcb16d84	-0.021658666
197	0x3d5ac222	0.053407796
198	0xbd4007dd	-0.0468825
199	0xbd968987	-0.0735045
200	0xbd0cc43d	-0.034366835
201	0x3c34969e	0.011022238
202	0xbd16fc4d	-0.036861707
203	0x3ac99d74	0.0015382008
204	0xbc800393	-0.015626704
205	0xbd83013c	-0.0639672
206	0xbd7206b9	-0.059088442
207	0xbd3d6904	-0.04624273
208	0x3c72bb63	0.014815184
209	0x3a5d8543	0.00084503385
210	0x3b0fd72c	0.002194832
211	0xbcfae453	-0.030626452
212	0xbbf94980	-0.007607639
213	0x3bdfd358	0.006830614
214	0xbd4c519b	-0.049882513
215	0xbc85fc61	-0.016355695
216	0xbc8aec9e	-0.016958531
217	0x3d9a532e	0.075353965
218	0x3d3ea732	0.04654617
219	0x3d7372d1	0.05943567
220	0x3cf16e5a	0.029471565
221	0x3d5bee85	0.053694267
222	0x3d9049ca	0.07045324
223	0x3d8ef59b	0.06980439
224	0x3cbd37d2	0.023097906
225	0xbd2fd868	-0.04293099
226	0xbc5268d7	-0.012842379
227	0x3ce3ea5b	0.02782171
228	0x3db12d6e	0.08651243
229	0x3cfc60ca	0.030807871
230	0x3d713fba	0.058898665
231	0x3c9f0ca2	0.019415203
232	0xbcad0823	-0.021122044
233	0xbd1c1746	-0.038108133
234	0xbbc7f83b	-0.0061025894
235	0x3ce94003	0.028472906
236	0x3cf70b25	0.030156681
237	0x3db2a648	0.08723122
238	0x3c523cef	0.0128319105
239	0xbc7f7090	-0.015590802
240	0xbd5e51d9	-0.054277275
241	0xbd65ebc3	-0.056133043
242	0xbb6454c8	-0.0034840573
243	0x3d4e4bab	0.05036513
244	0x3d4cbfdf	0.04998767
245	0xbc276d95	-0.0102189975
246	0xbc101c13	-0.008795756
247	0xbd2762ae	-0.040865593
248	0xbd9e53be	-0.07730816
249	0xbcd5268d	-0.026019359
250	0x3d714cce	0.058911137
251	0x3a63d3d7	0.00086909294
252	0x3cb140a4	0.021637268
253	0x3cf838ac	0.03030046
254	0x3d030e4c	0.031996056
255	0x3d607816	0.054802023

conv_in.0.bias f4 [8]
0	0x37b9f608	2.2168286e-05
1	0x37af5e7c	2.0905623e-05
2	0x37a10b28	1.919789e-05
3	0x35704440	8.9506284e-07
4	0x38789170	5.9263257e-05
5	0xb7002957	-7.63902e-06
6	0xb73c4f9c	-1.1224209e-05
7	0x38aa829f	8.130562e-05

conv_in.1.weight f4 [8]
0	0x3f3ba2ea	0.7329546
1	0x3f587fe7	0.84570163
2	0x3f11f7bb	0.5701863
3	0x3edc8700	0.43071747
4	0x3f2cb108	0.6745763
5	0x3f21daa5	0.6322425
6	0x3f414956	0.75502527
7	0x3f0de11a	0.554216

conv_in.1.bias f4 [8]
0	0x3d8bdd0e	0.06829272
1	0x3c88a9b6	0.016682487
2	0x37aa0d4a	2.0271767e-05
3	0x3c4dcfb9	0.012561732
4	0x3c04b851	0.008100585
5	0xbc9202e4	-0.017823644
6	0xbd92be0b	-0.07165154
7	0x3bb53414	0.00552989

conv_in.1.running_mean f4 [8]
0	0xbe253347	-0.16132842
1	0x3dcef2e2	0.1010492
2	0x3f6330f7	0.8874659
3	0x3baf206b	0.0053444407
4	0x3c886bd6	0.016652983
5	0x3d4a7d9d	0.0494362
6	0x3d31bd88	0.04339364
7	0xbe84db3b	-0.2594851

conv_in.1.running_var f4 [8]
0	0x4174601e	15.273466
1	0x41c4e9d6	24.614178
2	0x413afae9	11.686257
3	0x40fb6d65	7.857104
4	0x4181610c	16.172386
5	0x4162206b	14.132915
6	0x40b2409c	5.570387
7	0x4197550c	18.916527

layer1.0.conv1.weight f4 [16, 8, 3, 3, 3]
0	0x3d9c58d9	0.07634134
1	0x3e0af786	0.13570985
2	0x3e80b53d	0.25138274
3	0xbd294f22	-0.041335233
4	0xbe226d8d	-0.15862103
5	0xbe2e8a09	-0.17044844
6	0x3e03d0c2	0.12872604
7	0x3cc9dd13	0.02464155
8	0x3de7d4bf	0.11319875
9	0xbca6603a	-0.020309556
10	0xbce82b2a	-0.028340895
11	0xbd577b7e	-0.052608006
12	0xb999160c	-0.0002919886
13	0x3c2448ff	0.010027169
14	0x3d833af4	0.06407729
15	0xbcafd3a9	-0.021463232
16	0xbb8c43f6	-0.0042805625
17	0x3c761082	0.015018584
18	0xbda99e8c	-0.082821935
19	0xbdda7e4a	-0.10668619
20	0xbe39a375	-0.1812876
21	0x3d582547	0.052769925
22	0x3e0acd38	0.13554847
23	0x3d99a27f	0.07501697
24	0xbe00024e	-0.12500879
25	0xbbc9285b	-0.006138844
26	0xbe057f1e	-0.13036773
27	0xbc2a8aec	-0.010409098
28	0xbb6569b2	-0.0035005626
29	0x3e803de6	0.25047225
30	0x3d335240	0.04377961
31	0xbda1ce89	-0.079007216
32	0xbe07e7c0	-0.13272
33	0x3dbe3f8c	0.09289464
34	0xbda0a12c	-0.07843241
35	0x3e00a85a	0.12564221
36	0x3c9737e9	0.018459277
37	0x3d905aef	0.07048594
38	0x3c5f1ff2	0.013618456
39	0x3d38e0db	0.045136314
40	0xbd17497c	-0.036935315
41	0xbcf1ae68	-0.029502109
42	0xbc9c1135	-0.019051174
43	0xbc7809dd	-0.01513907
44	0x3bd50ba0	0.00650163
45	0x3b976349	0.00461999
46	0xbd827ae7	-0.06371098
47	0xbe71dafc	-0.23618692
48	0xbdb23586	-0.08701615
49	0x3df72347	0.120672755
50	0x3e41199b	0.18857424
51	0xbd774805	-0.060371418
52	0x3db799a0	0.089648485
53	0xbe090e7d	-0.13384433
54	0x3d1ca4e1	0.03824318
55	0x3da981af	0.08276688
56	0xbbbecd3f	-0.005822807
57	0xbd71c5b5	-0.05902644
58	0xbd437f30	-0.047728717
59	0xbcd1e370	-0.025621146
60	0x3d76c49a	0.060246088
61	0x3d58a2f5	0.052889783
62	0x3c941041	0.018074157
63	0xbb03d392	-0.002011512
64	0xbdb4b433	-0.08823433
65	0xbc80adb1	-0.015707823
66	0x3cde44cd	0.027132416
67	0xbc660907	-0.014040238
68	0x3d48bd50	0.049008667
69	0xbd7be2f2	-0.06149573
70	0xbd19d0fa	-0.03755281
71	0x3be82865	0.0070848935
72	0xbd11af0a	-0.03556732
73	0x3ca36384	0.019944914
74	0x3cec2b50	0.028829247
75	0x3cf87199	0.030327605
76	0x3d62c1f5	0.055360753
77	0xbcce68e8	-0.025196508
78	0x3ce71734	0.028209306
79	0xbcab2c26	-0.020895075
80	0xbd5db9ca	-0.05413226
81	0xbd9b01cb	-0.07568701
82	0xbcedfbc7	-0.02905072
83	0x3de1d9f6	0.11027901
84	0xbd155393	-0.036456656
85	0xbca23714	-0.019801654
86	0x3d5849c0	0.05280471
87	0x39da57c4	0.0004164559
88	0x3b88c65c	0.004174037
89	0x3c0febd7	0.008784256
90	0x3c3bf8e0	0.011472911
91	0x3a6d9eac	0.00090644765
92	0xbdb4810c	-0.08813676
93	0xbd212eb7	-0.03935119
94	0xbc403d44	-0.011733357
95	0xbd79766f	-0.060903963
96	0x38c63c89	9.452651e-05
97	0x3d0b6646	0.034033082
98	0x3ca58dd1	0.020209225
99	0x3d6230e2	0.0552224
100	0x3c846664	0.016162105
101	0xbb0eea2e	-0.0021807062
102	0x3dadb652	0.084820405
103	0x3c8003de	0.015626844
104	0x3cc19af1	0.023633452
105	0xbc28ebab	-0.010310094
106	0xbd35f3cc	-0.044421956
107	0xbd1b15d9	-0.037862632
108	0x3caa7ee8	0.020812467
109	0x3c9177ac	0.01775726
110	0xbd73d5ef	-0.059530195
111	0x3d83d33c	0.06436774
112	0x3d489715	0.048972208
113	0xbdcc6f2c	-0.09982142
114	0xbdaea932	-0.08528365
115	0xbe501092	-0.20318821
116	0xbdeb7e37	-0.11498683
117	0xbd1b3cd4	-0.037899807
118	0xbc27d85e	-0.010244457
119	0x3d1e5f62	0.038665183
120	0xbe1114e6	-0.14168128
121	0xbe0ada82	-0.13559917
122	0x3ccd7f10	0.025085002
123	0x3d22d300	0.039752007
124	0x3dcdaf99	0.10043258
125	0x3de27fbc	0.1105952
126	0x3cbfa9b1	0.023396345
127	0x3c23cc2d	0.00999741
128	0x3bce5336	0.0062965406
129	0x3df22a3f	0.11824464
130	0x3e0dc3d7	0.13844238
131	0x3d82699d	0.063678004
132	0x3d417d61	0.04723871
133	0x3d6bebc9	0.05759791
134	0xbd3e47eb	-0.046455305
135	0x3d1348b6	0.035958014
136	0x3d0b7642	0.034048326
137	0xbb49e763	-0.0030808083
138	0xbdc61700	-0.09672356
139	0xbd1b3101	-0.03788853
140	0xbdccd145	-0.100008525
141	0x3c3fff1f	0.01171854
142	0x3d88662a	0.06660111
143	0x3d4b8dc1	0.049695734
144	0xbd3e8d7c	-0.04652165
145	0xbd749687	-0.059713867
146	0x3bf65f7b	0.0075187064
147	0xbc8e9aca	-0.017407794
148	0x3ad0fd28	0.0015944587
149	0x3df9ca13	0.12196746
150	0x3c5855c3	0.013204041
151	0x3d809261	0.062779196
152	0x3d88b8d2	0.06675877
153	0x3c37bf96	0.011215111
154	0x3d2b19bc	0.04177259
155	0xbc43bb3d	-0.011946497
156	0x3e00191c	0.12509578
157	0x3d075b79	0.03304622
158	0xbd8736f6	-0.0660228
159	0xbd4cab1c	-0.04996787
160	0xbe283837	-0.16427694
161	0xbe09f18c	-0.13471049
162	0xbb8657aa	-0.004099806
163	0x3d7b165a	0.061300613
164	0x3df29a19	0.11845798
165	0x3d254d98	0.040357202
166	0xbdeb1dab	-0.11480268
167	0xbe55d9da	-0.20883885
168	0x3dabef95	0.08395306
169	0xbd3ac147	-0.04559448
170	0x3e0c6781	0.13711359
171	0x3c6e7afc	0.014555689
172	0x3dc165d2	0.09443249
173	0x3d4641f3	0.048402738
174	0xbda17b45	-0.0788484
175	0xbe61de52	-0.22057465
176	0xbda8f89d	-0.08250544
177	0x3deda037	0.11602824
178	0x3e10fde8	0.14159358
179	0x3ccfc1ae	0.025360908
180	0xbc4b1be2	-0.0123967845
181	0xbe4527ff	-0.19253539
182	0xbe18eeb8	-0.14934814
183	0x3db85148	0.08999878
184	0x3ece26be	0.40263933
185	0x3e9c590f	0.30536696
186	0xbe827e97	-0.25487205
187	0xbe40c7f5	-0.18826278
188	0xbe2b8f37	-0.16753851
189	0x3cd688c1	0.026188256
190	0xbc22a7ee	-0.009927733
191	0x3c9d1279	0.019173848
192	0xbd8dcf3a	-0.06924291
193	0x3d55a330	0.05215758
194	0x3dacb0f1	0.084321864
195	0xbd45a140	-0.048249483
196	0xbd8bd5cc	-0.06827888
197	0x3bf1a287	0.007374111
198	0xbd2bf601	-0.041982654
199	0x3d43397b	0.04766224
200	0xbca0da42	-0.019635323
201	0x3d43f8e2	0.047844775
202	0x3cf5caf6	0.030004006
203	0xbd2b2f54	-0.041793182
204	0xbd13ff09	-0.036131892
205	0x3d43aa17	0.047769632
206	0x3c1965c7	0.0093626445
207	0x3cfecb94	0.031102933
208	0xbcca2386	-0.024675142
209	0x3c07c1f7	0.008285991
210	0x3d133ad5	0.03594478
211	0xbdaa1ceb	-0.08306297
212	0xbc9a050b	-0.018801233
213	0x3dc79f99	0.09747238
214	0x3bdf22f7	0.006809588
215	0xbcca3ce2	-0.024687234
216	0x3d8b8f7b	0.06814476
217	0x3d9d6872	0.07685937
218	0xbd9e4e99	-0.07729835
219	0xbe845675	-0.2584721
220	0x3df43093	0.11923327
221	0x3d8ab160	0.06772113
222	0xbec6f71b	-0.38860402
223	0x3ceda0ac	0.029007278
224	0x3bc2c913	0.00594438
225	0xbd10afc4	-0.035323873
226	0xbbb3992c	-0.005480906
227	0x3d1abff4	0.037780717
228	0x3df4af6c	0.119475216
229	0xbcb1c670	-0.021701068
230	0xbd937580	-0.07200146
231	0x3e486a39	0.1957177
232	0x3d158f7a	0.036513783
233	0xbd29a9c9	-0.041421685
234	0xbc30cb5d	-0.010790673
235	0xbd8b7ca1	-0.068108805
236	0x3d2073e4	0.039173022
237	0x3dc63f8f	0.096800916
238	0xbd9ce41f	-0.07660698
239	0x3c2fa2df	0.010719984
240	0x3dc059f0	0.09392154
241	0xbd8eafe0	-0.06967139
242	0x3d69728a	0.056994
243	0xbd92144b	-0.07132777
244	0x3cf4a50b	0.029863855
245	0xbe1911df	-0.14948224
246	0xbd989f6b	-0.074522816
247	0x3e1baac6	0.15201864
248	0x3dc81086	0.097687766
249	0xbe1459ea	-0.14487424
250	0x3db52eaa	0.08846791
251	0xbd4bf690	-0.049795687
252	0x3d8081fb	0.06274792
253	0x3a7aeb40	0.0009571798
254	0x3cf0c544	0.029390939
255	0xbd918795	-0.07105938

layer1.0.conv1.bias f4 [16]
0	0x38e1d604	0.000107686996
1	0x38526b82	5.0168026e-05
2	0x388ffdeb	6.866067e-05
3	0x39174728	0.0001442699
4	0x378e0a9f	1.6932665e-05
5	0x390f6a00	0.00013677031
6	0xb6e4daf1	-6.8204176e-06
7	0xb8c909c0	-9.586243e-05
8	0xb814bcdf	-3.546185e-05
9	0x38afcb6d	8.382541e-05
10	0xb89d3c47	-7.497571e-05
11	0xb81ce598	-3.7407124e-05
12	0xb7d78b70	-2.5694928e-05
13	0x38068340	3.2070326e-05
14	0x38bc9f7b	8.994244e-05
15	0xb8674e8d	-5.5147848e-05

layer1.0.bn1.weight f4 [16]
0	0x3ef73bb1	0.48287728
1	0x3efc58ba	0.49286443
2	0x3f26ffae	0.65233886
3	0x3f1394cd	0.57648927
4	0x3f13412a	0.5752131
5	0x3f15ac52	0.58466065
6	0x3f12ec34	0.5739167
7	0x3eef5a42	0.4674855
8	0x3ee633ee	0.44961494
9	0x3f1f207b	0.62158936
10	0x3f1d8286	0.6152729
11	0x3efe0ae6	0.4961769
12	0x3ef39a98	0.47578883
13	0x3f0b51b9	0.54421574
14	0x3f7ac49b	0.97956246
15	0x3f117d17	0.56831497

layer1.0.bn1.bias f4 [16]
0	0xbced6dec	-0.028983079
1	0xbd266bbe	-0.040630095
2	0x3c820371	0.015870782
3	0x3bfc7cee	0.0077053225
4	0xbb95454e	-0.004555381
5	0x3e401657	0.18758522
6	0x3d0ab43e	0.0338633
7	0xbbaec3ac	-0.0053333845
8	0xbd0a3c0e	-0.03374868
9	0x3c4313ea	0.011906603
10	0x3e2f323d	0.17109008
11	0xbe362d4b	-0.17790715
12	0xbdc4fd2b	-0.096186005
13	0x3d2e5657	0.04256281
14	0xbdaed42d	-0.08536563
15	0xbdd27a1b	-0.10277196

layer1.0.bn1.running_mean f4 [16]
0	0x3b20558a	0.0024465048
1	0x3c23488c	0.009966027
2	0x3c91af92	0.017783914
3	0xba4164a6	-0.00073773635
4	0x3c877754	0.016536392
5	0xbcc8e548	-0.024523392
6	0x3d07b378	0.03313014
7	0xbb55a284	-0.0032598088
8	0x3c060583	0.008180025
9	0x3ce73fe9	0.028228717
10	0xbc58ecc1	-0.01324004
11	0x3a8d9277	0.0010801096
12	0x3cbbbf1e	0.02291828
13	0x3cf36e8c	0.029715799
14	0xbd94ba43	-0.07262089
15	0x3c72c867	0.014818287

layer1.0.bn1.running_var f4 [16]
0	0x3e5f55dc	0.21810097
1	0x3e738f26	0.23785076
2	0x3f3730fc	0.7155912
3	0x3f416dc0	0.7555809
4	0x3ee8b0fa	0.45447522
5	0x3efbca8d	0.4917797
6	0x3ed37c8a	0.41305953
7	0x3ee1265d	0.4397458
8	0x3ec21b88	0.3791163
9	0x3ed15afe	0.40889734
10	0x3efebb9c	0.4975251
11	0x3e503fec	0.20336884
12	0x3e9c1496	0.30484456
13	0x3f08079b	0.53136605
14	0x3f4a02ee	0.7891072
15	0x3e9bf364	0.3045913

layer1.0.conv2.weight f4 [16, 16, 3, 3, 3]
0	0x3da919a7	0.08256846
1	0x3dd3982a	0.10331757
2	0xbd0c32a0	-0.034227967
3	0x3e18a8eb	0.14908187
4	0xbdbc6590	-0.09199059
5	0xbc49ade9	-0.01230953
6	0x3d8e0e5c	0.069363326
7	0x3baa56c4	0.0051983315
8	0x3c16b610	0.0091986805
9	0x3df0cedf	0.117582075
10	0x3d9376ad	0.0720037
11	0x3c1d868e	0.0096146
12	0x3d4a1f6f	0.049346384
13	0xbdcb6ad3	-0.099324845
14	0xbdfbe0d8	-0.12298745
15	0x3d340957	0.04395422
16	0x3dccb5d7	0.09995621
17	0xbce85bf1	-0.028364154
18	0x3d8f0620	0.0698359
19	0x3ce8ad8f	0.028403072
20	0x3cd932ac	0.02651342
21	0x3c65e00e	0.01403047
22	0xbe19d873	-0.15023975
23	0xbdda7dcb	-0.10668524
24	0x3d3e7009	0.046493564
25	0xbdb09423	-0.08622005
26	0xbc520fce	-0.012821151
27	0x3d3d2fab	0.046188038
28	0xbd7a0343	-0.061038267
29	0x3d55ecde	0.052227847
30	0x3cb52734	0.02211342
31	0xbe460380	-0.19337273
32	0x3cc44c2a	0.0239621
33	0xbc807b4a	-0.015683789
34	0xbdc5f1c7	-0.09665256
35	0x3dbc2f53	0.09188714
36	0xbcf3f06e	-0.029777732
37	0xbc362e5e	-0.011119453
38	0x3d931839	0.071823545
39	0x3cf1e972	0.02953026
40	0xbe2b6c37	-0.167405
41	0xbe0e1600	-0.1387558
42	0xbd87d9dd	-0.06633351
43	0xbd27733a	-0.040881373
44	0x3db39a9a	0.08769722
45	0xbd90f78c	-0.07078466
46	0xbcc2e6b5	-0.02379165
47	0xbd88aec0	-0.06673956
48	0x3d3b0768	0.04566136
49	0xbe34764c	-0.17623252
50	0xbdf46b3a	-0.11934514
51	0xbd7bb321	-0.061450128
52	0x3d23ac14	0.03995903
53	0xbd882336	-0.06647341
54	0xbc08b9a2	-0.00834504
55	0x3def5052	0.11685242
56	0x3df8e70b	0.12153443
57	0x3db21feb	0.08697494
58	0xbd4d6c56	-0.050152145
59	0x3cf0466b	0.029330453
60	0x3ccbb225	0.02486522
61	0x3d3b4f8f	0.04573017
62	0xbd546a99	-0.051859472
63	0x3cece836	0.02891932
64	0x3d1c5be5	0.038173575
65	0xbd4d016d	-0.050050188
66	0xbc8e8c89	-0.017400997
67	0xbd8e59f1	-0.06950749
68	0x3bbdf8ae	0.005797467
69	0x3cb012af	0.021493284
70	0xbd8ccb59	-0.06874723
71	0xbd9b758b	-0.07590779
72	0x3d15a984	0.036538616
73	0x3dffd778	0.12492269
74	0xbe059227	-0.13044034
75	0x3d89e662	0.06733395
76	0xbe0327a4	-0.1280809
77	0x3c666277	0.014061562
78	0x3d8e8c27	0.06960326
79	0xbdf3c774	-0.11903277
80	0xbd4fa2e5	-0.050692458
81	0x3c691c04	0.014227871
82	0x3cadde95	0.0212243
83	0xbd93e907	-0.07222181
84	0x3bc03743	0.0058659627
85	0xbd9171e6	-0.071018025
86	0x3e1c205a	0.15246716
87	0x3d72b207	0.05925181
88	0x3d6e3795	0.058158476
89	0x3db243ea	0.0870436
90	0xbd4e3695	-0.050345022
91	0x3d69a68f	0.05704361
92	0xbdbb7f3f	-0.0915513
93	0xbd67ea85	-0.05662014
94	0xbdd8a0c1	-0.105775364
95	0x3d8086ca	0.06275709
96	0xba0d6992	-0.00053944543
97	0x3d1079c0	0.03527236
98	0xbda429ba	-0.08015771
99	0xbd29c2f5	-0.04144569
100	0xbd015a6c	-0.031580374
101	0xbd6ad015	-0.05732735
102	0xbd2046c3	-0.039129984
103	0xbe2ffbad	-0.1718585
104	0xbdcfe7e0	-0.101516485
105	0xbd036d13	-0.032086443
106	0x3d6e929c	0.058245286
107	0xbe03dd50	-0.12877393
108	0xbcbaefa3	-0.022819346
109	0x3c07e9a6	0.008295452
110	0xbe884c0f	-0.26620528
111	0xbd88f775	-0.06687824
112	0xbe0f8f8d	-0.14019604
113	0xbd27eafa	-0.040995575
114	0x3d1cd2b9	0.0382869
115	0x39b951cc	0.00035346893
116	0xbd5425c5	-0.051793832
117	0xbccbec5e	-0.024892982
118	0x3cf6086d	0.030033315
119	0xbcde0f6e	-0.027106967
120	0xbda3f143	-0.080050014
121	0xbddcabf1	-0.10774983
122	0xbd8f07cf	-0.06983911
123	0xbd5f95de	-0.054586284
124	0x3cdc9dcb	0.02693071
125	0xbd97c002	-0.074096695
126	0x3cecdabd	0.028912896
127	0x3bb782af	0.0056002955
128	0x3d400c11	0.046886507
129	0xbd33039c	-0.043704614
130	0xbdb38a63	-0.087666295
131	0xbd3e79d9	-0.04650292
132	0x3b8bcc86	0.0042663245
133	0xbd03f08f	-0.032211836
134	0xbdf779b8	-0.12083763
135	0x3ca94af3	0.020665621
136	0x3db841fa	0.08996959
137	0x3e024d75	0.1272486
138	0x3da01e48	0.07818276
139	0xbd159621	-0.036520127
140	0xbe473afb	-0.19456093
141	0x3d33d8d9	0.043907974
142	0x3d0faf08	0.035079032
143	0xbd81e81f	-0.06343102
144	0xbdcaf0e3	-0.09909227
145	0xbd57c067	-0.052673724
146	0x3afd11a4	0.0019307625
147	0xbd4558a7	-0.04818025
148	0xbe0ad046	-0.13556013
149	0x3d0f51be	0.034990065
150	0xbb654c19	-0.0034987985
151	0x3de724f9	0.11286349
152	0x3e476b2a	0.19474474
153	0xbd3faa00	-0.046792984
154	0xbd5decf6	-0.05418106
155	0xbd37a59c	-0.04483567
156	0x3d16ae8f	0.036787566
157	0xbe6c3bc0	-0.23069668
158	0x3e3ef8a5	0.18649538
159	0xbd8174ce	-0.06321107
160	0x3d04ef8a	0.032455005
161	0x3e4b923e	0.19880006
162	0x3dc29378	0.09500784
163	0x3c34f3ff	0.011044501
164	0xbe1a591f	-0.1507306
165	0x3d7ffe68	0.06249848
166	0xbe467388	-0.19380009
167	0xbd0398d4	-0.03212817
168	0xbcfbab5e	-0.030721363
169	0x3be7b960	0.007071659
170	0x3d32952b	0.04359929
171	0x3ca5edd0	0.020255
172	0xbdb3fef2	-0.08788861
173	0xbd41987b	-0.047264557
174	0xbce10929	-0.027470188
175	0xbdfcc0d3	-0.12341466
176	0xbced7ade	-0.028989252
177	0xbbcd7033	-0.0062694787
178	0x3ce6db98	0.028180882
179	0x3d2446ef	0.04010671
180	0xbab0258e	-0.0013438927
181	0xbe082511	-0.1329539
182	0x3d942f45	0.072355784
183	0x3d8dd464	0.06925276
184	0xbe58fa26	-0.21189174
185	0x3c4d3cf3	0.012526738
186	0xbca674e2	-0.020319406
187	0xbd915f47	-0.07098251
188	0xbcfa4e81	-0.030555012
189	0x3dc527da	0.09626742
190	0x3d7f0e69	0.062269602
191	0xbdead0f1	-0.11465634
192	0x3e1c80fd	0.1528358
193	0xbd7ee9c9	-0.062234674
194	0xbcc9a462	-0.024614517
195	0x3aaccd9e	0.0013183837
196	0xbd05efc5	-0.032699365
197	0x3d6f92f1	0.058489744
198	0xbba3a18d	-0.0049936236
199	0xbaa41b54	-0.0012520351
200	0x3d4e2693	0.050329756
201	0xbae7c428	-0.001768236
202	0xbdf3c68d	-0.11903105
203	0x3d78f28f	0.060778197
204	0x3dc99a5d	0.098438956
205	0xbd3ff948	-0.046868593
206	0xbdaa3dfd	-0.083126046
207	0x3b803bf6	0.003913398
208	0xbd206663	-0.039160144
209	0x3d4dd175	0.050248582
210	0xbc5d8555	-0.013520558
211	0xbdf12b0c	-0.11775789
212	0x3de8b248	0.113621294
213	0xbc81b13a	-0.015831579
214	0xbd990749	-0.07472093
215	0x3cdb810e	0.026794937
216	0xbc2d0982	-0.010561349
217	0x3caa893f	0.020817397
218	0xbc740f74	-0.014896262
219	0x3d819aa0	0.063283205
220	0xbe1da691	-0.15395571
221	0xbd9cc81d	-0.07655356
222	0xbd3e64d2	-0.04648287
223	0xbdeaa7df	-0.114578
224	0x3c702e45	0.014659469
225	0x3c8dbd42	0.01730216
226	0xbcf7dec5	-0.030257592
227	0xbdc6c9b8	-0.097064435
228	0x3d7467d7	0.059669342
229	0xbdc450ff	-0.09585761
230	0x3cb9a9f7	0.022664053
231	0xb85e57fc	-5.3010866e-05
232	0x3d842208	0.064518034
233	0x3e0b0fe2	0.13580278
234	0x3c5db95c	0.013532963
235	0xbe0bc44e	-0.13649103
236	0xbdf36e80	-0.118863106
237	0x3d767e6d	0.060179163
238	0xbe024ee4	-0.12725407
239	0x3d46445e	0.048405044
240	0x3b17c216	0.0023156456
241	0x3db0dc51	0.08635772
242	0x3d3adb8e	0.04561954
243	0xbc07937c	-0.008274909
244	0x3ad488c3	0.0016215075
245	0xbd17b584	-0.03703834
246	0xbc059e2d	-0.008155388
247	0xbe1b6a9c	-0.15177387
248	0xbd100bc4	-0.03516747
249	0x3cd218a0	0.025646508
250	0x3da01541	0.07816554
251	0xbe25b902	-0.16183856
252	0x3c8bbdde	0.01705831
253	0xbd082dec	-0.03324692
254	0xbd976eaa	-0.07394154
255	0xbcf9aa27	-0.030476643

layer1.0.conv2.bias f4 [16]
0	0x37e65a58	2.7460206e-05
1	0x3839791a	4.422022e-05
2	0x387a5ce3	5.9691152e-05
3	0xb8e461e9	-0.000108901244
4	0x36e071a6	6.6889506e-06
5	0xb764367f	-1.3602547e-05
6	0x37b2af5c	2.1300912e-05
7	0x38155890	3.560685e-05
8	0xb60f9a30	-2.139841e-06
9	0x36258f18	2.4670207e-06
10	0x37e39631	2.7130447e-05
11	0xb7fd7572	-3.021464e-05
12	0x37537d5d	1.26057685e-05
13	0x372f8f91	1.04642395e-05
14	0xb70aa242	-8.26322e-06
15	0xb7aba354	-2.0460844e-05

layer1.0.bn2.weight f4 [16]
0	0x3f26e39e	0.65191066
1	0x3f1299f8	0.5726619
2	0x3f269409	0.65069634
3	0x3ef09f2b	0.46996436
4	0x3ed66180	0.41871262
5	0x3efe10e0	0.4962225
6	0x3f25df36	0.6479372
7	0x3f2bab26	0.67058027
8	0x3f1c98a1	0.61170393
9	0x3eef4520	0.46732426
10	0x3f0f9ce5	0.5609878
11	0x3ea8d6e4	0.3297645
12	0x3effe01c	0.4997567
13	0x3f3d8eb2	0.7404586
14	0x3f07b01d	0.530031
15	0x3f067c3f	0.52533334

layer1.0.bn2.bias f4 [16]
0	0xbe10edac	-0.14153165
1	0x3d978c17	0.07399767
2	0xbe1893a6	-0.14900073
3	0x3d9573da	0.072974876
4	0x3ebb4562	0.36576372
5	0xbe15a522	-0.14613774
6	0xbceb6fb4	-0.028739788
7	0xbe4b199a	-0.19833985
8	0xbdfde0f0	-0.12396419
9	0xbe6a78ef	-0.22897695
10	0xbe299982	-0.16562465
11	0xbde58c97	-0.11208456
12	0x3e26cc19	0.16288795
13	0xbe279275	-0.16364463
14	0xbd8bbd1c	-0.06823179
15	0x3d4701c7	0.04858568

layer1.0.bn2.running_mean f4 [16]
0	0xbf78bbc8	-0.9716153
1	0xbf615a9f	-0.880289
2	0xbf9d9e62	-1.231396
3	0xbef73a9a	-0.48286897
4	0xbef9c101	-0.48780063
5	0xbf905405	-1.1275641
6	0xbf947c37	-1.1600407
7	0xbfaa8bbd	-1.3323895
8	0x3f82e672	1.0226576
9	0x3d8b25ad	0.067942955
10	0x3f729047	0.947514
11	0xbf068532	-0.5254699
12	0xbeec8fd9	-0.46203497
13	0xbf94c2dc	-1.1621966
14	0xbf7c2dcf	-0.985074
15	0xbfa0cba2	-1.2562144

layer1.0.bn2.running_var f4 [16]
0	0x3feb8677	1.840041
1	0x3fb56cb4	1.4173799
2	0x3fd1cff8	1.6391592
3	0x3f8da47b	1.106582
4	0x3fc4a794	1.5363641
5	0x3ff2377b	1.8923181
6	0x3fc1a12d	1.5127312
7	0x4078243e	3.877212
8	0x409bd802	4.870118
9	0x3ff6d553	1.9283851
10	0x400ea545	2.2288373
11	0x3f6bbeb2	0.9208785
12	0x3f93aac0	1.1536484
13	0x3fbff94f	1.4997958
14	0x3fdf3128	1.7436876
15	0x401972de	2.397636

layer1.0.conv3.weight f4 [16, 16, 1, 1, 1]
0	0xbd5411a7	-0.051774647
1	0xbc905409	-0.017618196
2	0xbde8ea25	-0.113727845
3	0x3e05d4c8	0.13069451
4	0x3e07f568	0.13277209
5	0xbdb9892e	-0.09059368
6	0x3ccebd73	0.02523682
7	0xbcc40842	-0.023929719
8	0xbd59c792	-0.05316884
9	0xbde7fa84	-0.11327079
10	0xbe1c0848	-0.15237534
11	0x3c171ee8	0.009223677
12	0xbe348e94	-0.17632514
13	0xbd42a666	-0.04752197
14	0xbe0ff120	-0.14056826
15	0xbc97105a	-0.018440414
16	0x3d7d8cca	0.061901845
17	0x3c43b18d	0.011944187
18	0xbe351787	-0.17684756
19	0x3dc8c7d8	0.09803742
20	0x3ddd7c43	0.10814717
21	0xbd88f637	-0.06687587
22	0xbdb53ffc	-0.08850095
23	0xbe4d881d	-0.20071454
24	0xbde9cb30	-0.11415708
25	0x3da3bac1	0.07994605
26	0xbdcd6680	-0.10029316
27	0xbdc3d124	-0.09561375
28	0x3dc88873	0.097916506
29	0xbbd8db08	-0.0066179074
30	0xbe2e3ef8	-0.17016208
31	0x3b026750	0.0019898005
32	0xbe8c8c4b	-0.27450785
33	0x3d8f78b2	0.07005443
34	0x3e0e4bf1	0.13896157
35	0xbcdb439a	-0.026765633
36	0xbe61013a	-0.21973124
37	0x3e65224a	0.22376361
38	0x3d2f2109	0.042756114
39	0x3e13eb19	0.14445151
40	0xbdb65e9a	-0.089047626
41	0xbd5ecd93	-0.05439527
42	0xbe211f3a	-0.15734568
43	0x3b524977	0.0032087245
44	0xbd01e161	-0.03170908
45	0x3de3ba48	0.11119515
46	0x3ce31e44	0.027724393
47	0x3e475163	0.1946464
48	0xbdac9b3b	-0.08428045
49	0xbe4115e2	-0.18856004
50	0xbe1aedf2	-0.15129831
51	0x3dc42446	0.09577231
52	0xbcefce16	-0.029273074
53	0x3ce8f292	0.028435979
54	0xbe7aa02b	-0.24475162
55	0xbe34dca4	-0.17662293
56	0x3d2e93bf	0.04262137
57	0x3e18f2fd	0.14936443
58	0x3d7bb961	0.061456088
59	0xbe413a1b	-0.18869822
60	0xbce4fd88	-0.027952924
61	0x3e221931	0.15829922
62	0xbe2777e0	-0.16354322
63	0xbd2044f8	-0.039128274
64	0xbc240c50	-0.010012701
65	0x3ccbb993	0.024868762
66	0xbe2456cf	-0.1604874
67	0x3defaea5	0.11703233
68	0x3df3e40c	0.11908731
69	0x3b143fae	0.0022620964
70	0xbd83d6ba	-0.0643744
71	0x3db76861	0.089554556
72	0x3de62649	0.11237771
73	0x3e0dae6f	0.13836072
74	0x3e5184aa	0.20460764
75	0x3e11161f	0.14168595
76	0x3e6c5453	0.23079042
77	0x3cfc487d	0.030796284
78	0xbda589cb	-0.080829225
79	0x3e01f497	0.1269096
80	0xbddf5f5d	-0.10906861
81	0x39ee9c2f	0.00045511263
82	0x3dd5f3ea	0.104469135
83	0xbe494043	-0.1965342
84	0xbe6de8f9	-0.23233403
85	0x3e184119	0.14868583
86	0xbe2dc44d	-0.16969414
87	0x3d8e537e	0.069495186
88	0xbd74f6e4	-0.059805766
89	0x3c9a7f76	0.018859606
90	0xbdb8600a	-0.09002693
91	0xbde4eb0a	-0.11177643
92	0xbb89ec9e	-0.004209115
93	0x3e8ed8f5	0.278999
94	0xbe7c0dc4	-0.24614626
95	0x3e0571c8	0.13031685
96	0xbdcb7fac	-0.09936461
97	0xbe0d6164	-0.13806683
98	0xbd6167bb	-0.055030566
99	0x3d490717	0.049079027
100	0xbe089c0d	-0.13340779
101	0x3d03c2e4	0.032168284
102	0x3c5e88be	0.013582407
103	0x3e6ed585	0.23323639
104	0x3e154200	0.14575958
105	0xbc51caa9	-0.012804666
106	0x3d570220	0.05249226
107	0xbe035b8c	-0.12827891
108	0xbdc40090	-0.0957042
109	0xbe855004	-0.2603761
110	0xbc012d00	-0.007884264
111	0xbe00f535	-0.12593539
112	0xbe2db7ae	-0.169646
113	0xbe1fa732	-0.15591124
114	0x3decc87f	0.11561679
115	0xbd75621a	-0.05990801
116	0xbdcf0fa4	-0.10110405
117	0x3d3083d4	0.04309447
118	0x3dc27b6e	0.094961986
119	0x3e398d77	0.18120371
120	0xbe304402	-0.17213443
121	0xbc15f562	-0.009152742
122	0xbdf5588d	-0.1197978
123	0x3d4e0d59	0.050305698
124	0xbdf98291	-0.12183107
125	0x3d8d4820	0.068985224
126	0xbe09a1de	-0.13440654
127	0x3d252725	0.040320534
128	0x3bb594b4	0.0055414084
129	0x3d86a01e	0.06573509
130	0x3e819d21	0.25315192
131	0xbd99526e	-0.07486425
132	0xbe468f50	-0.19390607
133	0x3bb8dd32	0.005641603
134	0x3e79cc31	0.24394299
135	0x3c0e9433	0.008702326
136	0xbd389782	-0.045066364
137	0xbdffbf91	-0.1248771
138	0xbca22679	-0.019793736
139	0xbe05ce6b	-0.13067023
140	0xbe56c113	-0.2097209
141	0x3e01adee	0.12664005
142	0x3dcf27c2	0.10115005
143	0xbd3bef5d	-0.04588257
144	0x3db7dec5	0.08978037
145	0x3e1d9355	0.15388234
146	0xbe696018	-0.22790563
147	0x3c026e8b	0.007960926
148	0x3dbaaccf	0.09114992
149	0xbda6a643	-0.08137181
150	0xbe4166f1	-0.18886925
151	0xbdc029ac	-0.09382948
152	0xbc045ddb	-0.0080790175
153	0x3dd19760	0.102339506
154	0x3dc13c84	0.094353706
155	0xbe033790	-0.12814164
156	0xbbb4942b	-0.005510827
157	0xbe3f1eb9	-0.18664064
158	0xbcbbeaf6	-0.022939187
159	0xbe839d12	-0.25705773
160	0xbe5e3522	-0.21699956
161	0xbe4a1a5d	-0.1973662
162	0xbe334948	-0.17508423
163	0x3cca5cd4	0.024702467
164	0xbb8601fc	-0.004089592
165	0x3de817a4	0.11332634
166	0xbe875416	-0.2643134
167	0x3de8ebda	0.1137311
168	0x3dc5e8f2	0.096635714
169	0xbd5b7551	-0.05357868
170	0xbdc5fbe2	-0.096671835
171	0xbce2d162	-0.027687732
172	0x3cebf0a6	0.028801274
173	0xbe047e92	-0.12938908
174	0xbdc28e3a	-0.09499784
175	0x3e0c97c0	0.13729763
176	0x3da0da9b	0.07854196
177	0x3e243bad	0.1603839
178	0x3e25d5d1	0.16194846
179	0x3e940dbf	0.28916737
180	0xbd298e76	-0.041395627
181	0x3db2fe9d	0.0873997
182	0x3de50a45	0.111835994
183	0xbbb70a21	-0.0055859243
184	0xbc8b31e9	-0.016991572
185	0xbe5004e3	-0.20314364
186	0xbdf44a56	-0.11928241
187	0xbd6d2cf4	-0.0579042
188	0x3cb4eeff	0.022086618
189	0x3e2025ed	0.15639468
190	0x3da58217	0.08081453
191	0xbdc90187	-0.098147444
192	0xbd05c076	-0.03265425
193	0x3dd625b1	0.10456408
194	0xbe1cac10	-0.15300012
195	0x3db78f02	0.089628235
196	0xbd3c56ce	-0.04598122
197	0x3cf7e9c9	0.030262845
198	0xbdfda5a6	-0.123851106
199	0xbd3536a8	-0.044241577
200	0x3dab1381	0.083533294
201	0x3db80ba5	0.08986596
202	0x3dceb1ba	0.100924924
203	0x3db99eba	0.09063478
204	0xbd95e836	-0.07319681
205	0xbeb5852c	-0.35453165
206	0xbe2ed072	-0.17071703
207	0xbe22ba01	-0.15891267
208	0xbca86f99	-0.020561026
209	0xbea5d3fd	-0.32388297
210	0xbd991a17	-0.07475679
211	0x3d921366	0.07132606
212	0xbd0b09ba	-0.033944823
213	0x3c8c4dff	0.017127035
214	0xbe4e9eef	-0.20177816
215	0xbe5c7af2	-0.21531275
216	0x3dd02e09	0.101650305
217	0x3c109f44	0.008827034
218	0x3b8de61e	0.0043304106
219	0xbd934962	-0.07191731
220	0xbd000766	-0.031257056
221	0x3dd1d77a	0.10246177
222	0xbe5cc727	-0.21560346
223	0x3d0c76de	0.034293048
224	0xbd51b6c9	-0.051199708
225	0x3e58e248	0.2118007
226	0x3e07128a	0.13190666
227	0x3c9570de	0.018242296
228	0xbe6c7f1c	-0.23095363
229	0x3cda09ed	0.026616061
230	0x3b904c2d	0.004403612
231	0x3d32c956	0.04364904
232	0xbe40fa95	-0.1884559
233	0xbd0fa412	-0.03506858
234	0xbd12994b	-0.035790723
235	0xbde5a568	-0.11213189
236	0xbea390e8	-0.31946492
237	0xbdca2626	-0.098705575
238	0x3da253ca	0.07926138
239	0xbdaaae62	-0.08334042
240	0x3e997966	0.29975432
241	0x3c48b690	0.012250558
242	0xbc769c3e	-0.0150518995
243	0x3bff7843	0.0077963187
244	0xbe2a43b4	-0.16627389
245	0x391ce576	0.000149628
246	0x3db403ce	0.08789788
247	0x3e2181dc	0.15772194
248	0xbe053c00	-0.1301117
249	0xbe56581d	-0.2093205
250	0xbd229f84	-0.039702907
251	0x3d2618a0	0.040550828
252	0x3d2e30e3	0.04252709
253	0xbdf68a4c	-0.12038097
254	0x3d1b1beb	0.03786842
255	0xbd5fd12d	-0.054642845

layer1.0.conv3.bias f4 [16]
0	0xb943e7e7	-0.0001868304
1	0x39a13750	0.00030749524
2	0x390737c5	0.00012895379
3	0xb8953391	-7.114479e-05
4	0x392f4728	0.00016715808
5	0xb8ebd7bb	-0.00011245856
6	0x36d3d408	6.3129737e-06
7	0x381110aa	3.4586214e-05
8	0xb9830c5d	-0.00024995478
9	0xb923f393	-0.0001563563
10	0x3882d4b7	6.238504e-05
11	0xb5027600	-4.8600486e-07
12	0xb855d722	-5.0983515e-05
13	0x38708a85	5.7349465e-05
14	0x38eae38c	0.000112003734
15	0x3944a42a	0.00018753172

layer1.0.bn3.weight f4 [16]
0	0x3f03f7f7	0.5155024
1	0x3f147067	0.5798401
2	0x3f285ffa	0.6577145
3	0x3efbda04	0.4918977
4	0x3ef2068f	0.4727063
5	0x3f55a151	0.83449274
6	0x3ed5231a	0.41628343
7	0x3f4465ee	0.7671803
8	0x3f323cb3	0.6962387
9	0x3ecfafaa	0.4056371
10	0x3eacb560	0.33732128
11	0x3f34cd05	0.70625335
12	0x3ee130d7	0.43982574
13	0x3f057f3c	0.5214727
14	0x3f458da1	0.77169234
15	0x3f4da10a	0.8032385

layer1.0.bn3.bias f4 [16]
0	0x3ce60b46	0.028081547
1	0x3d8506fe	0.06495474
2	0xbeb9ac33	-0.3626419
3	0x3e2e557b	0.17024796
4	0xbe5c94f3	-0.21541195
5	0xbf088f30	-0.53343487
6	0xbd9edd27	-0.07757025
7	0xbe73dc26	-0.23814449
8	0xbe8b4825	-0.2720348
9	0x3c770db4	0.015078951
10	0xbf15417f	-0.58303064
11	0xbdcdb289	-0.100438185
12	0x3db1ff93	0.08691325
13	0xbc9c0ae2	-0.019048158
14	0xbe4931ab	-0.19647853
15	0xbd274fbc	-0.040847525

layer1.0.bn3.running_mean f4 [16]
0	0xbd74ac87	-0.059734847
1	0xbc877f0a	-0.01654007
2	0xbd140166	-0.036134146
3	0xbe07914a	-0.13239017
4	0x3e4246fd	0.18972392
5	0xbe0c85a9	-0.13722862
6	0xbe0dd1ef	-0.13849615
7	0xbdfd540d	-0.12369547
8	0xbd536328	-0.051608235
9	0xbd8d7104	-0.06906322
10	0xbdfcf0a5	-0.12350587
11	0x3dfb32e1	0.12265564
12	0xbdf801e4	-0.121097356
13	0xbe1eb79a	-0.15499726
14	0xbe2b7af4	-0.16746122
15	0xbd3643a7	-0.044498112

layer1.0.bn3.running_var f4 [16]
0	0x3c47ff1f	0.012206822
1	0x3cb071a1	0.021538557
2	0x3cb04596	0.021517556
3	0x3c9aac57	0.018881006
4	0x3cb0bc01	0.021574022
5	0x3c705f45	0.0146711515
6	0x3d0be52f	0.034154113
7	0x3c540e06	0.012942797
8	0x3cab27ef	0.020893065
9	0x3ca5b2fe	0.020226952
10	0x3cf5e04f	0.030014185
11	0x3c9f53b4	0.019449092
12	0x3cbc43ec	0.022981606
13	0x3ca8924e	0.020577576
14	0x3ca94da1	0.0206669
15	0x3c16f615	0.009213944

layer1.0.shortcut.0.weight f4 [16, 8, 1, 1, 1]
0	0x3e516888	0.20450032
1	0xbd1d9391	-0.03847081
2	0xbca667da	-0.020313192
3	0x3da1ce67	0.07900696
4	0xbd1e60b0	-0.038666427
5	0xbe23fa93	-0.16013555
6	0x3d425d76	0.047452413
7	0xbbd473c5	-0.0064835274
8	0xbe14f8a0	-0.14547968
9	0xbdc86e97	-0.09786718
10	0x3e64fb2e	0.22361442
11	0x3c0fd446	0.008778637
12	0xbd697a74	-0.057001546
13	0x3d6bfca7	0.057613995
14	0xbcb81c0d	-0.022474313
15	0x3dc5cc65	0.09658126
16	0xbe0977e2	-0.13424638
17	0xbe224979	-0.1584834
18	0x3d207daa	0.039182343
19	0xbdbcba83	-0.09215262
20	0xbe3bccab	-0.18339793
21	0xbc89f3fa	-0.01683997
22	0x3a2ee483	0.0006671624
23	0xbc98a319	-0.018632459
24	0xbbddca01	-0.0067684655
25	0x3e0d273c	0.13784498
26	0xbdc14747	-0.09437423
27	0x3dfe9280	0.124302864
28	0x3cf14e23	0.029456204
29	0x3d1639ba	0.036676146
30	0xbd17e136	-0.037080012
31	0xbe955c79	-0.29172114
32	0x3c5dea3c	0.013544615
33	0x3d0e3c3b	0.03472541
34	0xbe944f77	-0.28966877
35	0xbdf6b6d3	-0.1204659
36	0xbd8f82f4	-0.07007399
37	0xbe1b7739	-0.15182199
38	0x3cc62332	0.024186704
39	0x3d5fae2e	0.05460947
40	0xbd4aa903	-0.04947759
41	0x3ab60487	0.0013886847
42	0x3c1d2a85	0.009592657
43	0xbe54c270	-0.20777297
44	0xbe1852b0	-0.14875293
45	0xbe67e74e	-0.2264683
46	0xb8272d84	-3.9858292e-05
47	0x3dde0e95	0.10842625
48	0x3d615d63	0.0550207
49	0xbce90b65	-0.028447816
50	0x3d0caf11	0.034346644
51	0xbde1d459	-0.1102683
52	0xbd0549c2	-0.032541044
53	0x3c99c556	0.018770855
54	0x3db13021	0.08651758
55	0x3ed8a6d1	0.4231477
56	0xbd86f875	-0.06590358
57	0xbe94fc8c	-0.29098928
58	0x3de08736	0.109632894
59	0x3dc753c1	0.09732772
60	0xbc1c3202	-0.009533407
61	0x3d8c6b98	0.068564594
62	0xb9adeca5	-0.00033173445
63	0xbd084cf1	-0.033276502
64	0xbc75aa26	-0.01499418
65	0x3e47eb83	0.19523434
66	0xbe9f10c2	-0.31067473
67	0x3c41493c	0.011797246
68	0x3d53dd6a	0.05172483
69	0x3d23116f	0.039811548
70	0x3c66d33f	0.014088451
71	0x3b2c367a	0.0026277588
72	0x3d31b334	0.043383792
73	0xbb1f2a49	-0.0024286679
74	0xbd79ec69	-0.061016474
75	0x3d013986	0.031549
76	0x3e68e19e	0.22742316
77	0x3e35ea79	0.17765225
78	0x3d6122b0	0.05496472
79	0xbdfcfa8d	-0.12352476
80	0xbd43114d	-0.04762392
81	0xbd7fd927	-0.062462952
82	0x3ed56dc0	0.41685295
83	0xbc02d581	-0.007985474
84	0xbcd4ea9d	-0.025990779
85	0xbb84bfe6	-0.0040511964
86	0x3b9dc22a	0.004814406
87	0x3e1298b0	0.14316058
88	0xbdf8d629	-0.12150223
89	0xbdb9d433	-0.09073677
90	0x3e0acbf9	0.13554372
91	0x3cef2efe	0.029197212
92	0xbdcc9bab	-0.09990629
93	0xbd02c1cc	-0.0319231
94	0x3d7e64f8	0.06210801
95	0xbe7fb5e9	-0.24971737
96	0x3d51b417	0.051197138
97	0xbdec80a8	-0.11547977
98	0x3d5f3072	0.05448956
99	0xbe2fadbe	-0.17156121
100	0xbe5d3696	-0.21602854
101	0xbe5786c6	-0.21047506
102	0x3ce8bbe6	0.02840991
103	0x3d34189c	0.04396878
104	0xbc838085	-0.016052494
105	0xbe6ae315	-0.22938187
106	0xbd7994b5	-0.060932834
107	0xbd5e0f4e	-0.054213814
108	0x3d4de966	0.050271414
109	0x3d1226ce	0.03568154
110	0x3d98e803	0.07466128
111	0x3e48b847	0.19601546
112	0xbe521362	-0.20515206
113	0xbd8b8195	-0.06811825
114	0xbcf4e85e	-0.029895958
115	0xbddcf105	-0.10788158
116	0x39052067	0.00012695939
117	0xbd509cd1	-0.0509308
118	0xbe3266d3	-0.17422037
119	0xbd2c504d	-0.04206877
120	0xbce0ccda	-0.02744143
121	0xbdf254b9	-0.11832566
122	0xbcb6a05b	-0.02229326
123	0xbded95e8	-0.11600858
124	0xbe1a55ff	-0.15071867
125	0xbd17aae2	-0.0370282
126	0xbe315caa	-0.17320505
127	0x3d371f36	0.0447075

layer1.0.shortcut.0.bias f4 [16]
0	0x3614ff90	2.2202476e-06
1	0x3a03149b	0.0005000324
2	0xb80e8ea8	-3.3988297e-05
3	0x39212865	0.00015369205
4	0x39528131	0.00020075288
5	0xb895f50a	-7.150516e-05
6	0xb99522c0	-0.00028445385
7	0xb8c6675b	-9.460627e-05
8	0xb92e53e6	-0.00016625188
9	0xb9ea17b3	-0.00044649615
10	0xb7e77724	-2.7592825e-05
11	0x3920595c	0.00015292078
12	0x3775360c	1.4615722e-05
13	0x38371328	4.364844e-05
14	0x384b4eb5	4.8472273e-05
15	0xb816268a	-3.579868e-05

layer1.0.shortcut.1.weight f4 [16]
0	0x3e8a9bbc	0.2707194
1	0x3ee1025c	0.43947113
2	0x3e074853	0.13211183
3	0x3ed5c6fc	0.41753376
4	0x3ea7231e	0.3264398
5	0x3e9831fb	0.29725632
6	0x3eee9a23	0.46601972
7	0x3ea7c70c	0.32769048
8	0x3f05df40	0.5229378
9	0x3edc4881	0.43024066
10	0x3f09b9a3	0.53798884
11	0x3f15500b	0.5832526
12	0x3effcd4c	0.49961317
13	0x3ec23772	0.37932926
14	0x3ecfae3c	0.40562618
15	0x3e65962f	0.22420572

layer1.0.shortcut.1.bias f4 [16]
0	0x3ce60b46	0.028081547
1	0x3d8506fe	0.06495474
2	0xbeb9ac33	-0.3626419
3	0x3e2e557b	0.17024796
4	0xbe5c94f3	-0.21541195
5	0xbf088f30	-0.53343487
6	0xbd9edd27	-0.07757025
7	0xbe73dc26	-0.23814449
8	0xbe8b4825	-0.2720348
9	0x3c770db4	0.015078951
10	0xbf15417f	-0.58303064
11	0xbdcdb289	-0.100438185
12	0x3db1ff93	0.08691325
13	0xbc9c0ae2	-0.019048158
14	0xbe4931ab	-0.19647853
15	0xbd274fbc	-0.040847525

layer1.0.shortcut.1.running_mean f4 [16]
0	0x3c812e42	0.015769128
1	0x3bd66174	0.006542379
2	0xbde99e65	-0.114071645
3	0xbcbb428f	-0.022858886
4	0xbdbc4c78	-0.09194273
5	0xbda063d8	-0.07831544
6	0x3dbb41e9	0.09143431
7	0xbd4be63a	-0.049780108
8	0xbba7e8a9	-0.005124171
9	0x3d728041	0.059204344
10	0x3db7301f	0.08944725
11	0xbd9b32f6	-0.075780794
12	0xbdb3521b	-0.08755895
13	0xbc910cba	-0.017706264
14	0xbe088044	-0.1333018
15	0xbde77684	-0.11301902

layer1.0.shortcut.1.running_var f4 [16]
0	0x3c92fcb4	0.017942764
1	0x3cc52053	0.024063265
2	0x3cdea3d1	0.027177723
3	0x3c6db879	0.014509314
4	0x3cad1ed0	0.021132857
5	0x3ccd6787	0.02507378
6	0x3cb657ad	0.022258604
7	0x3d0d520a	0.034502067
8	0x3c960160	0.018311203
9	0x3c9a4921	0.018833699
10	0x3cc2e603	0.023791319
11	0x3cc0bec2	0.02352846
12	0x3d15095c	0.03638588
13	0x3cdf108c	0.02722957
14	0x3d07b567	0.033131983
15	0x3cb8fb6d	0.022580827

layer1.1.conv1.weight f4 [32, 16, 3, 3, 3]
0	0x3b5f5b29	0.0034081435
1	0x3c6417d5	0.013921698
2	0x3ca24204	0.01980687
3	0x3c053770	0.008130893
4	0x3b999251	0.0046866317
5	0x3ce7fe7f	0.028319595
6	0x3cbacde9	0.022803264
7	0xbb8a69eb	-0.004224052
8	0x3d389c03	0.04507066
9	0xba8744b7	-0.0010320161
10	0xbc03cbb8	-0.008044176
11	0x3bc1d858	0.0059156828
12	0x3af52897	0.0018704113
13	0x3c81bc9d	0.015837008
14	0x3a943ede	0.001131024
15	0xbb9236c9	-0.0044620973
16	0x3c5c40e5	0.013443206
17	0xbc58300e	-0.013195051
18	0xba825b04	-0.0009945338
19	0x3c40fd9d	0.011779216
20	0xbc8f12c7	-0.017465008
21	0xbc4f0712	-0.012635963
22	0xbc936121	-0.01799065
23	0xbc6aaa29	-0.014322796
24	0xbc2ab93c	-0.01042014
25	0xbb394734	-0.00282712
26	0xbba5cc1e	-0.005059733
27	0x3cb6c8ee	0.022312608
28	0xbcc4e2f9	-0.02403401
29	0x3c5587b4	0.013032842
30	0x3c11931e	0.008885173
31	0xbcfff6ab	-0.03124555
32	0x3c7a95a1	0.015294463
33	0x3cd5598a	0.026043672
34	0x3c2f2443	0.010689798
35	0x3d91fc58	0.07128209
36	0xbca6fb23	-0.020383423
37	0x3cecad79	0.028891312
38	0xbc8e853b	-0.017397514
39	0xba8d229a	-0.0010767758
40	0x3d7e0509	0.06201652
41	0xbcde6953	-0.027149832
42	0xbc60221c	-0.013680007
43	0x3b0b330e	0.0021240148
44	0xbd9c5716	-0.07633798
45	0xbb13d140	-0.0022555143
46	0xbc8de707	-0.017322076
47	0xbb8c53f5	-0.0042824694
48	0xbc1ac186	-0.009445554
49	0xbd290069	-0.041260157
50	0xbc033919	-0.008009219
51	0xbc859e08	-0.016310707
52	0x3c5b6d37	0.013392738
53	0x3d1e9e95	0.038725454
54	0xbc2a58e3	-0.010397169
55	0xbcf39262	-0.029732887
56	0x3d0d2079	0.034454796
57	0xbb5a0e46	-0.0033272668
58	0x3b95203c	0.004550962
59	0xbd5e56e5	-0.054282088
60	0xbc990b47	-0.018682135
61	0xbca02940	-0.01955092
62	0x3b5f808b	0.0034103717
63	0x3d4de2df	0.05026519
64	0x3d3a1dad	0.045438457
65	0xbc005ac7	-0.007834143
66	0x3c5066c9	0.012719818
67	0xbc899609	-0.016795175
68	0x3d99e20b	0.075138174
69	0x3d35e45e	0.04440724
70	0x3cd9498a	0.026524324
71	0x3ac64cf6	0.0015129137
72	0xbcac92a7	-0.021066023
73	0xbcca33b3	-0.024682855
74	0xbc47f6d5	-0.012204845
75	0xbb9e7b30	-0.0048364624
76	0x3cd49c49	0.025953429
77	0xbcec5979	-0.028851258
78	0xbd5a1eb4	-0.053251937
79	0xbc99c127	-0.01876886
80	0xbc048392	-0.008088009
81	0xbc9398e2	-0.018017236
82	0xbcd82a0f	-0.026387243
83	0x3cd75dc3	0.026289826
84	0xbd1b5a6f	-0.03792804
85	0xbc9a3594	-0.018824376
86	0x3d3b4724	0.04572214
87	0xbcd57584	-0.026057012
88	0xbc6b742c	-0.014370959
89	0xbc9da6b3	-0.019244527
90	0xbbbe9da7	-0.0058171335
91	0x3d3b2162	0.045686133
92	0xbd956957	-0.072954826
93	0x3d040b8d	0.03223758
94	0x3dc162df	0.09442686
95	0xbd34c2c0	-0.04413104
96	0xbc77ea4f	-0.015131547
97	0x3d44c831	0.04804248
98	0x3d8141ca	0.063113764
99	0x3d24d913	0.04024608
100	0xbc073786	-0.008252984
101	0x3d5f7c24	0.05456175
102	0x3c28af1e	0.010295657
103	0xbd4ffbcf	-0.050777253
104	0x3cb613d5	0.022226254
105	0x3cc12b21	0.023580136
106	0xbcc9b80d	-0.024623895
107	0xbcfcb1b9	-0.030846464
108	0xbcfd61fe	-0.030930515
109	0xbd379a0e	-0.044824652
110	0x3c3562c1	0.011070908
111	0xbb3281fa	-0.0027238117
112	0x3d785a1a	0.060632803
113	0x3cbf434f	0.023347525
114	0x3d193039	0.037399504
115	0x3ceff365	0.029290864
116	0x3c156f56	0.009120783
117	0x3c86e21b	0.016465237
118	0x3d997bd4	0.074943215
119	0x3c2abaa2	0.010420473
120	0xbc61ac2b	-0.013773958
121	0xbd94dc66	-0.072686
122	0xbc9eea21	-0.01939875
123	0xbc541bda	-0.012946093
124	0x3d1df9ca	0.038568296
125	0x3b7eedd1	0.0038899074
126	0x3c4bbd12	0.012435215
127	0xbd60971d	-0.054831613
128	0xbcb7235a	-0.022355724
129	0x3a529b1a	0.0008033976
130	0x3d4903f8	0.04907605
131	0x3cb19398	0.021676823
132	0xbc5f1134	-0.013614941
133	0xbd49c35d	-0.04925858
134	0xbb703a44	-0.0036655823
135	0xbd35f8a8	-0.04442659
136	0xbd5addad	-0.053434063
137	0x3d1a2132	0.037629314
138	0x3bc30a2c	0.0059521403
139	0x3d3cc856	0.046089493
140	0xbc99c732	-0.018771742
141	0x3c6f448a	0.014603743
142	0x3d1559cb	0.036462586
143	0xbc39a497	-0.011330745
144	0x3d45df19	0.048308466
145	0x3d9393fd	0.07205961
146	0xbd3cd237	-0.046098914
147	0xbcd945ab	-0.026522478
148	0xbd6992f2	-0.057024904
149	0xbc33e6b9	-0.010980302
150	0xbd43d485	-0.047810096
151	0xbd14df7a	-0.036345936
152	0x3cbf440e	0.02334788
153	0x3bd40a32	0.006470942
154	0xbca47750	-0.020076424
155	0x3b65caa9	0.0035063422
156	0x3cd1a77e	0.025592562
157	0x3d0a9237	0.033830848
158	0x3c648441	0.013947547
159	0x3c179d94	0.009253878
160	0x3c882a3c	0.016621701
161	0xbc6a9dd6	-0.014319858
162	0xbd57a6e5	-0.052649397
163	0x3d1a02c6	0.0376003
164	0xbbe11b90	-0.006869741
165	0xbcd23f63	-0.02566499
166	0x3dc897e5	0.097945966
167	0xbcbfbb5a	-0.023404766
168	0xbcf60ca4	-0.030035324
169	0xbcec543f	-0.028848765
170	0xbd7685ad	-0.060186077
171	0x3d8edd26	0.069757745
172	0xbd3d34a0	-0.046192765
173	0x3d6b4fe9	0.057449255
174	0x3ccacc3e	0.024755593
175	0xbe30504b	-0.1721813
176	0x3ce7003c	0.028198354
177	0x3d0767e6	0.03305807
178	0x3d226b62	0.03965319
179	0x3d8fdaeb	0.07024177
180	0xbd2779c5	-0.040887613
181	0x3c9ed8f6	0.019390564
182	0xbd6605d5	-0.056157906
183	0xbc6d1e9b	-0.014472629
184	0x3df9f774	0.12205401
185	0x3c59e307	0.013298756
186	0x3b24f9df	0.002517335
187	0xbc3ed401	-0.011647225
188	0xbcf86cfd	-0.030325407
189	0xbc209722	-0.009801658
190	0x3d03e70b	0.03220276
191	0x3d180b75	0.0371203
192	0x3b371ac0	0.0027939528
193	0x3c7c362f	0.015393778
194	0xbc85a7be	-0.016315337
195	0xbc87342f	-0.016504375
196	0x3c8a99dc	0.016919069
197	0xbd152e09	-0.036420856
198	0x3c65d4f9	0.014027827
199	0xbd2d1771	-0.042258684
200	0xbcd43cd4	-0.025907911
201	0xbb8558ff	-0.004069447
202	0xbd126c76	-0.035747968
203	0x3cbc70a1	0.023002924
204	0x3c819a7e	0.015820738
205	0xbbe7ccf0	-0.007073991
206	0x3d3b1e53	0.045683216
207	0x3be5f560	0.0070177764
208	0x3ca487ee	0.020084348
209	0x3c305091	0.010761396
210	0x3c13ed41	0.009028734
211	0x3cc02a21	0.023457589
212	0xbcd42e86	-0.02590109
213	0xbca4d933	-0.0201231
214	0xbc84276a	-0.016132075
215	0xbcffb6fc	-0.031215183
216	0x3d2301eb	0.03979675
217	0xbd046c58	-0.032329887
218	0xbda8560c	-0.08219537
219	0x3c194194	0.009354014
220	0xba77e49b	-0.0009456367
221	0xbd64b70b	-0.055838626
222	0x3d022d81	0.031781677
223	0x3b51cc61	0.0032012688
224	0x3d57d3df	0.05269229
225	0xbd2f5d12	-0.04281337
226	0xbcad7e91	-0.021178516
227	0x3dbdf118	0.092745006
228	0xba3fb333	-0.00073127745
229	0xbd99305b	-0.07479926
230	0x3da9ae7e	0.08285235
231	0x3c994b17	0.018712563
232	0xbcd91968	-0.026501372
233	0xbdec7a14	-0.11546722
234	0x3ccad581	0.02476001
235	0x3d861648	0.065472186
236	0x3b60bf03	0.003429354
237	0xba75afff	-0.0009372234
238	0x3dbc730c	0.09201631
239	0xbb5ba82e	-0.003351699
240	0xbd3627cd	-0.04447155
241	0x3d09b2f1	0.033617917
242	0x3d901ef2	0.07037152
243	0x3d1df5cb	0.038564485
244	0xbcafc6c8	-0.021457091
245	0xbb8d6771	-0.0043153097
246	0xbc997e99	-0.018737124
247	0x3b291ca1	0.0025804418
248	0x3bf9c769	0.0076226485
249	0xbd23101e	-0.039810292
250	0xbba5579a	-0.0050458433
251	0x3c4e2a66	0.012583351
252	0xbd294050	-0.0413211
253	0x3d447d9c	0.047971353
254	0xbc10238d	-0.0087975385
255	0x3cfcd553	0.03086344

layer1.1.conv1.bias f4 [32]
0	0xb659f5de	-3.2478633e-06
1	0x37eef49e	2.848572e-05
2	0x393a732e	0.0001778125
3	0xb69f94a6	-4.755874e-06
4	0xb65f8986	-3.3309639e-06
5	0xb726d3fe	-9.943729e-06
6	0x36e70b62	6.8856616e-06
7	0x373c4aa5	1.1223053e-05
8	0xb82852a2	-4.013128e-05
9	0x360b2236	2.0732527e-06
10	0x3835bebe	4.3331405e-05
11	0x36e6c334	6.877259e-06
12	0xb5de6c18	-1.6571748e-06
13	0x3733345e	1.0681424e-05
14	0x36cbe769	6.076811e-06
15	0x37525bfe	1.2538394e-05
16	0x36fb72c7	7.4937448e-06
17	0xb7f69cf0	-2.9398565e-05
18	0x370aac2c	8.265528e-06
19	0x369f372a	4.744991e-06
20	0x36c5f134	5.8991372e-06
21	0x37dd5d7c	2.6388785e-05
22	0xb7cf3fe8	-2.4706082e-05
23	0x3916af14	0.00014370336
24	0x37aa6744	2.0313666e-05
25	0x37ad1d2a	2.0636788e-05
26	0x3661b61d	3.3633617e-06
27	0x370824ee	8.11483e-06
28	0xb7ac37e2	-2.053002e-05
29	0xb74863ab	-1.1944135e-05
30	0x37835356	1.5655223e-05
31	0x36e7cfe4	6.908538e-06

layer1.1.bn1.weight f4 [32]
0	0x3e348362	0.17628244
1	0x3ed5c71f	0.4175348
2	0x3e72b5b8	0.23702133
3	0x3ee7f2a8	0.4530232
4	0x3ee9d618	0.45671153
5	0x3f07caf0	0.53044033
6	0x3e86ad30	0.26304007
7	0x3ebb4bc2	0.36581236
8	0x3da9879d	0.08277819
9	0x3e1a715a	0.15082303
10	0x3ef8770c	0.48528326
11	0x3efcbc7a	0.49362546
12	0x3ebd85b2	0.37016064
13	0x3ee33dc8	0.44383073
14	0x3ef1498f	0.47126433
15	0x3e8f0c99	0.279393
16	0x3ea5942b	0.32339606
17	0x3edd9467	0.43277285
18	0x3ea5d896	0.32391804
19	0x3ee40215	0.44532838
20	0x3e9d1b06	0.3068468
21	0x3eb16da4	0.34653962
22	0x3ec8574f	0.3912911
23	0x3e7b4b22	0.2454038
24	0x3e9def0f	0.3084645
25	0x3f02e9ca	0.51137984
26	0x3e55dd16	0.20885119
27	0x3ec52aab	0.38509116
28	0x3efab2b0	0.48964453
29	0x3eb98780	0.3623619
30	0x3e9fa90a	0.31183654
31	0x3eaf8a11	0.34285024

layer1.1.bn1.bias f4 [32]
0	0xbea1f09d	-0.31628886
1	0xbe327de5	-0.17430837
2	0x3ebb0275	0.36525312
3	0xbecb6695	-0.397267
4	0xbdc41b62	-0.09575535
5	0xbe9c0837	-0.30475017
6	0xbea5c6ad	-0.3237814
7	0xbe82c123	-0.25537977
8	0x3ef7bd7c	0.48386753
9	0xbe4bffb1	-0.19921757
10	0xbe1d4ad0	-0.1536057
11	0xbeb9fd50	-0.36326075
12	0xbe243f72	-0.16039827
13	0xbd466cdb	-0.048443656
14	0xbee1d3a5	-0.44106784
15	0xbd819002	-0.063262954
16	0xbe461b03	-0.19346242
17	0x3f0973ef	0.53692526
18	0xbea961f3	-0.33082542
19	0xbe956b3d	-0.2918338
20	0xbdbe07a5	-0.09278802
21	0xbe8bf5da	-0.27336007
22	0xbe40e58e	-0.18837568
23	0x3ed2ef4e	0.411982
24	0xbe82cb02	-0.25545508
25	0xbe735d7f	-0.23766135
26	0xbd8c4e22	-0.0685084
27	0xbe28b82c	-0.16476506
28	0xbe82df43	-0.2556096
29	0xbe354b68	-0.17704546
30	0x3c872f43	0.016502028
31	0xbeb65e87	-0.35618994

layer1.1.bn1.running_mean f4 [32]
0	0x3b38ae9c	0.0028180247
1	0x3e45f885	0.19333084
2	0xbdb90323	-0.090338014
3	0x3e04c6b8	0.1296643
4	0xbd33057d	-0.043706406
5	0x3d06df73	0.03292794
6	0x3db19f24	0.08672932
7	0x3c779a64	0.015112493
8	0xbca50eb6	-0.020148616
9	0x3c9e6239	0.019333946
10	0x3d4476ce	0.047964863
11	0xbc009e84	-0.007850293
12	0xbda4ae3e	-0.080410466
13	0xbd533d57	-0.05157217
14	0x3d24e1ff	0.04025459
15	0x3d0d7064	0.034531012
16	0x3df7dde8	0.12102872
17	0xbe05cd3f	-0.13066576
18	0x3d09f556	0.033681236
19	0xbcc9d60e	-0.024638202
20	0xbba97ffd	-0.005172728
21	0x3d4e5836	0.050377093
22	0xbc92d8d8	-0.017925665
23	0xbcc0ab9e	-0.023519333
24	0xbd76721a	-0.06016741
25	0xba2913f0	-0.00064498093
26	0x3e03f6e0	0.12887144
27	0xbd779a95	-0.060450155
28	0xbdce935e	-0.10086702
29	0x3d27db15	0.040980417
30	0x3bcc8ce6	0.0062423823
31	0xbcb2ade1	-0.021811428
