log/sem_seg/SatVideoIRSDT__2025-07-22_19-41__SoftLoUloss_DeepPro-Plus_DataL40/checkpoints/epoch_40_model.pth (torch, 941507 bytes, 213 tensors)

conv_in.0.weight f4 [8, 1, 5, 7, 7]
0	0xbde34e23	-0.11098888
1	0x3c3a61cc	0.011375856
2	0x3da9afd7	0.08285492
3	0x3e426742	0.18984702
4	0x3dda5ed0	0.10662615
5	0xbcf84bff	-0.030309675
6	0xbe1d9e36	-0.15392384
7	0x3cf80e3c	0.030280225
8	0x3d9d0124	0.07666233
9	0x3d1ff1bc	0.039048895
10	0x3dfab445	0.12241415
11	0x3da781c1	0.081790455
12	0x3ce78f6c	0.028266631
13	0xbd850dca	-0.06496771
14	0x3c1f5795	0.009725471
15	0x3c8d4f2c	0.017249666
16	0x3cdaa0d5	0.026688019
17	0x3d67a7ab	0.056556385
18	0x3ca184c1	0.019716622
19	0x3b5cfd55	0.0033720334
20	0xbd77de04	-0.060514465
21	0x3c8b6eab	0.017020544
22	0xbd3be7bb	-0.045875292
23	0x3c11a65a	0.008889759
24	0xbcf12761	-0.029437723
25	0xbdb51d95	-0.08843533
26	0xbcf0aeac	-0.029380165
27	0x3cfba0d1	0.030716332
28	0xbc3040d9	-0.010757648
29	0xbdd8d29a	-0.10587044
30	0xbddd9e04	-0.10821155
31	0x3cb2ed7a	0.021841753
32	0xbd33cd13	-0.043896746
33	0xbd12929a	-0.03578434
34	0xbb1a819d	-0.002357579
35	0x3de1b5d1	0.11021007
36	0x3da04472	0.07825555
37	0x3d01c071	0.031677667
38	0x3dd84854	0.105606705
39	0x3d11f4f7	0.035634007
40	0xbc644b86	-0.013934022
41	0xbc5a106a	-0.0133095775
42	0x3cdeb6a8	0.027186707
43	0x3dcb1427	0.09915953
44	0x3dee4da9	0.11635906
45	0x3e0a9f37	0.13537298
46	0x3d0755cf	0.033040818
47	0xbd47e104	-0.048798576
48	0xbd17074f	-0.036872204
49	0xbde007cd	-0.10938988
50	0xbdb5be57	-0.08874195
51	0xbdc7d1f2	-0.09756841
52	0xbd44c2f0	-0.04803747
53	0xbdbedfc3	-0.09320023
54	0xbde9f883	-0.11424353
55	0xbd8ac902	-0.067766204
56	0xbd0b6e6a	-0.034040846
57	0x3c34d332	0.011036681
58	0x3e1782a1	0.14795925
59	0x3e8cedbe	0.27525133
60	0x3e46ac36	0.19401631
61	0x3d9a285f	0.075272314
62	0xbc72ccf0	-0.014819369
63	0xbcfa955e	-0.030588802
64	0xbc6c88b8	-0.014436893
65	0x3daf5165	0.08560447
66	0x3eb59150	0.35462427
67	0x3e7bf551	0.246053
68	0x3e125a63	0.14292292
69	0xbc83bb21	-0.016080441
70	0x3cb69da2	0.022291962
71	0xbd2c19f4	-0.04201694
72	0xbdea952c	-0.114542335
73	0x3cbabbe5	0.022794673
74	0x3df1e4b6	0.11811201
75	0x3e33722b	0.1752402
76	0x3cc5dc89	0.02415301
77	0xbc619b47	-0.013769931
78	0xbc585fad	-0.013206405
79	0xbd1d6d6f	-0.038434442
80	0x3d984408	0.07434851
81	0xba20c871	-0.0006133384
82	0xba03d405	-0.0005028847
83	0xbd716792	-0.058936663
84	0xbc10e57c	-0.008843776
85	0x3d5d2d64	0.053998366
86	0x3cff68d0	0.031177908
87	0x3dd8e403	0.10590365
88	0x3d677c7c	0.056515202
89	0xb6706130	-3.5819357e-06
90	0x3b0b9ee5	0.0021304425
91	0xbdae86a7	-0.08521777
92	0xbdc09913	-0.094041966
93	0xbdee4efc	-0.11636159
94	0xbc886a7d	-0.01665234
95	0xbb5b85a9	-0.0033496416
96	0xbd08cebe	-0.03340029
97	0xbb92fec9	-0.004485939
98	0x3d5cb2cd	0.053881455
99	0x3d5736a3	0.05254234
100	0x3b94b845	0.004538568
101	0xbd0be17b	-0.03415058
102	0xbdba8bc9	-0.09108693
103	0x3b53bc8b	0.0032308425
104	0xbad2cf15	-0.0016083444
105	0x3c64ead5	0.013972004
106	0xba8163c1	-0.0009871648
107	0x3ce448ff	0.027866838
108	0x3e0981f5	0.13428481
109	0xbb1d6361	-0.0024015533
110	0xb67fc1a8	-3.8110684e-06
111	0xbd00237f	-0.03128385
112	0x3b3fdb93	0.0029275164
113	0xbd1f4e59	-0.038893078
114	0x3d384105	0.044983882
115	0x3e4922ee	0.19642231
116	0xbc17d66d	-0.009267432
117	0xbd0a8238	-0.033815593
118	0xbcbcffc2	-0.023071174
119	0x3caf25b7	0.021380289
120	0xbbf82fef	-0.0075740735
121	0xbd18e469	-0.037327204
122	0xbc5a5663	-0.01332626
123	0xbcf61222	-0.030037943
124	0x3d58cf8b	0.052932303
125	0x3cc0e61c	0.023547225
126	0xbcbe4ed0	-0.02323094
127	0xbd701f73	-0.058623742
128	0xbdd11cdc	-0.102105826
129	0xbd58b637	-0.05290815
130	0xbdab3e4f	-0.08361494
131	0xbd986f2b	-0.074430786
132	0xbc863e09	-0.016387003
133	0x3b83f227	0.0040266695
134	0xbd002190	-0.031282008
135	0xbd7193aa	-0.058978714
136	0xbcf04291	-0.029328616
137	0xbd832852	-0.06404175
138	0xbd78e49f	-0.060764905
139	0xba2029b1	-0.0006109728
140	0xbc12a393	-0.008950132
141	0xbcbc47f5	-0.02298353
142	0xbc377380	-0.011196971
143	0x3ca21c93	0.019789016
144	0xbce70254	-0.028199352
145	0xbd6622c7	-0.05618551
146	0xbd28186f	-0.041038927
147	0x3dc18cda	0.094506934
148	0x3d54ad67	0.05192318
149	0x3ce59f22	0.028029982
150	0x3d6d3d80	0.05791998
151	0x3e048f1e	0.1294522
152	0x3e4e5ed6	0.20153365
153	0x3e218ce0	0.15776396
154	0x3e39a4d2	0.1812928
155	0x3cbd7546	0.02312721
156	0x3ddff6a9	0.109357186
157	0x3e340077	0.17578302
158	0x3e066d7e	0.13127705
159	0x3e1ac07f	0.15112494
160	0x3dc736e9	0.0972727
161	0x3e4d55ac	0.20052212
162	0x3e542cbb	0.20720188
163	0x3eb305c1	0.34965327
164	0x3e07e2ee	0.1327016
165	0x3e41005c	0.18847793
166	0x3e355552	0.17708328
167	0x3d088e03	0.033338558
168	0x3e4b9a26	0.19883022
169	0x3e841796	0.25799245
170	0x3e7ebece	0.24877474
171	0x3d33546c	0.043781683
172	0x3de15157	0.110018425
173	0x3e3f1161	0.18658973
174	0x3d85cc56	0.065331146
175	0x3da73c5b	0.08165809
176	0x3dce87cb	0.10084494
177	0x3e34b582	0.17647365
178	0x3dfa4fc4	0.12222245
179	0x3e842666	0.25810546
180	0x3daa2036	0.08306925
181	0x3db4d708	0.088300765
182	0x3dc3e4fd	0.095651604
183	0x3a12458b	0.0005579821
184	0x3dfeb574	0.12436953
185	0x3e595d52	0.21227005
186	0x3e2e8f62	0.17046884
187	0x3c138c81	0.009005667
188	0x3dbf34da	0.093362525
189	0x3e1c7aaf	0.15281175
190	0x3d4bee7b	0.04978798
191	0x3da9a59d	0.08283541
192	0x3da21fcc	0.07916221
193	0x3dab01a8	0.08349925
194	0x3d8fda8d	0.07024107
195	0x3df7eefa	0.12106128
196	0xbd36da97	-0.044642057
197	0x3d4cc248	0.04998997
198	0xbd28772e	-0.041129284
199	0xbd92239e	-0.071357
200	0xbd0e6646	-0.034765504
201	0x3c5d18a9	0.013494649
202	0xbcf02969	-0.02931662
203	0xbc815864	-0.015789218
204	0xbc9489a5	-0.01813204
205	0xbd6d42a9	-0.0579249
206	0xbd863e69	-0.065548725
207	0xbd5b5b62	-0.053553946
208	0x3c9c7e18	0.019103095
209	0x3d116553	0.03549702
210	0xbcc8fda9	-0.024535017
211	0xbd2678ed	-0.040642668
212	0xbc26db81	-0.01018417
213	0xbbbf5404	-0.005838873
214	0xbd68d3d8	-0.056842655
215	0xbc87391c	-0.016506724
216	0x3cb33aea	0.021878678
217	0x3d41adfd	0.04728507
218	0x3d07a130	0.033112705
219	0x3d66d071	0.05635113
220	0x3cd49364	0.025949188
221	0x3d137fe8	0.036010653
222	0x3d5aa997	0.05338439
223	0x3d99d30e	0.075109586
224	0x3c1448d6	0.009050569
225	0xbd56e9cb	-0.052469056
226	0xbb36d842	-0.0027899896
227	0x3d2331b6	0.03984233
228	0x3db8ec33	0.090294264
229	0x3c6c008d	0.014404428
230	0x3d213f18	0.03936681
231	0x3c65ef64	0.014034126
232	0xbccf60b9	-0.025314676
233	0xbc863f62	-0.016387645
234	0x3a7aafb1	0.0009562923
235	0x3d4072dd	0.046984542
236	0x3d238867	0.039925005
237	0x3d90c8f9	0.070695825
238	0x3cb29b7a	0.021802653
239	0xbc23f932	-0.010008143
240	0xbd5bc915	-0.053658564
241	0xbd703f05	-0.05865385
242	0x3cbe24bd	0.023210878
243	0x3d567cd0	0.052365124
244	0x3cfca80c	0.03084185
245	0x3ca3e736	0.02000771
246	0x3b2e6c21	0.0026614743
247	0xbd14b3f6	-0.036304437
248	0xbd8907c6	-0.06690936
249	0xbccd6f39	-0.02507745
250	0x3d7948e8	0.060860544
251	0xb9439b35	-0.00018654468
252	0x3d349894	0.044090822
253	0x3ccc380d	0.02492907
254	0x3ca9b6f2	0.020717118
255	0x3d57d989	0.052697692

conv_in.0.bias f4 [8]
0	0xb82949e0	-4.036154e-05
1	0xb3c53600	-9.18335e-08
2	0xb709f712	-8.223362e-06
3	0x370fa6b0	8.562274e-06
4	0x367d813c	3.7775162e-06
5	0x37c188d5	2.307111e-05
6	0xb8891dd6	-6.5382264e-05
7	0x37e53680	2.7324306e-05

conv_in.1.weight f4 [8]
0	0x3f38e43f	0.72223276
1	0x3f58f488	0.84748125
2	0x3f15c73f	0.5850715
3	0x3ee21489	0.44156292
4	0x3f285065	0.6574767
5	0x3f21b16f	0.6316137
6	0x3f3db1fa	0.74099696
7	0x3f0b06be	0.5430716

conv_in.1.bias f4 [8]
0	0x3d027c79	0.031856988
1	0x3c9beec9	0.01903476
2	0x3c2d08f7	0.010561219
3	0x3c358385	0.01107872
4	0xba2bc31a	-0.0006552205
5	0xbcc794e8	-0.024362996
6	0xbd77b82a	-0.060478367
7	0x3cfda086	0.030960333

conv_in.1.running_mean f4 [8]
0	0xbd8d269d	-0.068921305
1	0x3d8ae59e	0.06782077
2	0x3ed79648	0.42106843
3	0x3b98c20a	0.004661803
4	0x3c838f81	0.016059639
5	0x3cd56f2a	0.026053984
6	0x3c9d6881	0.01921487
7	0xbe070b8c	-0.13187999

conv_in.1.running_var f4 [8]
0	0x40e5a115	7.1759133
1	0x411b9dcc	9.726025
2	0x411d6ed2	9.839556
3	0x40962660	4.6921844
4	0x4100dd2c	8.053997
5	0x40c4ea6e	6.153617
6	0x4040e63e	3.0140529
7	0x410bd258	8.738853

layer1.0.conv1.weight f4 [16, 8, 3, 3, 3]
0	0x3d8e3d0f	0.0694524
1	0x3e0871c0	0.13324642
2	0x3e906849	0.28204563
3	0xbd12c0eb	-0.035828512
4	0xbe26b029	-0.16278137
5	0xbe2dd9c8	-0.16977608
6	0x3e003e7f	0.1252384
7	0x3c73c939	0.014879518
8	0x3e0bbc65	0.13646086
9	0xbcc83896	-0.024441045
10	0xbce56d96	-0.028006356
11	0xbda6caac	-0.08144125
12	0xbc245c60	-0.01003179
13	0x3c948dc9	0.018134015
14	0x3d89e68f	0.06733429
15	0xbb995e25	-0.0046804124
16	0xba94867b	-0.0011331582
17	0xb9a284ef	-0.0003099809
18	0xbd7fb305	-0.062426586
19	0xbdd15128	-0.102205575
20	0xbe2ed407	-0.1707307
21	0x3d7a9d65	0.06118526
22	0x3e0152e3	0.12629275
23	0x3d8ee23e	0.06976746
24	0xbe17fda1	-0.14842845
25	0xb9d9a37b	-0.00041511268
26	0xbe0342a0	-0.12818384
27	0xbc984204	-0.018586166
28	0xbb15f6a2	-0.00228826
29	0x3e63fb2a	0.2226378
30	0x3d4683ff	0.048465725
31	0xbd9d48b5	-0.076798834
32	0xbe0d41aa	-0.1379458
33	0x3da70d0f	0.081567876
34	0xbdc356b8	-0.09538025
35	0x3dfe3b9d	0.12413714
36	0x3c6520e0	0.013984889
37	0x3d97b4fa	0.074075654
38	0x3cff78b5	0.031185487
39	0x3d494285	0.049135704
40	0xbd2e510e	-0.04255777
41	0xbd14187c	-0.036156163
42	0xbc336072	-0.010948287
43	0xbcc6c753	-0.024264967
44	0x3c9a23ec	0.018815957
45	0x3c93ed16	0.018057387
46	0xbd8df1fa	-0.06930919
47	0xbe6eabe4	-0.23307759
48	0xbdc6d751	-0.09709037
49	0x3df906df	0.12159514
50	0x3e4ebce9	0.20189251
51	0xbd78783e	-0.060661547
52	0x3df3b688	0.119000494
53	0xbe145f80	-0.14489555
54	0x3d22a39d	0.039706815
55	0x3da973d6	0.08274047
56	0x3c971d75	0.018446663
57	0xbcec6732	-0.028857801
58	0xbc7b3f06	-0.01533485
59	0x3c053750	0.008130863
60	0x3d67caa6	0.056589745
61	0x3d8f8c97	0.07009237
62	0x3d569802	0.05239106
63	0x3ce90ff5	0.028449992
64	0xbd67a70f	-0.056555804
65	0xbc2ff807	-0.010740287
66	0x3cca3186	0.024681818
67	0xbc471db8	-0.012153082
68	0x3d1a6fe4	0.037704363
69	0xbd56f7db	-0.052482467
70	0xbcfae1ba	-0.030625213
71	0xbb0acc41	-0.0021178874
72	0xbdab5160	-0.083651304
73	0xbcfe23dd	-0.03102296
74	0xbac409fe	-0.0014956591
75	0x3b856c9b	0.0040717847
76	0x3c839453	0.016061937
77	0xbd3b60a6	-0.045746468
78	0x3c3bd097	0.011463306
79	0xbd4cce67	-0.050001528
80	0xbd9478d4	-0.07249609
81	0xbd1f05b6	-0.038823806
82	0xbc8bb5a6	-0.01705439
83	0x3df1a3e2	0.11798836
84	0xbc64e4cc	-0.013970565
85	0xbd07db45	-0.033168096
86	0x3d3b3dca	0.045713224
87	0x3c6cdcbf	0.014456927
88	0xbc0ea3b5	-0.008706023
89	0x3c517cf3	0.012786138
90	0x3b9f303f	0.0048580463
91	0x3be7dca5	0.0070758634
92	0xbdd677c1	-0.1047206
93	0xbd65fdd8	-0.056150287
94	0x3b9fea45	0.004880222
95	0xbd6f322f	-0.05839747
96	0xbcdfc8b7	-0.027317388
97	0x3cc622db	0.024186542
98	0x3c529ee0	0.012855262
99	0x3cf56e9a	0.029959965
100	0x3891b9e0	6.948761e-05
101	0x3c031439	0.008000427
102	0x3dad0515	0.08448235
103	0x3c4e3a0c	0.012587082
104	0x3cccffd2	0.025024328
105	0x3c7ce8dc	0.015436377
106	0xbc98b3da	-0.018640447
107	0xbcf710a1	-0.030159296
108	0x3d25c19a	0.040467836
109	0x3b992c29	0.0046744538
110	0xbd918e9c	-0.07107279
111	0x3d606c88	0.054791003
112	0x3d2fa160	0.04287851
113	0xbdbc589f	-0.09196591
114	0xbd752c27	-0.05985656
115	0xbe383a14	-0.17990905
116	0xbdd41d1a	-0.10357113
117	0xbd3d0527	-0.04614749
118	0x3c326daa	0.010890404
119	0x3d6328ed	0.05545895
120	0xbe075ae5	-0.13218267
121	0xbde3bb14	-0.11119667
122	0x3d11a409	0.035556827
123	0x3cc8c032	0.024505708
124	0x3dadefe3	0.084930204
125	0x3ddb29c9	0.10701329
126	0x3c902129	0.017593937
127	0xbc585c12	-0.013205545
128	0xbc196076	-0.009361377
129	0x3de31c97	0.110894375
130	0x3dd89f26	0.1057723
131	0x3d38e0e7	0.04513636
132	0x3d45e2e3	0.04831208
133	0x3d84c46b	0.06482776
134	0xbd423b3a	-0.047419764
135	0x3d0bc0c6	0.03411939
136	0x3d21c6f5	0.03949638
137	0x3cae9d05	0.021315107
138	0xbdbaebf4	-0.09127036
139	0xbd302549	-0.043004308
140	0xbdd2b4d6	-0.10288398
141	0x3c8a82d0	0.01690808
142	0x3d8a4bff	0.06752776
143	0x3d6d42e7	0.05792513
144	0xbcbd3645	-0.023097167
145	0xbd5f63b9	-0.054538462
146	0xbccd45fa	-0.025057781
147	0xbcc778c2	-0.024349574
148	0xbbe6db53	-0.0070451885
149	0x3dec7ff8	0.115478456
150	0x3c443901	0.011976481
151	0x3d3fd57f	0.046834465
152	0x3d35ed33	0.044415664
153	0xbc92b67b	-0.01790928
154	0x3ccadb4e	0.024762776
155	0x3c71306c	0.014721017
156	0x3e06159c	0.13094181
157	0x3d5c73f8	0.053821534
158	0xbd4b3487	-0.04961064
159	0xbd4be027	-0.049774315
160	0xbe0a0dc7	-0.13481818
161	0xbdd411da	-0.103549674
162	0x3bc0c488	0.0058828034
163	0x3d879190	0.06619561
164	0x3de69dcb	0.11260565
165	0x3da15ac6	0.07878642
166	0xbe07a648	-0.13247025
167	0xbe58fe12	-0.2119067
168	0x3da77c96	0.0817806
169	0xbd368f97	-0.04457053
170	0x3e17cb71	0.148237
171	0x3b3b2d4c	0.0028560935
172	0x3d9b34dc	0.075784415
173	0x3d8653cc	0.06558952
174	0xbdcb8d35	-0.099390425
175	0xbe4e3ef3	-0.201412
176	0xbd9fcec1	-0.07803107
177	0x3df0bc91	0.11754716
178	0x3e0c2810	0.13687158
179	0x3cd52a8a	0.02602126
180	0xb9a18c8a	-0.00030813023
181	0xbe27a2cd	-0.16370697
182	0xbe314b28	-0.17313826
183	0x3da96209	0.08270652
184	0x3ec87d4e	0.391581
185	0x3e9a74dc	0.30167282
186	0xbe814f31	-0.2525573
187	0xbe331e2d	-0.1749198
188	0xbe367354	-0.17817432
189	0x3d642710	0.055701315
190	0x3c8d97d4	0.017284311
191	0x3c320cfd	0.010867354
192	0xbd26b305	-0.04069807
193	0x3da93606	0.08262257
194	0x3db13b4f	0.0865389
195	0xbcf4e66e	-0.029895034
196	0xbd49eb5f	-0.049296733
197	0x3cfc88b7	0.03082691
198	0xbd38d351	-0.045123402
199	0x3d24f2af	0.040270504
200	0xbc6ac340	-0.014328778
201	0x3d428134	0.0474865
202	0x3ac9283a	0.0015347071
203	0xbd87d792	-0.06632914
204	0xbcf245df	-0.029574333
205	0x3d5b8066	0.053589247
206	0xbc547ac5	-0.012968724
207	0x3bb65aaa	0.005565007
208	0xbd2d2b81	-0.042277817
209	0x3c1b745b	0.0094881905
210	0x3c159745	0.009130304
211	0xbd92725d	-0.07150719
212	0x3c3045c4	0.010758821
213	0x3d8c6809	0.06855781
214	0xbc89efbe	-0.01683795
215	0xbc5f106d	-0.013614756
216	0x3cf51a20	0.029919684
217	0x3d59b3b3	0.05314989
218	0xbd875e00	-0.06609726
219	0xbe890b2b	-0.26766333
220	0x3de2d504	0.11075786
221	0x3d88ff4e	0.066893205
222	0xbec082e5	-0.37599865
223	0x3d2a814b	0.04162721
224	0xbc84a506	-0.01619197
225	0xbbc597c2	-0.006030054
226	0x3c06ed70	0.00823532
227	0x3c9e3bc5	0.01931561
228	0x3e046d59	0.12932338
229	0xbc10fb25	-0.00884894
230	0xbda0a445	-0.07843832
231	0x3e4af499	0.19819869
232	0x3c96b998	0.018399045
233	0xbc4de0b0	-0.012565777
234	0xbc882fa3	-0.016624277
235	0xbd79cd19	-0.060986612
236	0x3d6032c6	0.05473592
237	0x3dbc8324	0.092047006
238	0xbdb2d01f	-0.08731102
239	0x3cba7093	0.022758758
240	0x3dabc8ec	0.08387932
241	0xbd5db463	-0.05412711
242	0x3d1ade90	0.03780991
243	0xbd886703	-0.06660273
244	0xba4b583d	-0.0007756984
245	0xbe388cfb	-0.1802253
246	0xbd9360a7	-0.07196169
247	0x3e1d4ce3	0.15361361
248	0x3d0edace	0.034876637
249	0xbe031686	-0.12801561
250	0x3d9ade5e	0.075619444
251	0xbd15e5f9	-0.036596272
252	0x3d329ed4	0.0436085
253	0x3c168076	0.009185901
254	0x3d4c8498	0.04993114
255	0xbd9d18c4	-0.07670739

layer1.0.conv1.bias f4 [16]
0	0xb63b3575	-2.7896288e-06
1	0x3916867e	0.00014355217
2	0x37cf9b2c	2.474858e-05
3	0xb6db4742	-6.535004e-06
4	0x383f8bc7	4.5668126e-05
5	0x37c5c1d8	2.3574496e-05
6	0xb7c3368a	-2.3271208e-05
7	0xb6900f9b	-4.293351e-06
8	0x37833c36	1.5644455e-05
9	0xb89afe5c	-7.39067e-05
10	0x381dcc32	3.762189e-05
11	0x3862a7d7	5.4038912e-05
12	0xb8f56437	-0.00011701177
13	0xb7dc2b62	-2.6246245e-05
14	0xb7a93ae4	-2.0173793e-05
15	0x387d9554	6.0458973e-05

layer1.0.bn1.weight f4 [16]
0	0x3eeed013	0.46643123
1	0x3ef9c7fd	0.4878539
2	0x3f1e2511	0.6177531
3	0x3f1039c4	0.56338143
4	0x3f119132	0.56862175
5	0x3f0c4d55	0.548055
6	0x3f0fa0f4	0.5610497
7	0x3ee89fa1	0.45434287
8	0x3eea3c5a	0.4574917
9	0x3f1a7b62	0.6034452
10	0x3f16e18e	0.5893792
11	0x3f0221a2	0.5083257
12	0x3ef2ba95	0.47407976
13	0x3f09bf55	0.53807575
14	0x3f796bab	0.97429913
15	0x3f10d7d8	0.5657935

layer1.0.bn1.bias f4 [16]
0	0xbd5ca649	-0.05386952
1	0xbd88cf00	-0.06680107
2	0x3bb4652e	0.0055052256
3	0x3b7c58cf	0.0038505082
4	0xbd58378c	-0.05278735
5	0x3e5b7749	0.21432222
6	0x3d19bd6c	0.037534162
7	0xbbaf7989	-0.0053550643
8	0xbccacfc3	-0.024757272
9	0x3c90be19	0.01766877
10	0x3e409a06	0.18808755
11	0xbe350d50	-0.1768086
12	0xbdfb1065	-0.122589864
13	0x3d1cd516	0.038289152
14	0xbda75e91	-0.08172334
15	0xbe0760c5	-0.13220508

layer1.0.bn1.running_mean f4 [16]
0	0xb98b32b6	-0.0002654993
1	0x3ca7cf5c	0.020484619
2	0x3cc8dcc1	0.024519326
3	0xba08503d	-0.0005199945
4	0x3cd6fd23	0.026243752
5	0xbca6584c	-0.020305775
6	0x3d24db49	0.04024819
7	0xbb1493f6	-0.00226712
8	0x3c3a2f4a	0.011363814
9	0x3cdf65ae	0.027270164
10	0xbb83dc40	-0.0040240586
11	0x3b1e9228	0.0024196003
12	0x3cce9da4	0.025221653
13	0x3cef868b	0.02923896
14	0xbd8a0b48	-0.06740433
15	0x3c999f8e	0.01875284

layer1.0.bn1.running_var f4 [16]
0	0x3ea3bc77	0.31979725
1	0x3eb6028f	0.35548827
2	0x3f83303f	1.0249099
3	0x3f852390	1.0401478
4	0x3f2e031e	0.67973506
5	0x3f5aff41	0.85545737
6	0x3f2abf8b	0.6669852
7	0x3f318823	0.69348353
8	0x3f1fc7de	0.6241435
9	0x3f1fdc78	0.62445784
10	0x3f586fe7	0.8454575
11	0x3ea6f7b2	0.32610852
12	0x3ee3462d	0.44389477
13	0x3f567e31	0.837863
14	0x3f97e699	1.1867248
15	0x3f01e87b	0.5074536

layer1.0.conv2.weight f4 [16, 16, 3, 3, 3]
0	0x3d7c85fa	0.061651208
1	0x3d690c15	0.056896288
2	0xbd981957	-0.07426708
3	0x3de3a0bc	0.11114642
4	0xbdf7cc73	-0.120995425
5	0xbbe7db8f	-0.007075734
6	0x3d30af8c	0.043136165
7	0xbcd1c356	-0.025605839
8	0xbcf2249a	-0.029558469
9	0x3dcb9c62	0.09941937
10	0x3d1ac13e	0.037781946
11	0xbc5adbfb	-0.0133581115
12	0x3cf5f29a	0.030022908
13	0xbdea13c7	-0.114295535
14	0xbdc32fae	-0.095305786
15	0x3d18d1c6	0.03730943
16	0x3d933b04	0.07188991
17	0xbd38c3ff	-0.04510879
18	0x3dc9d297	0.0985462
19	0x3d47d18d	0.048783828
20	0x3d0593d6	0.03261169
21	0x3d037b93	0.03210027
22	0xbdf62022	-0.120178476
23	0xbdb609d4	-0.08888593
24	0x3d990013	0.07470717
25	0xbd22ac00	-0.039714813
26	0xbd1475d3	-0.03624518
27	0x3cdce426	0.026964258
28	0xbd9651d3	-0.073398255
29	0x3da77895	0.08177296
30	0x3d4ef6e8	0.050528437
31	0xbe3fde06	-0.18737039
32	0x3d469b1f	0.04848778
33	0xbbb62eee	-0.0055597937
34	0xbd53354c	-0.0515645
35	0x3d6c6138	0.057709903
36	0xbcdaf09f	-0.026726065
37	0xbb43a6d9	-0.0029854088
38	0x3d915d0f	0.07097828
39	0x3cf03204	0.029320724
40	0xbe2dc619	-0.169701
41	0xbe15f589	-0.14644445
42	0xbd4689a2	-0.0484711
43	0xbd547f4d	-0.051879216
44	0x3dc47f93	0.09594645
45	0xbd55745c	-0.052112922
46	0xb984bb0e	-0.0002531637
47	0xbd1cd05d	-0.03828465
48	0x3d8658b4	0.065598875
49	0xbe25c2e7	-0.1618763
50	0xbdcaaef3	-0.0989665
51	0xbd488fe8	-0.048965365
52	0x3c8db4c7	0.017298115
53	0xbd8d725c	-0.06906578
54	0x3c2fb8ad	0.0107251825
55	0x3ddc2d9c	0.10750887
56	0x3e11f3b0	0.14253116
57	0x3dc1223f	0.0943036
58	0xbd3b4cdb	-0.045727592
59	0x3cd73068	0.0262682
60	0x3c9f798b	0.019467136
61	0x3d291111	0.04127604
62	0xbd6c62b7	-0.05771133
63	0x3d0c6091	0.03427178
64	0x3d2fbd16	0.042904936
65	0xbd24a5ab	-0.040197056
66	0xbc96f5e2	-0.018427793
67	0xbd91f581	-0.07126904
68	0xbb2518d9	-0.0025191812
69	0x3b872ff7	0.004125591
70	0xbd80638b	-0.06268986
71	0xbdb5c173	-0.08874788
72	0x3b911669	0.0044277203
73	0x3def744e	0.11692105
74	0xbdf93fd1	-0.12170375
75	0x3d172a60	0.036905646
76	0xbe0435fd	-0.1291122
77	0xbc8f0021	-0.017456116
78	0x3d2e0360	0.042483687
79	0xbdeccd31	-0.11562575
80	0xbdaf2a27	-0.08552962
81	0xbcacbc39	-0.021085845
82	0xbc34b4e3	-0.011029455
83	0xbd91d3f6	-0.071205065
84	0x3ac64964	0.0015128073
85	0xbdbc9e61	-0.09209896
86	0x3e0f367b	0.13985626
87	0x3d78ec0c	0.060771987
88	0x3dc44942	0.09584285
89	0x3d2cadb3	0.04215784
90	0xbd90070c	-0.07032594
91	0x3ccef3a0	0.025262654
92	0xbdb51792	-0.08842386
93	0xbd866476	-0.0656213
94	0xbdf9a7f9	-0.12190241
95	0x3dc15990	0.09440911
96	0xbb5e97be	-0.0033964957
97	0x3cfbd196	0.030739587
98	0xbd863cd1	-0.065545686
99	0xbc8c0e1f	-0.017096577
100	0xb9e2e21c	-0.00043274544
101	0xbd875f4f	-0.066099755
102	0x3c1198f4	0.0088865645
103	0xbe15ba0f	-0.14621757
104	0xbd9211dd	-0.071323134
105	0xbb103f9d	-0.0022010573
106	0x3d4bebb3	0.049785327
107	0xbe03eb02	-0.12882617
108	0xbcf7db5d	-0.030255968
109	0x3cbac006	0.022796642
110	0xbe808dce	-0.25108188
111	0xbdb6c5b5	-0.089244284
112	0xbe057e76	-0.13036522
113	0xbd13e4aa	-0.036106743
114	0x3d13517c	0.03596638
115	0xbc46307e	-0.012096522
116	0xbd339498	-0.043842882
117	0xbd29586a	-0.041344084
118	0xba9273bc	-0.0011173408
119	0xbd3339ff	-0.04375648
120	0xbdfd572a	-0.12370141
121	0xbdc309ab	-0.095233284
122	0xbd4d31d6	-0.050096355
123	0xbd448d19	-0.047986124
124	0x3bcbcaba	0.0062192352
125	0xbd0b855c	-0.03406273
126	0x3d1bb3cd	0.03801327
127	0x3ca5c1c6	0.020234
128	0x3c9a5452	0.018839035
129	0xbce01cde	-0.027357515
130	0xbd0fdcc0	-0.035122633
131	0xbd87a8fb	-0.06624027
132	0x3d3a5aa0	0.045496583
133	0xbbf8b1e5	-0.007589566
134	0xbe02773b	-0.12740795
135	0x3b4df06b	0.0031423818
136	0x3dbd7fc1	0.09252883
137	0x3dd14ea4	0.10220078
138	0x3d93ca52	0.07216324
139	0xbba205cc	-0.0049445387
140	0xbe588b3a	-0.2114686
141	0x3d6404d6	0.055668674
142	0x3d5fcea7	0.05464044
143	0xbc9c1f53	-0.019057905
144	0xbde23da0	-0.1104691
145	0xbd673dc9	-0.056455407
146	0x3ca838ef	0.02053496
147	0xbcff465c	-0.03116148
148	0xbe195c96	-0.14976725
149	0x3d142bbf	0.036174532
150	0xbc676e10	-0.014125362
151	0x3dd45021	0.10366846
152	0x3e3d7c22	0.18504384
153	0xbd38843c	-0.045047984
154	0xbd818a1d	-0.06325171
155	0xbbaee6c2	-0.005337567
156	0x3d3b90cb	0.045792382
157	0xbe783d09	-0.24242033
158	0x3e41c7f2	0.1892393
159	0xbda612ba	-0.081090406
160	0x3b77d81f	0.0037818027
161	0x3e1ebe9b	0.15502398
162	0x3dc2ed6a	0.095179394
163	0xbd52197b	-0.05129383
164	0xbe20f08c	-0.15716761
165	0x3db4da99	0.08830757
166	0xbe685a76	-0.22690758
167	0xbcbb9aae	-0.022900905
168	0xbcb013e1	-0.021493854
169	0x3c1de5d7	0.009637318
170	0x3d010a68	0.031504065
171	0x3c54648d	0.012963426
172	0xbddc12ec	-0.107457966
173	0xbd1ef449	-0.038807187
174	0x3bd4bc9e	0.0064922115
175	0xbe206016	-0.15661654
176	0xbd2d12e4	-0.042254344
177	0xb98b2e03	-0.00026546427
178	0x3d36161b	0.044454675
179	0xbbb1aebe	-0.005422442
180	0xbc67e397	-0.014153383
181	0xbe21efe6	-0.1581417
182	0x3db5fd60	0.08886218
183	0x3dab6d57	0.08370464
184	0xbe4b34ae	-0.19844314
185	0x3cad1fe6	0.021133374
186	0xbccc6746	-0.024951588
187	0xbd8b529b	-0.06802865
188	0xbd49ee1d	-0.04929935
189	0x3d636d1b	0.055523973
190	0x3d3b9725	0.04579844
191	0xbe00eb16	-0.12589678
192	0x3e0367d9	0.12832583
193	0xbda4d19d	-0.08047793
194	0xbd1a4a2f	-0.037668403
195	0xbcaf74ae	-0.021417942
196	0xbd38ba34	-0.045099452
197	0x3d3fd63c	0.04683517
198	0xbb7805ac	-0.0037845178
199	0xbaf3a46a	-0.0018588428
200	0x3d73c934	0.059518054
201	0x3c442a9d	0.01197305
202	0xbdef5876	-0.116867945
203	0x3daf020a	0.08545311
204	0x3dbe2f0f	0.092863195
205	0xbd4855d7	-0.04890999
206	0xbd4436eb	-0.047903936
207	0x3d0788aa	0.033089317
208	0xbd1ae2dd	-0.03781401
209	0x3da6275e	0.081129774
210	0x3cccb692	0.0249894
211	0xbdc011bb	-0.09378382
212	0x3df2d088	0.118561804
213	0x3b2b28b5	0.0026116793
214	0xbd921f1b	-0.07134839
215	0xbcaa2147	-0.020767821
216	0xbca588a0	-0.02020675
217	0x3d1f9f90	0.03897053
218	0xbb8dfe11	-0.0043332656
219	0x3d88c097	0.066773586
220	0xbe212550	-0.1573689
221	0xbd549568	-0.051900297
222	0xbd23004e	-0.039795212
223	0xbda097e8	-0.07841474
224	0x3c914fd8	0.017738268
225	0x3cbda8c0	0.023151755
226	0xbd89d4a3	-0.0673001
227	0xbdf96546	-0.121775195
228	0x3d82725b	0.06369468
229	0xbdee6921	-0.116411455
230	0x3cb2d519	0.021830129
231	0xbc5ca05e	-0.013465969
232	0x3d87e18b	0.06634816
233	0x3dd35871	0.10319603
234	0x3a851a63	0.0010154959
235	0xbe18d780	-0.14925957
236	0xbdf95687	-0.12174707
237	0x3cc7a6fa	0.024371613
238	0xbe18decc	-0.1492874
239	0x3ca2b32e	0.01986083
240	0xbc15ea4a	-0.009150097
241	0x3d998846	0.07496695
242	0x3d4fdaa6	0.05074563
243	0xbbcb6e5d	-0.0062082247
244	0x3d511d47	0.05105331
245	0xbc970f95	-0.018440047
246	0x3c5daa94	0.0135294385
247	0xbe148cc9	-0.1450683
248	0xbd016bac	-0.031596825
249	0x3cb9bca3	0.022672957
250	0x3daf7ebc	0.085690945
251	0xbe050a37	-0.12992178
252	0x3cd33681	0.025782825
253	0x3b0ca48e	0.0021460387
254	0xbd19a56a	-0.037511267
255	0xbb18b55d	-0.002330146

layer1.0.conv2.bias f4 [16]
0	0x371788e8	9.032177e-06
1	0xb7fb2915	-2.9940662e-05
2	0x37eefecc	2.849046e-05
3	0xb8ee93ce	-0.00011376255
4	0xb871e5bd	-5.7672838e-05
5	0x370ca50b	8.383077e-06
6	0x389462cd	7.075593e-05
7	0x37c8478c	2.3875175e-05
8	0xb7f4c0fb	-2.917693e-05
9	0x3743770f	1.1650626e-05
10	0xb6bcc3cc	-5.6256304e-06
11	0xb64a34fe	-3.013119e-06
12	0xb73a0dad	-1.1089648e-05
13	0xb8ae7eb2	-8.3205654e-05
14	0xb7888b06	-1.6277201e-05
15	0xb851a261	-4.998071e-05

layer1.0.bn2.weight f4 [16]
0	0x3f266bf8	0.650085
1	0x3f170d4a	0.5900465
2	0x3f22ac4f	0.6354417
3	0x3eee8d43	0.4659215
4	0x3ecef583	0.40421686
5	0x3efb410e	0.4907307
6	0x3f23a26a	0.639197
7	0x3f2a1574	0.66438985
8	0x3f19dfa0	0.6010685
9	0x3eea8517	0.45804664
10	0x3f0d19a5	0.55117255
11	0x3eaa217f	0.3322868
12	0x3f0115f7	0.5042414
13	0x3f3e5d53	0.7436115
14	0x3f02501d	0.50903493
15	0x3f0332be	0.512493

layer1.0.bn2.bias f4 [16]
0	0xbe181197	-0.1485046
1	0x3df758cc	0.120774835
2	0xbe0e1583	-0.13875394
3	0x3d9106e7	0.07081395
4	0x3ec2792b	0.3798307
5	0xbe157572	-0.14595583
6	0xbc09c1dc	-0.008408036
7	0xbe49db38	-0.19712532
8	0xbdece76f	-0.1156758
9	0xbe4d3a2b	-0.2004172
10	0xbe2b616b	-0.16736381
11	0xbe0b3d86	-0.13597688
12	0x3e39e50e	0.18153784
13	0xbe2d54c1	-0.16926862
14	0xbcf712a2	-0.030160252
15	0x3d240ba3	0.04005016

layer1.0.bn2.running_mean f4 [16]
0	0xbf8022b8	-1.0010595
1	0xbf7ca5ff	-0.9869079
2	0xbfa0102c	-1.2504935
3	0xbf0a8dc4	-0.5412257
4	0xbf039757	-0.514028
5	0xbf8dc7e1	-1.1076623
6	0xbf99897d	-1.1995083
7	0xbfae6cc5	-1.3626944
8	0x3f81cf17	1.0141324
9	0x3d8f9ec9	0.07012708
10	0x3f5e91ec	0.8694141
11	0xbf07c86d	-0.530402
12	0xbecfc642	-0.40580946
13	0xbf97dfd5	-1.1865183
14	0xbf752e9f	-0.95774263
15	0xbf9e87a3	-1.2385143

layer1.0.bn2.running_var f4 [16]
0	0x3fbfdfac	1.4990134
1	0x3f97f3e1	1.1871301
2	0x3fb277b7	1.3942784
3	0x3f817b23	1.0115703
4	0x3fa82bf6	1.3138416
5	0x3ff667ec	1.9250464
6	0x3fa6d84c	1.3034759
7	0x4045b34c	3.0890684
8	0x40904be4	4.509264
9	0x3fc29556	1.5201824
10	0x40071690	2.110752
11	0x3f4ffce8	0.8124528
12	0x3f6592f8	0.8967738
13	0x3fae6593	1.3624748
14	0x3fcf032d	1.6172844
15	0x400ccc41	2.1999667

layer1.0.conv3.weight f4 [16, 16, 1, 1, 1]
0	0xbd55979f	-0.05214655
1	0x3c44d66c	0.012014013
2	0xbdae9e87	-0.085263304
3	0x3e082996	0.13297114
4	0x3e12b321	0.14326145
5	0xbd8bfcc9	-0.06835324
6	0x3ca49e67	0.020095063
7	0xbc311b1e	-0.010809688
8	0xbdb452db	-0.08804866
9	0xbdc10ad6	-0.09425895
10	0xbe0ed3a5	-0.13947923
11	0x3c065c8c	0.008200776
12	0xbe21f0bf	-0.15814494
13	0xbd8c6a4c	-0.06856212
14	0xbe282634	-0.16420823
15	0xbc907062	-0.017631713
16	0x3d4c4cc0	0.049877882
17	0x3bd2c661	0.00643234
18	0xbe30d125	-0.17267282
19	0x3df8c77e	0.12147425
20	0x3de0a3b6	0.109687254
21	0xbd64e6ed	-0.05588429
22	0xbd888524	-0.066660196
23	0xbe6b63bb	-0.22987263
24	0xbde75bd8	-0.11296815
25	0x3d379378	0.04481837
26	0xbd919408	-0.07108313
27	0xbd646d1e	-0.055768125
28	0x3dd93bd5	0.10607115
29	0xbd61b9ab	-0.055108707
30	0xbe438f60	-0.19097662
31	0x3cd81e90	0.02638176
32	0xbe8a63d9	-0.27029303
33	0x3d7ab6c1	0.061209444
34	0x3e103f79	0.14086713
35	0xbcb1abb4	-0.02168832
36	0xbe7f6133	-0.24939422
37	0x3e683d55	0.22679646
38	0x3d0b898d	0.034066726
39	0x3e0c4393	0.13697653
40	0xbdc7c142	-0.09753658
41	0xbd833cce	-0.06408082
42	0xbe27f0d0	-0.16400456
43	0x3d00a997	0.031411733
44	0xbd7824c0	-0.060581923
45	0x3de3bde9	0.11120207
46	0x3ca81a8b	0.02052047
47	0x3e491f74	0.19640905
48	0xbd5c08ff	-0.053719517
49	0xbe21dfdb	-0.1580805
50	0xbe19f40b	-0.15034501
51	0x3dc26e21	0.09493662
52	0xbc81251d	-0.015764767
53	0x3d335b7e	0.043788426
54	0xbe562f30	-0.20916438
55	0xbe690f2f	-0.22759698
56	0x3d624d89	0.055249725
57	0x3e1bb94e	0.15207407
58	0x3d81528f	0.06314575
59	0xbe4467fd	-0.19180293
60	0xbc8c4e0a	-0.017127056
61	0x3e25ac4c	0.16179007
62	0xbe30d81e	-0.17269942
63	0xbce9cce4	-0.028540082
64	0x3bf10250	0.007355012
65	0x3d71a311	0.058993403
66	0xbe15654e	-0.14589426
67	0x3dc95a8d	0.09831724
68	0x3dd56f25	0.1042159
69	0x3c6f1b80	0.014593959
70	0xbd43a505	-0.047764797
71	0x3da6198b	0.08110341
72	0x3ddf259b	0.108958445
73	0x3e0bb476	0.13643059
74	0x3e4b4aac	0.19852704
75	0x3e30a548	0.1725055
76	0x3e8a95ac	0.27067316
77	0x3cdf098e	0.027226236
78	0xbdc1cc85	-0.09462837
79	0x3e1f31e9	0.15546383
80	0xbdeefd22	-0.11669375
81	0x3c84a1c5	0.016190419
82	0x3dd59000	0.104278564
83	0xbe4fdd64	-0.20299298
84	0xbe70b7d6	-0.23507628
85	0x3e163c8d	0.14671536
86	0xbe23d1e3	-0.15998034
87	0x3d78cb2b	0.06074063
88	0xbd81239b	-0.06305619
89	0x3c216100	0.009849787
90	0xbdc7614c	-0.09735355
91	0xbe120aa6	-0.14261875
92	0xbcd5f5d3	-0.026118195
93	0x3e93c202	0.28858954
94	0xbe72f2ee	-0.23725483
95	0x3e0bed7a	0.13664809
96	0xbdcc175c	-0.09965393
97	0xbe25ed35	-0.16203769
98	0xbd84995d	-0.06474564
99	0x3ccb896d	0.024845803
100	0xbe0dec0e	-0.13859579
101	0x3d591bb8	0.05300495
102	0xbb52e8b1	-0.0032182152
103	0x3e731f7a	0.23742476
104	0x3e183814	0.14865142
105	0x3c45a1d2	0.012062507
106	0x3d63485f	0.05548894
107	0xbe040dcc	-0.12895888
108	0xbd313255	-0.04326089
109	0xbe8863ab	-0.2663854
110	0xbcee8ac8	-0.02911891
111	0xbdd03b22	-0.10167529
112	0xbe295245	-0.1653529
113	0xbe1a76ec	-0.15084428
114	0x3e0b3250	0.13593411
115	0xbd328413	-0.043582987
116	0xbdc8cf44	-0.09805158
117	0x3d140884	0.036140934
118	0x3dc51847	0.09623771
119	0x3e418bee	0.18901035
120	0xbe2fce1c	-0.17168468
121	0x3cc8f881	0.024532558
122	0xbdf05088	-0.1173411
123	0x3cd84c82	0.02640367
124	0xbddfa01d	-0.10919211
125	0x3da1cd37	0.0790047
126	0xbdfca4f7	-0.12336152
127	0x3c8f803c	0.017517202
128	0xbb4db472	-0.0031388071
129	0x3db82149	0.08990724
130	0x3e6c477e	0.23074147
131	0xbd99cbd3	-0.075095795
132	0xbe5b5f12	-0.21422985
133	0xba4cd53f	-0.00078137586
134	0x3e82361a	0.254319
135	0x3a5f50cb	0.0008518814
136	0xbd69ec53	-0.057110142
137	0xbe02b7c5	-0.12765415
138	0xbcb08ef3	-0.021552538
139	0xbe0233a0	-0.12715006
140	0xbe759bcf	-0.23985218
141	0x3e003f72	0.12524202
142	0x3d8f1bf2	0.06987752
143	0xbd830aa0	-0.06398511
144	0x3dcf67ae	0.10127197
145	0x3e2ea19e	0.1705384
146	0xbe3d967d	-0.18514438
147	0xb8fad7c2	-0.00011961117
148	0x3d881e8b	0.066464506
149	0xbd94eea8	-0.072720826
150	0xbe510930	-0.20413661
151	0xbdcbe6ce	-0.09956132
152	0xbcdc8d46	-0.026922833
153	0x3dcf8177	0.10132115
154	0x3db67260	0.08908534
155	0xbe01857f	-0.12648581
156	0x3c93f30f	0.018060235
157	0xbe46166d	-0.19344492
158	0xbcf86a1e	-0.030324038
159	0xbe7f3340	-0.24921894
160	0xbe705e8c	-0.23473567
161	0xbe628041	-0.22119237
162	0xbe4ef291	-0.20209719
163	0x3ca022cb	0.01954784
164	0x3c6fd998	0.014639281
165	0x3e0845da	0.13307896
166	0xbe8ed9c8	-0.2790053
167	0x3db943d4	0.0904614
168	0x3dae384e	0.08506833
169	0xbc876baf	-0.01653084
170	0xbda1baf7	-0.07896989
171	0xbce0c31f	-0.027436791
172	0x3d2bf72a	0.04198376
173	0xbe1f4742	-0.15554526
174	0xbdc53092	-0.09628405
175	0x3e0439a2	0.1291261
176	0x3d80493f	0.062639706
177	0x3e3445d4	0.17604762
178	0x3e1ad147	0.15118895
179	0x3e96c0a4	0.29443848
180	0xbd3277a0	-0.043571115
181	0x3db26990	0.08711541
182	0x3de2c973	0.1107358
183	0xbc5fa323	-0.013649735
184	0xbccf5a2b	-0.02531155
185	0xbe51693f	-0.20450304
186	0xbe0a6725	-0.13515909
187	0xbd466f56	-0.048446022
188	0x3c0ee903	0.0087225465
189	0x3e23456f	0.15944456
190	0x3da2bb4a	0.07945879
191	0xbde13f64	-0.10998419
192	0xbd20a21d	-0.039217103
193	0x3db09d0c	0.08623704
194	0xbe0f1cb4	-0.13975793
195	0x3dd46e4f	0.10372602
196	0xbd57d8ca	-0.05269698
197	0x3cf46466	0.02983303
198	0xbdd71e5d	-0.10503838
199	0xbd8c0068	-0.06836015
200	0x3dacb0ed	0.084321834
201	0x3dba01bc	0.09082362
202	0x3ddb9bff	0.10723113
203	0x3dcf946a	0.101357296
204	0xbd44dd68	-0.048062712
205	0xbeb7eba2	-0.3592196
206	0xbe1844fc	-0.14870065
207	0xbe219745	-0.15780361
208	0xbca407ab	-0.020023188
209	0xbebfa67c	-0.37431705
210	0xbd868d32	-0.065698996
211	0x3dac8c0e	0.08425151
212	0xbcc77164	-0.024346061
213	0xba220155	-0.0006180008
214	0xbe61e43a	-0.22059718
215	0xbe4b4f36	-0.19854435
216	0x3dc30987	0.095233016
217	0x3ceb11b5	0.028694967
218	0x3bd1224e	0.0063822633
219	0xbd419363	-0.0472597
220	0xbce8d21a	-0.028420497
221	0x3db8b98d	0.09019766
222	0xbe7a80d9	-0.24463214
223	0x3bf86cc5	0.0075813257
224	0x3be865a3	0.007092194
225	0x3e5be64d	0.21474572
226	0x3e0a6674	0.13515645
227	0x3c15bfd0	0.00913997
228	0xbe7ae8ba	-0.2450284
229	0x3beaa377	0.0071606
230	0x3c624887	0.013811237
231	0x3d38dba3	0.045131337
232	0xbe46ddba	-0.1942052
233	0xbcf8a464	-0.030351825
234	0xbd0249fc	-0.03180884
235	0xbdf9cac4	-0.121968776
236	0xbea6234d	-0.32448807
237	0xbda06595	-0.07831875
238	0x3d930dff	0.07180404
239	0xbda13fce	-0.07873498
240	0x3ea27058	0.31726336
241	0x3c2ce070	0.010551557
242	0x3b43f119	0.0029898344
243	0xbbab7ceb	-0.0052333972
244	0xbe1cc25e	-0.1530852
245	0xbccbe21d	-0.024888093
246	0x3db37562	0.08762623
247	0x3e2be05b	0.16784804
248	0xbe05371c	-0.13009304
249	0xbe4acbe3	-0.19804339
250	0xbd29f184	-0.041490093
251	0x3d90e5c2	0.07075073
252	0x3d1bcfaf	0.03803986
253	0xbdfe4b45	-0.124167
254	0x3cef86d3	0.029239094
255	0xbcc5672b	-0.024097046

layer1.0.conv3.bias f4 [16]
0	0xb8e86d98	-0.000110830355
1	0xb91e72a9	-0.00015110768
2	0x38333f50	4.273589e-05
3	0xb8901f40	-6.872276e-05
4	0x388c586e	6.6921915e-05
5	0x370ceeec	8.400279e-06
6	0xb717183c	-9.005944e-06
7	0xb8fc285d	-0.000120238146
8	0x38e50dcc	0.00010922141
9	0xb89ecb72	-7.571922e-05
10	0x3905346d	0.00012703399
11	0x39092f38	0.00013082928
12	0x38d4756b	0.000101308186
13	0xb9952c8b	-0.00028452682
14	0xb9294650	-0.0001614329
15	0xb987f55f	-0.00025932022

layer1.0.bn3.weight f4 [16]
0	0x3f0a6376	0.54058015
1	0x3f08b055	0.5339406
2	0x3f2883a0	0.65825844
3	0x3ee68593	0.45023784
4	0x3ee99f73	0.45629463
5	0x3f562ae5	0.836592
6	0x3ec99806	0.39373797
7	0x3f428a03	0.7599184
8	0x3f2ab7cd	0.6668671
9	0x3ec58805	0.38580337
10	0x3e986631	0.29765466
11	0x3f37f2e8	0.7185502
12	0x3ecd1449	0.4005454
13	0x3f01f372	0.50762093
14	0x3f45e4d4	0.7730229
15	0x3f43ab47	0.76433223

layer1.0.bn3.bias f4 [16]
0	0x3d264624	0.040594235
1	0x3d86d283	0.06583121
2	0xbec3c172	-0.38233525
3	0x3e140b54	0.14457446
4	0xbe58ce49	-0.21172442
5	0xbf0a91e9	-0.5412889
6	0xbda54806	-0.08070378
7	0xbe7e34e8	-0.2482487
8	0xbe8c544d	-0.27408066
9	0x3d0fb0ad	0.0350806
10	0xbf2059a6	-0.6263679
11	0xbdbfee0b	-0.09371575
12	0x3d89519e	0.0670502
13	0xbc5a8ba0	-0.013338953
14	0xbe4ea9cb	-0.20181958
15	0xbd2266e0	-0.03964889

layer1.0.bn3.running_mean f4 [16]
0	0xbd65cbc9	-0.056102548
1	0xbcc4f3ec	-0.024042092
2	0xbd6d2d5b	-0.057904582
3	0xbe0159cd	-0.12631913
4	0x3e614f29	0.22002853
5	0xbe17924e	-0.14801905
6	0xbe18510d	-0.14874668
7	0xbdf64668	-0.12025148
8	0xbd86740b	-0.06565102
9	0xbd982361	-0.07428623
10	0xbe20a88c	-0.15689296
11	0x3e0a2d5d	0.13493867
12	0xbe004baf	-0.12528871
13	0xbe4ff49a	-0.20308152
14	0xbe27f61d	-0.16402479
15	0xbcf719a1	-0.030163588

layer1.0.bn3.running_var f4 [16]
0	0x3c3523a5	0.011055862
1	0x3cb04a67	0.021519853
2	0x3cb8432e	0.022492971
3	0x3ca6205d	0.020279104
4	0x3c99def3	0.018783068
5	0x3c764690	0.015031472
6	0x3d1a8992	0.037728854
7	0x3c341cc0	0.010993183
8	0x3cc22c25	0.02370269
9	0x3ca1bb37	0.019742591
10	0x3d182569	0.037145052
11	0x3cdd2537	0.026995284
12	0x3cc7ce70	0.02439043
13	0x3d01f829	0.031730805
14	0x3cb27de7	0.02178855
15	0x3c17c3f6	0.009263029

layer1.0.shortcut.0.weight f4 [16, 8, 1, 1, 1]
0	0x3e3f16ca	0.18661037
1	0x3cc88ff7	0.02448271
2	0xbb09cbd6	-0.0021026037
3	0x3dcfff6a	0.10156138
4	0xbd202631	-0.039098922
5	0xbe333574	-0.1750086
6	0x3ce1c3f8	0.027559265
7	0xbcda0993	-0.026615893
8	0xbe179141	-0.14801504
9	0xbdbdb5a6	-0.09263162
10	0x3e6e2a29	0.2325827
11	0x3ab4ce3a	0.001379437
12	0xbd8e7fd1	-0.06957973
13	0x3d43ea1e	0.047830693
14	0xbc696b46	-0.014246767
15	0x3db314c0	0.08744192
16	0xbe0870a0	-0.13324213
17	0xbe007596	-0.12544855
18	0x3d92318c	0.071383566
19	0xbdce118a	-0.10061939
20	0xbe2d24fb	-0.16908638
21	0xbcbc6cc1	-0.023001077
22	0x3c10bab0	0.008833572
23	0xbd06ee08	-0.032941848
24	0x3b08efe0	0.002089493
25	0x3e0b78c3	0.13620286
26	0xbdab8f26	-0.08376913
27	0x3e0b4a77	0.13602625
28	0x3d219d4e	0.039456658
29	0x3d8af1f0	0.06784427
30	0xbd4919d6	-0.049096905
31	0xbe8ec41e	-0.27884
32	0x3cd57b60	0.026059806
33	0x3d2915e9	0.04128066
34	0xbe94d6f6	-0.29070252
35	0xbdbb406e	-0.09143148
36	0xbd880dae	-0.06643234
37	0xbe27a834	-0.16372758
38	0x3a3ae975	0.0007130125
39	0x3d52256e	0.051305227
40	0xbd491f46	-0.04910209
41	0xbb56021a	-0.0032655061
42	0x3cea9747	0.028636588
43	0xbe447152	-0.19183853
44	0xbe0fe65c	-0.14052719
45	0xbe70c3a3	-0.2351213
46	0x3c4664cd	0.012108994
47	0x3ddd8819	0.10816974
48	0x3d15c3ca	0.036563672
49	0xbd3d119e	-0.04615938
50	0x3d11d682	0.03560496
51	0xbdbd73fd	-0.09250639
52	0xbd2f9bb1	-0.04287309
53	0x3c4bfcdf	0.012450426
54	0x3da4b481	0.08042241
55	0x3edf8eb5	0.43663564
56	0xbd09a879	-0.033607934
57	0xbe8c717b	-0.2743033
58	0x3df505e8	0.11964017
59	0x3dfc4bd1	0.12319148
60	0xbc98c989	-0.018650787
61	0x3d1f9e92	0.038969584
62	0xbb9ed815	-0.0048475363
63	0xbd81eab0	-0.06343591
64	0xbc6e463e	-0.014543114
65	0x3e40cf32	0.18829039
66	0xbea712f9	-0.32631662
67	0x3cf09695	0.029368678
68	0x3d2eb21e	0.042650335
69	0x3d558633	0.052129935
70	0x3c1cc876	0.009569278
71	0x3b1e8d8b	0.0024193253
72	0x3d453aed	0.0481519
73	0xbcac4bfd	-0.021032328
74	0xbdb243f8	-0.0870437
75	0x3c9d865d	0.019229108
76	0x3e556404	0.20838934
77	0x3e3ca8a7	0.18423711
78	0x3d738c64	0.05946006
79	0xbe096367	-0.13416825
80	0xbd25f9c4	-0.0405214
81	0xbd80e7f5	-0.06294242
82	0x3ef0ef73	0.47057685
83	0xbc2050c3	-0.00978488
84	0xbcad2d4a	-0.02113976
85	0x3af51498	0.0018698154
86	0x3b4ed190	0.0031558014
87	0x3dd7842c	0.10523257
88	0xbe08a3d4	-0.13343745
89	0xbd8bb9e6	-0.06822567
90	0x3e181dbf	0.14855097
91	0xbc03e988	-0.008051284
92	0xbdc93c3e	-0.098259434
93	0xbd291f0a	-0.041289367
94	0x3d48a9a7	0.048989918
95	0xbe81a609	-0.25321987
96	0x3d5075f6	0.050893746
97	0xbdf9e68f	-0.12202179
98	0x3d940076	0.072266504
99	0xbe006d6e	-0.12541744
100	0xbe55a98d	-0.2086546
101	0xbe63d2b5	-0.22248347
102	0x3d31a76c	0.043372557
103	0x3d328e5c	0.043592796
104	0xbd10e111	-0.03537089
105	0xbe79c34e	-0.24390909
106	0xbd26e536	-0.040745936
107	0xbd9024ad	-0.07038245
108	0x3cb04ea8	0.021521881
109	0x3d2c45d8	0.042058796
110	0x3d875d92	0.06609644
111	0x3e449059	0.1919569
112	0xbe45d3f0	-0.19319129
113	0xbdab0c6a	-0.08351977
114	0xbc10ce53	-0.008838254
115	0xbdbc7ea3	-0.092038415
116	0x3ce031a0	0.027367413
117	0xbbb82c43	-0.005620511
118	0xbe480130	-0.19531703
119	0xbd00b3dc	-0.031421527
120	0x3b3f32fd	0.0029174678
121	0xbdc23969	-0.09483606
122	0x3c8a1157	0.016853971
123	0xbdaee414	-0.08539596
124	0xbe33bdf0	-0.17552924
125	0xbd072a2b	-0.0329992
126	0xbe25658d	-0.1615202
127	0x3ce97101	0.028496267

layer1.0.shortcut.0.bias f4 [16]
0	0x362a9cf5	2.5423335e-06
1	0xb7463b10	-1.1815471e-05
2	0xb70b63e7	-8.308306e-06
3	0xb8969732	-7.18072e-05
4	0x36ad9840	5.173526e-06
5	0xb60260e4	-1.9427907e-06
6	0x386f5fc6	5.7071236e-05
7	0x37283c8c	1.00276775e-05
8	0x38f3183d	0.00011591658
9	0xb901a061	-0.00012362144
10	0x38d64198	0.00010216533
11	0x37571cd8	1.2821714e-05
12	0x390cfaac	0.00013444823
13	0xb8236da9	-3.8964357e-05
14	0xb87a29fd	-5.964375e-05
15	0xb8371a52	-4.3655113e-05

layer1.0.shortcut.1.weight f4 [16]
0	0x3e90f532	0.2831207
1	0x3ed8e519	0.42362288
2	0x3ddbc6bc	0.10731265
3	0x3edaf631	0.42765954
4	0x3e94ef44	0.29088795
5	0x3e8cff79	0.2753866
6	0x3ee3f9b3	0.44526443
7	0x3e9e9584	0.30973446
8	0x3f047bea	0.5175158
9	0x3ecd50eb	0.40100798
10	0x3f0cf6a6	0.55063856
11	0x3f1103ad	0.56646234
12	0x3ef2753c	0.47355068
13	0x3ebf304c	0.37341535
14	0x3ec07f93	0.3759733
15	0x3e483fde	0.19555613

layer1.0.shortcut.1.bias f4 [16]
0	0x3d264624	0.040594235
1	0x3d86d283	0.06583121
2	0xbec3c172	-0.38233525
3	0x3e140b54	0.14457446
4	0xbe58ce49	-0.21172442
5	0xbf0a91e9	-0.5412889
6	0xbda54806	-0.08070378
7	0xbe7e34e8	-0.2482487
8	0xbe8c544d	-0.27408066
9	0x3d0fb0ad	0.0350806
10	0xbf2059a6	-0.6263679
11	0xbdbfee0b	-0.09371575
12	0x3d89519e	0.0670502
13	0xbc5a8ba0	-0.013338953
14	0xbe4ea9cb	-0.20181958
15	0xbd2266e0	-0.03964889

layer1.0.shortcut.1.running_mean f4 [16]
0	0x3ca9a73c	0.020709626
1	0x3c180980	0.009279609
2	0xbdcd876d	-0.10035596
3	0xbc4eb9dd	-0.012617555
4	0xbdc5e196	-0.09662168
5	0xbd944a01	-0.072406776
6	0x3dbbfd6c	0.09179196
7	0xbd4c96ae	-0.049948387
8	0xbc02788a	-0.007963309
9	0x3d2e5e2a	0.04257027
10	0x3ddae113	0.10687461
11	0xbda65229	-0.081211396
12	0xbda8eb6d	-0.08248029
13	0xbcf5aa4a	-0.029988427
14	0xbdf2c44b	-0.11853846
15	0xbdc4cc0e	-0.09609233

layer1.0.shortcut.1.running_var f4 [16]
0	0x3c9a5f53	0.018844282
1	0x3ca78163	0.020447439
2	0x3cb0203d	0.021499747
3	0x3c81dc80	0.015852213
4	0x3c9eb2b0	0.019372314
5	0x3cbc2f41	0.022971751
6	0x3cdd3ae8	0.027005628
7	0x3cc118e0	0.023571432
8	0x3c932d4f	0.01796594
9	0x3c83e997	0.016102595
10	0x3ccf4e04	0.025305755
11	0x3cc6b589	0.024256485
12	0x3d02f274	0.031969503
13	0x3ce921a2	0.02845842
14	0x3cede56a	0.029040057
15	0x3c7c18cd	0.015386772

layer1.1.conv1.weight f4 [32, 16, 3, 3, 3]
0	0xbd123b94	-0.03570135
1	0xbc4b41b0	-0.012405798
2	0x3bf3f199	0.007444572
3	0xbc6f2f3e	-0.014598666
4	0xbb65a586	-0.0035041287
5	0x3d4b58dc	0.04964529
6	0xbc0a5a0c	-0.00844432
7	0xbc546e37	-0.01296573
8	0x3c72721e	0.0147977155
9	0x3ce274c1	0.027643563
10	0xbc2c1bca	-0.010504672
11	0x3ba4ed51	0.005033173
12	0x3ceb0a4f	0.028691439
13	0x3cf5ec18	0.030019805
14	0xbd09522c	-0.03352563
15	0x3d29250a	0.04129509
16	0x3d1b6fae	0.037948303
17	0x3c740548	0.014893837
18	0xbbe46ecf	-0.006971217
19	0x3d0299ed	0.031885076
20	0xbb4d1b94	-0.0031296955
21	0xbc87e2d5	-0.016587654
22	0xbcc9015a	-0.024536777
23	0x3bfb8388	0.007675592
24	0xbd237304	-0.03990461
25	0xbcf8d5f2	-0.030375455
26	0xbcd9eaca	-0.026601214
27	0x3d1f41b3	0.038881015
28	0xbd10e353	-0.035373043
29	0x3d2ac5f2	0.04169268
30	0x3d558b2a	0.05213467
31	0x3cf6a94e	0.030110028
32	0x3d2714c3	0.040791284
33	0x3cbb4a81	0.022862675
34	0x3c105727	0.008809841
35	0x3d60ccf1	0.054882947
36	0xbd2111bf	-0.039323565
37	0x3d28722e	0.041124515
38	0xbd0cd2ea	-0.03438083
39	0xbd161d32	-0.036648937
40	0x3d0a13c1	0.033710245
41	0xbcb8401e	-0.022491511
42	0x38e9c7f7	0.00011147552
43	0x3c9bb243	0.0190059
44	0xbd0c9854	-0.03432496
45	0x3b921c32	0.0044589275
46	0xbcb49a70	-0.022046298
47	0xbb84d8f8	-0.004054185
48	0x3a708b7f	0.000917606
49	0xbd488d67	-0.048962977
50	0xbca52bd1	-0.020162495
51	0xbd10f602	-0.03539086
52	0xbd052b48	-0.03251198
53	0xbca0632d	-0.01957854
54	0x3a4ddb20	0.00078527816
55	0xbc8932af	-0.0167478
56	0x3d0c4161	0.034242038
57	0x3d0caf59	0.034346912
58	0x3c9df368	0.019281104
59	0xbd2c6d80	-0.042096615
60	0xbc5aba03	-0.013350013
61	0xbcccdb40	-0.02500689
62	0x3ae0fa14	0.0017164373
63	0x3d113342	0.035449274
64	0x3d113d07	0.03545859
65	0xbc175bd9	-0.009238207
66	0xbc780fe7	-0.01514051
67	0xbcf07576	-0.029352885
68	0x3d844855	0.06459109
69	0x3d1087c1	0.035285715
70	0x3d122606	0.035680793
71	0xbc185150	-0.00929673
72	0xbc51aefc	-0.012798067
73	0xbc88b001	-0.016685488
74	0xbc4f6ef8	-0.012660734
75	0xbb213014	-0.0024595307
76	0x3cef2992	0.029194627
77	0xbca2cfdd	-0.019874508
78	0xbd12ad7a	-0.03580997
79	0xbccc2981	-0.024922134
80	0x3c496889	0.0122929895
81	0xbc53cb48	-0.012926884
82	0xbd35167b	-0.044210892
83	0x3c9519ce	0.018200781
84	0x3abaa55f	0.0014239958
85	0xbcb80888	-0.022465006
86	0x3d808c96	0.06276815
87	0xbc5fdfca	-0.013664195
88	0xbd163ce0	-0.03667915
89	0xbcd19e84	-0.025588281
90	0xbc03cfd8	-0.008045159
91	0x3d4f4bd6	0.050609432
92	0xbd57be1b	-0.052671533
93	0xbbf9d1e7	-0.0076238993
94	0x3dab33b6	0.083594725
95	0xbd809f8b	-0.062804304
96	0xbd16a7ca	-0.03678111
97	0x3d89d6fd	0.06730459
98	0x3d82ce80	0.06387043
99	0x3d14e743	0.03635336
100	0xbb5aa8f0	-0.0033364855
101	0x3d031bc3	0.032008898
102	0x3d00f0bd	0.031479586
103	0xbd2143e4	-0.039371386
104	0x3cc881c0	0.024475932
105	0x3d5484ed	0.05188458
106	0xbd11d0be	-0.035599463
107	0xbcfd738d	-0.030938888
108	0xbcaf8ebc	-0.021430366
109	0xbd39ced6	-0.04536327
110	0x3c679bf2	0.014136301
111	0x3c72b2fc	0.014813181
112	0x3db44efb	0.08804127
113	0x3cb2f16b	0.021843633
114	0x3d1be637	0.038061347
115	0x3d489a16	0.048975073
116	0x3d09911b	0.03358565
117	0x3bf9c43e	0.007622271
118	0x3d863190	0.06552422
119	0xbc83d68d	-0.016093517
120	0xbc9af7da	-0.018917013
121	0xbdde1cd9	-0.10845346
122	0xbcca4338	-0.024690256
123	0xbc9dfda6	-0.019285988
124	0x3cae2e7e	0.021262404
125	0xbcb328a5	-0.021869967
126	0x3c89c091	0.016815456
127	0xbcf8e255	-0.030381361
128	0x3cbc31f3	0.022973036
129	0xbb6af3f4	-0.0035850974
130	0x3d8b2ac4	0.06795266
131	0x3cd8793a	0.026424993
132	0xbc1554d0	-0.009114459
133	0xbd35128e	-0.04420715
134	0x3c1f73d6	0.009732207
135	0xbd87c869	-0.06630022
136	0xbce077b7	-0.027400834
137	0x3d527698	0.05138263
138	0x3cd62ef9	0.026145445
139	0x3d58c47c	0.052921757
140	0xbd42a11d	-0.04751693
141	0x3d1dd5c7	0.038533952
142	0x3ca93395	0.020654479
143	0xbc584164	-0.013199184
144	0x3d858f32	0.06521453
145	0x3d48fe9e	0.049070947
146	0xbd627051	-0.055282895
147	0xbcdd553b	-0.02701818
148	0xbd8eaa39	-0.06966061
149	0x3c309de5	0.0107798325
150	0xbda48642	-0.0803342
151	0xbc99ad00	-0.01875925
152	0x3ca380d3	0.01995889
153	0xbb6a69ae	-0.0035768556
154	0xbb410478	-0.0029452126
155	0x3beb21ee	0.0071756756
156	0x3bc32b01	0.005956054
157	0x3d236b33	0.039897155
158	0x3c2b4de7	0.010455585
159	0x3d3b3901	0.04570866
160	0xbb2e68c8	-0.0026612747
161	0xbc3568e4	-0.011072371
162	0xbd468f94	-0.04847677
163	0x3d3b125f	0.045671817
164	0xbcac54e7	-0.021036578
165	0xbcbbf265	-0.022942731
166	0x3dfc46e1	0.123182066
167	0xbd0e058d	-0.034673262
168	0xbd03706f	-0.032089647
169	0xbcc16974	-0.023609854
170	0xbd6eeb37	-0.058329787
171	0x3d76162d	0.060079742
172	0xbd65b6d5	-0.056082565
173	0x3d977b04	0.0739651
174	0x3cd0cfad	0.025489653
175	0xbe4d5ea5	-0.20055635
176	0x3d442cb1	0.047894184
177	0x3d04be71	0.03240818
178	0x3d411ac2	0.04714466
179	0x3da9cf71	0.082915194
180	0xbcc07c57	-0.02349679
181	0x3cdd8071	0.027038785
182	0xbd8d58e9	-0.06901724
183	0xbc645821	-0.013937027
184	0x3e0537f4	0.13009626
185	0xbbf67725	-0.0075215274
186	0x3ba4efc4	0.005033465
187	0xbce5e52c	-0.02806338
188	0xbd48365d	-0.04887997
189	0x396f2c80	0.00022809394
190	0x3d291f27	0.041289475
191	0x3d43d071	0.047806207
192	0x3a184cf5	0.00058098073
193	0x3cabffae	0.020995941
194	0x3c938ce9	0.018011527
195	0xbc9c68bb	-0.019092908
196	0xbbc0999f	-0.005877688
197	0xbb001bd6	-0.0019547842
198	0x3c7c9cc5	0.015418236
199	0xbd23881d	-0.03992473
200	0xbd08613c	-0.033295855
201	0x3bab47ef	0.005227081
202	0xbd18f4fc	-0.03734301
203	0xbc7ea5d5	-0.015542467
204	0xbbde3d25	-0.0067821913
205	0x3c315270	0.010822877
206	0x3cd370fa	0.025810707
207	0xbc5e7693	-0.013578075
208	0x3bcd4f2f	0.006265543
209	0x3ba1a3ec	0.004932871
210	0x3b060a2d	0.0020452843
211	0x3ca32fc8	0.019920245
212	0x3c2322ad	0.009956998
213	0x3cd85f8d	0.02641275
214	0xbc97be6b	-0.018523416
215	0xbcbd1abb	-0.023084035
216	0x3c486402	0.012230875
217	0xbd3304b2	-0.04370565
218	0xbd608c56	-0.054821335
219	0x3ce16b9a	0.027517129
220	0x3d26789c	0.040642366
221	0xbc96cab5	-0.018407205
222	0x3d1d317e	0.038377278
223	0x3be07552	0.006849923
224	0x3d0cb72b	0.03435437
225	0x3a7dce67	0.00096819404
226	0x3bb4357f	0.0054995413
227	0x3dae8d8b	0.08523091
228	0x3b707650	0.0036691613
229	0xbdbe09fc	-0.09279248
230	0x3d966676	0.073437616
231	0x3b218934	0.002464843
232	0xbcaea435	-0.021318534
233	0xbdbb39d6	-0.09141891
234	0xbc52029c	-0.012818005
235	0x3d0605b3	0.03272028
236	0xbc4699c1	-0.012121619
237	0xbce1b5da	-0.027552534
238	0x3d92f458	0.07175511
239	0xbd0b6ef6	-0.034041367
240	0xbcd96079	-0.02653526
241	0x3cac9961	0.02106923
242	0x3d5a9941	0.05336881
243	0x3d4dfd16	0.05029019
244	0xbb98caa3	-0.004662828
245	0x3c3b5ef3	0.011436212
246	0x3bf68ccb	0.007524108
247	0x3cd5e605	0.026110658
248	0x3c837803	0.016048437
249	0xbd12b5b3	-0.035817813
250	0x3c0404ee	0.008057816
251	0x3c78f661	0.01519546
252	0xbd910bc5	-0.07082323
253	0x3cb45b12	0.022016082
254	0xbcd8805b	-0.026428392
255	0xb928d702	-0.00016101825

layer1.1.conv1.bias f4 [32]
0	0xb6319a8c	-2.6465013e-06
1	0x370ad348	8.274634e-06
2	0xb77f62fc	-1.5222231e-05
3	0xb5280cfc	-6.260377e-07
4	0x36c6786b	5.9148783e-06
5	0xb6b5a6e8	-5.413651e-06
6	0x368da37c	4.2211595e-06
7	0xb68e20d5	-4.235752e-06
8	0xb78a5f01	-1.6495122e-05
9	0xb681b566	-3.865617e-06
10	0x35fd31c9	1.8864458e-06
11	0x3781e2d9	1.5483633e-05
12	0xb5e7c2da	-1.726755e-06
13	0x3717c671	9.046505e-06
14	0xb6985394	-4.539683e-06
15	0x378334da	1.5641028e-05
16	0x3759b09c	1.2975328e-05
17	0xb8129e98	-3.4956814e-05
18	0x3646c874	2.9620978e-06
19	0x37a117e8	1.9203828e-05
20	0xb72995a5	-1.0108027e-05
21	0xb6d388d0	-6.304217e-06
22	0x36b355d8	5.3446092e-06
23	0xb89d8f2c	-7.513011e-05
24	0xb799efb0	-1.8350634e-05
25	0x37072448	8.055074e-06
26	0x35796002	9.289944e-07
27	0x36d570bc	6.3610187e-06
28	0xb755d2ee	-1.27449e-05
29	0x36ded30d	6.640685e-06
30	0x3752995b	1.2552681e-05
31	0x36f3ccdf	7.2658145e-06

layer1.1.bn1.weight f4 [32]
0	0x3e43d2f6	0.19123444
1	0x3ed5ff61	0.417964
2	0x3e805460	0.25064373
3	0x3ed8fec0	0.4238186
4	0x3edd85cd	0.43266144
5	0x3f0a768a	0.54087126
6	0x3e8016d8	0.25017428
7	0x3eb0d7cd	0.34539643
8	0x3db59cbe	0.08867787
9	0x3e1a876f	0.15090726
10	0x3ef07d90	0.46970797
11	0x3ef028e1	0.46906188
12	0x3ec1c2cc	0.3784393
13	0x3ee4b259	0.44667318
14	0x3eea56bc	0.45769298
15	0x3e8b1545	0.27164665
16	0x3ea1f2c0	0.31630516
17	0x3ec75aab	0.38936362
18	0x3ea073e2	0.31338412
19	0x3ed72ea7	0.4202778
20	0x3e8db62b	0.27678046
21	0x3eaba11a	0.33521348
22	0x3ec8dd3b	0.39231285
23	0x3e791252	0.24323395
24	0x3ea784a0	0.32718372
25	0x3eef22de	0.4670629
26	0x3e4e63ea	0.20155302
27	0x3ec030a5	0.37537113
28	0x3ef03bf3	0.46920738
29	0x3eb938a8	0.36176038
30	0x3e9b5a7b	0.3034247
31	0x3eac5a53	0.33662662

layer1.1.bn1.bias f4 [32]
0	0xbea5f1a6	-0.32410926
1	0xbe20b6d8	-0.1569475
2	0x3ebb5aa1	0.36592582
3	0xbed05454	-0.40689337
4	0xbdffd866	-0.124924466
5	0xbe9c2581	-0.30497363
6	0xbea14fa0	-0.31506062
7	0xbe7810ed	-0.24225207
8	0x3ef36c0d	0.47543374
9	0xbe30343f	-0.1720743
10	0xbe08b668	-0.13350832
11	0xbeabbceb	-0.3354257
12	0xbe231d18	-0.15929067
13	0xbd850e73	-0.064968966
14	0xbee4d48e	-0.44693416
15	0xbde5a483	-0.11213019
16	0xbe2473a8	-0.16059744
17	0x3f0c2156	0.54738367
18	0xbe9b9c28	-0.30392575
19	0xbe9b9c2f	-0.30392596
20	0xbdc2087c	-0.094742745
21	0xbe7aa60c	-0.24477404
22	0xbe4f77ca	-0.2026054
23	0x3ec63d7d	0.38718787
24	0xbe6bfb0e	-0.23044989
25	0xbe92b9da	-0.28657418
26	0xbdaef502	-0.08542825
27	0xbe141d4a	-0.14464298
28	0xbe8047f3	-0.25054893
29	0xbe0bdcaf	-0.13658403
30	0x3d107ed1	0.03527719
31	0xbeb1b60a	-0.34709197

layer1.1.bn1.running_mean f4 [32]
0	0xba9902c8	-0.0011673803
1	0x3e249711	0.16073252
2	0xbd9376aa	-0.07200368
3	0x3dd37afe	0.10326193
4	0xbd47841a	-0.048709966
5	0x3cef2da3	0.029196566
6	0x3d91a637	0.07111781
7	0x3c7e173f	0.015508472
8	0xbce024bb	-0.027361264
9	0x3b345406	0.0027515902
10	0x3d403b9e	0.046931855
11	0xbd0a5222	-0.033769734
12	0xbdb121ae	-0.08649002
13	0xbd909601	-0.07059861
14	0x3d26ae4a	0.04069356
15	0x3cd0a64f	0.025469927
16	0x3ddc61a1	0.10760809
17	0xbde8795b	-0.11351272
18	0x3d32d36e	0.043658666
19	0xbd262a67	-0.04056778
20	0xbbdffccd	-0.006835556
21	0x3ca975d2	0.020686064
22	0xbcecc98a	-0.028904695
23	0xbcc1f9a2	-0.023678605
24	0xbd6c411d	-0.057679284
25	0x3c9bb4f6	0.019007187
26	0x3de52606	0.11188893
27	0xbd0b43d7	-0.034000244
28	0xbd3d6ea6	-0.0462481
29	0x3d16ff33	0.03686447
30	0x3c4cf6f8	0.012510054
31	0xbc56f2a3	-0.013119373
