log/sem_seg/SatVideoIRSDT__2025-07-22_19-41__SoftLoUloss_DeepPro-Plus_DataL40/checkpoints/epoch_5_model.pth (torch, 941213 bytes, 213 tensors)

conv_in.0.weight f4 [8, 1, 5, 7, 7]
0	0x3bad8e70	0.005296521
1	0x3cf97229	0.030449944
2	0x3db0643a	0.08612867
3	0x3e0964a8	0.13417304
4	0x3dc3cb2f	0.095602386
5	0x3a259d1e	0.0006317663
6	0xbd5db1d1	-0.054124657
7	0x3ca756ad	0.020427072
8	0x3d467d85	0.04845955
9	0x3d81744e	0.063210115
10	0x3dd68abb	0.104756795
11	0x3d93a002	0.072082534
12	0x3c40acc3	0.01175994
13	0xbcc4f056	-0.024040382
14	0xba1721e6	-0.0005765244
15	0x3c1221fc	0.008919235
16	0xbc558d6c	-0.013034206
17	0xbbf17cbe	-0.0073696068
18	0x3c284b68	0.0102718845
19	0x3b1388c4	0.0022511939
20	0xbc32cca7	-0.010913051
21	0xbd2c6b73	-0.04209466
22	0xbd256541	-0.040379766
23	0xbcd93fb7	-0.02651964
24	0xbd24e542	-0.0402577
25	0xbcdd458f	-0.027010707
26	0xbcbe95d1	-0.023264797
27	0x3b86cc71	0.004113727
28	0xbd2385c2	-0.039922483
29	0xbd216b83	-0.03940917
30	0xbd4c4054	-0.049866036
31	0xbcff27f3	-0.031146979
32	0xbd34b7e1	-0.044120673
33	0xbd5d5786	-0.054038547
34	0xbcdd34e1	-0.027002754
35	0x3d3a353d	0.04546093
36	0x3d3b7b15	0.045771677
37	0x3cfd8c05	0.030950556
38	0x3c57c04d	0.013168407
39	0xbd01b0fa	-0.03166292
40	0xbcd66013	-0.026168859
41	0xbceddcb3	-0.029035902
42	0x3cedaf9e	0.029014405
43	0x3d75b574	0.0599875
44	0x3d9e386e	0.07725607
45	0x3d4fe8f1	0.05075926
46	0xbc2d57a5	-0.010579978
47	0xbcda21f7	-0.026627524
48	0xbcf786e7	-0.030215694
49	0xbc7fc8b4	-0.015611816
50	0xbc72484f	-0.0147877475
51	0xbc4d81ba	-0.012543136
52	0x3ce35af0	0.027753323
53	0x3c0d04f4	0.008607138
54	0x3ba4acfc	0.005025504
55	0xbb8e2b9c	-0.0043386947
56	0xbcc89713	-0.0244861
57	0x3cb1ca7a	0.021702994
58	0x3d60378b	0.05474047
59	0x3decec93	0.115685605
60	0x3dd63daa	0.1046098
61	0x3d985f46	0.07440047
62	0x3cd2a5de	0.025713857
63	0xbcd6dcd5	-0.026228348
64	0x3bddfb2f	0.006774328
65	0x3b8d5a24	0.004313724
66	0x3ded3758	0.115828216
67	0x3ddf9157	0.10916393
68	0x3da66d54	0.081263214
69	0x3cb8f5b2	0.022578094
70	0xbc2379db	-0.009977783
71	0xbc7953f4	-0.01521777
72	0xbd9211ff	-0.07132339
73	0x3c9dc82e	0.019260492
74	0x3cb5fd37	0.022215469
75	0x3d43feea	0.047850527
76	0x3c85bca9	0.016325312
77	0xbc46d5b6	-0.012135914
78	0xbd488244	-0.048952356
79	0xbdc15bbc	-0.09441325
80	0xbd58943a	-0.052875735
81	0xbd46cc3c	-0.048534617
82	0xbd18cdb8	-0.037305564
83	0xbd184818	-0.03717813
84	0x3b64db0c	0.0034920601
85	0xbb0ee0a8	-0.0021801386
86	0xbd75d992	-0.060021944
87	0xbd59e5ae	-0.053197555
88	0xbd3b66c6	-0.04575231
89	0xbd1a9a5d	-0.03774487
90	0xbcd1fbf2	-0.025632832
91	0xbcc15fc8	-0.023605242
92	0xbc8364f3	-0.016039347
93	0xbd0112ce	-0.031512074
94	0xbd5251c2	-0.0513475
95	0xbd9dd6e5	-0.077070035
96	0xbd62da1a	-0.05538378
97	0xbd106590	-0.035253108
98	0x3da40b7f	0.08010005
99	0x3d6be4b6	0.057591163
100	0x3ce94516	0.028475326
101	0x3ca9894d	0.020695353
102	0x3cbcb47e	0.023035284
103	0x3d7f7486	0.062366985
104	0x3d85644c	0.06513271
105	0x3dbb1ae6	0.0913599
106	0x3d82d0da	0.063874915
107	0x3c8f32c1	0.017480256
108	0x3d860098	0.06543082
109	0x3d8901ce	0.06689797
110	0x3d48ff8a	0.049071826
111	0x3cd6ee2d	0.026236618
112	0x3dce7d96	0.10082547
113	0x3d3ef832	0.046623416
114	0x3bfa4a82	0.0076382766
115	0x3dc9ad86	0.0984755
116	0x3d87c3ab	0.066291176
117	0x3d65a192	0.05606229
118	0x3cfe36f8	0.03103207
119	0x3dbc04a8	0.091805756
120	0x3ced13b5	0.028940061
121	0xbcad3108	-0.021141544
122	0xbc097e73	-0.008391964
123	0xbbd20887	-0.006409708
124	0x3d75799f	0.05993044
125	0x3cad6ea3	0.02117092
126	0x3cf15b8d	0.0294626
127	0xbc839426	-0.016061854
128	0xbd4c16e9	-0.049826536
129	0xbd499a30	-0.04921931
130	0xbd92a334	-0.07160035
131	0xbc9e1841	-0.019298675
132	0xbd40a136	-0.047028743
133	0x3c9f211f	0.019424973
134	0xba8addaf	-0.0010594631
135	0xbd314e30	-0.043287456
136	0xbd43a4f6	-0.04776474
137	0xbd42aac7	-0.047526147
138	0xbcd2aff6	-0.02571867
139	0xbd28698a	-0.041116275
140	0x3c41fdf2	0.01184033
141	0x3b509c85	0.0031831574
142	0xbd062248	-0.032747537
143	0xbd4766db	-0.048682075
144	0xbd47cb05	-0.0487776
145	0xbccf64f7	-0.025316698
146	0xbce2069e	-0.027591046
147	0x3e244b23	0.16044287
148	0x3ddd315d	0.10800431
149	0x3e0b1375	0.13581641
150	0x3e3ec317	0.18629108
151	0x3e2f21bd	0.17102714
152	0x3e346712	0.17617443
153	0x3e1d98c1	0.15390302
154	0x3e42c0b1	0.19018818
155	0x3df25f37	0.11834567
156	0x3e13e7f5	0.14443953
157	0x3e3d0c1a	0.18461648
158	0x3e0b9a23	0.13633017
159	0x3de3b567	0.11118584
160	0x3db9cc57	0.09072178
161	0x3e6bd473	0.23030262
162	0x3e434e63	0.19072871
163	0x3e4b33e7	0.19844018
164	0x3e194504	0.14967734
165	0x3e1ed816	0.15512118
166	0x3e1bfbb2	0.15232733
167	0x3dbacee8	0.091214955
168	0x3e4ea777	0.2018107
169	0x3e7dded0	0.24792027
170	0x3e8f8472	0.28030735
171	0x3c4fc678	0.012681596
172	0x3df42ec2	0.11922981
173	0x3e4cfb26	0.2001768
174	0x3dff0e58	0.12453908
175	0x3de00b6f	0.10939681
176	0x3df1400d	0.11779795
177	0x3e12941c	0.14314312
178	0x3d4c9073	0.049942445
179	0x3dac88e9	0.08424551
180	0x3dd965f1	0.10615147
181	0x3d6c09aa	0.057626404
182	0x3dd7b24b	0.105320536
183	0x3d5bfca9	0.053707752
184	0x3d9fbeda	0.07800074
185	0x3d96a645	0.07355932
186	0x3d8fe75e	0.07026552
187	0x3d35bae7	0.044367697
188	0x3d0502e5	0.032473464
189	0x3e1ffebb	0.15624516
190	0x3db59530	0.08866346
191	0x3d0231d9	0.03178582
192	0x3c8e5486	0.017374288
193	0x3d1b5ef6	0.03793236
194	0x3d70a0d6	0.058747135
195	0x3d8a07a0	0.067397356
196	0x3d6ba7aa	0.057532944
197	0x3d8c4410	0.068489194
198	0x3d371b5d	0.04470383
199	0x3d11059c	0.03540574
200	0x3c9bf9ab	0.01903995
201	0x3d01ab2b	0.03165738
202	0x3d3248e8	0.04352656
203	0x3d58aac7	0.05289724
204	0x3d7224d3	0.05911715
205	0x3c53e3c3	0.012932721
206	0x3c6241cc	0.0138096325
207	0xbc03367c	-0.008008596
208	0x3bd75872	0.006571823
209	0x3cbabc63	0.022794908
210	0x3da06764	0.0783222
211	0x3bfe9ab5	0.0077699074
212	0xbd3bef60	-0.045882583
213	0x3c0aad62	0.008464189
214	0xbc520961	-0.012819619
215	0xbba1a214	-0.0049326513
216	0x3d135e5b	0.035978656
217	0x3dbc9e56	0.09209888
218	0x3c78cac5	0.015185063
219	0xbd1dd80c	-0.038536116
220	0x3c7bc641	0.015367092
221	0xbbe6f97a	-0.007048783
222	0x3a7a9d22	0.0009560158
223	0x3d160709	0.036627803
224	0x3d373b26	0.044734143
225	0xbc98e13a	-0.018662084
226	0xbd35adb4	-0.04435511
227	0x3bf6e39f	0.007534459
228	0x3baaf83f	0.0052175815
229	0xbca04c7c	-0.01956772
230	0x3be9c267	0.0071337703
231	0x3cf90cc1	0.03040159
232	0xbc84cab1	-0.016209932
233	0xbd74b54d	-0.059743214
234	0xbd18d0d2	-0.03730852
235	0xbc57e6a0	-0.013177544
236	0xbc3dcf06	-0.011585003
237	0x3ca86132	0.020554159
238	0x3d7d1bf6	0.061794244
239	0xba4bcab0	-0.0007774038
240	0xbda30760	-0.07960391
241	0xbdb25e70	-0.08709419
242	0xbca3765f	-0.019953905
243	0x3d0c9a05	0.034326572
244	0x3d3c91f3	0.046037626
245	0x3d0be66c	0.034155294
246	0x3d1bf544	0.0380757
247	0x3d030280	0.031984806
248	0xbbea53f3	-0.007151121
249	0xbcd19bc1	-0.025586965
250	0xbbe52042	-0.006992371
251	0xbc9c2a56	-0.019063156
252	0x3d1d9878	0.038475484
253	0x3d86db39	0.06584782
254	0x3da87506	0.082254454
255	0x3d90f84e	0.0707861

conv_in.0.bias f4 [8]
0	0x37e8992e	2.7727885e-05
1	0xb7e3a1c0	-2.713583e-05
2	0xb8ad40a8	-8.261326e-05
3	0xb5458780	-7.35854e-07
4	0xb7fc75c8	-3.0095587e-05
5	0xb7166b80	-8.965726e-06
6	0x38cf8039	9.8944125e-05
7	0xb900b02a	-0.00012272657

conv_in.1.weight f4 [8]
0	0x3f218b71	0.63103396
1	0x3f486d3e	0.7829169
2	0x3f0f3402	0.5593873
3	0x3f22c649	0.6358381
4	0x3f3662a4	0.71244264
5	0x3f2b1025	0.6682151
6	0x3f50f83e	0.8162879
7	0x3f2a48de	0.66517437

conv_in.1.bias f4 [8]
0	0x3e1ee297	0.15516125
1	0x3c91ef58	0.017814323
2	0x3cdd4a35	0.027012924
3	0xbd9a386f	-0.07530295
4	0xbd7545fb	-0.05988119
5	0xbc40241b	-0.011727358
6	0xbdf79a50	-0.1208998
7	0xbd3d904f	-0.0462802

conv_in.1.running_mean f4 [8]
0	0xbdb11857	-0.086472206
1	0xbd7c41d9	-0.061586235
2	0x3ed0c772	0.40777165
3	0x3db7e3ca	0.08978994
4	0xbc2403fe	-0.010010717
5	0x3daefa5d	0.08543847
6	0xbac06b2d	-0.0014680378
7	0xbe2d84fa	-0.16945258

conv_in.1.running_var f4 [8]
0	0x4186f1ba	16.86803
1	0x41ad66e8	21.675247
2	0x40ca682a	6.3252153
3	0x410a7fa4	8.656162
4	0x40ef8591	7.4850545
5	0x417ac7e3	15.6738
6	0x4056439e	3.347877
7	0x4164ebf4	14.307606

layer1.0.conv1.weight f4 [16, 8, 3, 3, 3]
0	0xbc434b21	-0.011919768
1	0xbc4bcb7b	-0.01243865
2	0x3da70743	0.08155682
3	0x3c37caa2	0.011217745
4	0xbc844a0f	-0.016148595
5	0xbd1bf2ee	-0.038073473
6	0x3d71f349	0.059069905
7	0x3d1ead23	0.038739335
8	0x3c4fd2f3	0.012684572
9	0xbcdae107	-0.02671863
10	0x3d59140e	0.05299764
11	0xbc72649b	-0.014794494
12	0xbc5abda8	-0.013350882
13	0x3c19acc7	0.009379572
14	0x3c9c572d	0.019084537
15	0x3cad42e8	0.021150067
16	0x3d82bf15	0.06384102
17	0xbb47a40a	-0.0030462765
18	0x3d2bdd2e	0.04195898
19	0xbd3f2bd7	-0.04667267
20	0xbd860504	-0.065439254
21	0x3cacf5ba	0.021113265
22	0x3bf8b944	0.0075904448
23	0x3cc34c7a	0.023840178
24	0xbdf4ad0e	-0.1194707
25	0xbe0f99f9	-0.1402358
26	0xbbb60598	-0.005554866
27	0xbd9a54fe	-0.07535742
28	0xbd9c7f68	-0.07641488
29	0x3e0114e6	0.12605628
30	0x3d3e9ffa	0.046539284
31	0xbca54cbd	-0.020178193
32	0xbd90a5f5	-0.07062904
33	0xbc26464e	-0.010148598
34	0xbd00f2f9	-0.031481717
35	0x3d3eda14	0.046594694
36	0x3d66e17e	0.05636739
37	0x3d92281d	0.07136557
38	0x3d10396e	0.03521102
39	0x3c8032f5	0.015649298
40	0xbd16722d	-0.03672998
41	0x3d11c603	0.03558923
42	0x3da9e80e	0.08296214
43	0x3d90e6f2	0.07075299
44	0x3c823618	0.015894935
45	0x3ccb28fc	0.024799816
46	0xbb2e1380	-0.0026561916
47	0xbe19a8e4	-0.15005833
48	0xbd3c2789	-0.04593614
49	0x3d89b393	0.06723704
50	0x3ce85419	0.028360413
51	0xbdb24e2c	-0.08706316
52	0xbd901276	-0.07034771
53	0xbda1422f	-0.07873952
54	0x3c885601	0.016642572
55	0xbc4d29b5	-0.012522151
56	0x3bc19231	0.00590732
57	0xbd4c4b10	-0.049876273
58	0xbd8473a1	-0.06467367
59	0x3d00a217	0.03140458
60	0x3c3ba01c	0.011451747
61	0x3d5ad596	0.053426348
62	0x3ddfd956	0.109301254
63	0x3c462fe5	0.01209638
64	0x3d07ddc1	0.033170465
65	0x3cbff0d9	0.023430275
66	0x3ce73268	0.028222278
67	0x3bd6e716	0.0065583093
68	0x3ca17942	0.01971114
69	0x3c96b73c	0.01839792
70	0xbd376697	-0.04477557
71	0xbd868b15	-0.065694965
72	0xbd30680b	-0.043067973
73	0xbd0f3d5b	-0.034970623
74	0xbd39a432	-0.045322604
75	0x3c3c4739	0.01149159
76	0x3d4946c8	0.049139768
77	0xbd821666	-0.063519284
78	0xbd05fa44	-0.032709375
79	0x3a9251b5	0.0011163267
80	0xbd486d0d	-0.048932124
81	0xbc06f1c8	-0.008236356
82	0x3c735df9	0.014853948
83	0x3c8265ea	0.015917737
84	0xbc0f6f7c	-0.008754607
85	0x3d110bdc	0.0354117
86	0xbc4c5937	-0.012472442
87	0x3c997cee	0.018736329
88	0x3c4be49a	0.01244464
89	0xbd01bf12	-0.03167636
90	0x3b4217c0	0.0029616207
91	0xbd338144	-0.04382445
92	0xbce66e70	-0.028128833
93	0x3c98d521	0.018656315
94	0xbd752cdd	-0.059857238
95	0xbc396f1d	-0.011317995
96	0xbd05cf19	-0.032668207
97	0xbcff98c7	-0.03120078
98	0x3cb03e2c	0.02151402
99	0xbc8a849c	-0.016908936
100	0xba510c9a	-0.0007974595
101	0x3cb55312	0.022134338
102	0xbcf73d6e	-0.03018066
103	0x3c08d4ad	0.008351487
104	0x3d0d06b6	0.03443023
105	0x3c19b492	0.00938143
106	0x3c9bb39d	0.019006545
107	0x3b8db35d	0.0043243603
108	0x3da8e090	0.08245957
109	0x3d2b5b5e	0.04183518
110	0xbb49f6b8	-0.0030817222
111	0x3e0ecf5a	0.13946286
112	0x3d4da9ad	0.050210644
113	0xbda51b50	-0.0806185
114	0xbd58a717	-0.052893724
115	0xbd715c0c	-0.058925673
116	0xbd77cfc4	-0.060500875
117	0xbd975d73	-0.07390871
118	0xbd02bd9c	-0.031919107
119	0x3c92d81e	0.017925318
120	0xbe397ac3	-0.18113236
121	0xbda22523	-0.079172395
122	0x3d53a975	0.05167528
123	0x3ce7f344	0.02831424
124	0x3d0f99b4	0.035058692
125	0x3da0b36d	0.07846723
126	0x3caaf09b	0.020866683
127	0x3c90c912	0.017674003
128	0xbc93c5c9	-0.018038647
129	0x3e00e28d	0.12586422
130	0x3d994adc	0.074849814
131	0x3b46e69f	0.0030349863
132	0x3ce656ad	0.028117502
133	0x3c797824	0.015226398
134	0xbd87bc7a	-0.06627746
135	0x3cadb3fd	0.02120399
136	0x3d37d947	0.044884946
137	0x3d2b241e	0.04178249
138	0xbd64af10	-0.055831015
139	0x3d8cedc7	0.0688129
140	0x3c943217	0.018090291
141	0xbc898408	-0.01678659
142	0x3d4ab98d	0.04949336
143	0x3c226897	0.0099126315
144	0xbd875bdc	-0.06609318
145	0xbd2ef9c3	-0.04271866
146	0x3b85232a	0.00406303
147	0xbc8f42e9	-0.01748796
148	0xbd26dc90	-0.04073769
149	0x3d985b77	0.074393205
150	0xbc7385d1	-0.014863447
151	0x3c08ada5	0.008342181
152	0x3d94aa6e	0.072590694
153	0x3d51ddaf	0.051236805
154	0xbb7a5142	-0.0038195406
155	0xbd71d121	-0.05903733
156	0x3db10927	0.08644324
157	0xbad77c72	-0.0016440286
158	0xbdffa4b3	-0.12482586
159	0x3c4da7f7	0.012552253
160	0xbd96e354	-0.07367578
161	0xbdefe2b5	-0.11713163
162	0x3afa15d4	0.0019079992
163	0xbd4d6175	-0.05014177
164	0x3d0dc209	0.034608874
165	0x3df9f43d	0.12204788
166	0x3d13a162	0.03604258
167	0xbdc72bbd	-0.09725139
168	0xbd6cb71a	-0.057791807
169	0xbd1c3e5b	-0.038145404
170	0x3d33316d	0.043748308
171	0x3c180ed8	0.009280883
172	0x3dde19e8	0.10844785
173	0x3dc634c3	0.09678032
174	0xbdd8cb80	-0.105856895
175	0xbe614bd7	-0.22001587
176	0xbc9443b0	-0.018098682
177	0x3e28068c	0.16408747
178	0x3df97c1b	0.12181874
179	0x3c1932ce	0.009350492
180	0xbc28e6ee	-0.010308964
181	0xbe022755	-0.12710316
182	0xbe184ce1	-0.14873077
183	0x3da2ebc9	0.07955129
184	0x3e9342d4	0.28761923
185	0x3e067351	0.13129927
186	0xbe60f8ed	-0.21969958
187	0xbe41c066	-0.1892105
188	0xbd7275c4	-0.05919434
189	0xbd2cebf6	-0.042217217
190	0xbd4286e7	-0.047491934
191	0x3ca9ff95	0.020751754
192	0xbd913c2a	-0.070915535
193	0xbcbaa7db	-0.022785118
194	0x3c84f899	0.016231822
195	0xbd920bfb	-0.07131191
196	0xbd67c371	-0.05658287
197	0x3d2d238b	0.042270225
198	0x3cf3927b	0.029732933
199	0x3da44a1e	0.08021949
200	0x3bc8ca6d	0.0061276467
201	0x3cd7469e	0.02627879
202	0x3d06d1fc	0.0329151
203	0x3c7c5a78	0.015402429
204	0x3c287fc0	0.010284364
205	0x3cde00b4	0.027099945
206	0xbce178da	-0.027523447
207	0x3cba5822	0.022747103
208	0xbcdeaa57	-0.027180834
209	0xbc86596e	-0.016400065
210	0x3d8b2552	0.06794228
211	0xbc8749c4	-0.016514666
212	0xbd182747	-0.037146833
213	0x3d70213e	0.058625452
214	0x3a56eec2	0.000819903
215	0xbc15df17	-0.009147427
216	0x3c525189	0.012836822
217	0x3d945d2a	0.07244332
218	0x3be79154	0.007066885
219	0xbe04d0ce	-0.12970278
220	0x3ca77103	0.02043963
221	0x3db919a6	0.09038095
222	0xbe282ff9	-0.1642455
223	0xbdecdde0	-0.11565757
224	0x3c0d455c	0.008622494
225	0x3d0ccf4c	0.03437738
226	0xbb7678f0	-0.0037608705
227	0xbd66d156	-0.056351982
228	0x3ddaec21	0.10689569
229	0x3d9c5ea6	0.0763524
230	0xbd9aecae	-0.07564674
231	0x3db7a5b8	0.08967155
232	0x3df7c324	0.12097767
233	0x3bcdf9c3	0.0062858774
234	0xbd83e723	-0.0644057
235	0xbd8bb2d8	-0.06821221
236	0x3d8065e7	0.06269436
237	0xbcd21881	-0.02564645
238	0xbdf05b87	-0.117362075
239	0x3b5a29d2	0.0033289087
240	0x3cbdd5a1	0.023173155
241	0xbd8d9836	-0.069137976
242	0xbca510cf	-0.020149617
243	0xbbbd6115	-0.0057793953
244	0x3c715512	0.014729755
245	0xbdc8d8a0	-0.09806943
246	0xbd317a0a	-0.043329276
247	0x3cb3d4cf	0.021952061
248	0x3d24a626	0.040197514
249	0xbdbef834	-0.09324685
250	0xbd1450b1	-0.036209766
251	0xbce11f30	-0.027480692
252	0x3d6ae2b7	0.05734512
253	0x3d1720ae	0.0368964
254	0x3d92ceb3	0.07168331
255	0xbd36ee09	-0.0446606

layer1.0.conv1.bias f4 [16]
0	0xb876ad94	-5.8812628e-05
1	0xb8dfaf6e	-0.00010666145
2	0x380f046a	3.4097968e-05
3	0xb822d298	-3.881994e-05
4	0x37568a14	1.2787543e-05
5	0xb92ad82e	-0.00016292997
6	0x39451cdb	0.00018798134
7	0xb86b1aa2	-5.605317e-05
8	0x38359184	4.3289285e-05
9	0x38bf6134	9.125695e-05
10	0x35625900	8.432107e-07
11	0xb8271ace	-3.9840867e-05
12	0xb8eb955e	-0.00011233495
13	0xb9112ed1	-0.00013845718
14	0xb79bfdba	-1.859559e-05
15	0xb8914e56	-6.92873e-05

layer1.0.bn1.weight f4 [16]
0	0x3f109180	0.56472015
1	0x3f1157a8	0.5677438
2	0x3f324dc0	0.6964989
3	0x3f2552db	0.6457955
4	0x3f23aac2	0.6393243
5	0x3f37b3fa	0.71759
6	0x3f20cbe2	0.628111
7	0x3f13179c	0.574579
8	0x3f098bf3	0.5372917
9	0x3f226cf4	0.634475
10	0x3f296504	0.6616976
11	0x3f17d076	0.5930246
12	0x3f105f8d	0.563958
13	0x3f0ec1dd	0.5576456
14	0x3f631340	0.8870125
15	0x3f25356d	0.64534646

layer1.0.bn1.bias f4 [16]
0	0xbd6da95e	-0.05802285
1	0xbcc96101	-0.024582388
2	0x3cbf99be	0.02338874
3	0x3dca0ebe	0.09866093
4	0xbd4547a2	-0.048164017
5	0xbc72e654	-0.014825422
6	0x3c7218da	0.014776433
7	0xbc9c7bd7	-0.01910202
8	0xbd8361af	-0.06415116
9	0xbd6d338c	-0.057910487
10	0x3d64c368	0.055850416
11	0xbd0e3fce	-0.034728818
12	0xbd518f4d	-0.051162053
13	0xbd180b33	-0.037120055
14	0xbd3800ca	-0.044922628
15	0xbccfb7d1	-0.025356205

layer1.0.bn1.running_mean f4 [16]
0	0x3c8ce173	0.017197346
1	0x3c7f2b61	0.015574307
2	0x3d01cf5e	0.0316919
3	0x3c25ef0f	0.010127797
4	0xb9edfd52	-0.000453929
5	0xbc74be85	-0.0149380015
6	0x3cdaff2e	0.026733007
7	0xbaca1662	-0.0015418048
8	0xbaa3d19f	-0.0012498385
9	0x3ce7bd6c	0.028288566
10	0xbc8ca1c1	-0.017166974
11	0x3bcb1db5	0.0061986097
12	0x3cc9b389	0.024621742
13	0x3d0b90fc	0.034073815
14	0xbd17060a	-0.036870994
15	0x3caa443f	0.020784495

layer1.0.bn1.running_var f4 [16]
0	0x3e5839d7	0.21115814
1	0x3e55f45f	0.20894001
2	0x3f1322ff	0.57475275
3	0x3f041588	0.51595354
4	0x3ebe56d8	0.37175632
5	0x3eb096d0	0.3449006
6	0x3e809b9d	0.25118724
7	0x3ebfaa06	0.37434405
8	0x3e9c3629	0.3051007
9	0x3e90584e	0.2819237
10	0x3edf70f0	0.43640852
11	0x3e46ab43	0.19401269
12	0x3e813035	0.25232092
13	0x3e90398e	0.2816891
14	0x3f1539db	0.58291405
15	0x3e8fe1d0	0.2810197

layer1.0.conv2.weight f4 [16, 16, 3, 3, 3]
0	0x3dc727bd	0.09724376
1	0x3d1c81a5	0.038209576
2	0xbdca0823	-0.09864833
3	0x3dacbcb0	0.08434427
4	0xbdb277e5	-0.08714274
5	0xbdca0279	-0.09863753
6	0x3cdf015c	0.027222328
7	0x3d06e97b	0.032937508
8	0x3cb8b059	0.022545027
9	0x3c3903c4	0.011292402
10	0xbcb90b41	-0.022588374
11	0xbd8a0bf4	-0.06740561
12	0xbc29a046	-0.010353154
13	0xbdd76cc0	-0.10518789
14	0xbda70cc2	-0.0815673
15	0xbd22c849	-0.039741788
16	0x3dd7318f	0.105074994
17	0x3d42a260	0.047518134
18	0x3d01b730	0.03166884
19	0xbdc571da	-0.09640856
20	0xbb9dc800	-0.0048151016
21	0xbd0e73b1	-0.0347783
22	0xbe20da29	-0.15708221
23	0xbcb6dac1	-0.022321107
24	0x3d31ee73	0.043440294
25	0xbb91bc8a	-0.0044475244
26	0x3cc5f362	0.024163906
27	0x3d87965c	0.06620476
28	0xbe1fb6a7	-0.1559702
29	0x3c8e04f5	0.017336348
30	0xbcac4f25	-0.021033833
31	0xbe0182e7	-0.12647592
32	0xbddf70dc	-0.10910198
33	0x3c8b633a	0.017015088
34	0xbd238ec5	-0.039931078
35	0xbd1ffd41	-0.03905988
36	0x3d21df2d	0.039519478
37	0xbd9bdd72	-0.07610597
38	0xba0ee7d4	-0.0005451415
39	0x3d5bc31b	0.053652864
40	0xbdb28115	-0.08716027
41	0xbd9ca851	-0.07649291
42	0xbd8a8e13	-0.0676538
43	0x3d2104b2	0.03931112
44	0xbb832a88	-0.004002873
45	0xbcc39471	-0.023874493
46	0xbcbd5b8d	-0.023114944
47	0xbdbbe249	-0.0917402
48	0x3da7812d	0.08178935
49	0xbdc50ac6	-0.096211955
50	0x3b8b5c44	0.0042529423
51	0xbdb49e2d	-0.08819232
52	0x3df7d767	0.121016316
53	0x3d7621b9	0.060090754
54	0xbc1fdc24	-0.009757075
55	0xbc1be100	-0.009514093
56	0x3dda6899	0.10664482
57	0x3d186c4e	0.037212662
58	0xbd948c4b	-0.07253321
59	0x3d81a1c1	0.0632968
60	0x3d385b7e	0.04500913
61	0x3da5e114	0.08099571
62	0x3cdd495d	0.027012521
63	0x3c098c4f	0.008395269
64	0xbbe3692b	-0.0069400272
65	0xbcfc9ee4	-0.030837484
66	0xba9be721	-0.0011894443
67	0xbde2ab0f	-0.11067783
68	0xbc116df5	-0.008876313
69	0x3c08678f	0.008325472
70	0xbc5b63d9	-0.013390505
71	0xbbf0b95f	-0.0073463167
72	0x3c639008	0.01388932
73	0x3d83c07e	0.06433199
74	0xbdfcbea7	-0.123410515
75	0x3d629f4c	0.0553277
76	0xbe2560c7	-0.16150199
77	0xbc9fc906	-0.019505035
78	0xbd09909c	-0.033585176
79	0xbbae04b0	-0.0053106174
80	0xbd4cf9b0	-0.050042808
81	0x3db12799	0.08650131
82	0x3c24c05e	0.01005563
83	0xbbed65c9	-0.0072447998
84	0x3d5a3fa2	0.05328334
85	0xbc033c42	-0.008009972
86	0x3e15bce3	0.14622836
87	0x3d14d6bc	0.0363376
88	0x3b4fca7c	0.0031706383
89	0x3c89ec22	0.01683623
90	0xbcb321a9	-0.021866636
91	0xbcb7fcc6	-0.022459399
92	0xbdd74714	-0.10511604
93	0x3c52eb5b	0.012873496
94	0xbda1e2da	-0.079045966
95	0x3cc592f0	0.024117917
96	0xbcfbefec	-0.030754052
97	0xbc63bf68	-0.013900615
98	0xbdd83bc1	-0.10558272
99	0xbd63f469	-0.05565301
100	0xbc800df8	-0.01563166
101	0xbdc41fed	-0.09576402
102	0xbac891f8	-0.0015302291
103	0xbe1d1b4c	-0.15342444
104	0xbde9754c	-0.11399326
105	0xbd8f129f	-0.069859736
106	0x3d94f6b6	0.07273619
107	0xbe081b8b	-0.13291757
108	0xbcbd1d8d	-0.02308538
109	0x3d980f7e	0.0742483
110	0xbe06fef4	-0.13183194
111	0xbc9a9784	-0.018871076
112	0xbe30a3d0	-0.1724999
113	0x3ce2fb50	0.027707726
114	0xbdbdd1c7	-0.092685275
115	0xbd8c2f28	-0.06844932
116	0xbdaccaef	-0.08437144
117	0xbce47bc3	-0.027891045
118	0x3c811b58	0.015760109
119	0xbccb9fb3	-0.024856424
120	0xbd27f4f0	-0.041005075
121	0xbd961fcc	-0.073302835
122	0x3d766474	0.060154393
123	0xbd6cc5fb	-0.057805996
124	0x3c5a07d0	0.013307527
125	0xbd426b84	-0.047465816
126	0x3dbfde85	0.09368614
127	0x3ca0a6f8	0.019610867
128	0x3d88332f	0.066503875
129	0x3d188b1c	0.03724204
130	0xbd933fae	-0.0718988
131	0x3d888095	0.0666515
132	0x3ca16928	0.019703463
133	0x3ce3f99e	0.027828988
134	0xbbef1f1b	-0.007297409
135	0x3d8810bf	0.06643819
136	0x3deab173	0.11459627
137	0xbd691b2b	-0.056910675
138	0x3d94d975	0.07268039
139	0xbd557055	-0.05210908
140	0xbdf93067	-0.12167435
141	0x3da6f65b	0.08152457
142	0x3dbbe575	0.09174625
143	0xbdae8b7e	-0.085227
144	0x3bde943d	0.0067925737
145	0x3da294de	0.079385504
146	0xbc6732e8	-0.014111258
147	0x3d115c1e	0.03548824
148	0xbdb3aa73	-0.08772745
149	0x3b8bc78f	0.0042657326
150	0x3aeb08a4	0.0017931652
151	0xbc26f3ab	-0.010189931
152	0x3d3e193e	0.04641079
153	0xbd426962	-0.047463782
154	0xbd7d44f9	-0.061833356
155	0xbd8d3b4a	-0.06896074
156	0xbcf53c46	-0.029935967
157	0xbe1aaebd	-0.1510572
158	0x3e0e50d5	0.13898022
159	0xbd829365	-0.063757695
160	0x3c1576c3	0.009122553
161	0x3e036abd	0.12833686
162	0x3d5beca5	0.05369248
163	0x3bc81414	0.006105909
164	0xbdd08714	-0.10182014
165	0x3cc77661	0.02434844
166	0xbe076abf	-0.13224314
167	0xbdb94e55	-0.09048144
168	0xbc9a220f	-0.018815069
169	0x3d7cacac	0.06168811
170	0x3c064ba5	0.008196746
171	0x3d8f18b2	0.06987132
172	0xbb425036	-0.002964986
173	0xbd015061	-0.031570796
174	0x3c72936b	0.014805655
175	0xbdc83e9b	-0.09777566
176	0xbcf3ffa5	-0.029784987
177	0x3c335f68	0.01094804
178	0xbc71bc1a	-0.01475432
179	0x3d668ec9	0.056288514
180	0xbcb9bace	-0.022672083
181	0xbe1fd392	-0.15608051
182	0x3cbcfc3f	0.023069499
183	0xbd5bc461	-0.05365408
184	0xbe7e6c2c	-0.24845952
185	0x3bd86d1b	0.0066048033
186	0xbdb79963	-0.08964803
187	0xbc720f5e	-0.014774172
188	0xbbd56022	-0.006511704
189	0x3d839949	0.06425721
190	0xbd601ba6	-0.054713868
191	0xbe045883	-0.1292439
192	0x3d5b6d2e	0.05357092
193	0xbdca5e5b	-0.09881278
194	0xbe1e0a83	-0.15433697
195	0xbc876fa6	-0.01653273
196	0x3db73486	0.08945565
197	0xbc9caa6a	-0.019124229
198	0xbaa5b119	-0.001264128
199	0x3ca50cb5	0.02014766
200	0xbc0feb2d	-0.008784098
201	0x3c789654	0.01517256
202	0xbde18817	-0.11012285
203	0x3d1ce6f1	0.03830618
204	0x3d887fee	0.06665026
205	0x3c995900	0.018719196
206	0x3bfa1534	0.007631922
207	0x3bcd95f9	0.0062739816
208	0xbd79c6cd	-0.060980607
209	0xbc898523	-0.016787117
210	0x3be6761c	0.0070331227
211	0xbe7e9920	-0.248631
212	0x3d92770b	0.07151612
213	0xbb5bf6d0	-0.003356386
214	0xbd8245af	-0.06360947
215	0xbc442dbb	-0.011973794
216	0x3bb8f233	0.005644107
217	0x3be46e92	0.006971189
218	0x39e41fd9	0.00043511277
219	0x3d52b4d9	0.051442
220	0xbde3f9dd	-0.11131642
221	0xbdbd75a3	-0.09250953
222	0xbc639411	-0.013890282
223	0x3d287686	0.041128658
224	0xbde19849	-0.11015374
225	0x3c562fae	0.013072891
226	0xbc0df82c	-0.008665126
227	0xbdb3c5e9	-0.08777983
228	0x3db391a0	0.0876801
229	0xbd7cac68	-0.061687857
230	0xbd079d5c	-0.033109054
231	0x3c3bd1db	0.011463608
232	0x3ca06eaf	0.019584028
233	0x3d286f77	0.041121926
234	0x3cc9c84d	0.024631644
235	0xbd352ecb	-0.04423408
236	0xbdb6cb69	-0.08925516
237	0x3df87ccb	0.12133177
238	0xbdab48d5	-0.08363501
239	0x3da19de0	0.078914404
240	0x3d93a498	0.07209128
241	0x3debd559	0.11515302
242	0x3e1f3cd4	0.15550548
243	0x3c96426b	0.018342217
244	0xbd457654	-0.04820855
245	0xbbbac4c1	-0.0056997244
246	0x3c284c4b	0.010272096
247	0xbe05f488	-0.13081563
248	0xbd547e1c	-0.05187808
249	0x3d0d1cf1	0.03445143
250	0xbd071d48	-0.03298691
251	0xbdcf9a4f	-0.10136854
252	0x3c93be7b	0.018035164
253	0x3d372099	0.044708822
254	0xbda3e0c3	-0.08001854
255	0x3c4df312	0.0125701595

layer1.0.conv2.bias f4 [16]
0	0xb741e336	-1.1556598e-05
1	0x37c6b012	2.3685428e-05
2	0xb7e4204c	-2.7194757e-05
3	0x37b9a8dd	2.2132352e-05
4	0xb7414693	-1.1520128e-05
5	0xb8288fc6	-4.018822e-05
6	0x3739ef0a	1.1082515e-05
7	0xb828e0a0	-4.026352e-05
8	0x35d36830	1.5751048e-06
9	0x359f6b18	1.1877592e-06
10	0xb7d5a840	-2.5469926e-05
11	0x3635052a	2.6974108e-06
12	0x361394c4	2.19913e-06
13	0xb82c45f6	-4.107315e-05
14	0xb539d660	-6.922983e-07
15	0x37336af1	1.0694131e-05

layer1.0.bn2.weight f4 [16]
0	0x3f28bc8e	0.6591271
1	0x3f057d24	0.52144074
2	0x3f24c018	0.6435561
3	0x3f02eef8	0.5114589
4	0x3f013ec0	0.50486374
5	0x3f0f97cc	0.56091
6	0x3f1d8c2b	0.61542004
7	0x3f33d4a5	0.70246345
8	0x3f31e35b	0.6948754
9	0x3f0163bb	0.505428
10	0x3f1cd446	0.61261404
11	0x3ec88ff3	0.39172325
12	0x3f0c4159	0.5478721
13	0x3f3e1c35	0.7426179
14	0x3f1c0884	0.60950494
15	0x3f1cec46	0.61298025

layer1.0.bn2.bias f4 [16]
0	0xbc897f5f	-0.016784368
1	0x3d0b5fb8	0.03402683
2	0xbe56f9ec	-0.20993775
3	0x3d46049e	0.048344247
4	0x3e898a7b	0.26863465
5	0xbe154071	-0.14575364
6	0xbe8323bd	-0.25613204
7	0xbdafb34f	-0.08579122
8	0xbe25809c	-0.16162342
9	0xbe5a1958	-0.2129873
10	0xbe1ace83	-0.1511784
11	0xbdf9e46b	-0.122017704
12	0x3e1b6f86	0.15179262
13	0xbd331a6d	-0.043726373
14	0xbdf52431	-0.119697936
15	0x3bcad780	0.0061902404

layer1.0.bn2.running_mean f4 [16]
0	0xbf799a36	-0.9750093
1	0xbf456778	-0.77111006
2	0xbf95bb1a	-1.1697724
3	0xbf09cb79	-0.538261
4	0xbf40e8a7	-0.75355
5	0xbf9196d6	-1.1374156
6	0xbf828971	-1.0198194
7	0xbf7bcc82	-0.9835893
8	0x3f8bf111	1.0932943
9	0x3e781e11	0.2423022
10	0x3f8fa92d	1.1223503
11	0xbf394014	-0.723634
12	0xbf3fb410	-0.7488413
13	0xbf9a1c39	-1.2039863
14	0xbf73bda7	-0.9521126
15	0xbf9836ab	-1.1891683

layer1.0.bn2.running_var f4 [16]
0	0x3ffd282e	1.9777887
1	0x3fdea14d	1.7392975
2	0x3feb21ec	1.8369727
3	0x4008bfa9	2.136698
4	0x4015e895	2.3423207
5	0x3ff9e4d6	1.952296
6	0x3fd3cf4b	1.6547636
7	0x4059ab30	3.4010735
8	0x40bd895c	5.9230175
9	0x4019b89e	2.4018931
10	0x40250656	2.5785117
11	0x3fe6116a	1.7974064
12	0x3feb7878	1.8396139
13	0x40061f4a	2.0956597
14	0x40024870	2.0356712
15	0x40300373	2.7502105

layer1.0.conv3.weight f4 [16, 16, 1, 1, 1]
0	0xbd24839e	-0.040164582
1	0xbd6e8e75	-0.058241326
2	0xbd4ef0b0	-0.050522506
3	0x3d996a30	0.07490957
4	0x3db0efb5	0.086394705
5	0x3c151e16	0.009101411
6	0xbc04d4c7	-0.008107371
7	0xbe002c7f	-0.12516974
8	0xbda90e29	-0.08254654
9	0xbdbf04c2	-0.09327079
10	0xbd4b0098	-0.049561113
11	0xbd19aa8d	-0.037516166
12	0xbdf26de3	-0.118373655
13	0x3c92ca42	0.01791871
14	0xbcb45ebc	-0.02201783
15	0xbdcc611d	-0.099794604
16	0xbda1850c	-0.07886705
17	0xbdd17f75	-0.102293886
18	0xbda354c7	-0.07975154
19	0x3da444b9	0.0802092
20	0x3cc126bf	0.023578046
21	0xbd08f6d3	-0.033438515
22	0xbdf6d144	-0.12051633
23	0xbdd31226	-0.10306196
24	0xbde7ef5b	-0.1132495
25	0xbc824f07	-0.015906824
26	0xbc02c22c	-0.0079808645
27	0x3c89595d	0.016766245
28	0xbac84560	-0.0015279464
29	0x3ddb3abf	0.10704564
30	0xbe3c6090	-0.1839621
31	0x3d1b9ae1	0.0379895
32	0x3cd8e357	0.026475592
33	0x3d2cc8da	0.042183734
34	0x3d885910	0.06657612
35	0xbb4883d7	-0.003059616
36	0xbd2485b5	-0.040166575
37	0x3e1f2edf	0.15545224
38	0x3d712bbb	0.058879595
39	0x3de62997	0.112384014
40	0xbd615abb	-0.055018168
41	0x3b363529	0.0027802682
42	0xbd97960c	-0.07401666
43	0x3cf74f93	0.030189311
44	0x3c9b6783	0.018970257
45	0x3e160932	0.14651945
46	0xbcb5acd0	-0.02217713
47	0x3e4975b9	0.19673814
48	0xbdafd0eb	-0.0858477
49	0xbddd2b77	-0.10799306
50	0xbe1fe826	-0.15615901
51	0x3d1b447f	0.03790712
52	0xbc99f9e7	-0.01879592
53	0xbd638c38	-0.055553645
54	0xbe59c4c0	-0.2126646
55	0xbe063682	-0.1310673
56	0xbb370776	-0.002792803
57	0x3d97175b	0.073775016
58	0x3d639858	0.05556521
59	0xbe02df0a	-0.12780395
60	0xbd8314ac	-0.06400427
61	0x3d2aed8b	0.041730445
62	0xbe2e2e0c	-0.17009753
63	0xba90a576	-0.0011035639
64	0x3cca51da	0.024697233
65	0x3d82294f	0.06355535
66	0xbc54d276	-0.012989631
67	0x3dbac638	0.091198385
68	0x3d84baf7	0.06480973
69	0xbd2fb12d	-0.042893577
70	0xbcd2b156	-0.025719326
71	0x3d38df63	0.045134913
72	0x3dc786be	0.09742497
73	0x3ddd7cd7	0.10814827
74	0x3e2b3fb4	0.1672352
75	0x3cdd67d5	0.02702705
76	0x3e1942a6	0.1496683
77	0x3de471cf	0.1115452
78	0xbd714e3c	-0.0589125
79	0x3cb25b48	0.021772042
80	0xbde81b74	-0.11333361
81	0xbd8bb465	-0.06821517
82	0x3dd48104	0.1037617
83	0xbdc08a71	-0.094014056
84	0xbe190792	-0.14944294
85	0x3d93fece	0.072263345
86	0x3c4bcdc0	0.012439191
87	0x3d7654c2	0.060139425
88	0xbd79a6c2	-0.06095005
89	0xbb1c78a8	-0.0023875628
90	0xbd328eaf	-0.043593105
91	0xbc27e21f	-0.010246783
92	0xbcc2717e	-0.023735758
93	0x3e67e93c	0.22647566
94	0xbde0e19a	-0.1098053
95	0x3deb773c	0.114973515
96	0xbc0d5d07	-0.0086281365
97	0xbc63503a	-0.013874108
98	0x3d16c369	0.03680745
99	0x3a3a5fcf	0.00071096135
100	0xbd838b45	-0.06423048
101	0x3c95b33d	0.018273944
102	0x3dddc6cd	0.10828934
103	0x3e6323cf	0.22181629
104	0x3dd3d127	0.10342627
105	0x392ac560	0.00016285991
106	0x3d179f3f	0.037017103
107	0xbdd9615a	-0.106142715
108	0xbdae9508	-0.08524519
109	0xbe03427a	-0.12818328
110	0x3d9bc4d7	0.076059036
111	0xbdc4e71c	-0.09614393
112	0xbe1427e0	-0.14468336
113	0xbdb6ba3c	-0.0892224
114	0x3d3b5606	0.045736335
115	0xbdc84be4	-0.097801
116	0xbde7676b	-0.11299022
117	0x3d809301	0.06278039
118	0x3d7d7a05	0.061883945
119	0x3dfc8156	0.12329356
120	0xbdff3231	-0.12460745
121	0xbc568676	-0.013093581
122	0xbda0f033	-0.07858314
123	0x3d157192	0.036485262
124	0xbdbc38e5	-0.09190539
125	0x3d6e212f	0.058137115
126	0xbdad1987	-0.084521346
127	0x3d5a321c	0.053270444
128	0x3cc98b95	0.02460269
129	0x3d1a3d0e	0.037655883
130	0x3e288a7b	0.16459076
131	0x3c0770d1	0.008266644
132	0xbdcb242c	-0.099190086
133	0x3d3d6b61	0.046244983
134	0x3e358617	0.17726932
135	0x3d9eac34	0.07747689
136	0xbddee9ee	-0.10884462
137	0xbdaa5037	-0.08316081
138	0xbd519c92	-0.051174708
139	0x3cd793ec	0.026315652
140	0xbdcb7f10	-0.099363446
141	0xbcacecae	-0.021108951
142	0x3dab49d0	0.08363688
143	0xbd7cc463	-0.061710726
144	0xbc1af200	-0.009457111
145	0xbc95c52f	-0.018282501
146	0xbe16e229	-0.14734711
147	0x3cec6b87	0.028859867
148	0xbc1db85b	-0.009626473
149	0xbdc0ece1	-0.09420181
150	0xbe147674	-0.14498311
151	0xbe2db337	-0.16962896
152	0xbc884919	-0.016636418
153	0x3d609f78	0.05483958
154	0x3d90b1fa	0.07065196
155	0xbd2d20f1	-0.042267743
156	0xbd533d7e	-0.051572315
157	0xbdb66358	-0.08905667
158	0xbceefc35	-0.029172996
159	0xbe42a5c3	-0.19008546
160	0xbe1c419a	-0.152594
161	0xbd8f434d	-0.069952585
162	0xbc1bf3f7	-0.009518615
163	0xbcfc792f	-0.030819504
164	0xbd653698	-0.055960268
165	0x3c6d4fb1	0.014484332
166	0xbdfeb562	-0.1243694
167	0x3e05c4b9	0.13063325
168	0x3ce6f0ce	0.028190996
169	0xbd8ae2d1	-0.06781543
170	0xbdb0e848	-0.08638054
171	0xbe168d4b	-0.14702336
172	0xbd08dcea	-0.033413805
173	0x3d327101	0.0435648
174	0xbe0a97ce	-0.13534471
175	0x3d8592ae	0.065221176
176	0x3da3645f	0.07978129
177	0x3e15de62	0.14635614
178	0x3dde3d3c	0.10851523
179	0x3e17c3d5	0.14820798
180	0x3c6ea2c4	0.014565174
181	0x3d8ccc80	0.06874943
182	0x3cb5f4fc	0.022211544
183	0xbd3ffc23	-0.046871316
184	0xbd90ee30	-0.07076681
185	0xbdd42655	-0.10358874
186	0xbd808d01	-0.06276894
187	0xbd48fbba	-0.04906819
188	0x3dc213a2	0.09476401
189	0x3e20068e	0.156275
190	0x3d83cec9	0.064359255
191	0x3d7fc889	0.062447105
192	0xbd1a3a6d	-0.037653375
193	0xbc950757	-0.018191976
194	0xbe57df52	-0.21081284
195	0x3d5bda52	0.053675003
196	0xbd62e058	-0.055389732
197	0xbde32b30	-0.11092222
198	0xbd88458b	-0.06653889
199	0xbc21dc06	-0.009879118
200	0x3d96bafa	0.07359882
201	0x3d927722	0.07151629
202	0x3db4279c	0.087966174
203	0xbd5566af	-0.05209988
204	0x3b941ad8	0.0045198016
205	0xbe4c2c3d	-0.1993875
206	0xbdc5c6c3	-0.096570514
207	0xbdefd656	-0.11710803
208	0xbb53f5eb	-0.0032342623
209	0xbdd67b0d	-0.10472689
210	0xbb9d768a	-0.0048053907
211	0x3d83d2bc	0.06436679
212	0xbdeb4137	-0.11487048
213	0xbd3a8f53	-0.04554684
214	0xbd5ea4f1	-0.05435652
215	0xbe38d46a	-0.1804978
216	0x3da26a89	0.07930476
217	0x3cf4a146	0.029862057
218	0x3d1dd0d1	0.03852922
219	0x3c90b438	0.01766406
220	0xbd0f470f	-0.034979876
221	0x3cfbac36	0.030721765
222	0xbe228884	-0.15872389
223	0x3b980dd7	0.0046403217
224	0xbd5ec241	-0.054384474
225	0x3d9925c7	0.074779086
226	0x3e1d9815	0.15390046
227	0x3a5ff43d	0.0008543169
228	0xbe48258d	-0.19545574
229	0x3d65a346	0.056063913
230	0x3d22ecb3	0.039776515
231	0x3b382c10	0.0028102435
232	0xbe16d889	-0.14731039
233	0xbb390100	-0.0028229356
234	0xbc56568d	-0.013082159
235	0x3c935288	0.01798369
236	0xbe367154	-0.17816669
237	0xbe008df0	-0.12554145
238	0x3d6885c8	0.05676821
239	0xbda0a99a	-0.07844849
240	0x3e460b2a	0.19340196
241	0xbcfa4ec4	-0.030555137
242	0xbbc5fa01	-0.0060417657
243	0x3b3cb68e	0.0028795335
244	0xbe01ec34	-0.1268776
245	0x3d4d4150	0.050111115
246	0x3d7c810a	0.0616465
247	0x3d94cdf9	0.07265849
248	0xbdfa02ae	-0.12207542
249	0xbe12f1c0	-0.14350033
250	0xbc83463b	-0.0160247
251	0x3bc2b02e	0.0059414124
252	0x3d77583d	0.060386885
253	0xbdc85fb8	-0.09783882
254	0x3cda0994	0.026615895
255	0xbce66b4a	-0.028127331

layer1.0.conv3.bias f4 [16]
0	0x398ee740	0.00027256645
1	0xb766cd3b	-1.3756852e-05
2	0xb6e08774	-6.691489e-06
3	0x3873c884	5.812246e-05
4	0x36814d56	3.8535027e-06
5	0x391109e3	0.0001383196
6	0x38b4a196	8.6131666e-05
7	0x378e1db7	1.6941556e-05
8	0xb8bbbb36	-8.9517256e-05
9	0xb9327814	-0.00017020135
10	0xb9533f12	-0.00020146024
11	0x38268e87	3.9710223e-05
12	0x377d9dfa	1.5116757e-05
13	0x373853e4	1.0986787e-05
14	0x35f983e0	1.8590326e-06
15	0xba35c5fe	-0.0006934105

layer1.0.bn3.weight f4 [16]
0	0x3f0e1331	0.55498034
1	0x3f1b1130	0.605731
2	0x3f1c5c38	0.61078215
3	0x3f2d39a2	0.67666066
4	0x3f1ddb2d	0.6166256
5	0x3f48090b	0.781388
6	0x3f23522e	0.6379727
7	0x3f543afa	0.8290249
8	0x3f2dace2	0.67841923
9	0x3f0bc6ee	0.5460042
10	0x3f117ee8	0.5683427
11	0x3f1f4f76	0.6223062
12	0x3f0cbd1a	0.54976046
13	0x3f089057	0.53345245
14	0x3f3ab390	0.7293024
15	0x3f5f449e	0.87214077

layer1.0.bn3.bias f4 [16]
0	0xbc49ec13	-0.012324351
1	0xbc8434ad	-0.016138399
2	0xbe902fc1	-0.28161433
3	0x3e12adf5	0.14324172
4	0xbdecfdc6	-0.11571841
5	0xbe9705de	-0.29496664
6	0xbdd13d6d	-0.10216794
7	0xbc826e70	-0.015921801
8	0xbea5d39a	-0.32388002
9	0xbcacbae7	-0.021085216
10	0xbe7ceae6	-0.24698982
11	0xbb93402e	-0.004493735
12	0x3c9b78fe	0.018978592
13	0xbdcc58dc	-0.09977886
14	0xbe01b69b	-0.12667315
15	0xbc7f801d	-0.015594509

layer1.0.bn3.running_mean f4 [16]
0	0xbda03f1a	-0.07824536
1	0xbd5d890e	-0.054085784
2	0x3dc1383a	0.094345525
3	0xbdeaa59b	-0.11457368
4	0x3e2aab38	0.16666877
5	0xbd386485	-0.045017738
6	0xbcacaee1	-0.021079483
7	0xbde32e1a	-0.110927776
8	0xbd2316dc	-0.039816722
9	0xbe028b50	-0.12748456
10	0xbda1adef	-0.07894503
11	0x3e09da68	0.13462222
12	0xbdd6d291	-0.10489381
13	0xbdb7f742	-0.089827076
14	0xbe1a4a6f	-0.15067457
15	0xbd06b5d1	-0.032888237

layer1.0.bn3.running_var f4 [16]
0	0x3c270827	0.010194815
1	0x3c875e16	0.016524356
2	0x3c4879c7	0.012236065
3	0x3c847560	0.01616925
4	0x3c60a17f	0.013710379
5	0x3c06ddcd	0.008231592
6	0x3cc05a20	0.023480475
7	0x3bf4cfd9	0.0074710664
8	0x3c140014	0.009033222
9	0x3c8ae6cf	0.016955761
10	0x3c4a7dee	0.012359126
11	0x3c979188	0.018502012
12	0x3ca970ff	0.020683764
13	0x3c0a2730	0.008432195
14	0x3c343107	0.010998017
15	0x3bfe0b3a	0.007752803

layer1.0.shortcut.0.weight f4 [16, 8, 1, 1, 1]
0	0x3dae7b05	0.08519558
1	0xbd8deac7	-0.06929546
2	0x3d0d35aa	0.034475006
3	0xbdf4421e	-0.11926673
4	0xbe03f049	-0.1288463
5	0xbd06d650	-0.032919228
6	0x3ddb3362	0.1070316
7	0xbd9977b9	-0.074935384
8	0x3bf9c58f	0.007622428
9	0x3d40de7a	0.04708717
10	0x3e382ef0	0.17986655
11	0x3cf27b31	0.029599758
12	0xbb5a14e9	-0.0033276624
13	0x3dcefad1	0.10106433
14	0xbdadee27	-0.084926896
15	0x3d278a4a	0.040903367
16	0xb9fc0d8a	-0.00048075273
17	0xbe239190	-0.15973496
18	0xbc1cc330	-0.009568021
19	0x3db78c66	0.08962326
20	0xbde36a1d	-0.11104224
21	0xbb85a39f	-0.004078343
22	0xbde83cb4	-0.11339703
23	0xbc9dccd2	-0.019262705
24	0x3cad1bf8	0.0211315
25	0x3df77eda	0.12084742
26	0xbcef0fd1	-0.029182347
27	0x3e1035ca	0.14083019
28	0x3d80c48e	0.0628749
29	0x3cfeff0a	0.031127471
30	0xbd8baad6	-0.06819694
31	0xbdca70d9	-0.09884805
32	0xbdc0ebe0	-0.094199896
33	0x3ba96e17	0.0051705944
34	0xbc7879b7	-0.015165738
35	0xbe1a6c8d	-0.15080471
36	0xbd006d55	-0.031354267
37	0xbdc912b7	-0.09818023
38	0x3d8c6c5a	0.06856604
39	0x3d275c0c	0.040859267
40	0xbd96114b	-0.07327517
41	0xbc663f6e	-0.014053209
42	0xbd5166e0	-0.0511235
43	0xbe1eb158	-0.15497339
44	0xbdb94904	-0.0904713
45	0xbe240680	-0.16018105
46	0x3d06e9ec	0.03293793
47	0x3ca3f81e	0.020015772
48	0x3ceb9536	0.028757673
49	0xbd1bd7b7	-0.03804752
50	0x3c5e069b	0.01355138
51	0xbe019d4f	-0.12657665
52	0x3d239c70	0.039944112
53	0x3d49e3af	0.0492894
54	0x3d823c78	0.0635919
55	0x3e83217e	0.2561149
56	0x3c032621	0.008004696
57	0xbe5a492b	-0.21316974
58	0x3dd84a9a	0.10561104
59	0x3d994045	0.074829616
60	0xbc259153	-0.010105449
61	0x3d67a7cf	0.05655652
62	0xbce07fdf	-0.027404724
63	0x3ac9865e	0.0015375128
64	0x3c285e29	0.010276356
65	0x3e4fa383	0.20277219
66	0xbdcab349	-0.09897477
67	0xbc962361	-0.018327417
68	0x3ccff312	0.02538446
69	0xbdb8dddc	-0.09026691
70	0xbcd51cd6	-0.026014727
71	0xbd10aba0	-0.035319924
72	0x3dcbb0fb	0.09945866
73	0x3cd6408a	0.026153821
74	0xbca99843	-0.020702487
75	0xbd0cee37	-0.034406867
76	0x3de27b58	0.11058682
77	0x3e009db7	0.12560163
78	0x3d8c2b13	0.06844153
79	0x3d55a091	0.05215508
80	0xbe0beb83	-0.1366406
81	0xbd024caf	-0.031811412
82	0x3d444986	0.04792168
83	0x3d91aa35	0.071125425
84	0xbd96ea83	-0.07368948
85	0x3d4bce2e	0.049757175
86	0x3cf2cfc9	0.029640095
87	0x3e0894a8	0.13337958
88	0xbda02b0c	-0.078207105
89	0xbd4428b7	-0.04789039
90	0x3df01c4d	0.11724148
91	0xbcb39e01	-0.021925928
92	0xbd3b1458	-0.0456737
93	0x3c86cee9	0.016456084
94	0x3cbcecdd	0.023062164
95	0xbe3c739a	-0.18403473
96	0x3dbb7dd1	0.09154857
97	0xbdd8d274	-0.10587016
98	0xbd0bc929	-0.03412739
99	0xbc6f83fd	-0.014618871
100	0xbe0f97ce	-0.14022753
101	0xbddbcd1b	-0.1073248
102	0x3d2224c5	0.039585847
103	0x3d153653	0.03642876
104	0xbdf49bd6	-0.11943786
105	0xbd58d05e	-0.05293309
106	0xbe0021ea	-0.12512937
107	0xbd044603	-0.03229333
108	0x3d496e2d	0.049177337
109	0xbbdcb774	-0.0067357365
110	0x3d91f588	0.071269095
111	0x3d58a243	0.05288912
112	0xbdb5b062	-0.08871533
113	0xbd1ec626	-0.038763188
114	0xbc659599	-0.014012718
115	0xbe539d6c	-0.2066552
116	0x3cb18d06	0.02167369
117	0xbda01f35	-0.07818452
118	0xbd6e1bd2	-0.058132
119	0xbda0968c	-0.078412145
120	0xbcf666d0	-0.030078322
121	0xbd939d84	-0.07207778
122	0xbd80205f	-0.06256174
123	0xbdfbe8bc	-0.1230025
124	0xbcc5f967	-0.024166776
125	0x3dbf15a1	0.09330297
126	0xbdd8c841	-0.105850704
127	0xbbf501fe	-0.007477044

layer1.0.shortcut.0.bias f4 [16]
0	0x36c4137c	5.8435235e-06
1	0x36f2eef4	7.23998e-06
2	0x367b7f6e	3.7476088e-06
3	0xb8965b78	-7.169595e-05
4	0xb7ab8ab8	-2.0449384e-05
5	0xb6bd49e8	-5.6412428e-06
6	0x3880ff04	6.151016e-05
7	0x39cb164a	0.00038735784
8	0x38607790	5.3517113e-05
9	0x39ccc9c6	0.00039060245
10	0x3835c674	4.3338587e-05
11	0x38ff3016	0.00012168304
12	0xb8432f9e	-4.653597e-05
13	0xb89f7ded	-7.605166e-05
14	0x37e252c3	2.6979838e-05
15	0xb788e910	-1.6320992e-05

layer1.0.shortcut.1.weight f4 [16]
0	0x3ed90206	0.42384356
1	0x3f1bb49e	0.60822475
2	0x3e9f3a5c	0.31099212
3	0x3f1234ad	0.57111627
4	0x3f2cb7a8	0.6746774
5	0x3ee53837	0.4476945
6	0x3f072eac	0.5280559
7	0x3f0948f9	0.5362697
8	0x3f17ef06	0.59349096
9	0x3f174079	0.5908275
10	0x3f14c0ef	0.58106893
11	0x3f257d9d	0.64644796
12	0x3f0799d3	0.5296909
13	0x3f1badea	0.60812247
14	0x3f0812c2	0.5315362
15	0x3f01f414	0.5076306

layer1.0.shortcut.1.bias f4 [16]
0	0xbc49ec13	-0.012324351
1	0xbc8434ad	-0.016138399
2	0xbe902fc1	-0.28161433
3	0x3e12adf5	0.14324172
4	0xbdecfdc6	-0.11571841
5	0xbe9705de	-0.29496664
6	0xbdd13d6d	-0.10216794
7	0xbc826e70	-0.015921801
8	0xbea5d39a	-0.32388002
9	0xbcacbae7	-0.021085216
10	0xbe7ceae6	-0.24698982
11	0xbb93402e	-0.004493735
12	0x3c9b78fe	0.018978592
13	0xbdcc58dc	-0.09977886
14	0xbe01b69b	-0.12667315
15	0xbc7f801d	-0.015594509

layer1.0.shortcut.1.running_mean f4 [16]
0	0xbcc9f867	-0.02465458
1	0x3d870b95	0.06594006
2	0xbd8a167c	-0.0674257
3	0x3ce03afc	0.027371876
4	0xbd4cdec1	-0.050017122
5	0xbdb66b76	-0.08907215
6	0x3d745ecb	0.059660714
7	0xbb3eee3f	-0.0029133705
8	0xbb533306	-0.0032226457
9	0x3dae9e19	0.085262485
10	0x3b617292	0.0034400565
11	0xbd45af71	-0.048263017
12	0xbd0d5946	-0.034508966
13	0xbd3ce927	-0.04612079
14	0xbdca8bf1	-0.09889973
15	0xbd8185fc	-0.063243836

layer1.0.shortcut.1.running_var f4 [16]
0	0x3c8fca76	0.017552596
1	0x3c239bcd	0.009985876
2	0x3c7510c1	0.014957608
3	0x3be2547a	0.006907043
4	0x3bf99c95	0.007617543
5	0x3c9b5870	0.018963069
6	0x3c8fffbd	0.017578
7	0x3c90eec1	0.017691972
8	0x3c88783e	0.016658898
9	0x3c7771ae	0.015102787
10	0x3c3edb0f	0.011648907
11	0x3c3799fe	0.011206148
12	0x3c3a615b	0.01137575
13	0x3bbddf21	0.0057944213
14	0x3c98608e	0.018600728
15	0x3c337cdc	0.010955062

layer1.1.conv1.weight f4 [32, 16, 3, 3, 3]
0	0x3c13567a	0.008992786
1	0xbd015c1c	-0.031581983
2	0xbcf34d9d	-0.029700095
3	0xbc4407cc	-0.01196475
4	0xbcd809f1	-0.026371928
5	0x3ca52bdd	0.020162517
6	0x3cf39d27	0.029738022
7	0xbc8ec2a1	-0.01742679
8	0xbc97805c	-0.018493824
9	0x3bb8012b	0.0056153736
10	0x3d76cea1	0.06025565
11	0x3d80bce4	0.06286028
12	0x3d38bcf7	0.045102086
13	0x3d5d88d4	0.054085568
14	0xbbde4172	-0.006782704
15	0xbbe74735	-0.007058049
16	0x3d62f0a6	0.05540528
17	0x3c91a0bc	0.01777684
18	0x3b0bad23	0.0021312914
19	0xbd0b832c	-0.034060642
20	0xbd482696	-0.048864923
21	0xbd0a82be	-0.03381609
22	0xbd3fe4a6	-0.046848916
23	0xbc8a01b6	-0.016846519
24	0xbbdcfb16	-0.006743799
25	0xbcc9a5ae	-0.024615135
26	0x3baa73b7	0.0052017826
27	0xbd0a410f	-0.03375345
28	0xbcad3478	-0.021143183
29	0xbccf5ef9	-0.025313841
30	0xbd698e1b	-0.057020288
31	0xbce90979	-0.0284469
32	0xbd04b949	-0.032403264
33	0x3c3f3913	0.011671322
34	0xbc1dd495	-0.009633203
35	0xbcc50808	-0.024051681
36	0x3cae2386	0.021257173
37	0x3c93be32	0.018035028
38	0x3d4017ba	0.046897627
39	0x3d65f1b5	0.056138713
40	0x3cf80e02	0.030280117
41	0x3d96b15e	0.07358049
42	0xbc228658	-0.009919725
43	0x3cc2846b	0.023744782
44	0x3dafc265	0.08582
45	0x3ba1d7f5	0.004939074
46	0x3b62b69e	0.0034593712
47	0xbcd36fdf	-0.02581018
48	0xbc32d3bf	-0.010914742
49	0xbc2a50c9	-0.010395237
50	0xbd55c4df	-0.052189704
51	0x3bdb77b6	0.0066976203
52	0xbc0ac39c	-0.0084694885
53	0xbd8c5e95	-0.068539776
54	0xbdbf0356	-0.09326808
55	0xbdbd0bbd	-0.092307545
56	0x3c92c933	0.017918205
57	0xbd2c00b7	-0.04199287
58	0xbd07ed92	-0.03318555
59	0x3ad7d71e	0.0016467308
60	0xbc2b6230	-0.010460421
61	0xbd1aaa1c	-0.037759885
62	0xbc6d2287	-0.014473564
63	0x3dc96f6a	0.09835704
64	0x3dc5816c	0.09643826
65	0xbc48c331	-0.0122535685
66	0x3ce26a01	0.027638437
67	0x3ccc23e8	0.024919465
68	0x3b4a46b5	0.0030864899
69	0x3c88c6c4	0.016696341
70	0x3c997549	0.018732684
71	0xbc8741c0	-0.016510844
72	0xbd112b5f	-0.035441753
73	0xbd70052a	-0.058598675
74	0x3a863361	0.0010238701
75	0x3b4d8870	0.003136184
76	0x3b22f940	0.0024867803
77	0x3b29b977	0.00258979
78	0x3a81ba41	0.0009897427
79	0x3c7becee	0.015376313
80	0x3d01456f	0.031560358
81	0x3c9a3f05	0.018828878
82	0x3c0caa30	0.008585498
83	0xbc753c96	-0.014968058
84	0xbcf1b778	-0.02950643
85	0xbdccd65d	-0.10001824
86	0xbd2c0619	-0.041998003
87	0xbbaa2f70	-0.0051936433
88	0xbd89e00f	-0.06732189
89	0xbd5ee6ab	-0.0544192
90	0x3cf46c3f	0.029836772
91	0x3d29a8c0	0.0414207
92	0x3def1f2e	0.11675869
93	0x3dbb9f04	0.09161189
94	0x3e2ef495	0.17085488
95	0x3e2d2391	0.16908099
96	0x3cadb610	0.021204978
97	0x3dc9e860	0.09858775
98	0x3dec5447	0.11539512
99	0xbd73b5ab	-0.059499424
100	0xbd5d44b1	-0.054020587
101	0xbdb6a0b4	-0.089173704
102	0xbdae59fd	-0.08513258
103	0xbdfd01c1	-0.1235385
104	0xbe0fd3f7	-0.14045702
105	0xbd29e745	-0.04148032
106	0xbd8650c7	-0.06558376
107	0xbda191fb	-0.07889172
108	0xbbd729bd	-0.006566255
109	0xbaf67163	-0.0018802102
110	0xbcf4a594	-0.02986411
111	0xb99aed50	-0.0002954998
112	0xbc588ffe	-0.013217924
113	0xbd4b8b44	-0.04969336
114	0xbd851c01	-0.06499482
115	0xbd76102d	-0.06007402
116	0xbccc5e32	-0.02494726
117	0x3cef24ae	0.029192295
118	0x3c69670f	0.0142457625
119	0x3d860eff	0.06545829
120	0x3b198b96	0.0023429147
121	0x3c2bfbfa	0.010497088
122	0x3d932260	0.07184291
123	0x3d7686f1	0.060187284
124	0x3db2477a	0.08705039
125	0x3d525a7a	0.051355816
126	0xbcbcaa15	-0.02303032
127	0xbcab42d3	-0.020905888
128	0xbd9a5786	-0.07536225
129	0x3bad6d6e	0.005292586
130	0xbc74bd01	-0.01493764
131	0xbd69d4ea	-0.057087816
132	0xbb504740	-0.003178075
133	0xbd8242d7	-0.06360405
134	0xbd6aa174	-0.05728288
135	0xbd673153	-0.056443524
136	0xbd964f0f	-0.07339298
137	0x3d1b6c39	0.037945006
138	0xbcd52c18	-0.026022002
139	0xbd552810	-0.05204016
140	0x3d273196	0.040818773
141	0x3d010fde	0.031509273
142	0xbcc15114	-0.023598231
143	0xbc9d7f60	-0.019225776
144	0x3d8b830e	0.06812106
145	0x3dd12f5b	0.102141105
146	0xbd2c7465	-0.04210319
147	0x3c185b3b	0.009299095
148	0x3d9f0164	0.07763937
149	0xbd7cb1d3	-0.061693024
150	0xbcd66c4e	-0.02617469
151	0x3d247d06	0.040158294
152	0x3beb42f2	0.0071796114
153	0xbc9d2890	-0.01918438
154	0xbd892236	-0.06695978
155	0x3c12ff33	0.008971977
156	0x3cac6d78	0.021048293
157	0xbd445e9b	-0.047941785
158	0x3d29e5f5	0.04147907
159	0x3cb32dcb	0.021872422
160	0xbc98af3b	-0.018638244
161	0x3bf28d1d	0.007402076
162	0xbb3f9430	-0.0029232614
163	0x3b4101c9	0.0029450527
164	0xbda97562	-0.08274342
165	0x3d1fe661	0.039038066
166	0x3ca01128	0.01953943
167	0xbdcf5bf6	-0.10124962
168	0xbd4494bf	-0.047993418
169	0xbbc89912	-0.006121763
170	0x3bb1ea70	0.0054295585
171	0x3b804cba	0.0039153965
172	0xbc9c40d2	-0.019073877
173	0x3dced73b	0.10099646
174	0xbd821e6b	-0.06353458
175	0xbd530bcb	-0.05152492
176	0x3de72b7a	0.11287589
177	0x3d1b8eb9	0.037977908
178	0x3c4a268d	0.012338293
179	0x3bd43fc5	0.0064773285
180	0x396dd71a	0.00022682213
181	0x3ce8e0df	0.02842754
182	0xbdaf48a7	-0.08558779
183	0x3d6e7e84	0.058226123
184	0x3d8143cc	0.06311759
185	0xbd9d25ba	-0.076732114
186	0x3c0c1a2f	0.0085511645
187	0xbc20a117	-0.009804032
188	0xbcc009af	-0.023442117
189	0xb81e52ec	-3.7747363e-05
190	0xbcb3f658	-0.021968052
191	0x3c839c74	0.016065814
192	0x3cb7e862	0.022449676
193	0xbc809c17	-0.01569943
194	0x3d11d204	0.035600677
195	0x3d28d211	0.04121596
196	0xbcbc4af9	-0.022984968
197	0xbd157d58	-0.03649649
198	0xbb2f9108	-0.0026789326
199	0x3c34c0ad	0.011032266
200	0xbd237b93	-0.03991277
201	0xbca0b415	-0.01961712
202	0xba6ace2e	-0.0008957115
203	0xbd459a9e	-0.048243158
204	0xbcc4906b	-0.023994645
205	0x3bc3870e	0.0059670275
206	0x3c82a469	0.015947537
207	0x3ca17bce	0.019712355
208	0xbb3515a7	-0.0027631314
209	0x3c1a078e	0.009401215
210	0x3c9a44c1	0.018831613
211	0x3c8f480a	0.017490406
212	0x3a03c1fb	0.0005026159
213	0x3c88d477	0.016702874
214	0x3c9a14ba	0.018808711
215	0xbbde5f22	-0.006786243
216	0xbd447c3d	-0.047970045
217	0xba64d7ee	-0.0008729686
218	0xbdaf52a9	-0.08560688
219	0x3cf602ea	0.030030686
220	0x3d4381fe	0.047731392
221	0xbdffdf1f	-0.12493729
222	0x3b79aa71	0.0038095976
223	0x3c8f53f2	0.017496083
224	0x3cfbbdd9	0.030730175
225	0x3ceff84d	0.029293204
226	0xbd2ceb9e	-0.04221689
227	0x3dc4ffe8	0.09619123
228	0xbd37f71c	-0.044913396
229	0xbda610d8	-0.081086814
230	0x3e0cd586	0.13753328
231	0x3cb25f18	0.02177386
232	0xbbdf71d1	-0.006818988
233	0xbd20e4d0	-0.039280713
234	0x3cb04aaa	0.021519978
235	0x3d8d5c2e	0.069023475
236	0xbd2ea4bb	-0.042637568
237	0x3d3984e8	0.045292765
238	0x3d959840	0.0730443
239	0xbd917104	-0.07101634
240	0xbc87fa38	-0.016598806
241	0xbc060e95	-0.008182188
242	0x3cf4c4bb	0.029878965
243	0x3ba20bfb	0.004945276
244	0xbd314dac	-0.043286964
245	0xbd04076d	-0.032233644
246	0xbca6b658	-0.02035062
247	0xbdbcb412	-0.09214033
248	0xbd5dbbe8	-0.05413428
249	0x3c94978f	0.018138675
250	0xbd20f19f	-0.039292928
251	0xbd4680bd	-0.04846262
252	0x3d3be981	0.045876984
253	0x3dc138eb	0.09434684
254	0x3dbcf93e	0.09227227
255	0x3d5d1328	0.053973347

layer1.1.conv1.bias f4 [32]
0	0xb62c465d	-2.5670954e-06
1	0x36e1b950	6.7270958e-06
2	0xb78b84b4	-1.6631886e-05
3	0x3575c9ce	9.1563277e-07
4	0xb77924e0	-1.4850142e-05
5	0x35c611f6	1.4757377e-06
6	0xb71c51c9	-9.317367e-06
7	0x3633009a	2.6673429e-06
8	0x37e3b9f6	2.7147104e-05
9	0xb5878221	-1.0096156e-06
10	0x35837db0	9.79684e-07
11	0x368b88c5	4.158445e-06
12	0x34ebc6f8	4.391693e-07
13	0xb68392ca	-3.9211927e-06
14	0xb7576e6e	-1.284071e-05
15	0xb8436728	-4.6587695e-05
16	0xb568f04b	-8.677641e-07
17	0xb851755a	-4.9938775e-05
18	0x35808144	9.574364e-07
19	0x3548ed48	7.4851096e-07
20	0xb71389e3	-8.793987e-06
21	0xb61e89c4	-2.3624025e-06
22	0xb5f2840b	-1.8068835e-06
23	0xb7d454e7	-2.5311905e-05
24	0xb6a38efb	-4.8744237e-06
25	0x377cc7a8	1.5066857e-05
26	0xb751af34	-1.2498163e-05
27	0x34babcd8	3.4782602e-07
28	0xb70ba869	-8.324257e-06
29	0x36b13932	5.2816695e-06
30	0xb7b8fb69	-2.2051581e-05
31	0xb55ec8e0	-8.2993756e-07

layer1.1.bn1.weight f4 [32]
0	0x3ed097f0	0.4074092
1	0x3ef2ba88	0.47407937
2	0x3e9fb261	0.3119078
3	0x3f15093f	0.58217233
4	0x3f19e5ec	0.6011646
5	0x3efa7038	0.4891374
6	0x3ebccdce	0.36875767
7	0x3f0d17cb	0.5511443
8	0x3e6494b9	0.22322358
9	0x3eb8bdbe	0.36082262
10	0x3ef947cf	0.48687598
11	0x3f1559c3	0.5834009
12	0x3f0c41b5	0.5478776
13	0x3ee1e7bb	0.4412211
14	0x3f093aee	0.53605545
15	0x3ed73beb	0.420379
16	0x3ed910e8	0.4239571
17	0x3f1c4445	0.6104167
18	0x3ef4b130	0.47791433
19	0x3f12e17e	0.57375324
20	0x3eef9344	0.46792042
21	0x3eec97a6	0.4620945
22	0x3ed2ae39	0.41148546
23	0x3ef99ef9	0.487541
24	0x3ef44e27	0.47715876
25	0x3f1f0e92	0.6213161
26	0x3ef3ced7	0.47618744
27	0x3f01e9f8	0.50747633
28	0x3f232523	0.6372854
29	0x3efb4e82	0.49083334
30	0x3eed00f8	0.46289802
31	0x3ece4565	0.4028732

layer1.1.bn1.bias f4 [32]
0	0xbe795d67	-0.24352036
1	0xbe34ddfe	-0.17662808
2	0x3e999d2f	0.30002734
3	0xbe81416d	-0.25245228
4	0xbd5edee8	-0.0544118
5	0xbe6758a6	-0.2259241
6	0xbdfe75ab	-0.12424787
7	0xbe753957	-0.23947655
8	0x3eb6ad3c	0.35679042
9	0xbe2ecc7e	-0.17070195
10	0xbe585ec2	-0.21129897
11	0xbe404ea7	-0.18780003
12	0xbd69e9bb	-0.05710767
13	0xbddfc8a9	-0.10926945
14	0xbe73c9a3	-0.23807387
15	0x3dd8957d	0.105753876
16	0xbe2c8251	-0.16846587
17	0x3e8e8e74	0.27843058
18	0xbe88d001	-0.26721194
19	0xbe33e35e	-0.17567202
20	0xbdbd9fae	-0.09258972
21	0xbe3d88bc	-0.18509191
22	0xbe25d8ba	-0.16195956
23	0x3ecf5ff1	0.40502885
24	0xbe1ca2df	-0.15296505
25	0x3d4ff12d	0.050767113
26	0x3e11cb88	0.14237797
27	0xbe438273	-0.19092731
28	0xbe54bf7d	-0.20776172
29	0xbe60e99b	-0.21964113
30	0x3e5913f3	0.21199016
31	0xbe88ad20	-0.26694584

layer1.1.bn1.running_mean f4 [32]
0	0x3e3176ec	0.17330521
1	0x3e150d21	0.1455579
2	0xbd5300d4	-0.05151446
3	0x3e78eec9	0.2430984
4	0xbd8cd31c	-0.068762034
5	0x3da6358c	0.08115682
6	0x3e2de061	0.16980125
7	0x3cbbd80a	0.022930164
8	0x3d037ec9	0.032103334
9	0x3c6607fe	0.014039991
10	0x3e52b5bc	0.20577139
11	0x3c45d23b	0.012074049
12	0xbda1932e	-0.078894004
13	0xbc931ca5	-0.017957995
14	0x3c3302e3	0.010925981
15	0x3d211616	0.039327703
16	0x3e37dba9	0.17954887
17	0xbe1fa205	-0.1558915
18	0x3daaec32	0.08345832
19	0xbd22a23d	-0.039705504
20	0x3c2b4bc7	0.010455078
21	0x3e1a2a87	0.15055285
22	0x3cc4bcdd	0.024015838
23	0xbd1ed307	-0.03877547
24	0xbd2b23b1	-0.041782085
25	0x3be8ec92	0.0071082795
26	0x3dc76b70	0.09737289
27	0x3c87b3aa	0.016565163
28	0xbe3071bf	-0.1723089
29	0x3de6c93e	0.11268853
30	0xbcae9439	-0.021310912
31	0xbd5b625c	-0.0535606
