log/sem_seg/SatVideoIRSDT__2025-07-22_19-41__SoftLoUloss_DeepPro-Plus_DataL40/checkpoints/epoch_35_model.pth (torch, 941507 bytes, 213 tensors)

conv_in.0.weight f4 [8, 1, 5, 7, 7]
0	0xbdf956e8	-0.12174779
1	0xbc81e2e6	-0.015855264
2	0x3d757707	0.059927966
3	0x3e28cb52	0.1648381
4	0x3d9a6da1	0.07540441
5	0xbd52508d	-0.05134635
6	0xbe3400f1	-0.17578484
7	0x3cbfbe00	0.023406029
8	0x3d67fa53	0.056635212
9	0x3c824dfa	0.015906323
10	0x3dd29f10	0.10284245
11	0x3d7df4e4	0.062001124
12	0x3c22b55c	0.009930935
13	0xbd9f9f36	-0.07794039
14	0x3c904bb0	0.017614216
15	0x3c92c18e	0.01791456
16	0x3ce8b766	0.028407764
17	0x3d701006	0.05860903
18	0x3be2e63e	0.0069244197
19	0xbbbd2f83	-0.005773486
20	0xbd9061c4	-0.07049897
21	0x3be5f711	0.007017978
22	0xbd6d1485	-0.057880897
23	0x3c53d14a	0.012928316
24	0xbcdfde49	-0.027327674
25	0xbdd43925	-0.10362462
26	0xbd172458	-0.036899894
27	0x3c6a195c	0.014288273
28	0xbcbf51f8	-0.023354515
29	0xbde8d71e	-0.11369155
30	0xbde686f4	-0.11256209
31	0x3c67d472	0.014149772
32	0xbd32506e	-0.043533735
33	0xbd2f88f8	-0.042855233
34	0xbcbaa2d2	-0.022782717
35	0x3dccb975	0.099963106
36	0x3d8848b2	0.066544905
37	0x3cbc9dea	0.023024518
38	0x3dd2a024	0.10284451
39	0x3d009b84	0.03139831
40	0xbcdf97ab	-0.027294
41	0xbd0f1247	-0.03492954
42	0x3c82a51a	0.015947867
43	0x3dc01eee	0.09380899
44	0x3dea3749	0.11436326
45	0x3e059e78	0.13048732
46	0x3ccbdf56	0.024886768
47	0xbd7fb237	-0.06242582
48	0xbd6092a9	-0.054827366
49	0xbdc64da5	-0.09682778
50	0xbda9f97f	-0.08299541
51	0xbdcadd86	-0.099055335
52	0xbd3ce54a	-0.046117105
53	0xbdb556f8	-0.088544786
54	0xbdd4fe6d	-0.1040009
55	0xbd4e0f29	-0.050307427
56	0xbd013e2f	-0.031553444
57	0x3c8d000f	0.017211942
58	0x3e0d1bbb	0.1378011
59	0x3e8910d0	0.2677064
60	0x3e450034	0.19238359
61	0x3da5b874	0.08091822
62	0xbc0ffed2	-0.008788781
63	0xbd166215	-0.036714632
64	0xbc8df416	-0.017328303
65	0x3daea263	0.085270666
66	0x3ebad47a	0.36490232
67	0x3e7d24d3	0.24721079
68	0x3e11d316	0.14240679
69	0xbcc833d8	-0.024438784
70	0x3b75b60d	0.0037492544
71	0xbd4c83c3	-0.049930345
72	0xbdddbb7d	-0.10826776
73	0x3ca163ae	0.019700851
74	0x3de7c8fb	0.11317631
75	0x3e275b8f	0.1634352
76	0x3c4d66d5	0.012536724
77	0xbcdd3e42	-0.027007226
78	0xbc973527	-0.018457962
79	0xbd06429a	-0.03277836
80	0x3d8440eb	0.064576946
81	0xbc195dd7	-0.009360752
82	0xbc73d049	-0.014881202
83	0xbd9f3c23	-0.07775142
84	0xbc837839	-0.016048538
85	0x3d461b7b	0.04836605
86	0x3d0332a1	0.032030705
87	0x3de072e9	0.109594174
88	0x3d4fd59f	0.050740834
89	0xbbd35142	-0.0064488957
90	0xbc1f06c9	-0.009706208
91	0xbda1d7fd	-0.079025246
92	0xbd91824e	-0.07104932
93	0xbdae50a3	-0.08511474
94	0xbc4773bc	-0.012173589
95	0xbc4530fb	-0.012035604
96	0xbcd4668e	-0.025927808
97	0xbb6108ae	-0.003433745
98	0x3d98e858	0.07466191
99	0x3d8506c3	0.0649543
100	0x3c79240c	0.015206348
101	0xbcd53be7	-0.02602954
102	0xbdbca14d	-0.09210453
103	0x3b8179f0	0.0039513037
104	0x3c489e2f	0.012244745
105	0x3c854f32	0.016273115
106	0xbacb8a5b	-0.0015528904
107	0x3c8efb25	0.01745374
108	0x3e015b2f	0.1263244
109	0xbc5f9f31	-0.013648794
110	0xbbd812ea	-0.0065940516
111	0xbd08c546	-0.03339126
112	0xba4d8d24	-0.0007841161
113	0xbd3529e0	-0.04422939
114	0x3cb80021	0.022460999
115	0x3e2f0f53	0.1709569
116	0xbc8499d1	-0.016186627
117	0xbca7c820	-0.02048117
118	0xbc7b2c87	-0.01533044
119	0x3cff2c7a	0.031149138
120	0x3b073698	0.0020631906
121	0xbd0d84a5	-0.034550328
122	0xbc679b38	-0.014136128
123	0xbcfb40d0	-0.030670553
124	0x3d94171c	0.0723097
125	0x3d2b1d5b	0.041776042
126	0xbbb8ed12	-0.0056434954
127	0xbd408c40	-0.047008753
128	0xbdb6bc5f	-0.08922648
129	0xbcf0e0d4	-0.029404081
130	0xbdb8a65c	-0.090161055
131	0xbd9be582	-0.076121345
132	0xbcbc1b6b	-0.022962293
133	0x3c82ac72	0.015951369
134	0xbc8fc446	-0.017549645
135	0xbd3425a3	-0.043981206
136	0xbc0df42a	-0.00866417
137	0xbd73fd14	-0.059567526
138	0xbd7c6a97	-0.06162509
139	0xbc5420b8	-0.012947254
140	0x3c336ffd	0.010951993
141	0xba9800c9	-0.0011596914
142	0x3b8d0802	0.004303933
143	0x3ceac2a1	0.02865726
144	0xbc90e97d	-0.01768946
145	0xbd0a6c64	-0.033794776
146	0xbd365755	-0.04451688
147	0x3dee5cac	0.116387695
148	0x3d8f2aac	0.06990561
149	0x3d491af2	0.049097963
150	0x3dac4475	0.08411495
151	0x3e1780e8	0.14795268
152	0x3e67d5c0	0.22640133
153	0x3e41e54b	0.18935125
154	0x3e42a833	0.19009475
155	0x3d04ce54	0.032423332
156	0x3e0a12ee	0.13483784
157	0x3e46a01c	0.19397014
158	0x3e04aa28	0.12955534
159	0x3e156081	0.14587595
160	0x3dab56b4	0.08366147
161	0x3e49fd14	0.19725448
162	0x3e50c3f4	0.2038725
163	0x3eb53aaa	0.3539632
164	0x3e19269c	0.14956135
165	0x3e3c5f77	0.18395792
166	0x3e29f8b4	0.16598779
167	0xbb486c79	-0.0030582233
168	0x3e3df824	0.1855169
169	0x3e85dd25	0.26145282
170	0x3e848c11	0.25888112
171	0x3d33d690	0.043905795
172	0x3df02d7e	0.11727427
173	0x3e4ac9c2	0.19803527
174	0x3d8ec161	0.06970478
175	0x3d99d91c	0.075121135
176	0x3de76d55	0.1130015
177	0x3e3d8e83	0.18511395
178	0x3e04f703	0.12984852
179	0x3e841ee6	0.25804824
180	0x3dc3be2f	0.09557759
181	0x3dc769ec	0.09737
182	0x3db2f9c0	0.08739042
183	0x3cbdf4cc	0.023188017
184	0x3e0b8b92	0.1362746
185	0x3e65a118	0.22424734
186	0x3e3487f0	0.17629981
187	0x3cd5f8ea	0.026119668
188	0x3dcc43ed	0.09973893
189	0x3e1dfb40	0.15427876
190	0x3d958e80	0.0730257
191	0x3dcaa11e	0.09894012
192	0x3ddbe26d	0.10736547
193	0x3df0ea43	0.11763432
194	0x3ddba71e	0.107252344
195	0x3e1a37aa	0.15060297
196	0xbd1328c9	-0.035927568
197	0x3d7a1631	0.06105632
198	0xbcf375fb	-0.029719343
199	0xbd8a8549	-0.067637034
200	0xbd1db487	-0.038502242
201	0x3c5040fb	0.012710805
202	0xbcf047f1	-0.02933118
203	0xbc4d5848	-0.012533255
204	0xbbfae066	-0.007656145
205	0xbd58c01f	-0.052917596
206	0xbd728668	-0.05921021
207	0xbd5c3c3e	-0.05376839
208	0x3c8c8dca	0.017157454
209	0x3c50e44b	0.012749742
210	0xbca73171	-0.020409318
211	0xbd029499	-0.031879995
212	0xbc0bc476	-0.008530727
213	0xbbabeaca	-0.005246495
214	0xbd6d1189	-0.05787805
215	0xbc2841a8	-0.01026956
216	0x3a8c2a6d	0.0010693796
217	0x3d25142e	0.040302448
218	0x3ce516f1	0.02796504
219	0x3d37c44a	0.04486493
220	0x3cc4b902	0.024014
221	0x3d1a0c2f	0.037609275
222	0x3d636a95	0.055521566
223	0x3d96f660	0.07371211
224	0xbbd823f4	-0.006596083
225	0xbd861c4b	-0.06548365
226	0xbce566b3	-0.028003072
227	0x3ce236d3	0.027614033
228	0x3da72c08	0.08162695
229	0x3c85d4ab	0.01633676
230	0x3d500894	0.05078943
231	0x3ba9599f	0.0051681544
232	0xbd11ba98	-0.03557834
233	0xbd33b5ce	-0.043874554
234	0xbc016607	-0.00789786
235	0x3d14d1f0	0.036333025
236	0x3d27a25f	0.040926334
237	0x3d9e8665	0.077404775
238	0x3c583bf1	0.013197885
239	0xbc49ea94	-0.012323994
240	0xbd81a0a0	-0.06329465
241	0xbd7d5e54	-0.061857536
242	0x3c40feec	0.011779528
243	0x3d62a4ba	0.055332877
244	0x3d1d01ae	0.03833168
245	0x3b0782f7	0.0020677426
246	0xbbd491f9	-0.006487128
247	0xbd30090a	-0.04297737
248	0xbda9f303	-0.08298304
249	0xbd0c2efe	-0.034224503
250	0x3d576b6c	0.05259268
251	0x3b0e1aba	0.002168341
252	0x3d08cdd2	0.03339941
253	0x3d06b27a	0.032885052
254	0x3cffa2dd	0.031205589
255	0x3d3d715a	0.04625068

conv_in.0.bias f4 [8]
0	0xb7f26249	-2.8894416e-05
1	0x378cfc40	1.6806764e-05
2	0xb7432960	-1.1632539e-05
3	0x37efe1e5	2.859621e-05
4	0xb81a6009	-3.68059e-05
5	0xb817f3a5	-3.6228117e-05
6	0x389e5ee9	7.5517055e-05
7	0x3787c708	1.6185935e-05

conv_in.1.weight f4 [8]
0	0x3f39092e	0.7227963
1	0x3f588b31	0.8458739
2	0x3f1387c8	0.5762906
3	0x3eda1866	0.4259674
4	0x3f2a0551	0.6641436
5	0x3f22d3f9	0.63604695
6	0x3f3fd400	0.7493286
7	0x3f0dfc74	0.5546334

conv_in.1.bias f4 [8]
0	0x3d23d1c5	0.039994974
1	0x3c4221df	0.011848896
2	0x3c7246b6	0.014787367
3	0x3cca9758	0.02473037
4	0xbc4501bf	-0.012024342
5	0xbc7d75dd	-0.015469995
6	0xbd89eb0e	-0.06734286
7	0x3cb26891	0.021778377

conv_in.1.running_mean f4 [8]
0	0xbe2b05ff	-0.16701506
1	0x3e0b8047	0.13623153
2	0x3f8fdb3d	1.1238781
3	0x3cd44e33	0.025916195
4	0xbba3d8a7	-0.005000192
5	0x3d9263c2	0.071479335
6	0x3d989918	0.07451075
7	0xbebd1317	-0.36928627

conv_in.1.running_var f4 [8]
0	0x414b77f1	12.716783
1	0x419c2bed	19.521448
2	0x412125cb	10.071727
3	0x40b116b5	5.534022
4	0x4161d4ad	14.114423
5	0x414d982b	12.84965
6	0x4098b0d7	4.771587
7	0x41849baa	16.576008

layer1.0.conv1.weight f4 [16, 8, 3, 3, 3]
0	0x3d9a7c07	0.075431876
1	0x3e0cad0c	0.13737887
2	0x3e810872	0.25201756
3	0xbcdfa039	-0.02729808
4	0xbe20a623	-0.15688376
5	0xbe2dd60c	-0.16976184
6	0x3e0605aa	0.13088098
7	0x3d10ad1b	0.035321336
8	0x3e04f079	0.12982358
9	0xbc8f840d	-0.017519021
10	0xbcc34226	-0.023835253
11	0xbd73c686	-0.0595155
12	0xbc7f626f	-0.015587433
13	0x3c2bbccb	0.0104820235
14	0x3d840311	0.06445897
15	0xbc7eda18	-0.015554927
16	0xbc9ad6aa	-0.018901188
17	0x3ba3b113	0.004995474
18	0xbdabf0e1	-0.083955534
19	0xbdee5aa0	-0.11638379
20	0xbe30963f	-0.17244814
21	0x3d7df397	0.061999884
22	0x3e08b8da	0.13351765
23	0x3d986e40	0.074429035
24	0xbe0dfc67	-0.13865815
25	0x3bbd80f5	0.005783195
26	0xbe04fd9d	-0.12987371
27	0x3b0606d9	0.002045086
28	0x3c9ae0f7	0.0189061
29	0x3e6ded7b	0.23235123
30	0x3d684a35	0.056711394
31	0xbd901365	-0.07034949
32	0xbe010adc	-0.12601799
33	0x3dbadb7e	0.09123896
34	0xbdbe3164	-0.09286764
35	0x3df3dae1	0.11906982
36	0x3b6bc2ba	0.003597422
37	0x3d50e574	0.051000074
38	0x3c65057a	0.0139783565
39	0x3d2cfb0b	0.0422316
40	0xbd6e7aee	-0.058222704
41	0xbd43d494	-0.047810152
42	0xbc71b330	-0.014752194
43	0xbc7917b9	-0.01520341
44	0x3c46457b	0.012101526
45	0x3c40b851	0.011762694
46	0xbd81a205	-0.06329731
47	0xbe6253c8	-0.22102273
48	0xbdc453cc	-0.095862955
49	0x3e0ae069	0.13562168
50	0x3e5151b4	0.20441324
51	0xbd824628	-0.063610375
52	0x3dd46070	0.103699565
53	0xbe0964be	-0.13417336
54	0x3ce1f441	0.02758229
55	0x3d7e0070	0.062012136
56	0xbb51bbb8	-0.0032002758
57	0xbd50fef0	-0.051024377
58	0xbce6896d	-0.028141702
59	0xbbf14f88	-0.007364217
60	0x3d7a4371	0.061099473
61	0x3d9cb67b	0.07651993
62	0x3d4dad11	0.050213877
63	0x3c3915d0	0.011296704
64	0xbd827344	-0.063696414
65	0xbc4154c6	-0.011799997
66	0x3ce165df	0.027514396
67	0xbccfc7c8	-0.025363818
68	0x3d1459cc	0.03621845
69	0xbd79e755	-0.06101163
70	0xbd3ee9cc	-0.046609685
71	0xbbc41f03	-0.005985142
72	0xbd3a9c49	-0.0455592
73	0x3b042e99	0.0020169376
74	0x3cadc12b	0.021210274
75	0x3caa8887	0.020817054
76	0x3d59fbb9	0.053218577
77	0xbcbf19ba	-0.023327697
78	0x3cc081f1	0.02349946
79	0xbcf53c0f	-0.029935865
80	0xbd85398a	-0.06505115
81	0xbd80e548	-0.06293732
82	0xbc46a53e	-0.012124358
83	0x3df436c7	0.119245104
84	0xbd323b4c	-0.04351358
85	0xbd2f09cf	-0.042733964
86	0x3d29d01d	0.041458238
87	0xbbf422d0	-0.007450439
88	0xbc8dd052	-0.017311249
89	0x3c601351	0.01367648
90	0x3c9b7314	0.018975772
91	0xbb41204c	-0.0029468713
92	0xbddb785b	-0.10716315
93	0xbd178e1d	-0.037000764
94	0x3c439132	0.011936473
95	0xbd5b7a9c	-0.053583726
96	0xbbfe4c6a	-0.007760574
97	0x3d02bcfd	0.031918515
98	0x3c3627ca	0.011117885
99	0x3d063ab0	0.032770813
100	0x3bac51fc	0.0052587967
101	0x3c4e9f6a	0.012611249
102	0x3db094e3	0.08622148
103	0x3bf78b5d	0.007554455
104	0x3cbd8aa1	0.023137392
105	0x3c1c5b24	0.009543214
106	0xbcab724e	-0.020928528
107	0xbcede89b	-0.029041579
108	0x3bd7cac0	0.006585449
109	0xbc2357dd	-0.009969679
110	0xbdb66175	-0.08905307
111	0x3d242021	0.040069703
112	0x3d35a191	0.044343535
113	0xbda9fbfe	-0.08300017
114	0xbdc2c715	-0.09510628
115	0xbe454cc8	-0.19267571
116	0xbdd87f71	-0.105711825
117	0xbcb543c6	-0.022127043
118	0x3c0886c7	0.008332915
119	0x3d8bd153	0.06827035
120	0xbe01a40c	-0.12660235
121	0xbdf728f3	-0.12068357
122	0x3cad7b9a	0.021177102
123	0x3d2135e3	0.03935803
124	0x3dcad164	0.09903219
125	0x3dda2d23	0.106531404
126	0x3c3fb66d	0.011701209
127	0x3bbcf8f3	0.0057669817
128	0xbc6160b3	-0.013755965
129	0x3df06f24	0.117399484
130	0x3df3c8f3	0.119035624
131	0x3d6b9ffb	0.057525616
132	0x3d685490	0.05672127
133	0x3d58200b	0.052764934
134	0xbd3cf8cf	-0.04613572
135	0x3d32e13d	0.043671835
136	0x3d07d547	0.03316238
137	0x3ce2ea3a	0.027699579
138	0xbdce6beb	-0.100791775
139	0xbd2562a1	-0.040377263
140	0xbdc8fd38	-0.09813923
141	0xbb122fbe	-0.0022306289
142	0x3d916fb8	0.07101387
143	0x3d6dad48	0.058026582
144	0xbd5f03a8	-0.054446846
145	0xbd68d69f	-0.056845304
146	0xbcb1c802	-0.021701816
147	0xbccea494	-0.025224961
148	0xbc2f32a4	-0.010693226
149	0x3de8f5f0	0.11375034
150	0x3cb56e33	0.022147274
151	0x3d3b8b6a	0.045787252
152	0x3d525ad9	0.05135617
153	0x3c80e34c	0.015733384
154	0x3d16dc69	0.036831293
155	0x3b3c0580	0.0028689802
156	0x3e1038e5	0.14084204
157	0x3d6bd060	0.05757177
158	0xbd552528	-0.052037388
159	0xbd489914	-0.04897411
160	0xbe0d14c4	-0.13777453
161	0xbdee48bd	-0.116349675
162	0xbbd3c6a2	-0.006462888
163	0x3d948e76	0.07253735
164	0x3dfd051e	0.12354492
165	0x3d58a51c	0.052891836
166	0xbe028d2f	-0.1274917
167	0xbe603076	-0.21893486
168	0x3db2d9e3	0.08732965
169	0xbd4d5730	-0.050131977
170	0x3dfa34b8	0.122170866
171	0x3c182d4f	0.009288146
172	0x3daffc29	0.085930176
173	0x3d4b1615	0.049581606
174	0xbdaad6b6	-0.08341734
175	0xbe4dd316	-0.20100054
176	0xbd969bb2	-0.07353915
177	0x3df9d05e	0.12197946
178	0x3e16b4d6	0.14717421
179	0x3d2d0d0a	0.042248763
180	0xba02dbe4	-0.00049918727
181	0xbe3fecf4	-0.18742734
182	0xbe202f6f	-0.15643094
183	0x3dab8c98	0.083764255
184	0x3ec65886	0.38739413
185	0x3e9abb84	0.30221188
186	0xbe88b851	-0.26703122
187	0xbe4340e5	-0.19067724
188	0xbe37a12a	-0.17932573
189	0x3d3c18d2	0.045922108
190	0xb9f710c3	-0.00047124
191	0xbbe75ccd	-0.0070606233
192	0xbd8268e0	-0.063676596
193	0x3d7d3073	0.061813783
194	0x3da282f0	0.079351306
195	0xbd15ace3	-0.03654183
196	0xbd571e8a	-0.05251936
197	0x3cdef17a	0.027214754
198	0xbd48084e	-0.048836045
199	0x3d15b28a	0.03654722
200	0xbc125a81	-0.008932711
201	0x3d3c2176	0.04593035
202	0x3af71100	0.0018849671
203	0xbd8b4ef4	-0.068021685
204	0xbd2f7634	-0.042837337
205	0x3d147293	0.03624208
206	0xbc898289	-0.016785877
207	0x3cab74a9	0.020929651
208	0xbc9b4364	-0.018953033
209	0x3c898b25	0.016789982
210	0x3d05de5d	0.032682765
211	0xbd5f4503	-0.054509174
212	0x3cbb911d	0.022896344
213	0x3dbfd192	0.09366144
214	0x3c0eaa35	0.008707573
215	0xbbbc0a79	-0.005738553
216	0x3d3ff357	0.046862926
217	0x3d6dfe7c	0.058104023
218	0xbd8dc59a	-0.06922455
219	0xbe89a3fd	-0.26882926
220	0x3dd5d97e	0.10441874
221	0x3d6d2d23	0.057904374
222	0xbec28494	-0.37991774
223	0x3cfb4554	0.030672707
224	0x3baf70c7	0.0053540203
225	0xbc7ed853	-0.015554505
226	0x3c632c23	0.0138655035
227	0x3cbbd980	0.02293086
228	0x3e07e5d3	0.13271265
229	0xbba2dd17	-0.0049702036
230	0xbd5d474a	-0.054023065
231	0x3e47c747	0.19509612
232	0x3cf9b765	0.030482957
233	0xbcc5e368	-0.024156287
234	0xbca5551a	-0.020182181
235	0xbd9b861a	-0.07593937
236	0x3d5aa6c0	0.05338168
237	0x3db09530	0.08622205
238	0xbdaf1ad7	-0.08550041
239	0xbb63a57a	-0.0034736083
240	0x3db89ceb	0.09014305
241	0xbd7a4500	-0.06110096
242	0x3ceffb90	0.029294759
243	0xbd9f42b7	-0.07776397
244	0x3c859e1f	0.01631075
245	0xbe2bd60c	-0.16780871
246	0xbdb10094	-0.086426884
247	0x3e115b75	0.14195044
248	0x3d643921	0.055718545
249	0xbe080b4f	-0.13285564
250	0x3db05525	0.0860999
251	0xbd3ef4a1	-0.046620015
252	0x3da3e0ce	0.080018625
253	0x3bb7ff32	0.0056151384
254	0x3d31ac0c	0.043376967
255	0xbd522029	-0.0513002

layer1.0.conv1.bias f4 [16]
0	0xb88444ca	-6.3070634e-05
1	0xb8ddf7c2	-0.0001058425
2	0x3883c674	6.2835315e-05
3	0x396997bb	0.00022277136
4	0xb868d2d4	-5.550946e-05
5	0x378b3997	1.6596909e-05
6	0x373fe5dd	1.1438006e-05
7	0x390dac3b	0.00013510969
8	0x387ce7cb	6.0297356e-05
9	0x38b5a4b9	8.6614345e-05
10	0xb93204f0	-0.00016977242
11	0x38155dd4	3.5611753e-05
12	0xb83cb9c2	-4.4995693e-05
13	0xb8d4a032	-0.000101387865
14	0xb86fc0b6	-5.7161516e-05
15	0x3725ce34	9.882777e-06

layer1.0.bn1.weight f4 [16]
0	0x3eee3cde	0.46530813
1	0x3efd2f7a	0.49450284
2	0x3f2135a3	0.6297247
3	0x3f11331d	0.5671862
4	0x3f10d3a8	0.5657296
5	0x3f0fb06c	0.56128573
6	0x3f1319c9	0.5746122
7	0x3ef1ca6c	0.47224748
8	0x3ee70316	0.45119542
9	0x3f1b1101	0.6057282
10	0x3f190de2	0.5978681
11	0x3f014f2d	0.5051144
12	0x3ef184b4	0.47171557
13	0x3f0b021d	0.543001
14	0x3f7bf23e	0.9841651
15	0x3f123719	0.5711532

layer1.0.bn1.bias f4 [16]
0	0xbd6d79e6	-0.05797758
1	0xbd3de337	-0.046359267
2	0x3c3a9c55	0.0113898115
3	0x3c1839db	0.009291138
4	0xbd3fce04	-0.04682733
5	0x3e3ff83c	0.18747038
6	0x3d6bd056	0.05757173
7	0xbb82fbf6	-0.0039973212
8	0xbcd082db	-0.025453022
9	0x3c24618c	0.010033023
10	0x3e3e0d8c	0.18559855
11	0xbe349ab3	-0.17637138
12	0xbdfeb5a7	-0.12436991
13	0x3d22be9a	0.039732553
14	0xbda18be2	-0.07888009
15	0xbe00dc59	-0.12584056

layer1.0.bn1.running_mean f4 [16]
0	0xbb526081	-0.0032100978
1	0x3c67d8dc	0.014150824
2	0x3cf5112f	0.02991542
3	0xbb2e4eb7	-0.002659721
4	0x3cc0be8b	0.023528358
5	0xbcc47ded	-0.023985827
6	0x3d2bddb3	0.041959476
7	0xbaf23eb8	-0.0018481826
8	0x3c1ac0ab	0.00944535
9	0x3cf19b44	0.029492982
10	0xbbdc5d73	-0.006725007
11	0x3c0d0582	0.00860727
12	0x3d037787	0.032096412
13	0x3cb738a9	0.022365885
14	0xbd90a92d	-0.07063518
15	0x3ca15442	0.019693498

layer1.0.bn1.running_var f4 [16]
0	0x3e3fd9cf	0.18735431
1	0x3e67f294	0.2265113
2	0x3f275aa6	0.65372694
3	0x3f507ed3	0.8144352
4	0x3ee95400	0.455719
5	0x3f038da3	0.51387995
6	0x3ecf1e17	0.40452644
7	0x3ed13326	0.40859336
8	0x3eab1021	0.33410743
9	0x3ebea32d	0.37233868
10	0x3eff4542	0.49857527
11	0x3e419009	0.18902601
12	0x3e8c58a8	0.2741139
13	0x3ef5c575	0.4800221
14	0x3f4e6ca2	0.8063451
15	0x3e91580b	0.28387484

layer1.0.conv2.weight f4 [16, 16, 3, 3, 3]
0	0x3d8cefdd	0.06881688
1	0x3dab7dc9	0.08373601
2	0xbd649550	-0.055806458
3	0x3e04d573	0.1297205
4	0xbde68e19	-0.11257572
5	0xbc453a28	-0.012037791
6	0x3d3004fb	0.0429735
7	0xbb79bc52	-0.0038106632
8	0xbc5811cb	-0.013187836
9	0x3e0c3ba4	0.13694626
10	0x3d8def00	0.06930351
11	0x3c4c42f1	0.012467132
12	0x3d90e222	0.070743814
13	0xbdbbf0d5	-0.091767944
14	0xbdc47fe3	-0.09594705
15	0x3d8d402f	0.06897008
16	0x3df30add	0.118673064
17	0xbca87219	-0.020562219
18	0x3ddb8737	0.107191496
19	0x3d8015a7	0.0625413
20	0x3d3a60cd	0.045502473
21	0x3cfecf3b	0.031104675
22	0xbdff4bd0	-0.12465632
23	0xbdc07eed	-0.09399209
24	0x3d9c8e9d	0.07644389
25	0xbd3d1d88	-0.04617074
26	0xbc7fc36d	-0.015610558
27	0x3d188ef1	0.037245695
28	0xbd7a2955	-0.061074574
29	0x3d924ae4	0.071431905
30	0x3cfbb023	0.030723637
31	0xbe48fcab	-0.19627635
32	0x3d21693f	0.03940701
33	0xbcefa20d	-0.029252077
34	0xbd9fd1f5	-0.07803718
35	0x3d7f314f	0.062302884
36	0xbd16a14f	-0.03677493
37	0xbc55d505	-0.013051276
38	0x3d96362c	0.07334551
39	0x3c712d08	0.014720209
40	0xbe36505f	-0.17804097
41	0xbe0dd15e	-0.13849398
42	0xbd8a6b84	-0.06758788
43	0xbd72156d	-0.059102464
44	0x3db58273	0.08862772
45	0xbd91fe96	-0.071286365
46	0xbc528d72	-0.012851106
47	0xbd8104db	-0.06299754
48	0x3d47b0a1	0.04875243
49	0xbe3e9286	-0.18610582
50	0xbdefc0af	-0.11706673
51	0xbd6ccbe4	-0.057811633
52	0x3c4de26d	0.012566191
53	0xbd894337	-0.06702273
54	0xbc13b352	-0.009014921
55	0x3dcb680b	0.09931954
56	0x3de9f32a	0.11423333
57	0x3da2849e	0.07935451
58	0xbd7a7760	-0.061149
59	0x3cecd944	0.028912194
60	0x3c476d07	0.01217199
61	0x3d164f46	0.036696695
62	0xbd830429	-0.06397278
63	0x3d17f5e1	0.037099723
64	0x3d4290d9	0.04750142
65	0xbd218afa	-0.03943918
66	0xbcdb21ef	-0.02674958
67	0xbd8ce52b	-0.06879648
68	0x3c5cfa31	0.013487385
69	0x3c537b2a	0.012907783
70	0xbda5c326	-0.08093862
71	0xbdb8cfbc	-0.09023997
72	0x3cb4f786	0.022090685
73	0x3e0466cc	0.12929839
74	0xbdf40605	-0.11915211
75	0x3d52a74c	0.051429078
76	0xbdf888c4	-0.12135461
77	0xbb5e2390	-0.0033895709
78	0x3d89640b	0.06708535
79	0xbdeed6fc	-0.11662099
80	0xbd748cfa	-0.05970476
81	0xbbb27f0d	-0.0054472745
82	0x3c56df69	0.013114789
83	0xbd5986f2	-0.05310721
84	0xba020a05	-0.00049605995
85	0xbda92965	-0.082598485
86	0x3e2039ae	0.15647003
87	0x3d603450	0.05473739
88	0x3da3f7cb	0.08006247
89	0x3da7706e	0.08175741
90	0xbd5fb049	-0.054611478
91	0x3d361df0	0.044462144
92	0xbdb2180d	-0.086959936
93	0xbd3b657c	-0.04575108
94	0xbde6579d	-0.1124718
95	0x3d87bcde	0.066278204
96	0x3bb9a3b6	0.005665268
97	0x3d223991	0.03960568
98	0xbd8760f6	-0.06610291
99	0xbcbafc8f	-0.022825507
100	0xbb8325db	-0.0040023155
101	0xbd8cd3ed	-0.06876359
102	0xbc850590	-0.016238004
103	0xbe2910d5	-0.16510327
104	0xbdc342e1	-0.095342405
105	0xbc041dab	-0.008063714
106	0x3d56f8e9	0.052483473
107	0xbe0a653b	-0.13515179
108	0xbb635d50	-0.003469307
109	0x3d06ff77	0.032958474
110	0xbe7d8fd7	-0.24761902
111	0xbd92acb2	-0.07161845
112	0xbe03a684	-0.1285649
113	0xbca694dd	-0.020334655
114	0x3d58a39b	0.0528904
115	0x3b781270	0.0037852786
116	0xbceadec3	-0.028670674
117	0xbcb5b95a	-0.02218311
118	0x3ce2fd27	0.027708603
119	0xbcc100fe	-0.023560043
120	0xbdb7c6d4	-0.0897347
121	0xbdb4cb1f	-0.08827805
122	0xbd61852f	-0.055058654
123	0xbd14bf9f	-0.036315557
124	0x3d483db5	0.048886973
125	0xbcaf4996	-0.021397393
126	0x3d23dd51	0.040005986
127	0x3c94d6bd	0.018168801
128	0x3cf33178	0.029686674
129	0xbd16e8f7	-0.036843266
130	0xbd642944	-0.055703416
131	0xbd9867a8	-0.07441646
132	0x3d44fc24	0.048092023
133	0xbb244eec	-0.0025071455
134	0xbdf84147	-0.12121826
135	0x3ce55990	0.027996808
136	0x3db5a55e	0.08869432
137	0x3dd111dc	0.102084845
138	0x3d612528	0.054967076
139	0xbd04d2e5	-0.032427687
140	0xbe5c290f	-0.21500038
141	0x3d333a69	0.043756876
142	0x3d3394e9	0.043843184
143	0xbd524f3d	-0.0513451
144	0xbdaf5d9d	-0.08562777
145	0xbd60e76c	-0.0549082
146	0x3c6c2723	0.014413628
147	0xbd29c4e3	-0.04144753
148	0xbe1db561	-0.15401222
149	0x3cf3cb55	0.029760042
150	0xbcefc8e6	-0.0292706
151	0x3d94aab4	0.072591215
152	0x3e291c63	0.16514735
153	0xbd2685a1	-0.040654782
154	0xbd714eeb	-0.058913153
155	0xbc82f3da	-0.015985418
156	0x3d53e31f	0.05173027
157	0xbe707ddd	-0.23485513
158	0x3e4a8903	0.19778828
159	0xbd8fd6d6	-0.070233986
160	0x3c40f52a	0.011777202
161	0x3e3453f8	0.17610157
162	0x3dac380c	0.084091276
163	0xbcc24d6b	-0.023718556
164	0xbe2044d2	-0.15651253
165	0x3da8f892	0.08250536
166	0xbe5900ca	-0.21191707
167	0xbce8d50e	-0.028421905
168	0xbcf0117f	-0.029305218
169	0x3bbf1648	0.0058315136
170	0x3d50eaff	0.05100536
171	0x3cbcc9e7	0.023045493
172	0xbd7214c8	-0.05910185
173	0xbca323cf	-0.019914536
174	0xbb80f5ae	-0.0039355373
175	0xbe06b597	-0.13155209
176	0xbc8bb86b	-0.01705571
177	0x39cadb3f	0.00038691793
178	0x3cffa206	0.031205188
179	0x3cf0b164	0.029381461
180	0xb9d58df0	-0.00040732278
181	0xbe0870a4	-0.13324219
182	0x3d9dc027	0.07702666
183	0x3dbe12af	0.09280907
184	0xbe509c38	-0.20372093
185	0x3d1bdb5d	0.038050998
186	0xbd37f693	-0.044912886
187	0xbd9efb95	-0.07762829
188	0xbd0c6587	-0.03427651
189	0x3d7c2077	0.0615544
190	0x3d7c3db2	0.061582275
191	0xbdee0337	-0.11621707
192	0x3e12a649	0.14321245
193	0xbda502be	-0.08057164
194	0xbd08811e	-0.03332626
195	0xbccf32d9	-0.0252928
196	0xbd729570	-0.059224546
197	0x3d3cafaa	0.046065964
198	0xbcdfc88f	-0.027317313
199	0x3cafec0d	0.021474862
200	0x3d70a72e	0.058753185
201	0x3c2e9be0	0.010657281
202	0xbdf18290	-0.11792481
203	0x3d92f4a2	0.07175566
204	0x3dc7cdbd	0.09756038
205	0xbd0e2f21	-0.034712914
206	0xbd90f94c	-0.070787996
207	0x3d06449b	0.03278027
208	0xbced4b96	-0.028966706
209	0x3d8c76b5	0.06858579
210	0x3c91ab16	0.017781775
211	0xbdce05ac	-0.100596756
212	0x3df82f53	0.121184014
213	0x3c86156b	0.016367635
214	0xbd4a7fba	-0.049438216
215	0x3a604e75	0.0008556613
216	0xbbf8edc0	-0.0075967014
217	0x3cac4c23	0.021032399
218	0xbb12090f	-0.0022283231
219	0x3d4859db	0.048913818
220	0xbe293751	-0.16525008
221	0xbd92f487	-0.07175546
222	0xbd41dac9	-0.04732779
223	0xbdc97cb6	-0.0983824
224	0x3c147c1b	0.009062792
225	0x3c042ba9	0.00806705
226	0xbd941176	-0.07229893
227	0xbde048e1	-0.109514005
228	0x3d121b05	0.0356703
229	0xbdff43f1	-0.12464131
230	0xbc517ab0	-0.012785599
231	0xbd0b40d1	-0.03399736
232	0x3d20c08d	0.03924613
233	0x3dbc8368	0.09204751
234	0xba579c56	-0.0008224895
235	0xbe12d71d	-0.14339872
236	0xbdfd40a3	-0.12365844
237	0x3d4a3ce8	0.04937449
238	0xbe15f68e	-0.14644834
239	0x3cffa5c9	0.031206982
240	0xbcb9f333	-0.022698974
241	0x3da831c9	0.08212621
242	0x3d261454	0.04054673
243	0xbca3d190	-0.019997388
244	0x3cd8d4db	0.026468685
245	0xbd0d6e26	-0.034528874
246	0xbc9f9073	-0.019478058
247	0xbe22dc82	-0.1590443
248	0xbd36affc	-0.044601426
249	0x3ce0927f	0.027413605
250	0x3da3aab4	0.079915434
251	0xbe193a7d	-0.14963718
252	0x3bcd551f	0.0062662507
253	0xbcf6225b	-0.030045679
254	0xbd75e574	-0.060033277
255	0xbd0e9b92	-0.034816332

layer1.0.conv2.bias f4 [16]
0	0x3828806c	4.0173923e-05
1	0x36982637	4.534402e-06
2	0x38127313	3.4916284e-05
3	0x39318de6	0.00016932897
4	0x38216954	3.8483486e-05
5	0x386219be	5.3906573e-05
6	0xb81867cd	-3.6336296e-05
7	0x374e5624	1.2298613e-05
8	0x382fa172	4.187361e-05
9	0x378feeb8	1.715809e-05
10	0x380dff8f	3.3855027e-05
11	0x359556c0	1.1126613e-06
12	0x38aeb8f0	8.331414e-05
13	0xb822b3a9	-3.879113e-05
14	0xb7c6f5ae	-2.3717843e-05
15	0x379b7616	1.8532428e-05

layer1.0.bn2.weight f4 [16]
0	0x3f26f489	0.6521688
1	0x3f130e1e	0.57443416
2	0x3f233f03	0.63768023
3	0x3eee56bb	0.46550545
4	0x3ed11914	0.40839446
5	0x3efb4d51	0.49082425
6	0x3f2446e5	0.64170676
7	0x3f2c22eb	0.6724078
8	0x3f1b9a55	0.60782367
9	0x3ee89a48	0.45430207
10	0x3f0e917f	0.5569076
11	0x3ea41c60	0.32052898
12	0x3f0118a3	0.5042822
13	0x3f3f1fff	0.746582
14	0x3f067998	0.5252929
15	0x3f039a0c	0.5140693

layer1.0.bn2.bias f4 [16]
0	0xbe12891d	-0.14310117
1	0x3dcaa416	0.09894578
2	0xbe1199ad	-0.14218779
3	0x3d96f26a	0.073704556
4	0x3ebdbdbe	0.37058824
5	0xbe1c5cf9	-0.15269841
6	0xbc96afd6	-0.018394392
7	0xbe4b4473	-0.1985033
8	0xbdea2a42	-0.11433841
9	0xbe63314b	-0.22186773
10	0xbe284ecf	-0.16436313
11	0xbe0bf33b	-0.13667004
12	0x3e289302	0.16462329
13	0xbe20a8d0	-0.15689397
14	0xbd30a296	-0.043123804
15	0x3d3f1d69	0.046658907

layer1.0.bn2.running_mean f4 [16]
0	0xbf80539c	-1.0025516
1	0xbf675573	-0.9036476
2	0xbf9be9f6	-1.2180774
3	0xbf0efc7b	-0.55854005
4	0xbf0cbc62	-0.5497495
5	0xbf8e8eb1	-1.1137296
6	0xbf93e970	-1.1555614
7	0xbfa90a75	-1.3206316
8	0x3f830684	1.0236363
9	0x3d4d4a51	0.0501197
10	0x3f6578a8	0.8963723
11	0xbf0c5686	-0.54819524
12	0xbebbf2ba	-0.36708623
13	0xbf9742d6	-1.1817272
14	0xbf755726	-0.958361
15	0xbf9f328e	-1.2437303

layer1.0.bn2.running_var f4 [16]
0	0x3fc34a40	1.5257034
1	0x3f973fdc	1.1816363
2	0x3fb9b57b	1.4508508
3	0x3f89d3ef	1.0767802
4	0x3fcda47a	1.6065819
5	0x3fd5d179	1.6704551
6	0x3fa77bd2	1.3084662
7	0x4059dfb2	3.4042783
8	0x408afc64	4.3433094
9	0x3fc70787	1.5549172
10	0x3fedfd4b	1.8592924
11	0x3f4db17f	0.8034896
12	0x3f5fb55b	0.873861
13	0x3fb3e896	1.4055355
14	0x3fd01c35	1.6258608
15	0x4005f21a	2.0929017

layer1.0.conv3.weight f4 [16, 16, 1, 1, 1]
0	0xbd152b93	-0.03641851
1	0x3ca3aac1	0.019978883
2	0xbdc1910f	-0.09451496
3	0x3e09c4f8	0.13454044
4	0x3dfd9bb0	0.12383211
5	0xbd9b9874	-0.075974375
6	0x3c92cee1	0.017920913
7	0xbc568c11	-0.013094918
8	0xbd91dab0	-0.071217895
9	0xbdbff535	-0.093729414
10	0xbe26828a	-0.16260734
11	0x3caf251b	0.021379998
12	0xbe3253ed	-0.17414828
13	0xbd51cc9a	-0.051220514
14	0xbe1c7639	-0.15279473
15	0xbcb4c481	-0.022066357
16	0x3d737c17	0.059444513
17	0x3c23fa16	0.010008356
18	0xbe231d1e	-0.15929076
19	0x3de077bf	0.1096034
20	0x3de20d9f	0.11037754
21	0xbdb211b1	-0.086947806
22	0xbd92f887	-0.07176309
23	0xbe53bd1f	-0.20677613
24	0xbdf2e25e	-0.11859582
25	0x3d8ab9d2	0.06773724
26	0xbda9468f	-0.08265411
27	0xbd810534	-0.062998205
28	0x3df2f93a	0.118639424
29	0xbc9fea2d	-0.019520843
30	0xbe3b31d9	-0.18280734
31	0x3aa6eec8	0.0012735957
32	0xbe90555e	-0.2819013
33	0x3d717a0c	0.058954284
34	0x3e0345f5	0.12819655
35	0xbd030a65	-0.031992335
36	0xbe812b0a	-0.2522815
37	0x3e5f3ee9	0.21801342
38	0x3cbb30d3	0.02285043
39	0x3e16aa8d	0.14713497
40	0xbdbec291	-0.09314454
41	0xbd8443ab	-0.06458219
42	0xbe2a97eb	-0.16659515
43	0x3c7b846e	0.015351398
44	0xbd44d877	-0.048058
45	0x3dda0266	0.10644989
46	0x3c52c5dc	0.012864556
47	0x3e44bcd9	0.19212665
48	0xbd4ce666	-0.050024413
49	0xbe39d5c8	-0.18147957
50	0xbe15933b	-0.14606945
51	0x3da50059	0.08056707
52	0xbc9302e8	-0.017945722
53	0x3cefaa68	0.02925606
54	0xbe62e415	-0.22157319
55	0xbe473f7c	-0.19457811
56	0x3d489c81	0.04897738
57	0x3e160f76	0.14654335
58	0x3d805791	0.06266702
59	0xbe4bf72f	-0.19918512
60	0xbd09d650	-0.03365165
61	0x3e2d4d04	0.1692391
62	0xbe324f76	-0.17413124
63	0xbccf4e19	-0.025305795
64	0xbb5113f2	-0.0031902757
65	0x3d1ea94a	0.038735665
66	0xbe255427	-0.16145383
67	0x3dcc1e6f	0.09966742
68	0x3de36ee7	0.11105137
69	0x3bdf6daf	0.006818495
70	0xbd2eba15	-0.04265793
71	0x3dbe2daf	0.09286057
72	0x3deb2b52	0.11482872
73	0x3e0afa1c	0.13571972
74	0x3e4c4684	0.19948775
75	0x3e12af15	0.14324601
76	0x3e7976cc	0.24361724
77	0x3d2885be	0.04114317
78	0xbdbdeb5e	-0.09273408
79	0x3e14fb91	0.1454909
80	0xbe01b2cc	-0.12665862
81	0x3c4b6be1	0.012415857
82	0x3dcf1c97	0.10112875
83	0xbe3f447a	-0.18678465
84	0xbe73c2a6	-0.23804721
85	0x3e14181a	0.14462319
86	0xbe328f19	-0.174374
87	0x3d883943	0.06651547
88	0xbd807ace	-0.06273423
89	0x3cd566df	0.02605003
90	0xbdbdb9bf	-0.09263944
91	0xbde5e8a9	-0.11226017
92	0xbd24d9d0	-0.040246785
93	0x3e926b44	0.28597462
94	0xbe7694f1	-0.24080254
95	0x3e021d98	0.12706602
96	0xbdc9d8ea	-0.09855826
97	0xbe1d955d	-0.15389009
98	0xbd7062de	-0.058688037
99	0x3d115a03	0.035486232
100	0xbe009ba3	-0.1255937
101	0x3d36234f	0.044467267
102	0xbbb2bdc6	-0.0054547517
103	0x3e71a5a3	0.23598342
104	0x3e1195f2	0.14217356
105	0x3c7cd48a	0.015431533
106	0x3d736d00	0.059430122
107	0xbe0d8b36	-0.13822636
108	0xbda66c12	-0.081260815
109	0xbe86e499	-0.2634628
110	0xbc84ea13	-0.016224897
111	0xbdef6086	-0.11688332
112	0xbe22bcfb	-0.15892403
113	0xbe1327cd	-0.14370652
114	0x3dfa6ba6	0.122275636
115	0xbd540b70	-0.05176872
116	0xbdcb6ab6	-0.09932463
117	0x3d15b363	0.03654803
118	0x3dc51434	0.09622994
119	0x3e41d519	0.18928947
120	0xbe2e1013	-0.1699832
121	0xbc5f313a	-0.013622576
122	0xbdf4a182	-0.11944868
123	0x3d3b29fb	0.045694333
124	0xbddddc1a	-0.10832997
125	0x3d9710eb	0.07376274
126	0xbe092911	-0.13394572
127	0x3cd2b940	0.0257231
128	0x3cbb5a66	0.022870254
129	0x3da2f9f2	0.079578295
130	0x3e7510cc	0.23932189
131	0xbd80ab5b	-0.062826835
132	0xbe48a237	-0.1959313
133	0xbcaebff2	-0.021331761
134	0x3e7e0ca1	0.24809505
135	0xbbed84ad	-0.007248482
136	0xbd7323c9	-0.0593603
137	0xbdfdab30	-0.12386167
138	0xbca1fa9c	-0.01977282
139	0xbdeb2707	-0.11482053
140	0xbe6ed85c	-0.23324722
141	0x3e0b21c7	0.13587104
142	0x3daf60d1	0.08563388
143	0xbd726510	-0.059178412
144	0x3dc28b19	0.09499187
145	0x3e1cff98	0.15331876
146	0xbe5966d5	-0.21230634
147	0xbc0f2404	-0.008736614
148	0x3d879132	0.06619491
149	0xbdaeee26	-0.08541517
150	0xbe4f8f92	-0.20269611
151	0xbdc0429c	-0.09387705
152	0xbc27b335	-0.010235597
153	0x3ddce393	0.10785594
154	0x3dbe6869	0.092972584
155	0xbdfa7a6c	-0.12230381
156	0x3c28c139	0.010299974
157	0xbe3feaae	-0.18741867
158	0xbcda20ab	-0.026626905
159	0xbe84f1d7	-0.2596576
160	0xbe6733a0	-0.22578287
161	0xbe53f701	-0.20699693
162	0xbe3a671d	-0.18203397
163	0x3d0e270b	0.034705203
164	0x3c6469d2	0.013941245
165	0x3e07bf28	0.13256514
166	0xbe8d88af	-0.27643344
167	0x3dd518f1	0.10405148
168	0x3dbc9197	0.092074566
169	0xbb7c983b	-0.0038542885
170	0xbd75acf5	-0.059979398
171	0xbcfa2255	-0.030533949
172	0x3cc959c6	0.02457894
173	0xbe139953	-0.14413957
174	0xbdb614a5	-0.088906564
175	0x3e053725	0.13009317
176	0x3da6a647	0.08137184
177	0x3e2e23de	0.1700587
178	0x3e1e6136	0.1546677
179	0x3e9addf6	0.30247468
180	0xbd0dc08e	-0.034607463
181	0x3dc0aebb	0.09408327
182	0x3de088d1	0.10963596
183	0xbc11bc1b	-0.0088949455
184	0xbc9b1ca0	-0.018934548
185	0xbe491669	-0.19637455
186	0xbdfe1a61	-0.12407375
187	0xbd4b6405	-0.049655933
188	0x3cc7f656	0.024409454
189	0x3e23cb43	0.15995507
190	0x3da11974	0.07866183
191	0xbdbe2485	-0.09284309
192	0xbd2cc878	-0.04218337
193	0x3db2f7e8	0.087386906
194	0xbe14aa93	-0.14518194
195	0x3daa581f	0.08317589
196	0xbd5db2b8	-0.054125518
197	0x3c7355bf	0.014851986
198	0xbdf9bd28	-0.12194282
199	0xbd4b87a7	-0.049689915
200	0x3daae3c6	0.083442256
201	0x3daa91f0	0.083286166
202	0x3dde9313	0.10867896
203	0x3de4fd88	0.1118117
204	0xbd896e7c	-0.06710526
205	0xbeb382c8	-0.35060716
206	0xbe25864e	-0.16164514
207	0xbe2cf4b5	-0.16890223
208	0x3b52d2b7	0.0032169053
209	0xbea796e2	-0.32732302
210	0xbd8880d3	-0.06665196
211	0x3db2f932	0.087389365
212	0xbcaab2f8	-0.020837292
213	0x3c42b083	0.011882904
214	0xbe3f71be	-0.18695733
215	0xbe65579c	-0.22396702
216	0x3dbb7603	0.09153368
217	0x3cdf3585	0.0272472
218	0x3b47ade1	0.003046863
219	0xbd31cd76	-0.043408833
220	0xbca0fdba	-0.019652236
221	0x3dc72da5	0.09725503
222	0xbe783019	-0.24237098
223	0x3caa48bd	0.020786637
224	0xbb80d6ab	-0.0039318404
225	0x3e5c70f5	0.21527465
226	0x3e111037	0.14166342
227	0x3cc3e2d1	0.023911865
228	0xbe684adf	-0.22684811
229	0x3c8f9468	0.01752682
230	0x3c7769d4	0.015100915
231	0x3cd4a044	0.025955327
232	0xbe3fcf66	-0.1873146
233	0xbd042020	-0.0322572
234	0xbd2d9a60	-0.04238355
235	0xbe05f4cb	-0.13081662
236	0xbea127cf	-0.31475684
237	0xbdb57f70	-0.088621974
238	0x3da20096	0.07910268
239	0xbdb18792	-0.08668436
240	0x3e9dbd13	0.30808315
241	0x3c15e8aa	0.00914971
242	0xbc3d7c53	-0.011565286
243	0x3b384810	0.0028119124
244	0xbe22b538	-0.15889442
245	0xbd0bc6c2	-0.034125097
246	0x3da17204	0.07883075
247	0x3e2576e0	0.16158628
248	0xbe0d4bff	-0.13798521
249	0xbe49672e	-0.19668266
250	0xbd1fdf10	-0.03903109
251	0x3d57bdec	0.052671358
252	0x3d0bde30	0.03414744
253	0xbdfc291b	-0.12312528
254	0x3d1ee0b7	0.038788524
255	0xbd27316f	-0.040818628

layer1.0.conv3.bias f4 [16]
0	0xb937ecb8	-0.00017540425
1	0x39902bab	0.00027498355
2	0x3831e8ba	4.2416832e-05
3	0xb91afa48	-0.00014779822
4	0xb8419fdd	-4.616367e-05
5	0xb8a41ca8	-7.825467e-05
6	0x39031b5b	0.00012503324
7	0xb762e3ee	-1.3523719e-05
8	0x39b170aa	0.00033844012
9	0x38596cb8	5.1838084e-05
10	0xb8bbc125	-8.952831e-05
11	0xb80545e2	-3.1774754e-05
12	0x39e1e4c0	0.00043085776
13	0xb9237285	-0.00015587553
14	0xb83eec16	-4.5519402e-05
15	0x38110b7e	3.4581397e-05

layer1.0.bn3.weight f4 [16]
0	0x3f07b23b	0.53006333
1	0x3f0e9a3b	0.55704087
2	0x3f273373	0.6531288
3	0x3ef4666c	0.47734392
4	0x3eefb046	0.46814173
5	0x3f56aaea	0.83854544
6	0x3ecde1ef	0.40211436
7	0x3f431236	0.7619966
8	0x3f2e2d21	0.6803761
9	0x3eca20ce	0.39478153
10	0x3ea6578d	0.3248867
11	0x3f3555b6	0.7083391
12	0x3ed85b87	0.4225733
13	0x3f04f7ce	0.5194062
14	0x3f44bd5c	0.7685144
15	0x3f498422	0.78717244

layer1.0.bn3.bias f4 [16]
0	0x3cf16902	0.029469017
1	0x3d70572e	0.05867689
2	0xbec1967a	-0.37810117
3	0x3e2017e8	0.1563412
4	0xbe61bd5f	-0.22044896
5	0xbf073317	-0.5281233
6	0xbd9fddd6	-0.07805984
7	0xbe808114	-0.2509848
8	0xbe8f5387	-0.27993414
9	0x3cf779bd	0.030209417
10	0xbf17be64	-0.5927489
11	0xbdccbda4	-0.099971086
12	0x3da1278d	0.07868872
13	0xbc75fe56	-0.015014252
14	0xbe57675c	-0.21035522
15	0xbd0600c9	-0.032715593

layer1.0.bn3.running_mean f4 [16]
0	0xbd5b5b37	-0.053553786
1	0xbc410ced	-0.011782867
2	0xbd8b487b	-0.06800934
3	0xbe0044e3	-0.12526278
4	0x3e4a1b6a	0.1973702
5	0xbe1981fe	-0.14990994
6	0xbe100967	-0.14066087
7	0xbdef1ed8	-0.11675805
8	0xbd61aec3	-0.055098306
9	0xbda2d372	-0.07950486
10	0xbdfdbb2e	-0.12389217
11	0x3e0ea005	0.1392823
12	0xbe07c5b7	-0.13259016
13	0xbe1e46e1	-0.15456726
14	0xbe1c7e8c	-0.15282649
15	0xbd37bc44	-0.04485728

layer1.0.bn3.running_var f4 [16]
0	0x3c5220f2	0.012825238
1	0x3cc46f90	0.023978978
2	0x3cb0d947	0.02158798
3	0x3ca165ae	0.019701805
4	0x3cb03f57	0.021514578
5	0x3c884606	0.016634952
6	0x3d14a13e	0.036286585
7	0x3c487aae	0.01223628
8	0x3cbda6e6	0.023150872
9	0x3ca49870	0.02009222
10	0x3d040eff	0.032240864
11	0x3cacf948	0.02111496
12	0x3cbe9fab	0.023269495
13	0x3cc35abc	0.023846976
14	0x3cbdf1d5	0.023186604
15	0x3c0745da	0.0082564

layer1.0.shortcut.0.weight f4 [16, 8, 1, 1, 1]
0	0x3e54f8bd	0.20798011
1	0xba24f654	-0.0006292809
2	0xbca4ebbc	-0.020131938
3	0x3da68460	0.08130717
4	0xbd358f40	-0.044326067
5	0xbe241054	-0.16021854
6	0x3cce9768	0.02521868
7	0xbd1406a1	-0.036139134
8	0xbe148826	-0.14505062
9	0xbdb41228	-0.087925255
10	0x3e6ec31d	0.23316617
11	0x3aafad31	0.0013403055
12	0xbd7d64a6	-0.061863564
13	0x3d623c70	0.05523342
14	0xbc76676e	-0.015039308
15	0x3db81c7b	0.08989807
16	0xbe0ad44e	-0.1355755
17	0xbe146a1e	-0.14493605
18	0x3d8a9c98	0.06768149
19	0xbdba8904	-0.09108165
20	0xbe2eb3ac	-0.17060727
21	0xbc8c5797	-0.01713161
22	0xbbccc9dc	-0.0062496495
23	0xbcc36369	-0.023851113
24	0xbb06091d	-0.002045221
25	0x3e16c749	0.14724459
26	0xbdabda7a	-0.083912805
27	0x3e04b8c8	0.12961113
28	0x3d202c31	0.039104644
29	0x3d46b6fd	0.048514355
30	0xbd3c4534	-0.045964435
31	0xbe8df29f	-0.27724168
32	0x3bdc33ce	0.006720043
33	0x3d1eae4b	0.038740437
34	0xbe98087c	-0.29693973
35	0xbdb925e8	-0.09040433
36	0xbd8f1367	-0.069861226
37	0xbe24235d	-0.16029115
38	0x3c184bbc	0.0092954
39	0x3d4a8673	0.049444627
40	0xbd56826a	-0.052370466
41	0xba35c6c7	-0.0006934222
42	0x3ccc1f83	0.02491737
43	0xbe60f31a	-0.21967736
44	0xbe10771a	-0.14107934
45	0xbe68f4c7	-0.22749625
46	0xbb94f585	-0.00454587
47	0x3dce9a47	0.1008802
48	0x3d232608	0.03983119
49	0xbd3f90ab	-0.046768826
50	0x3d41d9e1	0.047326926
51	0xbdd1e04d	-0.1024786
52	0xbd1fb170	-0.038987577
53	0x3c73bf68	0.014877178
54	0x3da2b2ae	0.07944237
55	0x3edbd708	0.42937493
56	0xbd262c08	-0.040569335
57	0xbe902e2c	-0.28160226
58	0x3df38605	0.118907966
59	0x3dcb3052	0.09921326
60	0xbcb5e151	-0.022202166
61	0x3d364dc0	0.044507742
62	0x3bc8ce63	0.006128119
63	0xbd877ff2	-0.066162005
64	0xbc1f9a74	-0.009741414
65	0x3e457359	0.19282283
66	0xbea36adc	-0.31917465
67	0x3c60ad7d	0.013713238
68	0x3d45e57d	0.04831456
69	0x3d1462df	0.036227103
70	0x3caaff7f	0.020873783
71	0xbc256fc4	-0.010097448
72	0x3d3da256	0.046297394
73	0xbbf2d660	-0.0074108094
74	0xbd80b5f7	-0.06284707
75	0x3d14a8ca	0.036293782
76	0x3e5de73f	0.21670245
77	0x3e36af9c	0.17840427
78	0x3d886d71	0.06661499
79	0xbe090058	-0.13379037
80	0xbd18e1f1	-0.03732485
81	0xbd9fd046	-0.07803397
82	0x3ee08094	0.43848097
83	0xbc91b170	-0.017784804
84	0xbcbfea68	-0.023427203
85	0x3b23095c	0.0024877405
86	0x3c00307d	0.0078240605
87	0x3e0211f4	0.12702161
88	0xbdfd4cc9	-0.12368161
89	0xbda02157	-0.07818859
90	0x3e19b1e0	0.1500926
91	0x3d02cae0	0.031931758
92	0xbdc50114	-0.09619346
93	0xbd293127	-0.04130664
94	0x3d52fc3a	0.051510073
95	0xbe7be246	-0.24598035
96	0x3d373ebb	0.04473756
97	0xbe023ebc	-0.12719244
98	0x3d9580df	0.07299971
99	0xbe11410e	-0.14184973
100	0xbe57850e	-0.2104685
101	0xbe512993	-0.20426016
102	0x3d341917	0.04396924
103	0x3d213109	0.039353404
104	0xbd055716	-0.032553755
105	0xbe813b4e	-0.25240558
106	0xbd27adb1	-0.04093713
107	0xbd62fbbe	-0.05541586
108	0x3ca69e45	0.02033914
109	0x3d10ffdf	0.035400268
110	0x3d986cb9	0.07442612
111	0x3e3c1386	0.18366823
112	0xbe4dfea3	-0.20116667
113	0xbd8775ee	-0.0661429
114	0xbc0b48e6	-0.008501267
115	0xbdcc2984	-0.09968856
116	0x3d0941e1	0.033510093
117	0xbc191e4f	-0.009345605
118	0xbe462326	-0.19349346
119	0xbd3a1ace	-0.04543572
120	0xbc915343	-0.017739898
121	0xbdca30d1	-0.09872592
122	0x3b94fcc6	0.0045467345
123	0xbde3f706	-0.111311
124	0xbe36a1df	-0.17835186
125	0xbd2c5e0e	-0.042081885
126	0xbe19a823	-0.15005545
127	0x3d00fcc3	0.031491052

layer1.0.shortcut.0.bias f4 [16]
0	0xb795af73	-1.7843884e-05
1	0x38e20d95	0.000107790496
2	0xb7285733	-1.0033883e-05
3	0xb9174d18	-0.00014429202
4	0xb7476eab	-1.1887091e-05
5	0x37eb62d2	2.80602e-05
6	0x3829605a	4.0382474e-05
7	0xb79317ac	-1.7534789e-05
8	0x39d5a390	0.0004074839
9	0x393f184a	0.00018224228
10	0xb8445b0a	-4.681483e-05
11	0x378514f8	1.58646e-05
12	0x39c1cb83	0.00036963457
13	0xb82c5b34	-4.1092935e-05
14	0xb7c6e506	-2.3710087e-05
15	0x38acabbd	8.233588e-05

layer1.0.shortcut.1.weight f4 [16]
0	0x3e8d2c24	0.2757274
1	0x3edfc551	0.43705228
2	0x3dfadbd9	0.12248964
3	0x3ed58880	0.41705704
4	0x3e95d125	0.29261127
5	0x3e96291d	0.29328242
6	0x3eecc62c	0.46244943
7	0x3e9f3563	0.31095418
8	0x3f067f8a	0.5253836
9	0x3ed01f42	0.40648848
10	0x3f0b72dc	0.54472136
11	0x3f13cb29	0.5773187
12	0x3ef4b33a	0.4779299
13	0x3ebae144	0.3649999
14	0x3ec16bab	0.37777457
15	0x3e5c3a27	0.21506558

layer1.0.shortcut.1.bias f4 [16]
0	0x3cf16902	0.029469017
1	0x3d70572e	0.05867689
2	0xbec1967a	-0.37810117
3	0x3e2017e8	0.1563412
4	0xbe61bd5f	-0.22044896
5	0xbf073317	-0.5281233
6	0xbd9fddd6	-0.07805984
7	0xbe808114	-0.2509848
8	0xbe8f5387	-0.27993414
9	0x3cf779bd	0.030209417
10	0xbf17be64	-0.5927489
11	0xbdccbda4	-0.099971086
12	0x3da1278d	0.07868872
13	0xbc75fe56	-0.015014252
14	0xbe57675c	-0.21035522
15	0xbd0600c9	-0.032715593

layer1.0.shortcut.1.running_mean f4 [16]
0	0x3c49a0d3	0.01230641
1	0x3c76526e	0.015034301
2	0xbdccef52	-0.10006584
3	0xbc62e13a	-0.0138476435
4	0xbdc8afd2	-0.0979916
5	0xbd9f9801	-0.07792664
6	0x3db4a898	0.08821219
7	0xbd42f009	-0.047592197
8	0xbc364aaa	-0.0111262
9	0x3d5be209	0.05368236
10	0x3dc34b7b	0.09535881
11	0xbd8cc5b1	-0.06873644
12	0xbd9f1721	-0.07768083
13	0xbce3932c	-0.027780138
14	0xbdea7dde	-0.114497885
15	0xbdcf3b5c	-0.10118744

layer1.0.shortcut.1.running_var f4 [16]
0	0x3caac159	0.020844148
1	0x3cb70108	0.022339359
2	0x3cc54561	0.024080934
3	0x3c7b30c0	0.015331447
4	0x3cc39be6	0.02387805
5	0x3cd9b873	0.02657721
6	0x3cdc4e51	0.026892813
7	0x3ccfaad6	0.025350016
8	0x3c94d6af	0.018168775
9	0x3c90938c	0.01764848
10	0x3ce2f893	0.02770642
11	0x3cb5d9a0	0.022198498
12	0x3d092f27	0.033492234
13	0x3ce9b774	0.02852986
14	0x3cf4426f	0.029816834
15	0x3ca344c0	0.019930243

layer1.1.conv1.weight f4 [32, 16, 3, 3, 3]
0	0xbd1c438a	-0.038150348
1	0xbc4d540b	-0.012532244
2	0xbc6b80e4	-0.014373992
3	0xbd076957	-0.033059444
4	0xbc0c3a3f	-0.008558809
5	0x3cf1b47c	0.029505007
6	0xbca2cde3	-0.019873565
7	0xbcdedd3a	-0.027205098
8	0x3c7252c9	0.014790245
9	0x3cab4e62	0.0209114
10	0xba94b4f8	-0.0011345437
11	0x3cc8feca	0.024535555
12	0x3d3ccee8	0.04609576
13	0x3d1bacc9	0.038006578
14	0xbc13a75e	-0.009012071
15	0x3d3e0e23	0.0464002
16	0x3d50d3aa	0.05098311
17	0x3cd355ee	0.02579781
18	0x3b97764d	0.004622257
19	0x3c9c5302	0.01908255
20	0xbc27f556	-0.010251364
21	0xbd1be9dc	-0.038064823
22	0xbd2bd635	-0.04195233
23	0xbb8ced8c	-0.0043007787
24	0xbd4378b0	-0.04772252
25	0xbd34b820	-0.044120908
26	0xbd4272d6	-0.047472797
27	0x3d542fd9	0.051803444
28	0xbc80af95	-0.015708724
29	0x3c90c5c0	0.01767242
30	0x3d070e97	0.0329729
31	0x3c113022	0.008861573
32	0x3caddc47	0.0212232
33	0x3ce1580a	0.0275078
34	0x3d227ca3	0.039669644
35	0x3d6705e3	0.0564021
36	0xbd5b93e4	-0.053607836
37	0x3c94efe8	0.018180802
38	0xbc8883f9	-0.016664492
39	0xbc433a9c	-0.011915829
40	0x3d4f67de	0.050636165
41	0xbbca0cd6	-0.006166081
42	0xbb92f134	-0.00448432
43	0xbc64b50b	-0.01395918
44	0xbd176db9	-0.036969874
45	0x3cb7d99c	0.022442631
46	0xbb26b9c6	-0.002544032
47	0xbc15314e	-0.009105993
48	0xbc87b3b7	-0.016565187
49	0xbd64a14a	-0.05581788
50	0xbd12bb5c	-0.03582321
51	0xbd0161da	-0.03158746
52	0x39c7a45f	0.00038078704
53	0xbc932977	-0.017964108
54	0xbc91b47a	-0.017786253
55	0xbcd33932	-0.025784109
56	0x3d2d89ef	0.04236787
57	0x3cd77d38	0.026304826
58	0x3c5f0717	0.01361253
59	0xbd496454	-0.049167946
60	0xbafec510	-0.0019437391
61	0xbca9a1cf	-0.02070704
62	0xbbfbdc51	-0.007686176
63	0x3d4c1984	0.04982902
64	0x3d27d7bd	0.04097723
65	0xbc46d982	-0.012136819
66	0xbc46a2b6	-0.012123754
67	0xbc90e19b	-0.017685702
68	0x3d80db8d	0.06291876
69	0x3cf654bb	0.0300697
70	0x3d0d70b1	0.0345313
71	0x38f1e3a7	0.00011534179
72	0xbc86f06c	-0.016472064
73	0xbc990411	-0.018678697
74	0xbc7df76e	-0.015500886
75	0x3b3564e6	0.0027678548
76	0x3c829487	0.015939964
77	0xbc36c50e	-0.01115538
78	0xbd20a27d	-0.03921746
79	0xbcf3e1bb	-0.029770723
80	0x3ba6fb32	0.005095863
81	0x3b6e515e	0.0036364417
82	0xbd34df63	-0.04415835
83	0xbb272286	-0.0025502755
84	0xbb1ca45f	-0.0023901684
85	0xbc9a3ff0	-0.018829316
86	0x3d4c874c	0.049933717
87	0xbc14fe49	-0.009093829
88	0xbcb3fec5	-0.02197207
89	0xbc3dd778	-0.011587016
90	0xbc9f4f88	-0.019447103
91	0x3d6d1c37	0.057888236
92	0xbd28eada	-0.041239597
93	0xbbd81be3	-0.006595121
94	0x3dad6923	0.08467319
95	0xbd4a9100	-0.04945469
96	0xbcd9c256	-0.026581924
97	0x3d608e49	0.054823194
98	0x3d83aaa9	0.06429035
99	0x3d27a7cc	0.040931508
100	0xbc75a56d	-0.014993054
101	0x3d078905	0.033089656
102	0x3d1f9b66	0.03896656
103	0xbd23982a	-0.039940037
104	0x3caa668e	0.020800855
105	0x3cfd48b2	0.030918453
106	0xbd01913d	-0.03163265
107	0xbd391fe6	-0.045196436
108	0xbbd66333	-0.006542587
109	0xbd0aac0c	-0.033855483
110	0x3c53367c	0.012891408
111	0x3c9523ab	0.018205484
112	0x3dc43062	0.09579541
113	0x3d02787c	0.031853184
114	0x3d3ffe1a	0.04687319
115	0x3d4c0a36	0.049814425
116	0x3cdd1d0a	0.026991386
117	0xbb1e3b37	-0.0024144182
118	0x3d72804a	0.059204377
119	0x399c5707	0.0002981948
120	0xbcabf7f4	-0.020992257
121	0xbdda3a0b	-0.10655602
122	0xbcc28587	-0.023745311
123	0xbc2e28f8	-0.010629885
124	0x3cffaf0a	0.031211395
125	0xbc69b1e9	-0.0142636085
126	0x3cb96cbc	0.022634856
127	0xbd016ef1	-0.031599943
128	0xbb6a08a0	-0.0035710707
129	0xbb984de9	-0.0046479595
130	0x3d86d7e0	0.06584144
131	0x3c8b4173	0.016998982
132	0xbcf6eb7a	-0.03014158
133	0xbd75e1be	-0.060029738
134	0x3ba7a4d0	0.0051160827
135	0xbd77d63e	-0.06050705
136	0xbd2ddf8e	-0.042449526
137	0x3d6aefb4	0.057357505
138	0x3d0cc020	0.034362912
139	0x3d481c17	0.048854914
140	0xbcec6ac5	-0.028859505
141	0x3d45309e	0.048142068
142	0x3ca72b0a	0.020406265
143	0xbb91c42d	-0.004448435
144	0x3d858af1	0.065206416
145	0x3d85d91e	0.065355524
146	0xbd721c7c	-0.059109196
147	0xbd286791	-0.041114394
148	0xbd830e11	-0.06399167
149	0xbc446003	-0.011985782
150	0xbd9cb647	-0.07651954
151	0xbcb0a653	-0.021563685
152	0x3bccceeb	0.0062502525
153	0xbc226e05	-0.009913926
154	0xbc95f5cc	-0.018305682
155	0x3bca9eea	0.006183495
156	0x3ca35625	0.019938538
157	0x3d1c7a15	0.038202364
158	0x3ced47e6	0.028964948
159	0x3cebba33	0.02877531
160	0x3b696e64	0.0035618776
161	0x3beea663	0.0072830184
162	0xbd2ed9c3	-0.042688143
163	0x3d294f36	0.041335307
164	0xbc6becdf	-0.014399736
165	0xbc384103	-0.011245969
166	0x3debb7df	0.1150968
167	0xbcec9e3f	-0.028884051
168	0xbca49ebf	-0.020095227
169	0xbc6a5fa9	-0.014305034
170	0xbd80ac72	-0.06282891
171	0x3d82a7ce	0.063796625
172	0xbd4d45fe	-0.050115578
173	0x3d8d1578	0.068888605
174	0x3cb63fbd	0.02224719
175	0xbe3d5032	-0.18487623
176	0x3d1f97f0	0.03896326
177	0x3cee6127	0.02909906
178	0x3d1d3d36	0.038388453
179	0x3dab9d49	0.08379609
180	0xbd1d1012	-0.038345404
181	0x3caf0c6a	0.021368224
182	0xbd8b42d5	-0.067998566
183	0xbcb5295f	-0.022114454
184	0x3df4e549	0.11957795
185	0x3ad00655	0.0015871028
186	0x39b2df24	0.00034117058
187	0xbcbae4d8	-0.0228142
188	0xbd42a279	-0.047518227
189	0xbb950d58	-0.00454871
190	0x3cd49df6	0.025954228
191	0x3d2c99af	0.04213875
192	0x3c2cbf20	0.010543615
193	0x3cc55ff4	0.024093606
194	0x3aef43ad	0.0018254422
195	0x3b2f157e	0.0026715691
196	0x3b632c90	0.0034664012
197	0xbcb1ff17	-0.021728082
198	0x3c0c7db5	0.008574893
199	0xbcbb290e	-0.022846725
200	0xbca6595d	-0.020306284
201	0xbb023a0c	-0.0019871024
202	0xbd240cf0	-0.0400514
203	0xbb8ea4d6	-0.004353146
204	0xbc3978e4	-0.0113203265
205	0x3b96eb88	0.004605714
206	0x3d169e9d	0.03677236
207	0x3c2bbef1	0.010482536
208	0xbc27d65c	-0.010243978
209	0xbc2d3ab1	-0.010573075
210	0xbb69f476	-0.0035698689
211	0x3caabf42	0.020843152
212	0x3bb0aee4	0.0053919423
213	0x3c4053a7	0.011738694
214	0xbca6f19d	-0.020378882
215	0xbcd09d4e	-0.025465634
216	0xbbb8d5c4	-0.005640717
217	0xbd42dfdf	-0.04757678
218	0xbd74bcb6	-0.05975028
219	0x3c9789b0	0.018498272
220	0x3d04b7c7	0.032401826
221	0xbcc464a6	-0.023973774
222	0x3d272631	0.040807907
223	0x3c8ec279	0.017426716
224	0x3d524c0c	0.051342055
225	0x3c145bd3	0.009055096
226	0xb996b34a	-0.0002874381
227	0x3dad5988	0.08464342
228	0xbbeb019f	-0.007171824
229	0xbdcefa87	-0.10106378
230	0x3d867d47	0.065668635
231	0x3a24276f	0.00062619796
232	0xbd0d1e88	-0.034452945
233	0xbde67a7e	-0.11253832
234	0xbc3dc62e	-0.011582894
235	0x3d3a9454	0.045551613
236	0xbb92317d	-0.004461466
237	0xbb16b171	-0.0022993947
238	0x3dbfa3a2	0.09357382
239	0xbc3d8d48	-0.011569329
240	0xbcd45fde	-0.02592462
241	0x3cde7096	0.027153295
242	0x3d85c25f	0.06531214
243	0x3d38c4c0	0.04510951
244	0xbc472f27	-0.012157238
245	0x3c633a10	0.013868824
246	0xbbb0a4c6	-0.0053907363
247	0x3cc947ba	0.024570335
248	0x3cf277d3	0.029598152
249	0xbd435506	-0.047688507
250	0xba4a5ec3	-0.0007719809
251	0x3c44a624	0.012002502
252	0xbd69408a	-0.056946315
253	0x3d0603cc	0.032718465
254	0xbcb5648b	-0.02214267
255	0x3b1c6c26	0.0023868172

layer1.1.conv1.bias f4 [32]
0	0xb5f6e270	-1.839433e-06
1	0xb7a928b0	-2.0165317e-05
2	0x3723d694	9.7655175e-06
3	0x36e061ba	6.687097e-06
4	0x37324ecf	1.0627976e-05
5	0xb717c40d	-9.045948e-06
6	0xb69cac7e	-4.669243e-06
7	0xb7d25136	-2.5071768e-05
8	0x38c445a2	9.3589784e-05
9	0x3739533c	1.1046239e-05
10	0xb7b0bac1	-2.1067799e-05
11	0xb76c2583	-1.407543e-05
12	0xb712ec26	-8.757261e-06
13	0xb7c54a24	-2.3518754e-05
14	0xb6e6da6e	-6.8799627e-06
15	0xb7aed71c	-2.0842584e-05
16	0xb718d355	-9.109111e-06
17	0xb5a421c0	-1.2228775e-06
18	0x3765c658	1.3695644e-05
19	0xb7873b0a	-1.6120746e-05
20	0xb7ae82b4	-2.080328e-05
21	0x370f0b6e	8.526125e-06
22	0x38602a9b	5.344544e-05
23	0x37802149	1.5274289e-05
24	0x35851d15	9.917736e-07
25	0xb7ce3f72	-2.4586658e-05
26	0x359fbda0	1.1901611e-06
27	0x36f8c416	7.4138034e-06
28	0xb6e9d6cb	-6.9689463e-06
29	0x37db4492	2.6138765e-05
30	0x374c8b5e	1.21917965e-05
31	0x3750003d	1.2397822e-05

layer1.1.bn1.weight f4 [32]
0	0x3e34609a	0.17614976
1	0x3ed2a78e	0.4114346
2	0x3e7c88c0	0.24661541
3	0x3ee15073	0.4400669
4	0x3ee52842	0.44757277
5	0x3f0a6777	0.54064125
6	0x3e798e2b	0.24370639
7	0x3eb17532	0.34659725
8	0x3da8348d	0.08213148
9	0x3e2a87e5	0.16653402
10	0x3ef01cb9	0.46896914
11	0x3ef9698a	0.48713332
12	0x3ec18c94	0.37802565
13	0x3ee64adf	0.44978997
14	0x3eefd2e8	0.46840596
15	0x3e8e24d8	0.27762485
16	0x3ea6d859	0.32586935
17	0x3ed77510	0.420815
18	0x3ea4cb3e	0.3218631
19	0x3ed91804	0.42401135
20	0x3e96efe2	0.2947989
21	0x3ea7260e	0.3264622
22	0x3ecaf1de	0.39637655
23	0x3e686636	0.2269524
24	0x3ea813d4	0.32827628
25	0x3efc8d00	0.49326324
26	0x3e533962	0.20627359
27	0x3ec5498e	0.3853268
28	0x3ef73314	0.48281157
29	0x3eb8a45d	0.360629
30	0x3e9d5418	0.3072822
31	0x3eaf4b43	0.34237108

layer1.1.bn1.bias f4 [32]
0	0xbead0e1c	-0.33799827
1	0xbe167f9d	-0.14697118
2	0x3eb788b0	0.35846472
3	0xbecac040	-0.395998
4	0xbddf1783	-0.108931564
5	0xbe9bc95c	-0.30427063
6	0xbeac0ad8	-0.33602023
7	0xbe79117b	-0.24323075
8	0x3ef7e4c0	0.4841671
9	0xbe27bf8f	-0.16381668
10	0xbe1320b3	-0.14367943
11	0xbeaf1189	-0.34193066
12	0xbe1c3a31	-0.15256573
13	0xbd705ad5	-0.058680374
14	0xbedc8a6c	-0.43074358
15	0xbd958b5d	-0.07301972
16	0xbe2bf3ec	-0.16792268
17	0x3f07838d	0.52935106
18	0xbea0399c	-0.31293952
19	0xbe9a06d2	-0.30083328
20	0xbdc10e65	-0.09426574
21	0xbe8783fe	-0.2646789
22	0xbe489f09	-0.19591917
23	0x3ecc835b	0.39943966
24	0xbe66fbfc	-0.22557062
25	0xbe862c6e	-0.26205772
26	0xbda449dc	-0.080219
27	0xbe0bb140	-0.13641834
28	0xbe75b56d	-0.2399499
29	0xbe1d6828	-0.15371764
30	0x3cabd940	0.020977616
31	0xbeaeb94e	-0.3412575

layer1.1.bn1.running_mean f4 [32]
0	0xbaca1e73	-0.0015420452
1	0x3e3b66f1	0.18300988
2	0xbdaf3ee0	-0.08556914
3	0x3dd6bef1	0.10485638
4	0xbd0704a2	-0.032963403
5	0x3d2f5bfc	0.042812333
6	0x3d99b9f1	0.07506169
7	0x3bd8d1ac	0.0066167917
8	0xbc8fd1ab	-0.017556032
9	0x3b40b778	0.002940623
10	0x3d2680d3	0.0406502
11	0xbc7cde86	-0.015433913
12	0xbdb10e23	-0.086452745
13	0xbd8703f3	-0.0659255
14	0x3d1b1d0d	0.0378695
15	0x3cee74a9	0.029108362
16	0x3db975eb	0.09055694
17	0xbe0dcfa5	-0.13848741
18	0x3d06bb0b	0.03289322
19	0xbc95cfa4	-0.018287487
20	0xbc1fd12b	-0.009754459
21	0x3cf19803	0.02949143
22	0xbd1b67d0	-0.0379408
23	0xbc233cb3	-0.009963202
24	0xbd4945b9	-0.04913876
25	0xbb8f3fbc	-0.0043716114
26	0x3de52924	0.111894876
27	0xbcff9eed	-0.031203711
28	0xbdbeeda7	-0.09322672
29	0x3d2f7246	0.04283359
30	0x3c2318e3	0.009954664
31	0xbcbafedf	-0.02282661
