log/sem_seg/SatVideoIRSDT__2025-07-22_19-41__SoftLoUloss_DeepPro-Plus_DataL40/checkpoints/epoch_10_model.pth (torch, 941507 bytes, 213 tensors)

conv_in.0.weight f4 [8, 1, 5, 7, 7]
0	0xbd8a1823	-0.06742885
1	0xbcc923f9	-0.024553286
2	0x3d28b6fb	0.04119013
3	0x3e0cb290	0.13739991
4	0x3dd4a68d	0.103833295
5	0xbc22a44f	-0.0099268695
6	0xbdbbc404	-0.091682464
7	0x3b6c1f83	0.0036029525
8	0x3cce28d9	0.025165962
9	0x3d47539c	0.04866372
10	0x3e14c32b	0.14527576
11	0x3dd13bd1	0.10216487
12	0x3cc214db	0.023691585
13	0xbd0b8cf2	-0.034069963
14	0xbb994874	-0.0046778265
15	0x3c7b404c	0.015335154
16	0x3d09dfa6	0.033660553
17	0x3d87154d	0.0659586
18	0x3d7470ba	0.059677817
19	0x3be073fe	0.006849765
20	0xbd1f17be	-0.038841
21	0xbcf91ecc	-0.030410193
22	0xbd0e56b8	-0.03475067
23	0xbadaccec	-0.0016693152
24	0xbcbda166	-0.02314825
25	0xbc0cae96	-0.008586546
26	0xbc12b058	-0.008953176
27	0x3c9f1435	0.019418815
28	0xbcd672c2	-0.026177768
29	0xbd07a4b6	-0.033116065
30	0xbd5a4f2a	-0.053298153
31	0x3ce4ede2	0.027945463
32	0xbc6b1749	-0.014348813
33	0xbd4daf95	-0.050216276
34	0xbcd5c23d	-0.026093597
35	0x3d89400d	0.0670167
36	0x3db0fb81	0.086417206
37	0x3d78d432	0.06074924
38	0x3deec480	0.11658573
39	0x3d793fc5	0.06085183
40	0xbc6a9430	-0.014317557
41	0xbc366cde	-0.011134354
42	0x3cb4b80c	0.022060417
43	0x3da31cbe	0.079644665
44	0x3dc674eb	0.09690269
45	0x3dcd6a41	0.10030032
46	0x3d5bdc7c	0.053677067
47	0x3bdc9578	0.0067316853
48	0x3c50db8d	0.0127476575
49	0xbd8f7180	-0.0700407
50	0xbd81665d	-0.06318352
51	0xbd958290	-0.073002934
52	0xbd4e66b6	-0.05039092
53	0xbd401618	-0.04689607
54	0xbbc14df9	-0.0058991876
55	0xbc9e1e16	-0.019301455
56	0xbd4b489a	-0.049629785
57	0x3c8e21e0	0.017350137
58	0x3d972cad	0.07381568
59	0x3e1af846	0.15133771
60	0x3e05e4de	0.13075587
61	0x3dd40546	0.10352568
62	0x3d3d8129	0.046265755
63	0xbcd9234f	-0.026506094
64	0x3bf55526	0.007486957
65	0x3d200156	0.039063774
66	0x3e5bda84	0.21470076
67	0x3e35c45b	0.17750685
68	0x3dd1ae5b	0.10238334
69	0x3c1d410e	0.00959803
70	0x3ce611cb	0.028084656
71	0x3c496ba1	0.012293727
72	0xbd53ca0d	-0.051706363
73	0x3ca4d8c8	0.0201229
74	0x3d814e26	0.06313734
75	0x3dc626bf	0.09675359
76	0xbaffbc76	-0.0019511122
77	0x3b84ad3e	0.0040489724
78	0xbc38c5bf	-0.011277615
79	0xbd80577c	-0.06266686
80	0x3bcb64b7	0.0062070745
81	0xbd457390	-0.048205912
82	0xbb98c3c5	-0.0046620094
83	0xbd829746	-0.06376509
84	0xbc37e5d4	-0.011224229
85	0x3d361afb	0.044459324
86	0x3c4486ce	0.011995031
87	0x3d27f62e	0.04100626
88	0x3cd1da9c	0.025616936
89	0x3c9425e2	0.01808447
90	0xbccd2c9f	-0.025045691
91	0xbd83058b	-0.063975416
92	0xbd022b87	-0.031779792
93	0xbc98d61f	-0.018656788
94	0xbc24a13c	-0.010048207
95	0xbb6ecefd	-0.0036439293
96	0x3c87ed10	0.016592532
97	0xbc97cca8	-0.018530205
98	0x3dc78562	0.09742238
99	0x3da9b86b	0.08287128
100	0x3d25dd38	0.040494174
101	0xbc77b032	-0.015117692
102	0xbc91fdc0	-0.017821193
103	0x3d2b2801	0.041786198
104	0x3cd0edb6	0.025503974
105	0x3db79cb5	0.08965436
106	0x3d54a8e3	0.051918875
107	0x3c97e4d3	0.01854173
108	0x3d7bd0e4	0.06147851
109	0x3cec0303	0.02881003
110	0x3cfa1095	0.030525485
111	0xbbf70903	-0.007538916
112	0x3db01db6	0.08599417
113	0x3c923696	0.017848294
114	0x3c2b6aba	0.010462457
115	0x3d987424	0.07444027
116	0x3cd00415	0.025392571
117	0x3cb65590	0.022257596
118	0x3af75f9d	0.00188731
119	0x3deb2c06	0.11483006
120	0x3d3006f2	0.042975374
121	0x3c7d6175	0.01546513
122	0xbb686b65	-0.0035464403
123	0x3c1d0436	0.0095835235
124	0x3db33ea0	0.08752179
125	0x3c3568c3	0.01107234
126	0x3d3e2795	0.046424467
127	0xbcf24170	-0.029572219
128	0xbdcaf434	-0.09909859
129	0xbd28ecb0	-0.041241348
130	0xbdba224e	-0.09088574
131	0xbc9d4b48	-0.019200936
132	0xbd8ea70c	-0.069654554
133	0x3d75e490	0.060032427
134	0x3acf9f68	0.0015840353
135	0xbd8c17b1	-0.06840456
136	0xbd06be95	-0.032896597
137	0xbd15d7ec	-0.036582872
138	0xbcfa2c0a	-0.030538578
139	0xbda10478	-0.078621805
140	0x3d9608c5	0.073258914
141	0x3d23f65c	0.04002987
142	0xbcb58f7a	-0.022163142
143	0xbc9408a7	-0.018070532
144	0xbc920350	-0.017823845
145	0xbc81d26d	-0.01584741
146	0xbd923d16	-0.071405575
147	0x3e2231b0	0.15839267
148	0x3dc3856f	0.09546935
149	0x3db0096b	0.08595546
150	0x3df1a8c8	0.117997706
151	0x3e1309c2	0.14359191
152	0x3e4a9a4f	0.19785427
153	0x3e521247	0.20514785
154	0x3e6915a7	0.22762166
155	0x3d82489c	0.063615054
156	0x3e1e28df	0.15445279
157	0x3e33578c	0.17513865
158	0x3df34f05	0.11880306
159	0x3defebd9	0.11714906
160	0x3dd552e6	0.10416202
161	0x3e619932	0.22031096
162	0x3e29606e	0.16540691
163	0x3e9b9ac3	0.3039151
164	0x3e29757c	0.16548723
165	0x3e450508	0.192402
166	0x3e23b816	0.15988192
167	0x3dc23dde	0.094844565
168	0x3e4baf7d	0.19891162
169	0x3e8c9449	0.27456883
170	0x3ebe4107	0.37158987
171	0x3ce553b2	0.02799401
172	0x3e3cb6fd	0.1842918
173	0x3e7b6972	0.24551943
174	0x3e30f2ed	0.17280169
175	0x3dd23f53	0.102659844
176	0x3e0b4922	0.13602117
177	0x3e5c324a	0.21503559
178	0x3e02ceb7	0.12774168
179	0x3e33e484	0.1756764
180	0x3e083603	0.13301854
181	0x3da63ab4	0.081166655
182	0x3e0c11ed	0.13678713
183	0x3d8b6f79	0.06808371
184	0x3e122052	0.14270142
185	0x3e30e001	0.1727295
186	0x3e265a18	0.16245306
187	0x3d6c941e	0.057758443
188	0x3d77df36	0.060515605
189	0x3e67c392	0.22633198
190	0x3e1a31f5	0.1505812
191	0x3daa3980	0.083117485
192	0x3da0e217	0.07855623
193	0x3dbd7077	0.092499666
194	0x3da42da7	0.0801652
195	0x3e03cbc3	0.12870698
196	0xbc501a77	-0.012701622
197	0x3d2e4fe6	0.042556666
198	0xbcc3234d	-0.023820544
199	0xbd5bcc4a	-0.053661622
200	0xbd98f7fb	-0.074691735
201	0xbd09b240	-0.033617258
202	0xbc3a53a9	-0.011372485
203	0x3d0e0a52	0.03467781
204	0x3d41552a	0.04720036
205	0xbcb08526	-0.021547865
206	0xbd4f1f2a	-0.05056683
207	0xbdbeb1b6	-0.093112394
208	0xbd67bd9a	-0.056577303
209	0xbc6ef3c2	-0.014584484
210	0x3d95e4f4	0.0731906
211	0xbb6ee229	-0.003645072
212	0xbce9a8af	-0.028522817
213	0xbc957d78	-0.018248305
214	0xbd248a88	-0.040171176
215	0xbd574d2d	-0.052563835
216	0xbb73f517	-0.0037224942
217	0x3e07f7c0	0.13278103
218	0x3d04fd0d	0.03246789
219	0x3cbd67ea	0.02312084
220	0x3ce1f608	0.027583137
221	0x3d54bc9a	0.051937677
222	0x3cf39f07	0.029738916
223	0x3d25c0c6	0.040467046
224	0x3db9e163	0.09076192
225	0x3be7e097	0.0070763337
226	0x3b5830f5	0.0032988165
227	0x3da86df8	0.082241
228	0x3d8f410d	0.06994829
229	0x3bc2db49	0.005946551
230	0x3ce17969	0.027523713
231	0x3d46c52a	0.048527874
232	0x3ac112e4	0.0014730361
233	0xbcd4f33a	-0.025994886
234	0xbbd9acb9	-0.0066429046
235	0x3c78ac7c	0.015177842
236	0xbbd4e86e	-0.0064974343
237	0x3d8489ab	0.064715706
238	0x3cf4df2c	0.029891573
239	0xbca7bc87	-0.020475639
240	0xbda96745	-0.0827165
241	0xbd91aafd	-0.071126916
242	0x3b2c26e8	0.0026268307
243	0x3d3e44a0	0.046452165
244	0x3dacc501	0.08436013
245	0x3d0749b2	0.033029266
246	0x3d3039b4	0.04302378
247	0x3cdae4c1	0.026720406
248	0xbd238d7e	-0.03992986
249	0x3c57795c	0.013151493
250	0x3d570e65	0.052503962
251	0x3d095375	0.033526856
252	0x3d9a91c6	0.07547335
253	0x3d9da192	0.07696833
254	0x3d90d5f5	0.07072059
255	0x3d96c43c	0.073616475

conv_in.0.bias f4 [8]
0	0x381bd802	3.7156053e-05
1	0xb5d671d8	-1.5977375e-06
2	0x379ecfaf	1.8931778e-05
3	0x37c33bb8	2.327362e-05
4	0xb7e2c800	-2.7034432e-05
5	0x38a11096	7.6801676e-05
6	0xb78c9384	-1.6757993e-05
7	0xb60ad030	-2.0684784e-06

conv_in.1.weight f4 [8]
0	0x3f2e38a4	0.68055177
1	0x3f599751	0.84996516
2	0x3f072733	0.5279419
3	0x3f04a054	0.5180714
4	0x3f31b409	0.69415337
5	0x3f299a82	0.66251385
6	0x3f4c6e96	0.7985624
7	0x3f1f0545	0.62117416

conv_in.1.bias f4 [8]
0	0x3e1fd737	0.15609442
1	0x3d3ee711	0.04660708
2	0x3bb9ebd9	0.005673867
3	0xbd58cb54	-0.052928284
4	0xbc5b658c	-0.01339091
5	0xbbd198e5	-0.0063964003
6	0xbe08e2b1	-0.13367726
7	0xbcb95fa0	-0.022628605

conv_in.1.running_mean f4 [8]
0	0xbe1d7f90	-0.15380692
1	0xbd4da1e2	-0.05020321
2	0x3f4e5dda	0.80611956
3	0x3e31162f	0.17293619
4	0x3a83b503	0.0010048453
5	0x3d190273	0.03735585
6	0x3c98bf5c	0.018645935
7	0xbe230e83	-0.15923505

conv_in.1.running_var f4 [8]
0	0x4193b577	18.463606
1	0x41a390c3	20.445684
2	0x416b3c2d	14.702191
3	0x4120667a	10.025019
4	0x410e45ed	8.892072
5	0x41714f13	15.081805
6	0x40699593	3.6497543
7	0x4198e552	19.111973

layer1.0.conv1.weight f4 [16, 8, 3, 3, 3]
0	0x3d47ba02	0.048761375
1	0x3d1b6254	0.03793557
2	0x3e18e298	0.14930189
3	0xbb58f3b8	-0.0033104252
4	0xbdac9080	-0.08425999
5	0xbe0a8c14	-0.13529998
6	0x3dc82d9b	0.097743236
7	0x3d0defce	0.034652524
8	0x3da40307	0.0800839
9	0xbd1a1f2e	-0.03762739
10	0x3c64c147	0.013962097
11	0xbd00d156	-0.03144964
12	0xbc398fbd	-0.011325774
13	0xbd2018be	-0.039086096
14	0x3d2aa72e	0.04166334
15	0x3c3a2ad9	0.011362755
16	0x3d5d4e7a	0.05402992
17	0xbc53a470	-0.012917623
18	0xbc9c84ce	-0.019106295
19	0xbd47b9fa	-0.048761345
20	0xbddcd773	-0.10783281
21	0x3d0d8257	0.03454813
22	0x3e164225	0.1467367
23	0x3d9ec1e4	0.077518255
24	0xbe1a745a	-0.15083447
25	0xbde8637d	-0.11347101
26	0xbd6ad43a	-0.0573313
27	0xbd771757	-0.060324993
28	0xbda0fa31	-0.0786022
29	0x3e70cc91	0.23515536
30	0x3ce38e11	0.027777703
31	0xbda9fa01	-0.082996376
32	0xbe0992ef	-0.13434957
33	0x3dcc5ca9	0.09978611
34	0x3d1ac6df	0.037787315
35	0x3ddb0a28	0.106952965
36	0x3d411bec	0.04714577
37	0x3dd82cf7	0.10555451
38	0x3d292e6a	0.04130403
39	0x3cd8cb39	0.026464092
40	0xbd10f4fe	-0.035389893
41	0x3c337cc3	0.0109550385
42	0x3c865a83	0.016400581
43	0xba80d6a5	-0.0009829594
44	0x3c0051ec	0.007832032
45	0x3cbd0237	0.023072345
46	0xbd15deb6	-0.036589347
47	0xbe7bbcc4	-0.24583727
48	0xbd3a4719	-0.04547796
49	0x3df5120c	0.11966333
50	0x3e0ff5a0	0.14058542
51	0xbddc48dc	-0.10756084
52	0xbcfcbdf0	-0.030852288
53	0xbe007711	-0.1254542
54	0x3c8cc1c3	0.017182237
55	0x3cd6ccee	0.026220765
56	0x3c8be40a	0.017076511
57	0xbd9e3ed7	-0.077268295
58	0xbda0ab31	-0.07845152
59	0xbcb93de7	-0.022612525
60	0x3c4f2a30	0.012644336
61	0x3cf3440f	0.029695539
62	0x3d457bf6	0.04821392
63	0xbd1c098b	-0.03809504
64	0xbd2c29c1	-0.042032007
65	0x3c5d0ae7	0.013491369
66	0x3be80a1e	0.007081284
67	0xbd35a875	-0.044350106
68	0x3d75fa58	0.0600532
69	0xbc24fecb	-0.010070513
70	0xbd992770	-0.07478225
71	0xbd0e30b3	-0.034714412
72	0x3d14fa16	0.036371313
73	0x3d465561	0.048421267
74	0xbd1a40dd	-0.037659515
75	0x3d94e2ab	0.07269796
76	0x3e0f54b5	0.13997157
77	0xbd884385	-0.06653503
78	0x3c4a577c	0.012349959
79	0x3d9190fd	0.071077324
80	0xbd05ef32	-0.032698818
81	0xbccbfeff	-0.024901865
82	0x3d029f35	0.031890113
83	0x3d88290b	0.06648453
84	0xbc96de4b	-0.018416544
85	0x3d501a00	0.050806046
86	0x3ceb51fc	0.028725617
87	0x3d0850eb	0.033280294
88	0xbad314af	-0.0016104187
89	0xbd03d803	-0.032188427
90	0xbc29ea84	-0.010370854
91	0xbd3e5fcd	-0.04647808
92	0xbd3d2799	-0.04618034
93	0xbc0b4e7e	-0.008502601
94	0xbd82f652	-0.06394638
95	0xbd086a53	-0.033304524
96	0xbd11d7a5	-0.035606045
97	0xbbd9d241	-0.0066473787
98	0x3c1109ac	0.008852404
99	0x3cf9220d	0.030411744
100	0x3b820d78	0.0039688908
101	0xbc08c183	-0.008346918
102	0x3cdd9fa9	0.027053671
103	0x3b1e3fce	0.0024146917
104	0x3c8d30cd	0.017235184
105	0x39af11d5	0.00033391887
106	0x3b185d66	0.002324903
107	0x3c8ca801	0.017169954
108	0x3d4be827	0.049781945
109	0x3d8737eb	0.066024624
110	0x3c814fd8	0.015785143
111	0x3db6e1d6	0.089297935
112	0x3da50562	0.08057667
113	0xbd237200	-0.03990364
114	0xbda61830	-0.08110082
115	0xbdda194b	-0.106493555
116	0xbd8bc888	-0.06825358
117	0xbd678380	-0.056521893
118	0xbd0945dd	-0.033513892
119	0xbaa490d5	-0.001255537
120	0xbe199d92	-0.15001515
121	0xbdc48f80	-0.09597683
122	0x3c427f1e	0.011871127
123	0x3d16f865	0.03685798
124	0x3d7d9f89	0.061919723
125	0x3d991c99	0.07476158
126	0x3cdaf45a	0.026727844
127	0x3af3e450	0.0018607471
128	0xbbabfb2d	-0.0052484483
129	0x3dfbfac2	0.12303688
130	0x3d8f53e9	0.069984265
131	0x3ce85d3d	0.028364772
132	0x3d3561c2	0.044282682
133	0x3c97e1fc	0.018540375
134	0xbd3a995b	-0.045556407
135	0xba996742	-0.0011703747
136	0x3d4061f5	0.04696842
137	0x3d35e6ff	0.04440975
138	0xbd844df7	-0.06460183
139	0x3d7e82dd	0.06213652
140	0xbd09802f	-0.03356951
141	0xbc6914f1	-0.014226184
142	0x3d7e386c	0.062065527
143	0x3abae081	0.0014257581
144	0xbd8b2bc6	-0.067954585
145	0xbd8a3770	-0.06748855
146	0x3b2f5985	0.0026756239
147	0xbd4fb15c	-0.050706252
148	0xbd82caa8	-0.0638631
149	0x3dfaa15d	0.12237809
150	0x3b2b659d	0.0026153096
151	0x3d1410af	0.036148723
152	0x3deca7c2	0.11555435
153	0x3da89b8c	0.08232793
154	0x3d34c357	0.044131603
155	0xbd6f32ac	-0.058397934
156	0x3e17b3cb	0.1481468
157	0x3d3a74f8	0.045521706
158	0xbe10efa0	-0.1415391
159	0xbc59ce47	-0.013293809
160	0xbe030526	-0.12794933
161	0xbe2cae08	-0.16863263
162	0xbc5cf798	-0.013486765
163	0xbabdb249	-0.0014472689
164	0x3df21a2b	0.118213974
165	0x3dd67bef	0.10472857
166	0xbd91ce25	-0.07119397
167	0xbe3c986b	-0.18417518
168	0x3c9fff89	0.019531028
169	0xbd0bc8aa	-0.034126915
170	0x3d66a440	0.056308985
171	0x3d312168	0.04324475
172	0x3ded0b95	0.11574475
173	0x3d661ee2	0.056181796
174	0xbde4196e	-0.11137663
175	0xbe6fd52a	-0.2342116
176	0xbd4744ee	-0.04864972
177	0x3e0818ce	0.13290712
178	0x3dedae85	0.116055526
179	0x3d651436	0.055927478
180	0xbd56d371	-0.05244774
181	0xbe38f55b	-0.18062346
182	0xbe244c58	-0.16044748
183	0x3dc57442	0.09641315
184	0x3eca10f5	0.39466062
185	0x3e7b9434	0.24568254
186	0xbe6db1a8	-0.23212302
187	0xbe33097e	-0.1748409
188	0xbe112952	-0.14175919
189	0xbd566f91	-0.05235249
190	0xbd503ac7	-0.050837304
191	0x3d665d51	0.056241337
192	0xbdc3b41d	-0.09555838
193	0x3cb1625d	0.021653349
194	0x3d8ac8c8	0.06776577
195	0xbd854dcf	-0.065089814
196	0xbdea3881	-0.114365585
197	0x3d43135a	0.047625877
198	0xbc9d4242	-0.019196633
199	0x3dcab036	0.09896891
200	0x3c3b3d40	0.011428177
201	0x3d502a42	0.05082155
202	0x3d2b6e14	0.041853026
203	0xbc21931d	-0.009861735
204	0xbc08c437	-0.0083475625
205	0x3d9fb381	0.077979095
206	0xbc43801a	-0.011932397
207	0x3db74421	0.089485414
208	0xbd326337	-0.04355165
209	0xbd79655d	-0.060887683
210	0x3d8046c7	0.062635
211	0xbd9ad0da	-0.075593665
212	0xbd3cb56c	-0.046071455
213	0x3da0b721	0.07847429
214	0xba9d7c70	-0.0012015235
215	0xbd16b4d0	-0.03679353
216	0x3d02740f	0.031848963
217	0x3df28a33	0.11842766
218	0xbd14fe12	-0.036375113
219	0xbe2b1b22	-0.16709569
220	0x3de24d74	0.11049929
221	0x3dbb8397	0.09155958
222	0xbea2d324	-0.31801713
223	0xbcc92e45	-0.024558196
224	0x3d460982	0.04834891
225	0x3d1c7eb0	0.038206756
226	0xbc4d7418	-0.012539886
227	0x3ca5067b	0.020144692
228	0x3de54fd2	0.11196865
229	0xbc3fef54	-0.011714775
230	0xbdc7d327	-0.09757071
231	0x3e32781c	0.1742863
232	0x3da94f17	0.08267038
233	0xbd114e88	-0.035475284
234	0xbdb447f0	-0.088027835
235	0xbdd598b2	-0.10429515
236	0x3b5a2120	0.0033283904
237	0x3c29eea9	0.010371842
238	0xbda02024	-0.0781863
239	0x3cf1405f	0.02944964
240	0x3d1ea016	0.03872689
241	0xbdc06f0d	-0.09396181
242	0xba802366	-0.0009776175
243	0xbdc36615	-0.09540955
244	0x3d48f613	0.0490628
245	0xbe043ada	-0.12913075
246	0xbd81ee8c	-0.06344327
247	0x3d896274	0.067082316
248	0x3d71358d	0.05888896
249	0xbe223764	-0.15841442
250	0x3cb38145	0.021912226
251	0xbccba3e4	-0.024858423
252	0x3dbad05d	0.091217734
253	0x3c556af1	0.013025985
254	0x3da3c7f6	0.07997124
255	0xbda0c37f	-0.07849788

layer1.0.conv1.bias f4 [16]
0	0x391235aa	0.00013943636
1	0x358483d2	9.873131e-07
2	0x388c71d2	6.696921e-05
3	0xb85fd7c2	-5.3368283e-05
4	0x37be69a4	2.2698958e-05
5	0xb82f8e58	-4.185582e-05
6	0xb8546670	-5.064014e-05
7	0x38d9a7d9	0.000103786304
8	0x3894275e	7.064523e-05
9	0x389c950a	7.46642e-05
10	0xb8b77b26	-8.749058e-05
11	0xb8416974	-4.6112997e-05
12	0x37d18562	2.4976853e-05
13	0x386325bb	5.4156157e-05
14	0x390f8a09	0.00013688965
15	0x38348390	4.303787e-05

layer1.0.bn1.weight f4 [16]
0	0x3eff582c	0.49871957
1	0x3f0d92e4	0.5530226
2	0x3f362093	0.71143454
3	0x3f2433fd	0.6414183
4	0x3f1d4463	0.61432475
5	0x3f343cff	0.7040557
6	0x3f1a70fe	0.6032866
7	0x3f07dc3a	0.53070414
8	0x3ef2ec2c	0.4744581
9	0x3f1d8adc	0.6154001
10	0x3f284d8f	0.65743345
11	0x3f0c89e4	0.54897904
12	0x3f098deb	0.53732175
13	0x3f072391	0.52788645
14	0x3f73dcb7	0.9525866
15	0x3f1b2605	0.6060489

layer1.0.bn1.bias f4 [16]
0	0xbd57b785	-0.052665252
1	0xbae71fc6	-0.0017633371
2	0x3d05228c	0.03250365
3	0x3d614c09	0.055004153
4	0xbcbaf5f3	-0.022822356
5	0x3d25b233	0.040453147
6	0x3cd11b43	0.025525695
7	0xbca24524	-0.01980836
8	0xbd983eb4	-0.07433835
9	0xbd604b24	-0.05475916
10	0x3e0e3cd1	0.13890387
11	0xbdfe886c	-0.12428364
12	0xbd826fb1	-0.0636896
13	0xbc8a3f39	-0.01687585
14	0xbd888a2e	-0.06666981
15	0xbd58372e	-0.052787

layer1.0.bn1.running_mean f4 [16]
0	0x3b6d7824	0.003623494
1	0x3c0ecbc4	0.008715574
2	0x3d1eb98d	0.038751174
3	0xba34278a	-0.0006872347
4	0x3bcc7376	0.00623935
5	0xbd118a8d	-0.035532523
6	0x3d27539a	0.040851213
7	0x3b22c779	0.0024838133
8	0x3c96ea79	0.018422352
9	0x3cf2b1d1	0.029625805
10	0xb99ca581	-0.0002987795
11	0x3baa44f4	0.005196208
12	0x3d046bbb	0.032329302
13	0x3d24dd63	0.040250193
14	0xbd7f6419	-0.06235132
15	0x3c8f196e	0.01746818

layer1.0.bn1.running_var f4 [16]
0	0x3e71ec8c	0.23625392
1	0x3e8328d0	0.25617075
2	0x3f506061	0.8139706
3	0x3f624dfb	0.8840024
4	0x3eecc16b	0.46241316
5	0x3f186de9	0.5954271
6	0x3ecbbd75	0.39792982
7	0x3f070000	0.52734375
8	0x3eaf3865	0.34222713
9	0x3eda197a	0.42597562
10	0x3f0c8b27	0.5489983
11	0x3e81cda4	0.25352204
12	0x3eaf7aa7	0.34273264
13	0x3ee3fb05	0.4452745
14	0x3f5b7bb3	0.85735625
15	0x3eae5c74	0.3405491

layer1.0.conv2.weight f4 [16, 16, 3, 3, 3]
0	0x3dd9174c	0.10600147
1	0x3db686b0	0.08912408
2	0xbda56040	-0.08074999
3	0x3dbeae23	0.09310558
4	0xbda6a16f	-0.0813626
5	0xbe02e591	-0.12782885
6	0x3d73804b	0.05944852
7	0x3d53033c	0.051516756
8	0x3d3b96ab	0.045797985
9	0x3d756571	0.059911195
10	0x3d4bd873	0.04976697
11	0xbd7ff98b	-0.062493842
12	0x3b74fdca	0.0037382715
13	0xbdd5fba0	-0.10448384
14	0xbe091f13	-0.1339076
15	0xbce4a6b6	-0.027911525
16	0x3d93f375	0.0722417
17	0x3d6b466b	0.057440203
18	0x3d9c1dec	0.07622895
19	0x3d301c6a	0.042995848
20	0xbb87490e	-0.004128582
21	0x3d810769	0.063002415
22	0xbde3ab59	-0.11116666
23	0xbd06bc8b	-0.032894652
24	0x3cba9cd4	0.02277986
25	0xbc355e21	-0.011069805
26	0x3d5f1c42	0.054470308
27	0x3d5b1e5b	0.053495746
28	0xbdb868c5	-0.09004358
29	0x3a9fff55	0.0012206832
30	0xbd354334	-0.044253543
31	0xbe2f3108	-0.17108548
32	0xbd4ac6a7	-0.049505856
33	0xbd3459ac	-0.04403083
34	0xbd9f4804	-0.07777408
35	0x3d037f07	0.032103565
36	0x3d8e522c	0.06949267
37	0x3cfa9fd8	0.030593798
38	0x3cb7a789	0.022418754
39	0x3e1489e9	0.14505734
40	0xbda6cd0d	-0.08144579
41	0xbd0487c5	-0.032356042
42	0xbd4498be	-0.04799723
43	0x3c69705b	0.014247979
44	0x3d8cd372	0.068762675
45	0x3c14a61b	0.009072806
46	0xbd2a2c9c	-0.04154645
47	0xbe010681	-0.12600137
48	0x3dd6febb	0.10497805
49	0xbe1b1ceb	-0.1514775
50	0xbd8dea93	-0.06929507
51	0xbd9ee681	-0.07758809
52	0x3d8ff89a	0.07029839
53	0x3af224ac	0.0018474064
54	0x3cae2f4d	0.02126279
55	0x3d37e385	0.044894714
56	0x3e19ed05	0.15031822
57	0x3d3ce9fb	0.04612158
58	0xbd9c7be4	-0.07640818
59	0x3d165f36	0.036711894
60	0x3bbacdec	0.0057008173
61	0x3daade8d	0.083432294
62	0xbcdad321	-0.026712002
63	0xbb269944	-0.0025420943
64	0xbb6a8b8f	-0.003578875
65	0xbd5b2f1b	-0.05351172
66	0xbd1282f1	-0.035769407
67	0xbdf99ae7	-0.121877484
68	0xbbea2235	-0.007145191
69	0xbbb09f9d	-0.005390121
70	0xbcb81f09	-0.022475736
71	0xbd588df3	-0.05286975
72	0x3c941567	0.018076612
73	0x3dc7ff32	0.097654715
74	0xbe0be44f	-0.13661312
75	0x3d5fc84c	0.054634377
76	0xbe355fe4	-0.1771236
77	0x3ca6d34c	0.020364426
78	0xbcb3b9e4	-0.021939225
79	0xbdb85f13	-0.09002509
80	0xbd00ec70	-0.031475484
81	0x3d991398	0.0747444
82	0x3d7164e0	0.058934093
83	0xbcd9816e	-0.026550975
84	0x3cb17187	0.02166058
85	0xb99aee71	-0.00029550822
86	0x3e2da4a3	0.16957335
87	0x3d7c3db4	0.061582282
88	0x3a28e5c4	0.0006442929
89	0x3da9c0c4	0.0828872
90	0xbd24d0fa	-0.040238358
91	0xbd428da4	-0.04749836
92	0xbdff4742	-0.12464763
93	0xbc7db88d	-0.015485895
94	0xbdcc109a	-0.09964104
95	0x3dc6fb8f	0.0971595
96	0xbd5ace36	-0.053419314
97	0xbca25d80	-0.019819975
98	0xbdcabc79	-0.098992296
99	0xbc7d376b	-0.015455107
100	0xbd5fd107	-0.054642703
101	0xbda96b5c	-0.0827243
102	0x3d15251b	0.03641234
103	0xbe0ce8a7	-0.13760625
104	0xbe041dbd	-0.12901969
105	0xbd5ec63d	-0.054388274
106	0x3dfcd496	0.12345235
107	0xbe3f3c67	-0.18675385
108	0xbcf569fc	-0.029957764
109	0x3da84f43	0.08218243
110	0xbe43d87d	-0.19125552
111	0xbcef5fab	-0.029220423
112	0xbe376470	-0.17909408
113	0x3c4bf9a4	0.012449656
114	0xbd8981cb	-0.06714209
115	0xbd25e66f	-0.04050296
116	0xbd876f17	-0.066129856
117	0xbcb3742b	-0.02190598
118	0xbbf7df72	-0.0075644786
119	0xbc81b4fb	-0.015833369
120	0xbcade42c	-0.021226965
121	0xbdc28eb8	-0.09499878
122	0x3d320ee6	0.04347124
123	0xbd60b399	-0.054858778
124	0xbc982b14	-0.018575229
125	0xbd9278ba	-0.07151933
126	0x3dbccfbf	0.09219312
127	0xbce89f62	-0.028396312
128	0x3d4e7b6b	0.05041067
129	0x3d894ee3	0.067044996
130	0xbd87d598	-0.06632537
131	0x3cb2a851	0.021808775
132	0x3cbfa4a6	0.02339394
133	0x3cb71b07	0.022351755
134	0xbd6909f2	-0.05689425
135	0x3c863367	0.016381932
136	0x3db4e2d5	0.08832327
137	0x3c363f9f	0.011123567
138	0x3da6502c	0.0812076
139	0xbda5edab	-0.08101972
140	0xbe662013	-0.22473173
141	0x3ce74341	0.028230311
142	0x3cc441e9	0.02395721
143	0xbe2329d7	-0.1593393
144	0xbb948e98	-0.0045336
145	0x3d4b4048	0.04962185
146	0xbc548e70	-0.012973413
147	0xbc701a7c	-0.014654752
148	0xbde1a6db	-0.11018153
149	0x3d1fbfe6	0.039001368
150	0x3afff893	0.0019529037
151	0x3d8140f0	0.06311214
152	0x3d9384e3	0.072030805
153	0xbcfb98b2	-0.03071246
154	0xbdc6f6af	-0.0971502
155	0xbe1ed881	-0.15512277
156	0xbd5d7965	-0.05407085
157	0xbe6a1829	-0.22860779
158	0x3e1abdef	0.15111516
159	0xbdb3eb53	-0.08785119
160	0x3b8ce80f	0.0043001245
161	0x3e3bd62e	0.18343422
162	0x3d458a03	0.04822732
163	0xbcbf27ed	-0.023334468
164	0xbe00060f	-0.12502311
165	0x3d1c6e93	0.03819139
166	0xbe2b5900	-0.1673317
167	0xbd86ad2b	-0.06575998
168	0xbdbac545	-0.091196574
169	0x3d236973	0.039895486
170	0xbd8763f3	-0.06610861
171	0x3c92fad2	0.017941866
172	0xbc82c9c8	-0.015965357
173	0xbdbc3a12	-0.091907635
174	0xbc1f53e1	-0.009724588
175	0xbdeb8a9c	-0.11501047
176	0xbc755e22	-0.014976056
177	0xbce79f7a	-0.028274287
178	0xbab73f20	-0.0013980605
179	0x3c96a4e4	0.018389173
180	0x3cb85299	0.022500323
181	0xbd744a66	-0.059641264
182	0x3d4afc2e	0.049556904
183	0xbd275eeb	-0.040862005
184	0xbe7afb4e	-0.24509928
185	0x3bda0565	0.006653475
186	0xbd873c9a	-0.06603356
187	0xbcac5e2a	-0.021040995
188	0x3cd027ef	0.025409667
189	0x3d7c22f3	0.061556768
190	0xbcc4712f	-0.023979751
191	0xbe1be907	-0.15225612
192	0x3de4f35c	0.111792296
193	0xbdbe8bae	-0.093039855
194	0xbd7050ce	-0.05867081
195	0xbcc982d7	-0.024598522
196	0x3dd018f3	0.10161009
197	0xbceaf9cb	-0.028683564
198	0xbbac3789	-0.0052556437
199	0xbcc70136	-0.02429257
200	0x3c37246b	0.011178116
201	0xbc957116	-0.0182424
202	0xbdfecd17	-0.124414615
203	0x3dec9916	0.11552636
204	0x3caf8275	0.021424511
205	0xbd4a41f2	-0.049379297
206	0xbdd70d62	-0.105005994
207	0x3d26ebf3	0.040752362
208	0xbc93dc62	-0.018049423
209	0xbcbbc818	-0.02292256
210	0x3cf26fa0	0.029594243
211	0xbe3e93bf	-0.18611048
212	0x3d9c2d03	0.07625773
213	0x3b96d733	0.0046032905
214	0xbdf17b14	-0.117910534
215	0xbc524b36	-0.0128353145
216	0x3b2f948f	0.0026791429
217	0x3c71cd78	0.01475846
218	0x3d02ce42	0.031934984
219	0x3da35810	0.07975781
220	0xbe01ffdd	-0.1269526
221	0xbe108070	-0.14111495
222	0xbbbbc2cd	-0.005730009
223	0xbdb0f26b	-0.086399876
224	0xbdfacaad	-0.122456886
225	0x3bdeb1e1	0.006796107
226	0x3c8f8ad9	0.017522262
227	0xbde3b995	-0.11119381
228	0x3dc31ea7	0.09527331
229	0xbd822221	-0.06354166
230	0xbd3477d9	-0.044059608
231	0xbcce288c	-0.025165819
232	0x3d12be94	0.03582628
233	0x3da24dd8	0.07925004
234	0xbae71b91	-0.0017632117
235	0xbd7e933e	-0.06215214
236	0xbe253bbe	-0.16136071
237	0x3da06bf5	0.07833091
238	0xbe07cf94	-0.13262779
239	0x3d8340dc	0.06408855
240	0xbc607655	-0.013700088
241	0x3de256dd	0.11051724
242	0x3dc1bece	0.09460221
243	0xbd1c52bf	-0.03816485
244	0xbd89271e	-0.06696914
245	0x3cd68692	0.026187215
246	0x3b8be0d4	0.004268745
247	0xbe1d158a	-0.15340248
248	0xbd753eee	-0.059874468
249	0x3c6d6a7d	0.014490721
250	0x3d28a943	0.041177046
251	0xbe2d9115	-0.16949876
252	0x3bfcb70a	0.0077122496
253	0x3b9438ce	0.004523373
254	0xbdbd2f7b	-0.09237572
255	0x3c4b4adb	0.012407984

layer1.0.conv2.bias f4 [16]
0	0x3533ae00	6.69359e-07
1	0x38cd7a36	9.797925e-05
2	0xb81e51b8	-3.7746242e-05
3	0x38de616e	0.000106039326
4	0xb7b9aff0	-2.2135646e-05
5	0x373856e0	1.0987482e-05
6	0xb8965fa8	-7.170375e-05
7	0xb91234bf	-0.00013943294
8	0xb7b4dc46	-2.1560245e-05
9	0x37a85cf7	2.007045e-05
10	0x37dcd0fa	2.6323356e-05
11	0xb6da45c4	-6.505028e-06
12	0xb83c7dcb	-4.4939847e-05
13	0x36c3c700	5.8346195e-06
14	0x37c615f2	2.3613658e-05
15	0x388f9654	6.846772e-05

layer1.0.bn2.weight f4 [16]
0	0x3f29ac23	0.66278285
1	0x3f0548f9	0.5206447
2	0x3f273375	0.6531289
3	0x3effc6e2	0.49956423
4	0x3edb9a5a	0.42891198
5	0x3f0ac5ff	0.5420837
6	0x3f211c27	0.6293358
7	0x3f3291a9	0.6975351
8	0x3f27c7b8	0.6553912
9	0x3efb03c0	0.490263
10	0x3f186fe7	0.5954575
11	0x3eb9914f	0.36243674
12	0x3f021382	0.50811017
13	0x3f395e9e	0.7241
14	0x3f15898a	0.5841299
15	0x3f161298	0.5862212

layer1.0.bn2.bias f4 [16]
0	0xbde2712a	-0.110567406
1	0xbc615c85	-0.0137549685
2	0xbe391ab7	-0.18076597
3	0x3db825c2	0.08991577
4	0x3eb5d5cf	0.35514686
5	0xbe16ca6d	-0.14725657
6	0xbe44eb49	-0.19230379
7	0xbe19b9cf	-0.15012287
8	0xbe479f82	-0.19494441
9	0xbe8a2b5d	-0.2698621
10	0xbe2a9c4c	-0.16661185
11	0xbe1057f7	-0.14096056
12	0x3e2d13cf	0.16902088
13	0xbdd4c604	-0.10389331
14	0xbe0686de	-0.13137385
15	0x3c938b30	0.018010706

layer1.0.bn2.running_mean f4 [16]
0	0xbf8b9426	-1.0904586
1	0xbf76eec4	-0.9645808
2	0xbfaed40d	-1.3658463
3	0xbef6266e	-0.48076195
4	0xbf272731	-0.65294176
5	0xbfa67f84	-1.3007665
6	0xbf998a04	-1.1995244
7	0xbf9d970e	-1.2311723
8	0x3f9908b9	1.1955787
9	0x3e46f4ed	0.1942937
10	0x3f989a32	1.1922057
11	0xbf2f718f	-0.6853265
12	0xbf471045	-0.777592
13	0xbfb5386e	-1.4157846
14	0xbf8a53f4	-1.080687
15	0xbfa9f3e4	-1.3277555

layer1.0.bn2.running_var f4 [16]
0	0x4025e694	2.5921984
1	0x3fe5d28a	1.7954876
2	0x4013ffb0	2.312481
3	0x400a8a2f	2.164684
4	0x401dd9d2	2.4664197
5	0x400ed98a	2.2320275
6	0x3ff6c5e3	1.927914
7	0x408ebdfd	4.460692
8	0x40f534e6	7.6627073
9	0x4037cb1e	2.8717723
10	0x404259af	3.0367239
11	0x3ff9af5f	1.9506644
12	0x400f700d	2.241214
13	0x4022bace	2.5426517
14	0x40263110	2.5967445
15	0x403fc8e3	2.9966362

layer1.0.conv3.weight f4 [16, 16, 1, 1, 1]
0	0xbd57383e	-0.05254387
1	0xbd6bfd04	-0.05761434
2	0xbd8061ea	-0.062686756
3	0x3db510c8	0.088410914
4	0x3de8d1aa	0.11368115
5	0xbd13cbe3	-0.036083113
6	0xbd09bfab	-0.033630054
7	0xbe2df513	-0.1698802
8	0xbd6a918f	-0.05726772
9	0xbdbe14a5	-0.092812814
10	0xbdf0cd05	-0.11757854
11	0x3bc4c724	0.0060051847
12	0xbe0d13f0	-0.13777137
13	0xbcbb57ce	-0.022869017
14	0xbd31b3d3	-0.043384384
15	0xbd9cef2a	-0.076628044
16	0xbc91f5e5	-0.017817447
17	0xbdc33354	-0.095312744
18	0xbdf357da	-0.11881991
19	0x3e157725	0.14596231
20	0x3d8830fe	0.066499695
21	0xbc8aa871	-0.016926022
22	0xbe0c366c	-0.13692635
23	0xbe189758	-0.14901483
24	0xbdf52193	-0.119692944
25	0x3cf59cdd	0.029982025
26	0xbd86b919	-0.06578273
27	0x3cf7d258	0.030251667
28	0x3d8bf57e	0.06833933
29	0x3dd03d16	0.10167901
30	0xbdda94f0	-0.10672939
31	0x3cff8800	0.03119278
32	0xbdc9640c	-0.098335356
33	0x3d8db48d	0.06919203
34	0x3dbd3e3c	0.09240386
35	0xbc0dae58	-0.008647524
36	0xbdc4133f	-0.095739834
37	0x3e5eba10	0.21750665
38	0x3d423414	0.047412947
39	0x3e05fff6	0.13085923
40	0xbd94027e	-0.07227038
41	0xbc83d333	-0.016091919
42	0xbdbb3fd1	-0.091430314
43	0xbd7580d5	-0.059937317
44	0x3d0737a0	0.033012033
45	0x3dfc5c59	0.123223014
46	0xbd170c6a	-0.036877073
47	0x3e63415b	0.221929
48	0xbd76d2ba	-0.06025956
49	0xbe111a0c	-0.14170092
50	0xbdf4fb38	-0.11961979
51	0x3d9490ae	0.07254158
52	0xbcbc3987	-0.02297665
53	0xbcd4cde0	-0.025977075
54	0xbe967643	-0.29387102
55	0xbe10094b	-0.14066045
56	0xbc45a97c	-0.012064334
57	0x3db6d52c	0.08927378
58	0x3d89d867	0.067307286
59	0xbe3696d7	-0.17830978
60	0xbd7abcbd	-0.06121515
61	0x3de09fd2	0.10967983
62	0xbe419e88	-0.18908131
63	0x3be6f6f9	0.0070484844
64	0xbb963a85	-0.004584613
65	0x3c3e2ce9	0.011607387
66	0xbdce514f	-0.10074102
67	0x3dda0266	0.10644989
68	0x3df47ff4	0.119384676
69	0xbbb47df4	-0.005508179
70	0xbd91d07e	-0.07119845
71	0x3d864a60	0.06557155
72	0x3dc754f1	0.09732998
73	0x3dfca2f5	0.12335769
74	0x3e3a1caa	0.18174997
75	0x3da25e96	0.07928197
76	0x3e3f0f46	0.1865817
77	0x3dfb9ff4	0.12286368
78	0xbde3136e	-0.1108769
79	0x3d52e3bf	0.051486727
80	0xbdc448d5	-0.09584204
81	0xbd1f8382	-0.038943775
82	0x3df28591	0.11841882
83	0xbe226f2b	-0.1586272
84	0xbe57a65a	-0.21059552
85	0x3de0a6ae	0.109692916
86	0xbd949d85	-0.07256607
87	0x3d978186	0.073977515
88	0xbd84389f	-0.06456112
89	0x3b6fab5d	0.0036570646
90	0xbd5baffd	-0.053634632
91	0xbd83398b	-0.0640746
92	0x3bb4c90e	0.0055171316
93	0x3e70a752	0.23501328
94	0xbe424812	-0.18972805
95	0x3df46c9a	0.119347766
96	0xbd1719e4	-0.036889926
97	0xbd0a9b7f	-0.0338397
98	0xbba5a047	-0.005054507
99	0x3d121b40	0.03567052
100	0xbe0d77a5	-0.13815172
101	0xb9fa0513	-0.00047687496
102	0x3de61515	0.1123449
103	0x3e669367	0.22517167
104	0x3df92450	0.12165129
105	0x3c7be22e	0.01537375
106	0x3d56745a	0.052357055
107	0xbde860e8	-0.113466084
108	0xbdb869ea	-0.090045765
109	0xbe34e2bd	-0.17664619
110	0x3d36a446	0.044590257
111	0xbe233fb8	-0.15942276
112	0xbe332341	-0.17493917
113	0xbe169d00	-0.14708328
114	0x3dbbccb7	0.09169906
115	0xbd7ba7fe	-0.061439507
116	0xbddb6a02	-0.10713579
117	0x3d9384fe	0.072031006
118	0x3dc3a101	0.095521934
119	0x3e1f18ca	0.155368
120	0xbe097d3b	-0.13426678
121	0x3b0180a1	0.0019760507
122	0xbdc04c9f	-0.09389614
123	0x3cc366c3	0.023852712
124	0xbdab57ee	-0.08366381
125	0x3d67d296	0.056597315
126	0xbe059d29	-0.13048233
127	0x3ce68106	0.028137695
128	0x3c048709	0.0080888355
129	0x3d82b1da	0.06381579
130	0x3e5bdcc1	0.2147093
131	0xbd134527	-0.03595462
132	0xbe1ec7cf	-0.15505908
133	0x3d0ccb1e	0.034373395
134	0x3e4d7b63	0.200666
135	0x3cf70c0b	0.03015711
136	0xbde9b559	-0.114115424
137	0xbdef675f	-0.11689638
138	0xbd505f81	-0.05087233
139	0xbc5258ae	-0.012838526
140	0xbe243479	-0.16035642
141	0x3d1ec760	0.038764358
142	0x3dbe0cea	0.09279807
143	0xbd8aaa65	-0.067707814
144	0x3d88c748	0.06678635
145	0x3c8fb704	0.017543323
146	0xbe47a155	-0.19495137
147	0x3dd3a338	0.10333866
148	0x3ce7e0aa	0.02830537
149	0xbd98ab76	-0.074545786
150	0xbe18f9d5	-0.14939053
151	0xbe29ad84	-0.16570097
152	0x3cbc4493	0.022981917
153	0x3da4fe50	0.08056319
154	0x3d9ff34f	0.07810079
155	0xbe1bce17	-0.15215336
156	0x3b646818	0.0034852084
157	0xbdff53b7	-0.12467139
158	0xbcf00b6d	-0.029302323
159	0xbe679f75	-0.22619422
160	0xbe3336da	-0.17501393
161	0xbdc71641	-0.097210415
162	0xbd365cf7	-0.044522252
163	0x3c0383fc	0.008027073
164	0xbd71e2f4	-0.05905433
165	0x3d114ceb	0.035473745
166	0xbe2226e1	-0.15835144
167	0x3e183056	0.14862189
168	0x3d4aabd4	0.049480274
169	0xbde2409e	-0.11047481
170	0xbe0b48e4	-0.13602024
171	0xbe09a595	-0.13442071
172	0x3cb46b88	0.022023931
173	0x3c62e14b	0.013847659
174	0xbe092d05	-0.1339608
175	0x3da51990	0.08061516
176	0x3ddb084a	0.106949404
177	0x3e1e8aac	0.15482587
178	0x3e0f8592	0.14015797
179	0x3e63a62c	0.22231358
180	0xbc4f78e4	-0.0126631
181	0x3db4cdf7	0.08828347
182	0x3d9c6701	0.07636834
183	0xbd118471	-0.035526697
184	0xbd112ad8	-0.03544125
185	0xbe399440	-0.18122959
186	0xbd99bc72	-0.07506646
187	0xbdcd98a7	-0.10038882
188	0x3d9ad00d	0.07559214
189	0x3e18c010	0.14917016
190	0x3d968ba6	0.073508546
191	0x3cdd6d93	0.027029788
192	0xbd50d8f5	-0.050988156
193	0x3d5ccb96	0.053905092
194	0xbe2a0aed	-0.1660573
195	0x3d0cc947	0.03437164
196	0xbd655038	-0.055984706
197	0xbd63b068	-0.055588156
198	0xbda32ac6	-0.07967143
199	0xbc6132e5	-0.013745044
200	0x3d9da67b	0.07697769
201	0x3dd8a248	0.10577828
202	0x3df975d8	0.1218068
203	0xbd3e25af	-0.046422657
204	0xbd46d68d	-0.048544455
205	0xbe90132e	-0.28139633
206	0xbddf27cd	-0.10896263
207	0xbe22696a	-0.15860525
208	0xbd8cfd43	-0.06884243
209	0xbe34bb8c	-0.17649668
210	0xbdc06c38	-0.09395641
211	0x3db1786f	0.08665549
212	0xbd75a544	-0.059972063
213	0x3b88b242	0.0041716406
214	0xbd9e33e3	-0.0772474
215	0xbe55618e	-0.20837995
216	0x3dd2d154	0.102938324
217	0x3d3aa405	0.045566577
218	0x3ca7699d	0.020436103
219	0xbdceaf9e	-0.1009209
220	0xbd18204d	-0.03714018
221	0xbbdcf1f6	-0.006742711
222	0xbe3e13b2	-0.185622
223	0x3c93a2f4	0.018022038
224	0xbd416e3d	-0.047224272
225	0x3e07226b	0.13196723
226	0x3e1e76e2	0.15475038
227	0x3d380c45	0.044933576
228	0xbe5b222a	-0.21399751
229	0x3d882c92	0.06649126
230	0x3ce5f7e4	0.028072305
231	0xbcb3fe10	-0.021971732
232	0xbe3ba086	-0.18322954
233	0xbd14c1a3	-0.03631748
234	0xbc3ec299	-0.011643075
235	0xbd144b5b	-0.036204677
236	0xbe6d7883	-0.23190503
237	0xbde3bf7c	-0.11120507
238	0x3d8c35ce	0.068462
239	0xbd2b17f9	-0.04177091
240	0x3e83a19f	0.25709245
241	0xbd54744f	-0.051868733
242	0x3c924843	0.017856723
243	0x3c12fc45	0.008971279
244	0xbdf7a4b6	-0.12091963
245	0x3cce88b5	0.025211671
246	0x3dadd839	0.08488507
247	0x3dd21727	0.10258322
248	0xbdf8f5fe	-0.12156294
249	0xbe34cd4a	-0.17656437
250	0xbccd0138	-0.025024995
251	0x3d3decc7	0.046368387
252	0x3d8c4d27	0.06850653
253	0xbdeef945	-0.11668638
254	0x3c3ecdbc	0.011645731
255	0xbd5185fb	-0.051153164

layer1.0.conv3.bias f4 [16]
0	0x3993cbb8	0.00028189807
1	0xb88bd812	-6.668283e-05
2	0xb8a13a3d	-7.687926e-05
3	0xb9d91692	-0.00041406282
4	0x38479bfe	4.7590576e-05
5	0xb8d94a95	-0.00010361258
6	0x39bbe893	0.000358407
7	0xb946d0a2	-0.00018960473
8	0x394d0ad0	0.00019554351
9	0x39949eec	0.00028347166
10	0xb904537b	-0.000126196
11	0x3a05873e	0.00050937
12	0xb8a529b7	-7.875583e-05
13	0xb8cbecbe	-9.723891e-05
14	0xb90a88a6	-0.00013211611
15	0x3922cde1	0.0001552622

layer1.0.bn3.weight f4 [16]
0	0x3f0951e4	0.5364058
1	0x3f21ee4c	0.6325424
2	0x3f23067e	0.6368178
3	0x3f24d918	0.6439376
4	0x3f14ffda	0.582029
5	0x3f502658	0.8130851
6	0x3f139ef7	0.57664436
7	0x3f55dc75	0.83539516
8	0x3f366acb	0.71256703
9	0x3f08f16f	0.534934
10	0x3eeff83d	0.46869078
11	0x3f23419f	0.63772005
12	0x3f0285d4	0.50985456
13	0x3f0572f3	0.52128524
14	0x3f3c7995	0.7362302
15	0x3f6831d8	0.90701056

layer1.0.bn3.bias f4 [16]
0	0x3c451241	0.012028278
1	0x3b653b74	0.0034978064
2	0xbe87b7e1	-0.26507476
3	0x3e2cf328	0.16889632
4	0xbe2cf8f8	-0.16891849
5	0xbecb64e6	-0.39725417
6	0xbdf3840b	-0.118904196
7	0xbe1399f5	-0.14414199
8	0xbea41ee8	-0.3205483
9	0xbcfef4a6	-0.031122517
10	0xbedf3838	-0.4359758
11	0xbd85ae0e	-0.06527339
12	0x3d6f46eb	0.058417242
13	0xbd73d8b1	-0.059532825
14	0xbe2f3ee0	-0.17113829
15	0xbd879235	-0.06619684

layer1.0.bn3.running_mean f4 [16]
0	0xbda3d037	-0.07998698
1	0xbad801ed	-0.0016480066
2	0x3d59ebf1	0.053203527
3	0xbddbf218	-0.10739535
4	0x3e3884dd	0.18019433
5	0xbdb468cb	-0.0880905
6	0xbda34624	-0.07972363
7	0xbde0093c	-0.10939261
8	0xbd9ada8e	-0.07561217
9	0xbda39dcd	-0.079890825
10	0xbd98f019	-0.0746767
11	0x3e0dca0f	0.1384661
12	0xbdfb12c5	-0.122594394
13	0xbdd8d533	-0.105875395
14	0xbe1ecaea	-0.15507093
15	0xbd047062	-0.03233374

layer1.0.bn3.running_var f4 [16]
0	0x3c540130	0.012939736
1	0x3cacde7b	0.02110218
2	0x3c6319b3	0.013861108
3	0x3c96a1a0	0.018387616
4	0x3c915fea	0.01774593
5	0x3c42f980	0.011900306
6	0x3cf93383	0.03042007
7	0x3c16ed1f	0.0092118075
8	0x3c6524c3	0.013985815
9	0x3c8b2c83	0.016988998
10	0x3ca050e4	0.019569822
11	0x3c87d4a0	0.01658088
12	0x3cad2f8f	0.021140842
13	0x3c2c3eca	0.010513017
14	0x3c8027c9	0.015643971
15	0x3bf44204	0.0074541587

layer1.0.shortcut.0.weight f4 [16, 8, 1, 1, 1]
0	0x3dea915d	0.11453507
1	0xbd752f98	-0.059859842
2	0xbcad1927	-0.021130158
3	0xbdb3ee56	-0.08785693
4	0xbe13d087	-0.14435016
5	0xbe06cce3	-0.13164096
6	0x3dce9323	0.10086658
7	0xbd6fcafb	-0.058543187
8	0xbdf8713a	-0.12130971
9	0xbcaecf51	-0.02133909
10	0x3e010d4d	0.1260273
11	0xbbc7d7c8	-0.006098721
12	0xbbebbcaf	-0.0071941237
13	0x3df64ae1	0.12026001
14	0xbdf724ab	-0.12067541
15	0x3da9716c	0.08273587
16	0xbd836f80	-0.06417751
17	0xbe40d32e	-0.18830559
18	0xba23d135	-0.0006249131
19	0x3c8272a6	0.01592381
20	0xbe39782f	-0.18112253
21	0xbc96ae08	-0.018393531
22	0xbd3955c8	-0.045247823
23	0xbc49b6bd	-0.012311635
24	0x3d25bc22	0.04046262
25	0x3e26832c	0.16260976
26	0xbd2c6031	-0.042083923
27	0x3e13d792	0.14437702
28	0x3d6ebdf9	0.05828664
29	0x3c5aaecf	0.013347342
30	0xbd93670a	-0.071973875
31	0xbe0a2bde	-0.13493297
32	0xbd9fb673	-0.07798471
33	0x3a1046aa	0.0005503694
34	0xbdc70031	-0.097168334
35	0xbe1c199f	-0.15244149
36	0xbd630405	-0.055423755
37	0xbe234524	-0.15944344
38	0x3d438114	0.04773052
39	0x3d3e6ef3	0.04649253
40	0xbdba434a	-0.090948656
41	0xbd2e7511	-0.042592112
42	0xbb505565	-0.003178918
43	0xbe595a33	-0.21225815
44	0xbda944e8	-0.08265096
45	0xbe4e90a3	-0.20172362
46	0x3c8d9a01	0.017285349
47	0x3d8a72f6	0.06760208
48	0x3da04cb0	0.07827127
49	0xbc986ed8	-0.018607542
50	0x3d941b2a	0.07231744
51	0xbe19807b	-0.14990418
52	0x3c3a5ce3	0.011374685
53	0x3cf3ae4e	0.0297462
54	0x3da76b59	0.08174772
55	0x3e9be45e	0.30447668
56	0xbd494557	-0.049138393
57	0xbe876f1f	-0.26451966
58	0x3df3ad0a	0.11898239
59	0x3daf6583	0.08564284
60	0xbba554cb	-0.0050455085
61	0x3d6cf45d	0.05785023
62	0xbc648628	-0.013948001
63	0xbc200a48	-0.009768076
64	0x3d1b2b1e	0.037882917
65	0x3e88a7f0	0.26690626
66	0xbe13bd75	-0.14427741
67	0xbaefbb15	-0.0018290008
68	0x3d16eba7	0.03684583
69	0xbc163d39	-0.00916987
70	0xbc4a8736	-0.012361338
71	0xbb80793a	-0.0039207013
72	0x3de54b40	0.111959934
73	0x3d894262	0.06702115
74	0xbd251ddd	-0.040311683
75	0x3c867919	0.016415166
76	0x3e2a925c	0.16657394
77	0x3e193e2b	0.14965121
78	0x3d7c21a0	0.061555505
79	0xbcd7b794	-0.026332654
80	0xbdf2af31	-0.11849821
81	0xbd812fce	-0.06307946
82	0x3e3ee540	0.1864214
83	0x3cc890ae	0.024483051
84	0xbd7c3724	-0.061576024
85	0x3ca91fb9	0.02064501
86	0x3d15baff	0.036555286
87	0x3e3fc79f	0.18728493
88	0xbdb6cb71	-0.08925522
89	0xbda81411	-0.08206952
90	0x3e0b0a95	0.13578255
91	0xbd0bcfac	-0.0341336
92	0xbd59ae75	-0.05314489
93	0xbc3c0227	-0.0114751225
94	0x3c79e9b3	0.015253472
95	0xbe6968c2	-0.22793868
96	0x3d46410b	0.048401874
97	0xbe0c1d47	-0.13683043
98	0xbbe9c209	-0.0071337265
99	0xbd5b71f4	-0.05357547
100	0xbe3e05c1	-0.18556882
101	0xbe28f71d	-0.16500516
102	0x3d577ebd	0.0526111
103	0x3d8443d1	0.064582475
104	0xbe0ad102	-0.13556293
105	0xbdf5e52b	-0.12006601
106	0xbe157da2	-0.14598706
107	0xbcb3a243	-0.021927958
108	0x3d0f6aea	0.03501407
109	0x3d295b77	0.041346993
110	0x3d934d52	0.07192482
111	0x3dbfbf9b	0.09362718
112	0xbe16df03	-0.1473351
113	0xbd917269	-0.071019
114	0xbd1de9f1	-0.038553182
115	0xbe377260	-0.17914724
116	0xbb240cc7	-0.002503203
117	0xbd2aae72	-0.04167027
118	0xbdf2e705	-0.1186047
119	0xbd6fb37d	-0.058520783
120	0xbd65d499	-0.056110952
121	0xbe4ba8fb	-0.1988868
122	0xbd75b742	-0.05998922
123	0xbd9581b4	-0.073001295
124	0xbd976ae2	-0.07393433
125	0x3d397553	0.045277905
126	0xbda77fdb	-0.08178683
127	0xbcf984d2	-0.030458841

layer1.0.shortcut.0.bias f4 [16]
0	0x37dc9b8b	2.6298474e-05
1	0xb99a9068	-0.0002948076
2	0x381ea9fc	3.7828446e-05
3	0x38a27739	7.746969e-05
4	0xb83645e4	-4.3457272e-05
5	0x38acc0ae	8.2374885e-05
6	0x39142016	0.00014126333
7	0xb860a10f	-5.355576e-05
8	0x38adc68b	8.286264e-05
9	0x399bff78	0.00029754243
10	0x38ef4674	0.00011409531
11	0x3a0ec9f2	0.00054469623
12	0xb637c0d0	-2.7381357e-06
13	0xb9852bd4	-0.0002540039
14	0x36cac1e4	6.042641e-06
15	0x38900b3b	6.868547e-05

layer1.0.shortcut.1.weight f4 [16]
0	0x3eae9e61	0.3410521
1	0x3efd9b76	0.4953267
2	0x3e9e0cdb	0.30869183
3	0x3efa4884	0.4888345
4	0x3f0aeef2	0.5427085
5	0x3ebba56d	0.36649647
6	0x3f0141bd	0.50490934
7	0x3edfb19c	0.43690193
8	0x3f04161d	0.5159624
9	0x3f0152af	0.5051679
10	0x3f1276c4	0.5721247
11	0x3f1fddcd	0.62447816
12	0x3f0cce07	0.5500187
13	0x3f00eb22	0.50358784
14	0x3eef249f	0.46707627
15	0x3ecad99e	0.39619154

layer1.0.shortcut.1.bias f4 [16]
0	0x3c451241	0.012028278
1	0x3b653b74	0.0034978064
2	0xbe87b7e1	-0.26507476
3	0x3e2cf328	0.16889632
4	0xbe2cf8f8	-0.16891849
5	0xbecb64e6	-0.39725417
6	0xbdf3840b	-0.118904196
7	0xbe1399f5	-0.14414199
8	0xbea41ee8	-0.3205483
9	0xbcfef4a6	-0.031122517
10	0xbedf3838	-0.4359758
11	0xbd85ae0e	-0.06527339
12	0x3d6f46eb	0.058417242
13	0xbd73d8b1	-0.059532825
14	0xbe2f3ee0	-0.17113829
15	0xbd879235	-0.06619684

layer1.0.shortcut.1.running_mean f4 [16]
0	0xbd2a2270	-0.04153675
1	0xbb288b72	-0.0025717882
2	0xbddf7f70	-0.10912979
3	0x3d12b5ea	0.035818018
4	0xbda8251c	-0.08210203
5	0xbdc7a49a	-0.09748192
6	0x3db46fd5	0.08810393
7	0xbd186b58	-0.037211746
8	0x3d475182	0.048661716
9	0x3dd75ed9	0.10516138
10	0x3cca1707	0.024669183
11	0xbd8d75ad	-0.069072105
12	0xbd8eba84	-0.06969169
13	0xbd698862	-0.05701483
14	0xbe0227d9	-0.12710513
15	0xbde38ee2	-0.11111237

layer1.0.shortcut.1.running_var f4 [16]
0	0x3cf0973e	0.029368993
1	0x3cc498e6	0.023998689
2	0x3cbba715	0.02290682
3	0x3c53c108	0.01292444
4	0x3c574e59	0.013141238
5	0x3caa0cc7	0.020758046
6	0x3ca102b4	0.01965461
7	0x3cffcfa1	0.031226935
8	0x3cdf04af	0.027223913
9	0x3cb42531	0.02199039
10	0x3ca4bd2e	0.02010974
11	0x3c8a437d	0.016877884
12	0x3ca686ea	0.020328004
13	0x3c87e2ee	0.0165877
14	0x3cd3291a	0.025776435
15	0x3cb8fffd	0.022583002

layer1.1.conv1.weight f4 [32, 16, 3, 3, 3]
0	0x3bb07040	0.005384475
1	0xbba8fd83	-0.005157174
2	0x3b60e9fc	0.0034319153
3	0x3b9f46b0	0.0048607215
4	0xbc3867f7	-0.011255256
5	0xb91ee5e6	-0.00015153698
6	0x3c466a6d	0.012110335
7	0xbd0894ee	-0.033345155
8	0xbcab399b	-0.020901492
9	0xbb47ab06	-0.0030466928
10	0x3bc823ca	0.006107782
11	0x3d0f6c3f	0.03501534
12	0x3d083b42	0.033259638
13	0x3d009e6a	0.031401075
14	0x3c928513	0.01788572
15	0x3c9d98b9	0.019237863
16	0x3d964a1f	0.07338356
17	0x3d8cd8bd	0.06877277
18	0xbbc0614b	-0.005870973
19	0x3bdbd47e	0.0067086807
20	0xbd1a98a7	-0.037743237
21	0xbd012566	-0.031529807
22	0xbc4a1796	-0.012334725
23	0xbc9243d1	-0.017854603
24	0xbd024f23	-0.031813752
25	0xbd26911d	-0.040665735
26	0xbd72b231	-0.059251968
27	0x3c18daf3	0.009329545
28	0xbc7601e8	-0.015015103
29	0x3cebdfcc	0.028793238
30	0x3c1b8b13	0.009493607
31	0xbbbeb719	-0.005820167
32	0x3b50d267	0.003186369
33	0x3c9b991f	0.018993912
34	0xbd0bf730	-0.034171283
35	0xbac058af	-0.0014674867
36	0x3aca77d6	0.0015447091
37	0x3d09802b	0.033569496
38	0x3b774b6e	0.0037734169
39	0x3d0ab99a	0.03386841
40	0x3d0ec679	0.034857247
41	0x3d5a5121	0.053300027
42	0x3c0e6750	0.008691624
43	0x3d8a892a	0.06764443
44	0x3d54b7ee	0.05193322
45	0xbc3c9149	-0.011509248
46	0xbd04c165	-0.032410998
47	0xbc9b02da	-0.018922258
48	0xbd2b9209	-0.041887317
49	0xbcb71116	-0.022347014
50	0xbd4d8c85	-0.050182838
51	0xbcc95409	-0.024576204
52	0xbd2eb16e	-0.04264968
53	0xbd24638f	-0.04013401
54	0xbd9f4b52	-0.07778038
55	0xbd4f63cf	-0.050632294
56	0x3c8d2834	0.017231084
57	0xbd6c4342	-0.05768133
58	0x3b912d75	0.0044304677
59	0xbd2e5faa	-0.0425717
60	0x3b831264	0.003999995
61	0x3bc7a392	0.006092497
62	0xbca9f23b	-0.020745387
63	0x3dd88b7b	0.10573479
64	0x3d9a57d3	0.075362824
65	0xbc913e98	-0.017730042
66	0x3d4d3b33	0.050105285
67	0xbc9c737e	-0.01909804
68	0x3d0a504e	0.03376799
69	0x3b569706	0.0032743826
70	0xbc060188	-0.008179076
71	0x3c3354ac	0.01094548
72	0xbd1066cf	-0.035254296
73	0xbcfabdf2	-0.030608151
74	0xbbbd3c72	-0.005775028
75	0xbc12726b	-0.008938412
76	0x3d14fbd7	0.036372986
77	0x3b136762	0.002249204
78	0xb9cc21e6	-0.00038935168
79	0x3c709155	0.014683087
80	0xbb9c5772	-0.0047711665
81	0xbd2d7d08	-0.042355567
82	0xbd641f0d	-0.055693675
83	0x3cec22ec	0.028825246
84	0xbcf1cbd5	-0.02951614
85	0xbda942fd	-0.0826473
86	0x3c8e24c0	0.017351508
87	0x3d82378d	0.06358252
88	0xbd0a173f	-0.033713575
89	0xbba475a8	-0.0050189085
90	0x3d85e350	0.06537497
91	0x3dd158ff	0.10222053
92	0x3d042512	0.032261916
93	0x3d88158c	0.06644735
94	0x3e45259f	0.19252633
95	0x3db71443	0.089394115
96	0xbd810d45	-0.06301359
97	0x3dcdc85e	0.10047983
98	0x3d951c09	0.07280738
99	0xbd52b216	-0.051439367
100	0xbd9706ad	-0.0737432
101	0xbc063098	-0.008190297
102	0xbd06eab4	-0.032938674
103	0xbe08e487	-0.13368426
104	0xbd89ec6e	-0.067345485
105	0x3c70321d	0.014660385
106	0xbda6675e	-0.081251845
107	0xbd839dbf	-0.06426572
108	0xbd35b7bb	-0.044364672
109	0xba40f837	-0.00073612056
110	0x3cf91530	0.03040561
111	0xbc816071	-0.015793057
112	0x3c3eab32	0.011637496
113	0xbcb126d1	-0.021624954
114	0xbd1253d3	-0.035724472
115	0xbd4e99e6	-0.050439738
116	0xbc94d5f9	-0.018168436
117	0x3d36181e	0.044456594
118	0x3c9cc265	0.019135663
119	0x3c4380bf	0.011932551
120	0x3a0fef9d	0.0005490722
121	0x3c37d1f3	0.011219489
122	0x3d8dc3f7	0.06922143
123	0x3d43a498	0.04776439
124	0x3dcfd0d1	0.101472504
125	0x3d75b6ee	0.05998891
126	0xba3b0318	-0.0007133945
127	0xbced99eb	-0.029004058
128	0xbcf48865	-0.029850194
129	0x3cdc1f8c	0.026870511
130	0xbcf4dbed	-0.029890025
131	0xbd5eea7f	-0.05442285
132	0xb880be63	-6.138978e-05
133	0xbd966b35	-0.07344667
134	0xbd5a9f74	-0.053374723
135	0xbd8d8e3e	-0.06911896
136	0xbd871893	-0.06596484
137	0x3d51127c	0.05104302
138	0xbbe6bc42	-0.007041485
139	0x3bca97bb	0.0061826385
140	0x3c030e42	0.007999005
141	0x3d24a75c	0.04019867
142	0xbc24067c	-0.010011312
143	0xbc9d7e73	-0.019225335
144	0x3d9fa16c	0.07794461
145	0x3dd7a043	0.10528614
146	0xbd928c7a	-0.071557
147	0xbcd665e9	-0.026171641
148	0x3ca588de	0.020206865
149	0xbd7b8e7f	-0.06141519
150	0xbd8026df	-0.06257414
151	0x3d0dc487	0.03461125
152	0x3b9985f6	0.004685159
153	0xbc7efe0d	-0.0155635
154	0xbd5cd029	-0.053909454
155	0x3d278139	0.04089472
156	0x3d6d3ca3	0.057919156
157	0xbbb9cbc7	-0.005670044
158	0x3d56ad40	0.052411318
159	0x3d33e801	0.043922428
160	0xbce4358c	-0.027857564
161	0x3ad0b339	0.0015922553
162	0xbd379244	-0.044817224
163	0xbca1d24b	-0.019753596
164	0xbd39a230	-0.04532069
165	0xbc9fd6f4	-0.019511677
166	0x3ca0778c	0.019588254
167	0xbdbe4f5c	-0.0929248
168	0xbd901c62	-0.070366636
169	0xbd071dde	-0.032987468
170	0xbcf792f6	-0.030221444
171	0x3cfbfeb2	0.030761097
172	0xbc87ccd9	-0.016577171
173	0x3da29981	0.07939435
174	0xbc33d2b8	-0.010975532
175	0xbd6f1d3c	-0.05837749
176	0x3dfcb8ab	0.1233991
177	0x3d36bb9f	0.044612523
178	0x3d21895b	0.039437633
179	0x3d70e1e5	0.05880918
180	0x3b954d0b	0.0045563034
181	0x3d270d38	0.04078409
182	0xbd8c1552	-0.06840004
183	0x3cba6e37	0.022757633
184	0x3d892b95	0.06697766
185	0xbdad5fa5	-0.08465508
186	0x3c963132	0.018334005
187	0xbcbc5ece	-0.022994425
188	0xbd8262b1	-0.0636648
189	0x3cb5646e	0.022142615
190	0x3bc66605	0.006054642
191	0xba4d5052	-0.0007832098
192	0xbc59a4b8	-0.013283901
193	0x3d0a59ba	0.033776976
194	0xba1c9b75	-0.00059740926
195	0x3cdb2ea3	0.026755637
196	0x3bc95934	0.006144667
197	0xbb9bdef6	-0.0047568036
198	0xbcd10957	-0.025517149
199	0xbc96966e	-0.018382277
200	0xba091745	-0.00052296027
201	0x3b91727e	0.0044386974
202	0xbd5959da	-0.053064205
203	0xbd279a0c	-0.040918395
204	0xbd66c25f	-0.05633771
205	0xbbcd86a2	-0.006272153
206	0x3af7f6c1	0.0018918143
207	0x3ca64686	0.0202973
208	0x3cab21e8	0.020890191
209	0xbc51dce4	-0.012809012
210	0x3ba40577	0.0050055343
211	0x3d3c1d71	0.045926515
212	0x3d0872c0	0.03331256
213	0x3d6d3f62	0.057921775
214	0x3b88343e	0.0041566184
215	0xbb5a43d3	-0.0033304587
216	0xbd4dac0e	-0.050212912
217	0xbd595cf5	-0.053067166
218	0xbdeab270	-0.114598155
219	0x3a5783f3	0.0008221261
220	0xbcafc6a8	-0.021457031
221	0xbe063a85	-0.13108261
222	0x3cba531a	0.022744704
223	0xbca65dcb	-0.020308396
224	0x3ce8f634	0.028437711
225	0x3d09e075	0.033661325
226	0xbca820bb	-0.02052342
227	0x3e0d3a28	0.13791716
228	0xbcb80f52	-0.022468243
229	0xbd5b9543	-0.053609144
230	0x3e145fb2	0.1448963
231	0x3be89675	0.007098014
232	0x3baf22c1	0.005344719
233	0xbd55ab4c	-0.052165315
234	0x3c92d81a	0.01792531
235	0x3d93cdce	0.072169885
236	0xbd8bab33	-0.06819763
237	0x3cc08c1e	0.023504313
238	0x3d9802d4	0.074224144
239	0xbd3f4f6b	-0.0467066
240	0xbc8c1a83	-0.017102486
241	0x3c2a38b9	0.0103895
242	0x3d294e3e	0.041334383
243	0xbc510aba	-0.012758905
244	0xbd8c959d	-0.06864474
245	0x3bc821a7	0.0061075273
246	0xbc73a067	-0.014869786
247	0xbd8037e0	-0.06260657
248	0xbc121482	-0.008916022
249	0x3c815111	0.015785726
250	0xbcc4c9bb	-0.024021974
251	0x3a4fcd0c	0.00079269777
252	0x3d0b286d	0.0339741
253	0x3dbc3af4	0.09190932
254	0x3d1eeab4	0.03879805
255	0x3d52f990	0.051507533

layer1.1.conv1.bias f4 [32]
0	0x357b4da4	9.361777e-07
1	0xb62b10ad	-2.5490692e-06
2	0xb89b772f	-7.4131756e-05
3	0xb45fca80	-2.0842162e-07
4	0xb864bed8	-5.4537173e-05
5	0x34d1f680	3.9108636e-07
6	0xb61b894c	-2.3176717e-06
7	0x36887fba	4.067985e-06
8	0xb8cd9e1e	-9.8046134e-05
9	0x366a931c	3.4954346e-06
10	0xb6b6f8d3	-5.4529896e-06
11	0xb806be76	-3.212547e-05
12	0x36991b90	4.562964e-06
13	0x379b00fa	1.8477895e-05
14	0x37bc7297	2.2464706e-05
15	0x36c9b000	6.010756e-06
16	0x371c8129	9.328397e-06
17	0xb5a8f1f0	-1.2587388e-06
18	0xb52b8c50	-6.3906646e-07
19	0x36540796	3.1594877e-06
20	0x36e22d40	6.7405927e-06
21	0xb7504c45	-1.2415524e-05
22	0xb61b40cc	-2.3134517e-06
23	0x377dcbf0	1.5127458e-05
24	0xb73b2e83	-1.1156898e-05
25	0x36f75bc2	7.3718556e-06
26	0x370c5f7d	8.366883e-06
27	0xb3724500	-5.640777e-08
28	0xb6bc5daa	-5.6137405e-06
29	0x37412276	1.151172e-05
30	0x37c1344a	2.3031742e-05
31	0x352230d8	6.042078e-07

layer1.1.bn1.weight f4 [32]
0	0x3e9160ec	0.28394258
1	0x3ee16808	0.44024682
2	0x3e714208	0.23560345
3	0x3f026bd9	0.5094581
4	0x3f17f592	0.59359086
5	0x3efb215d	0.49048892
6	0x3ea19b4d	0.31563798
7	0x3efca12a	0.49341708
8	0x3e00e5ae	0.12587616
9	0x3e9c810f	0.30567214
10	0x3ee7c2b4	0.45265734
11	0x3f11b35e	0.5691432
12	0x3f05324f	0.5202989
13	0x3ed50c3b	0.41610894
14	0x3f068716	0.52549875
15	0x3ea486d4	0.32134116
16	0x3ec69bf3	0.38790855
17	0x3f115a2f	0.56778234
18	0x3ed14e16	0.40879887
19	0x3f1338ab	0.57508343
20	0x3ecafe2b	0.3964704
21	0x3ed8310b	0.42224917
22	0x3eb568fe	0.35431665
23	0x3eb715f6	0.35758942
24	0x3ecdaf47	0.40172789
25	0x3f1e96fa	0.6194912
26	0x3eb4bf8d	0.35302392
27	0x3edff8df	0.4374456
28	0x3f1e9d41	0.619587
29	0x3ece6fe7	0.4031975
30	0x3ed14873	0.40875587
31	0x3eb7cbf2	0.35897785

layer1.1.bn1.bias f4 [32]
0	0xbe9f72d2	-0.31142288
1	0xbe3d1e64	-0.18468624
2	0x3eb67292	0.35634285
3	0xbeb24cf6	-0.34824342
4	0xbd5bed16	-0.0536929
5	0xbe88758d	-0.26652184
6	0xbe80839b	-0.25100407
7	0xbe82f499	-0.25577238
8	0x3eea0e21	0.45713905
9	0xbe408752	-0.1880162
10	0xbe8c3df3	-0.27391014
11	0xbe8b982f	-0.27264544
12	0xbdaa92d8	-0.083287895
13	0xbd4a636f	-0.049411234
14	0xbea6f95e	-0.32612127
15	0x3d619791	0.055076186
16	0xbe52bac0	-0.20579052
17	0x3ef4df0c	0.4782642
18	0xbe9029d6	-0.28156918
19	0xbe71ff92	-0.23632649
20	0xbda70e70	-0.081570506
21	0xbe4ab5bf	-0.19795893
22	0xbe7708a7	-0.24124394
23	0x3ee57ca3	0.44821653
24	0xbe5a0339	-0.21290292
25	0xbd710b3c	-0.058848605
26	0x3d6e4317	0.05816945
27	0xbe66eb37	-0.22550665
28	0xbe852501	-0.26004794
29	0xbe6e528f	-0.23273681
30	0x3de040b9	0.10949845
31	0xbea2ad56	-0.3177287

layer1.1.bn1.running_mean f4 [32]
0	0x3e053c0b	0.13011186
1	0x3e4ba410	0.19886804
2	0xbda13249	-0.07870919
3	0x3e83f083	0.25769433
4	0xbdda3294	-0.10654178
5	0x3db063fa	0.08612819
6	0x3e16cd46	0.14726743
7	0x3cd59982	0.026074175
8	0x3d0533f3	0.032520246
9	0xbb08a851	-0.0020852278
10	0x3e1e5b9e	0.15464637
11	0xbd559c48	-0.052150995
12	0xbe0f1c75	-0.13975699
13	0xbda9ca6d	-0.08290563
14	0x3cf9090f	0.030399827
15	0x3cb55c89	0.02213885
16	0x3e3f8d68	0.18706286
17	0xbe3194bf	-0.17341898
18	0x3d984f3a	0.07436986
19	0xbd8e7de7	-0.06957608
20	0x3a482a1d	0.000763567
21	0x3df1c99c	0.11806032
22	0x3c55c936	0.013048461
23	0x396ccf1f	0.00022583872
24	0xbdc00a94	-0.093770176
25	0xbc08d47b	-0.008351441
26	0x3e0c77fa	0.13717642
27	0xbd3e09c5	-0.046396036
28	0xbe08c588	-0.13356602
29	0x3dc5aa59	0.09651632
30	0x3c1966e6	0.009362912
31	0x3be0f667	0.006865311
