log/sem_seg/SatVideoIRSDT__2025-07-22_19-41__SoftLoUloss_DeepPro-Plus_DataL40/checkpoints/epoch_25_model.pth (torch, 941507 bytes, 213 tensors)

conv_in.0.weight f4 [8, 1, 5, 7, 7]
0	0xbe15accc	-0.14616698
1	0xbd4ee002	-0.0505066
2	0x3d09de63	0.03365935
3	0x3e13daf6	0.14438996
4	0x3d9f622e	0.07782398
5	0xbd51a570	-0.051183164
6	0xbe35b6ff	-0.17745589
7	0x3aeae250	0.001792023
8	0x3ce8a759	0.02840011
9	0x3c62f5f2	0.013852583
10	0x3de62197	0.112368755
11	0x3d9138cb	0.070909105
12	0x3c5a06fb	0.013307328
13	0xbd893913	-0.06700339
14	0x3c94dd24	0.018171854
15	0x3c4557e3	0.01204488
16	0x3c9559e1	0.018231334
17	0x3d996a05	0.07490925
18	0x3d1a2948	0.037637025
19	0x3c02db72	0.00798689
20	0xbd55c04f	-0.052185353
21	0x3ca0de51	0.019637259
22	0xbcc778b4	-0.024349548
23	0x3c759565	0.014989232
24	0xbc9ae049	-0.018905776
25	0xbda1229b	-0.078679286
26	0xbcb6101b	-0.022224477
27	0x3cc867fa	0.024463642
28	0xbcace12a	-0.02110346
29	0xbdb5cd9d	-0.08877108
30	0xbde5ae96	-0.1121494
31	0x3c17152a	0.0092213545
32	0xbd0adfaa	-0.03390471
33	0xbd564425	-0.05231108
34	0xbd095684	-0.033529773
35	0x3d9b1bcc	0.07573661
36	0x3d6cb835	0.05779286
37	0x3ce860f1	0.028366538
38	0x3dfd6633	0.123730086
39	0x3d31a0a9	0.043366108
40	0xbd5af2fe	-0.05345439
41	0xbd73d971	-0.05953354
42	0x3ab1c4d7	0.0013562691
43	0x3daf2b08	0.085531294
44	0x3dfc763a	0.123272374
45	0x3e16bfb9	0.14721574
46	0x3cd475e1	0.025935115
47	0xbda7e9b6	-0.08198874
48	0xbd9a4817	-0.07533281
49	0xbde3af0d	-0.11117373
50	0xbdc76f23	-0.097379945
51	0xbdf9a9a8	-0.121905625
52	0xbd598295	-0.05310305
53	0xbd94dae4	-0.072683126
54	0xbdac20d8	-0.08404702
55	0xbd555af6	-0.0520887
56	0xbcc73c5c	-0.024320774
57	0x3cf3c109	0.029755132
58	0x3dfd2462	0.12360455
59	0x3e865adc	0.26241195
60	0x3e451531	0.19246365
61	0x3da4cd7f	0.08047008
62	0x3b0654b3	0.0020497262
63	0xbbdcb979	-0.0067359773
64	0x3ba9346a	0.005163719
65	0x3d9161af	0.0709871
66	0x3ead8615	0.3389136
67	0x3e70e385	0.23524292
68	0x3de4b32a	0.11166985
69	0xbd223da3	-0.039609563
70	0x3d30f16a	0.04319898
71	0xbcbddb36	-0.023175817
72	0xbdc5a3a1	-0.0965035
73	0x3ce7f135	0.028313259
74	0x3de621f5	0.112369455
75	0x3e08a086	0.13342485
76	0xbccfe798	-0.025378987
77	0xbc1f91e2	-0.009739371
78	0xbcfb07df	-0.030643402
79	0xbd7d684c	-0.061867043
80	0x3d9b7044	0.07589772
81	0xbc8afd0e	-0.016966369
82	0xbcfc1260	-0.03077048
83	0xbdc8fc14	-0.09813705
84	0xbce5d494	-0.028055467
85	0x3c836466	0.016039085
86	0x3b01b518	0.0019791778
87	0x3dba2062	0.09088208
88	0x3d16bafe	0.036799423
89	0xbceb9f55	-0.028762499
90	0xbcee659e	-0.02910119
91	0xbdb1e0d2	-0.08685459
92	0xbdb24128	-0.08703834
93	0xbdaeb7e5	-0.08531169
94	0xbbd79ce6	-0.006579983
95	0xbb972700	-0.0046128035
96	0xbccf3146	-0.02529205
97	0xbcaa0469	-0.020754056
98	0x3d8b01c6	0.06787448
99	0x3d594a9f	0.05304968
100	0x3c21f598	0.009885214
101	0xbcd8649e	-0.026415166
102	0xbd80e564	-0.06293753
103	0x3a48f8d7	0.00076664746
104	0xbcd06d00	-0.0254426
105	0x3d008e62	0.031385787
106	0x3ca0f25d	0.019646818
107	0x3d0d87a4	0.034553185
108	0x3df10ee6	0.1177042
109	0x3c37b993	0.011213678
110	0xbc12751e	-0.008939056
111	0xbd76170e	-0.06008058
112	0x3cafe2e6	0.021470498
113	0xbd1776d4	-0.036978558
114	0x3c91e33e	0.017808553
115	0x3e22c575	0.15895636
116	0xbcb18686	-0.021670591
117	0xbcd16c83	-0.025564438
118	0xbd17a8ce	-0.03702622
119	0x3d45d573	0.048299264
120	0xbc53b532	-0.012921618
121	0xbd228bbd	-0.039684046
122	0x3b092c3f	0.0020930914
123	0xbc3b74b7	-0.011441401
124	0x3d974c57	0.073876075
125	0x3cc4b125	0.02401025
126	0x3c39aa2c	0.011332076
127	0xbd79d96a	-0.060998358
128	0xbdee9b11	-0.1165067
129	0xbd76e48e	-0.06027656
130	0xbdacf400	-0.08444977
131	0xbd984375	-0.074347414
132	0xbd65c029	-0.05609146
133	0x3c7dd2f8	0.015492193
134	0xbd004b40	-0.031321764
135	0xbd9634d7	-0.07334297
136	0xbd688747	-0.056769636
137	0xbd82329a	-0.06357308
138	0xbdb8adbf	-0.090175144
139	0xbd871687	-0.065960936
140	0x3c6bfc8d	0.0144034745
141	0xbba07f98	-0.004898023
142	0xbcb1908d	-0.021675372
143	0xbc89aa20	-0.016804755
144	0xbcfab391	-0.030603202
145	0xbd433cb0	-0.047665298
146	0xbda43463	-0.080178045
147	0x3e2b24dd	0.16713281
148	0x3da917b3	0.082564734
149	0x3d537332	0.05162353
150	0x3d9d799e	0.07689212
151	0x3e119b96	0.14219508
152	0x3e5ed740	0.21761799
153	0x3e28d083	0.16485791
154	0x3e6ad05b	0.22931044
155	0x3d71efb6	0.059066497
156	0x3e2a896e	0.16653988
157	0x3e4c88fa	0.19974127
158	0x3debe51c	0.115183085
159	0x3dddf29a	0.10837288
160	0x3d3e2bd6	0.046428524
161	0x3e3b1311	0.18268992
162	0x3e3206c8	0.173854
163	0x3eba291f	0.36359498
164	0x3e29deb0	0.16588855
165	0x3e2729ea	0.16324583
166	0x3df7e7ca	0.12104757
167	0xbd1e95d6	-0.038717113
168	0x3e373b26	0.17893657
169	0x3e8938e7	0.26801226
170	0x3ea2ba72	0.3178287
171	0x3d92e487	0.071724944
172	0x3dfe22da	0.12408991
173	0x3e4084f3	0.18800716
174	0x3d84a8d5	0.06477515
175	0x3dd4fefc	0.10400197
176	0x3e170b9c	0.14750522
177	0x3e5e16f9	0.21688451
178	0x3df23b4d	0.11827717
179	0x3e729f19	0.23693503
180	0x3ddbaffd	0.107269265
181	0x3d948ec2	0.072537914
182	0x3e03494f	0.12820934
183	0x3d09a52d	0.03360479
184	0x3e0a42b9	0.13502015
185	0x3e48af64	0.19598156
186	0x3e38769c	0.18013996
187	0x3d35edba	0.044416167
188	0x3d8b90b1	0.06814707
189	0x3e43de9b	0.19127886
190	0x3db7a044	0.08966115
191	0x3dbf3666	0.093365476
192	0x3da6a2c3	0.08136513
193	0x3da32f30	0.07967985
194	0x3db0683b	0.086136304
195	0x3e006b11	0.12540843
196	0xbbb7aa2e	-0.005605004
197	0x3d77b21b	0.06047259
198	0xbd502479	-0.050816033
199	0xbd95f4fe	-0.07322119
200	0xbd340b2c	-0.043955967
201	0xbc19c9a8	-0.0093864575
202	0xbd3c459a	-0.045964815
203	0x3c9a0162	0.018799488
204	0x3b5a6b18	0.0033327993
205	0xbd439a42	-0.047754534
206	0xbd675386	-0.05647614
207	0xbd79d71c	-0.06099616
208	0xbbe2b243	-0.006918223
209	0xbbc953ba	-0.006144014
210	0x3c828f53	0.015937483
211	0xbd073444	-0.03300883
212	0xbc5fd006	-0.0136604365
213	0xbc8585ec	-0.01629921
214	0xbd8e7b20	-0.06957078
215	0xbd235370	-0.039874494
216	0xbc8fb6b9	-0.017543184
217	0x3dc3a294	0.09552494
218	0x3d5ff822	0.054679997
219	0x3d863739	0.06553502
220	0x3d67f843	0.056633245
221	0x3bf0a788	0.00734419
222	0x3d021d7b	0.031766396
223	0x3d0c6719	0.03427801
224	0x3d4d681d	0.05014812
225	0xbc29e29b	-0.010368968
226	0x3c7bade5	0.015361284
227	0x3d58a5cc	0.05289249
228	0x3d626df1	0.05528063
229	0x3b8b3dde	0.0042493185
230	0x3ce790a8	0.02826722
231	0x3c9793e6	0.01850314
232	0xbccaf971	-0.024777146
233	0xbd11a768	-0.03556004
234	0x3c0367aa	0.008020321
235	0x3d1c119d	0.038102735
236	0x3ce787a3	0.028262919
237	0x3da2a320	0.0794127
238	0x3a097236	0.0005243154
239	0xbd33edc4	-0.043927923
240	0xbd94b276	-0.07260601
241	0xbd3922fb	-0.045199376
242	0x3ca07bea	0.019590337
243	0x3d8713bd	0.06595562
244	0x3d80cd81	0.06289197
245	0x3c94537e	0.018106218
246	0x3cdade89	0.026717441
247	0xbc8eef50	-0.017448097
248	0xbd9c4c4a	-0.076317385
249	0xbc82fa1c	-0.015988402
250	0x3d9d0ff7	0.07669061
251	0x3c99a234	0.018754102
252	0x3d711732	0.05886001
253	0x3d92dbbb	0.071708165
254	0x3d7a5250	0.061113656
255	0x3d72cb52	0.059275933

conv_in.0.bias f4 [8]
0	0x35a8f740	1.2588935e-06
1	0x38309318	4.209866e-05
2	0x374c730e	1.2186136e-05
3	0xb7a07522	-1.912803e-05
4	0xb83d11d1	-4.5077704e-05
5	0xb72d6b3d	-1.0336572e-05
6	0x38d89e92	0.00010329219
7	0x38541a66	5.0569324e-05

conv_in.1.weight f4 [8]
0	0x3f39e5e4	0.7261641
1	0x3f577f9a	0.8417908
2	0x3f109095	0.56470615
3	0x3ee1ee33	0.44127044
4	0x3f2d8594	0.6778195
5	0x3f275854	0.65369153
6	0x3f42e030	0.7612333
7	0x3f0f29c5	0.5592311

conv_in.1.bias f4 [8]
0	0x3da94693	0.08265414
1	0x3c309e17	0.010779879
2	0x3d0e742c	0.03477876
3	0xbc778879	-0.015108221
4	0xbb5f1e0d	-0.0034045011
5	0xbc5a8727	-0.013337887
6	0xbd95b74c	-0.07310352
7	0x3ba68c60	0.005082652

conv_in.1.running_mean f4 [8]
0	0xbe0d76b4	-0.13814813
1	0x3cc09b00	0.02351141
2	0x3f3d7ffe	0.74023426
3	0x3e0c43ec	0.13697785
4	0x3c6c0fbb	0.014408047
5	0x3cd57329	0.02605589
6	0x3c16dea5	0.009208356
7	0xbe40a793	-0.18813924

conv_in.1.running_var f4 [8]
0	0x40fcf9d9	7.905499
1	0x417fb9b0	15.982834
2	0x416a1d98	14.632225
3	0x40e779da	7.2336245
4	0x411d68fd	9.838132
5	0x4122d85f	10.177825
6	0x4084d702	4.151246
7	0x41746127	15.273719

layer1.0.conv1.weight f4 [16, 8, 3, 3, 3]
0	0x3d98db8b	0.074637495
1	0x3e09e2eb	0.13465469
2	0x3e6c1829	0.23056091
3	0xbcedc9c3	-0.029026872
4	0xbe1dff74	-0.15429479
5	0xbe1d0a37	-0.15335928
6	0x3e0732f9	0.13203038
7	0x3d196737	0.03745195
8	0x3def1478	0.11673826
9	0xbcbc2502	-0.022966865
10	0xbcdeb4ab	-0.027185759
11	0xbd5d92f0	-0.05409521
12	0xbc190582	-0.009339692
13	0x3bce4ddb	0.006295902
14	0x3d54a7ee	0.051917963
15	0xbc66b3e7	-0.014080978
16	0x3c20eec7	0.009822554
17	0x3c376d9b	0.011195566
18	0xbd9e1877	-0.0771951
19	0xbdd75c2c	-0.10515627
20	0xbe1ec001	-0.15502931
21	0x3d632726	0.055457257
22	0x3e0c93fc	0.13728327
23	0x3da2d98d	0.07951651
24	0xbe13e72a	-0.14443651
25	0xbd362cff	-0.044476505
26	0xbe025b9b	-0.12730257
27	0xbcc9fea1	-0.02465755
28	0x3b3c6e54	0.0028752284
29	0x3e8b50c5	0.2721006
30	0x3cee0067	0.029052926
31	0xbdcc7376	-0.0998296
32	0xbe108cef	-0.14116262
33	0x3dd6ac22	0.104820505
34	0xbd84b3d2	-0.064796105
35	0x3def99e0	0.11699271
36	0x3c11eddc	0.008906808
37	0x3d9d3ded	0.07677827
38	0xbbe98276	-0.007126148
39	0x3cf40e21	0.029791893
40	0xbd03c21e	-0.032167546
41	0x3b77e29b	0.0037824276
42	0xbd02528a	-0.031816997
43	0xbbe049fa	-0.006844756
44	0x3cb39526	0.021921705
45	0x3d03c34d	0.032168675
46	0xbd9fa55e	-0.07795213
47	0xbe6c8f0c	-0.23101443
48	0xbd4a3584	-0.049367443
49	0x3e0a1a3f	0.13486575
50	0x3e1a4a58	0.15067422
51	0xbd5f7a6f	-0.05456012
52	0x3d87a3d8	0.066230476
53	0xbe16e944	-0.14737421
54	0x3c892c73	0.016744828
55	0x3dbe489e	0.092911944
56	0x3b812c40	0.0039420426
57	0xbd9f69d2	-0.077838555
58	0xbd3e0c64	-0.046398535
59	0xbcf11716	-0.029429954
60	0x3d2c23b3	0.042026233
61	0x3d3d6d1f	0.046246644
62	0x3c0aa4c9	0.008462139
63	0x3c84a4c0	0.01619184
64	0xbdd489f6	-0.103778765
65	0xbcb43400	-0.021997452
66	0x3d402181	0.04690695
67	0xbcac21b2	-0.02101216
68	0x3d83e7c0	0.06440687
69	0xbd1208a7	-0.035652783
70	0xbd36b4f1	-0.044606153
71	0x3c2d37b0	0.010572359
72	0xbd2b57f4	-0.041831926
73	0x3d12420d	0.035707522
74	0x3cf74614	0.030184783
75	0x3c936665	0.017993161
76	0x3d8706df	0.065931074
77	0xbd44ead6	-0.04807552
78	0x3c1b527c	0.009480115
79	0xbb96f49b	-0.004606796
80	0xbd5ef0cb	-0.054428857
81	0xbd60d84f	-0.054893788
82	0xbccc1e85	-0.024916897
83	0x3df9141a	0.12162037
84	0xbd024eac	-0.03181331
85	0xbc615348	-0.013752766
86	0x3d5cec8d	0.05393653
87	0x3b63a2c9	0.0034734479
88	0xbcc9156c	-0.024546348
89	0xba27bd09	-0.0006398713
90	0x3c8d9020	0.017280638
91	0xba894ebe	-0.0010475738
92	0xbd865cf0	-0.06560695
93	0xbcd3a8a8	-0.025837258
94	0xbcfd862d	-0.030947769
95	0xbd7f76e8	-0.062369257
96	0xbca1c475	-0.019746998
97	0x3ce0584f	0.027385859
98	0x3bbb9a72	0.0057251984
99	0x3ce0fd73	0.027464604
100	0x3c186405	0.00930119
101	0xbd2cc8f9	-0.04218385
102	0x3d7abadb	0.061213356
103	0x3d0d790d	0.03453927
104	0x3cd7d683	0.026347404
105	0x3c2d3146	0.01057083
106	0xbc4e25f2	-0.012582289
107	0xbc21fab9	-0.009886437
108	0x3d159a1b	0.03652392
109	0x3c411c4a	0.01178653
110	0xbd5fd2d7	-0.054644432
111	0x3d8a2da6	0.06746988
112	0x3d57a7ab	0.052650135
113	0xbdbb0329	-0.09131462
114	0xbdccdeff	-0.10003471
115	0xbe589e99	-0.2115425
116	0xbdfbd829	-0.12297089
117	0xbd4cabf7	-0.049968686
118	0x3c9cac60	0.019125164
119	0x3d2b685f	0.041847583
120	0xbe1cc6d6	-0.15310225
121	0xbdee5d43	-0.11638882
122	0x3cd43cc3	0.02590788
123	0x3d3d2328	0.046176106
124	0x3de5b658	0.1121642
125	0x3deb1f3e	0.11480568
126	0x3cde3825	0.027126381
127	0xbcfcf125	-0.030876705
128	0xbb64905c	-0.0034876084
129	0x3e095aac	0.13413495
130	0x3de4c849	0.11171014
131	0x3d6729d5	0.05643638
132	0x3d4995f8	0.049215287
133	0x3d33dd80	0.04391241
134	0xbd46d927	-0.048546936
135	0x3caf0c7e	0.021368261
136	0x3d5d6ca7	0.054058697
137	0x3c4d3728	0.012525357
138	0xbdc511ea	-0.096225575
139	0xbc537297	-0.012905738
140	0xbda3a63a	-0.079906896
141	0xbba63307	-0.005072001
142	0x3d7835dc	0.06059824
143	0x3d44ac29	0.048015747
144	0xbd50a21e	-0.050935857
145	0xbd8e0241	-0.06934024
146	0x3c61afe1	0.013774843
147	0xbbd97b7b	-0.0066370345
148	0xbc924df2	-0.017859433
149	0x3df01988	0.1172362
150	0x3c460d9f	0.012088208
151	0x3d6e48a6	0.05817475
152	0x3d821a03	0.063526176
153	0x3d0f74b4	0.035023406
154	0x3d1315b6	0.035909377
155	0xbd20cfba	-0.039260603
156	0x3dd8e48d	0.105904676
157	0x3d2a0742	0.041510828
158	0xbda2bba0	-0.07945943
159	0xbd00cf1e	-0.031447522
160	0xbe1b5c8f	-0.15172027
161	0xbe031735	-0.12801822
162	0xbc8a61d7	-0.016892357
163	0x3d435ef0	0.04769796
164	0x3dcc61f7	0.09979623
165	0x3dacf3f4	0.08444968
166	0xbdc935fe	-0.09824751
167	0xbe488a13	-0.19583921
168	0x3dc39a23	0.095508836
169	0xbd263abb	-0.040583353
170	0x3dc1884c	0.09449825
171	0x3ce4f996	0.027951043
172	0x3ddd2c15	0.107994236
173	0x3d5d5d91	0.05404431
174	0xbdce6311	-0.10077489
175	0xbe679866	-0.22616729
176	0xbda188c7	-0.07887416
177	0x3de8c686	0.1136599
178	0x3e19a2c6	0.150035
179	0x3d62e437	0.055393424
180	0xbcc116c0	-0.023570418
181	0xbe51bc81	-0.20482065
182	0xbe1037d9	-0.14083804
183	0x3daf3e71	0.08556832
184	0x3ecba5d2	0.39774948
185	0x3e9556ac	0.29167688
186	0xbe87232d	-0.26394024
187	0xbe58eefd	-0.21184917
188	0xbe3311eb	-0.17487304
189	0xbc59ef7e	-0.013301728
190	0xbc8b5a63	-0.017010873
191	0x3cc20b3d	0.023687
192	0xbdac554c	-0.084147066
193	0x3d75e157	0.060029354
194	0x3da8a086	0.082337424
195	0xbd09dac8	-0.03365591
196	0xbd8c899f	-0.06862187
197	0x3bdf702a	0.006818791
198	0xbcda7df4	-0.026671387
199	0x3d7b862d	0.061407257
200	0x393c13fc	0.00017936522
201	0x3d7bd779	0.061484788
202	0x3cea250a	0.028582115
203	0xbd0b8011	-0.03405768
204	0xbd18c40f	-0.03729635
205	0x3d260c23	0.04053892
206	0xbbe71f59	-0.0070532975
207	0x3d4f3842	0.05059076
208	0xbd0cd39f	-0.034381505
209	0xbcb511b1	-0.022103162
210	0x3d032253	0.032015156
211	0xbdb5086f	-0.08839499
212	0xbce810cd	-0.028328324
213	0x3dab346a	0.083596066
214	0x3c864428	0.016389921
215	0xbb1c9d1f	-0.0023897362
216	0x3caff321	0.021478238
217	0x3d7a1fde	0.061065547
218	0xbdb61fdd	-0.08892796
219	0xbe7d2a4a	-0.24723163
220	0x3de38f77	0.11111348
221	0x3da152ca	0.07877119
222	0xbebef55d	-0.37296572
223	0x3cc0e724	0.023547716
224	0x3c29989e	0.010351328
225	0x3af02814	0.0018322491
226	0x3c7e1aa8	0.015509285
227	0x3d75bd86	0.059995197
228	0x3e053fc3	0.13012604
229	0xbc41e2cd	-0.011833859
230	0xbdb11634	-0.08646813
231	0x3e459842	0.19296363
232	0x3d0c88d2	0.03431017
233	0xbd645d08	-0.055752784
234	0xbca30e1e	-0.019904193
235	0xbda6e8d1	-0.08149875
236	0x3c80ff33	0.015746688
237	0x3d88efc5	0.066863574
238	0xbda793b0	-0.08182466
239	0x3c9d0eed	0.019172156
240	0x3da37b1c	0.079824656
241	0xbd811f4e	-0.06304799
242	0x3d9a1529	0.07523567
243	0xbde0acf2	-0.10970487
244	0x3b27d4e8	0.002560908
245	0xbe31c333	-0.17359619
246	0xbdbc736e	-0.09201704
247	0x3dd6f996	0.104968235
248	0x3d67fc59	0.05663714
249	0xbe282c9e	-0.1642327
250	0x3da255d7	0.07926529
251	0xbd0c09cd	-0.034189034
252	0x3d615984	0.05501701
253	0x3ca08b62	0.019597713
254	0x3d7bc7d1	0.061469857
255	0xbd909c5e	-0.07061075

layer1.0.conv1.bias f4 [16]
0	0xb7d243bb	-2.506549e-05
1	0x379ee1ed	1.8940273e-05
2	0xb81ccbc4	-3.738307e-05
3	0xb833d043	-4.2870884e-05
4	0x38bf2a06	9.115417e-05
5	0x38b11e94	8.445713e-05
6	0xb947be22	-0.00019048949
7	0x38c85f29	9.554468e-05
8	0xb91af398	-0.0001477733
9	0x39098ed0	0.0001311854
10	0x385fb2d6	5.3333897e-05
11	0x37954aa0	1.7796934e-05
12	0x3903b204	0.0001255945
13	0xb8072db1	-3.222906e-05
14	0xb7cd3e6c	-2.4466972e-05
15	0xb7b6909c	-2.176343e-05

layer1.0.bn1.weight f4 [16]
0	0x3ef88158	0.4853618
1	0x3f004a66	0.50113523
2	0x3f27823e	0.6543311
3	0x3f16f54f	0.5896806
4	0x3f151052	0.5822803
5	0x3f1ad318	0.60478354
6	0x3f1689da	0.58804095
7	0x3efa6164	0.48902428
8	0x3ee9d351	0.45669034
9	0x3f1c9847	0.61169857
10	0x3f208c86	0.6271442
11	0x3efa17d6	0.4884631
12	0x3efe3ae8	0.49654317
13	0x3f07c631	0.5303679
14	0x3f7bab44	0.98308206
15	0x3f145ed4	0.57957196

layer1.0.bn1.bias f4 [16]
0	0xbd6e6e0f	-0.05821043
1	0xbd09787f	-0.03356218
2	0x3cb5d326	0.02219541
3	0x3bdc06b5	0.0067146667
4	0xbbed207f	-0.00723654
5	0x3e2d90cc	0.16949767
6	0x3d43f719	0.047843073
7	0x3aea113a	0.0017857917
8	0xbc8b8fc0	-0.017036319
9	0xbb957e7a	-0.0045621963
10	0x3e241c2a	0.16026369
11	0xbe42059e	-0.18947455
12	0xbdc4fd36	-0.09618609
13	0x3c955186	0.01822735
14	0xbd9e9067	-0.07742386
15	0xbdde5c3d	-0.10857437

layer1.0.bn1.running_mean f4 [16]
0	0x3bb4a83d	0.0055132196
1	0x3ca13da7	0.019682718
2	0x3d16465f	0.036688205
3	0xbbbfbf27	-0.0058516446
4	0x3c1d4b62	0.009600492
5	0xbcc9e52c	-0.02464541
6	0x3d2f44c9	0.042790208
7	0xbc042262	-0.008064838
8	0x3c77ea60	0.015131563
9	0x3ced59ef	0.028973548
10	0xbbb98475	-0.005661542
11	0x3b978c7e	0.0046249023
12	0x3c52a5d0	0.012856916
13	0x3ca4c05c	0.020111255
14	0xbd93c1f0	-0.07214725
15	0x3c6bd197	0.014393232

layer1.0.bn1.running_var f4 [16]
0	0x3e98813d	0.297861
1	0x3eb0b2a0	0.3451128
2	0x3f71c026	0.9443382
3	0x3fa6f325	1.3042952
4	0x3f1ed0b3	0.620372
5	0x3f50babe	0.81534946
6	0x3f1c9029	0.6115747
7	0x3f2adb83	0.667412
8	0x3f080da4	0.53145814
9	0x3f0993d2	0.5374118
10	0x3f32fe8a	0.69919646
11	0x3e8e2101	0.27759555
12	0x3ec0b3df	0.3763723
13	0x3f25a30e	0.64701927
14	0x3f88270a	1.0636914
15	0x3eefd7a5	0.4684421

layer1.0.conv2.weight f4 [16, 16, 3, 3, 3]
0	0x3db2cb3a	0.08730169
1	0x3dd8f728	0.10594016
2	0xbd036f9f	-0.032088872
3	0x3dea64a8	0.1144498
4	0xbdd2d389	-0.102942534
5	0xbcbc4436	-0.022981744
6	0x3d759359	0.059954975
7	0x3c120f8b	0.008914839
8	0x3ca8139e	0.020517167
9	0x3dde77bf	0.108626835
10	0x3da8e84a	0.082474306
11	0xbc2f90d0	-0.010715678
12	0x3d5bc97b	0.053658944
13	0xbdd1822b	-0.10229906
14	0xbdece589	-0.11567218
15	0x3c627b1f	0.0138233
16	0x3d7714d3	0.060322594
17	0xbd187465	-0.037220377
18	0x3d9a0c42	0.07521869
19	0x3d1f5f32	0.038909145
20	0xbc291911	-0.010320918
21	0x3cba3b88	0.022733465
22	0xbe178ff2	-0.14801005
23	0xbe00ad8e	-0.12566206
24	0x3d32f38f	0.043689307
25	0xbd9c0adf	-0.07619261
26	0xbcc5377c	-0.024074309
27	0x3d07bc9a	0.03313885
28	0xbd28819e	-0.041139238
29	0x3d3589c9	0.044320855
30	0x3b98e04c	0.00466541
31	0xbe52e09e	-0.20593497
32	0x3c3536e6	0.011060452
33	0xbd14b828	-0.036308438
34	0xbd98afd6	-0.07455413
35	0x3d8b2a93	0.0679523
36	0xbc7844db	-0.015153135
37	0xbc0260e9	-0.0079576755
38	0x3d8bc093	0.0682384
39	0x3cb3047e	0.021852728
40	0xbe1bd110	-0.1521647
41	0xbe12e105	-0.1434365
42	0xbda1133e	-0.07864998
43	0xbd7f4a9b	-0.06232701
44	0x3d867cc8	0.06566769
45	0xbd288bd5	-0.04114898
46	0xbd2b9674	-0.04189153
47	0xbdd9517e	-0.106112465
48	0x3d707fe0	0.0587157
49	0xbe3ca714	-0.1842311
50	0xbe0f4761	-0.13992073
51	0xbda83c5b	-0.08214637
52	0x3c90e0ed	0.017685378
53	0xbd239a1a	-0.039941885
54	0xbb309ca6	-0.0026948838
55	0x3e0ec16f	0.13940977
56	0x3df1098c	0.11769399
57	0x3dc1dd13	0.09465995
58	0xbd7d507a	-0.061844327
59	0x3cbb6d67	0.022879316
60	0xbab6cecf	-0.0013947132
61	0x3c86774c	0.016414307
62	0xbd1fbb6a	-0.03899709
63	0x3bbb4194	0.0057146046
64	0x3d50c9a0	0.050973535
65	0xbd67f47f	-0.056629654
66	0xbd473d33	-0.04864235
67	0xbdd544fb	-0.104135476
68	0xbc456cfe	-0.012049912
69	0xbc09cb0e	-0.008410228
70	0xbda5f17e	-0.081027016
71	0xbdab2290	-0.08356202
72	0x3cecb503	0.028894907
73	0x3dd10e97	0.10207861
74	0xbdba0cf5	-0.090845026
75	0x3d4be7be	0.049781553
76	0xbe0d968d	-0.13826962
77	0xbc180c8a	-0.009280333
78	0x3d95834c	0.073004335
79	0xbdec144b	-0.11527308
80	0xbd62a065	-0.055328745
81	0x3c3af776	0.011411538
82	0x3cc1bfaa	0.023650963
83	0xbd86597a	-0.06560035
84	0xbb43fc59	-0.002990505
85	0xbd82d52d	-0.06388316
86	0x3e0c479e	0.13699195
87	0x3d992e60	0.074795485
88	0x3d6b9974	0.05751939
89	0x3dca5dc5	0.09881166
90	0xbcc11770	-0.023570746
91	0x3dac26b7	0.08405822
92	0xbdd227f3	-0.10261526
93	0xbd127d3b	-0.03576396
94	0xbda721dd	-0.08160756
95	0x3dbd8632	0.09254111
96	0x3aa80e1a	0.0012821585
97	0x3d7c7ff1	0.061645452
98	0xbd617289	-0.05504087
99	0x3c613bf8	0.013747208
100	0xbd0938d3	-0.033501457
101	0xbda2df33	-0.07952728
102	0xb96314e7	-0.00021656194
103	0xbe1f6f89	-0.15569891
104	0xbddce913	-0.10786643
105	0xbd585554	-0.05281575
106	0x3d975299	0.07388801
107	0xbdfa40d0	-0.12219393
108	0xbca54ee8	-0.020179227
109	0x3ce54c7d	0.027990574
110	0xbe7f9f2d	-0.24963064
111	0xbdaac1f4	-0.08337775
112	0xbe1f365c	-0.1554808
113	0xbd2b428a	-0.041811503
114	0x3cc2024e	0.02368274
115	0x3b73059f	0.0037082208
116	0xbd849a77	-0.06474774
117	0xbbef50ca	-0.007303332
118	0x3cc2c0ce	0.023773577
119	0xbcf9e66b	-0.03050538
120	0xbd9eb347	-0.07749038
121	0xbdd3fb05	-0.103506126
122	0xbccd5dec	-0.0250692
123	0xbce7dd78	-0.028303847
124	0x3c0421d9	0.008064711
125	0xbdaf776c	-0.085677
126	0x3d91ffae	0.07128845
127	0x3ae61d20	0.0017556287
128	0x3c96dbad	0.018415296
129	0xbcd9a2c5	-0.026566872
130	0xbda86d5d	-0.082239844
131	0xbcae6208	-0.02128698
132	0x3bfe0b9e	0.0077528497
133	0xbc3f0d63	-0.0116609065
134	0xbde6464f	-0.11243879
135	0x3cd3a26b	0.025834283
136	0x3dc13dfb	0.0943565
137	0x3e01b25c	0.12665695
138	0x3daa46b3	0.08314266
139	0xbd62595a	-0.055260994
140	0xbe57e06d	-0.21081705
141	0x3d5e6288	0.054293185
142	0x3cec4ab8	0.028844222
143	0xbdb05ed0	-0.08611834
144	0xbda634e6	-0.08115558
145	0xbce08d06	-0.027410995
146	0x3ca1abed	0.0197353
147	0xbd09fde2	-0.033689387
148	0xbe17872f	-0.14797662
149	0x3d1ba11b	0.03799544
150	0xbb44801a	-0.002998358
151	0x3d95d401	0.07315827
152	0x3e2d1208	0.1690141
153	0xbd8845b6	-0.06653921
154	0xbdae1a2b	-0.08501085
155	0xbda89304	-0.08231166
156	0xbcc8a676	-0.024493437
157	0xbe7ff0e4	-0.24994236
158	0x3e1eedda	0.1552042
159	0xbda8b868	-0.08238298
160	0xbbf670a6	-0.007520753
161	0x3e4accc3	0.19804673
162	0x3dafb008	0.08578497
163	0x3d006ca4	0.031353608
164	0xbe345b6a	-0.17612997
165	0x3d8577f6	0.06517021
166	0xbe58a6ba	-0.21157351
167	0xbd64434b	-0.055728238
168	0xbd706fe5	-0.05870046
169	0xbbde6f9a	-0.0067882063
170	0x3c726b64	0.014796112
171	0x3d2fee82	0.04295207
172	0xbd20aab1	-0.039225284
173	0xbd191cd3	-0.037381005
174	0xbb9f589e	-0.004862859
175	0xbded8566	-0.11597709
176	0xbc9eb47a	-0.019373167
177	0x3cf05fd1	0.029342564
178	0x3d60f800	0.05492401
179	0x3d55028d	0.052004386
180	0xbc2d51d7	-0.010578594
181	0xbe0fe24c	-0.14051169
182	0x3ddd9069	0.1081856
183	0x3d84f9dc	0.064929694
184	0xbe6a53a7	-0.22883473
185	0x3d0dc64c	0.03461294
186	0xbd601192	-0.054704256
187	0xbd850abf	-0.0649619
188	0xbd189290	-0.037249148
189	0x3d98b37e	0.074561104
190	0x3c6fb72e	0.014631076
191	0xbe1061b7	-0.14099775
192	0x3e1b7b1b	0.1518368
193	0xbdb7d472	-0.089760676
194	0xbd174383	-0.03692962
195	0xbc94c390	-0.018159658
196	0xbc9f5b98	-0.019452855
197	0x3d0eb950	0.034844697
198	0x3c78712c	0.015163701
199	0xbb9a9dfb	-0.00471854
200	0x3d6e367a	0.05815742
201	0x3c1722dc	0.00922462
202	0xbdde306f	-0.10849082
203	0x3daefc3a	0.08544202
204	0x3dacc0c9	0.08435208
205	0xbd02a5eb	-0.031896513
206	0xbd5c258f	-0.053746756
207	0x3cf2c1f4	0.0296335
208	0x3b323572	0.00271925
209	0x3d067da2	0.032834657
210	0x3b9c1598	0.0047633164
211	0xbddf05a9	-0.108897515
212	0x3dcd1a44	0.100147754
213	0xbd115aed	-0.035487104
214	0xbddae127	-0.10687476
215	0x3d71334f	0.058886822
216	0xbc3f4d6b	-0.011676173
217	0x3c978c94	0.01849965
218	0xbb53c09f	-0.0032310856
219	0x3d979afb	0.07402607
220	0xbe1ca731	-0.15298153
221	0xbd6d6053	-0.05795319
222	0xbd0c6217	-0.034273233
223	0xbdea19fe	-0.11430739
224	0xb97c2bab	-0.0002404886
225	0x3c78b111	0.015178935
226	0xbbc75a77	-0.0060837823
227	0xbdc54362	-0.09631993
228	0x3da08241	0.07837344
229	0xbdc2cece	-0.09512101
230	0x3c915922	0.017742697
231	0x3b4be2f6	0.003111062
232	0x3c0b5833	0.008504915
233	0x3dc163b3	0.09442844
234	0xbc40d2c4	-0.011769
235	0xbe025193	-0.1272643
236	0xbe03cca3	-0.12871031
237	0x3d702cfe	0.058636658
238	0xbe08e07b	-0.13366883
239	0x3d30cab6	0.04316207
240	0xbc7ac994	-0.015306849
241	0x3dac9b31	0.08428038
242	0x3d6b3269	0.05742112
243	0x3c16f9ed	0.00921486
244	0x3c841671	0.016123982
245	0xbd0a359d	-0.033742536
246	0x3cba6aaa	0.02275594
247	0xbe182c22	-0.14860585
248	0xbc4bdcaa	-0.012442747
249	0x3cf4aa2d	0.029866302
250	0x3d9dac99	0.07698936
251	0xbe2b4b1b	-0.16727869
252	0x3c824c14	0.015905418
253	0xbc287844	-0.01028258
254	0xbdb0c674	-0.08631602
255	0xbd167325	-0.036730904

layer1.0.conv2.bias f4 [16]
0	0xb71e1537	-9.422473e-06
1	0xb8239565	-3.9001363e-05
2	0x38c4b871	9.380363e-05
3	0x37836344	1.5662641e-05
4	0x37c61218	2.3611865e-05
5	0xb7f88740	-2.9626884e-05
6	0x38d465c9	0.00010127907
7	0xb6333506	-2.6703942e-06
8	0x36e59f41	6.8432714e-06
9	0xb6c86822	-5.972587e-06
10	0x375591fa	1.2729777e-05
11	0x348a4920	2.5757708e-07
12	0xb801c26b	-3.0937063e-05
13	0xb8698ffa	-5.5685618e-05
14	0x384ca10c	4.8787377e-05
15	0x37a4a70a	1.9628107e-05

layer1.0.bn2.weight f4 [16]
0	0x3f26cf48	0.65160036
1	0x3f10bb30	0.56535625
2	0x3f2713b6	0.6526445
3	0x3ee8e622	0.45488077
4	0x3ecef860	0.4042387
5	0x3f00ef70	0.5036535
6	0x3f22aa07	0.6354069
7	0x3f2e1071	0.6799384
8	0x3f1df0a3	0.6169531
9	0x3ef14365	0.4712173
10	0x3f0f8ee4	0.5607741
11	0x3ea52671	0.3225589
12	0x3f02b14a	0.5105177
13	0x3f3d7f59	0.7402244
14	0x3f0c5b6b	0.5482699
15	0x3f0b8074	0.5449288

layer1.0.bn2.bias f4 [16]
0	0xbe1b9001	-0.15191652
1	0x3d890eb2	0.06692256
2	0xbe25a4f8	-0.16176212
3	0x3d8a1d85	0.06743912
4	0x3ec2333f	0.37929723
5	0xbe250888	-0.16116536
6	0xbd6ff578	-0.058583707
7	0xbe4617ff	-0.19345091
8	0xbe07ab78	-0.13249004
9	0xbe6fe57c	-0.23427385
10	0xbe29e765	-0.16592176
11	0xbe160373	-0.14649753
12	0x3e1f6c57	0.15568672
13	0xbe214c3d	-0.15751739
14	0xbd94d703	-0.07267573
15	0x3d60d0e6	0.05488672

layer1.0.bn2.running_mean f4 [16]
0	0xbf88e496	-1.0694759
1	0xbf74f4c9	-0.9568601
2	0xbfa7e9b8	-1.31182
3	0xbf17f6b0	-0.5936079
4	0xbf1b8723	-0.6075308
5	0xbf9bbae5	-1.2166411
6	0xbf9d3810	-1.2282734
7	0xbfae8035	-1.3632876
8	0x3f8c2e60	1.0951653
9	0x3d856712	0.065138
10	0x3f7bc9cd	0.983548
11	0xbf2250c2	-0.63404477
12	0xbeedfeb4	-0.46483386
13	0xbfa8e8db	-1.3196062
14	0xbf822ad7	-1.0169324
15	0xbfa9a8a8	-1.3254595

layer1.0.bn2.running_var f4 [16]
0	0x3feb5fce	1.8388612
1	0x3fc2b9bb	1.521293
2	0x3feaab89	1.8333598
3	0x3fae7b23	1.3631328
4	0x3fec09da	1.8440506
5	0x4000b1b4	2.0108461
6	0x3fc5d2fb	1.5455011
7	0x40649891	3.571812
8	0x40a91f62	5.285081
9	0x3ffd39c1	1.978325
10	0x4028b435	2.635999
11	0x3f9c630e	1.2217729
12	0x3f91c0c0	1.1386948
13	0x3febb48b	1.8414472
14	0x400b8b6b	2.1803844
15	0x4020c16b	2.5118053

layer1.0.conv3.weight f4 [16, 16, 1, 1, 1]
0	0xbc108458	-0.008820616
1	0x3c0e2a37	0.008677057
2	0xbded8b1b	-0.11598798
3	0x3e053885	0.13009842
4	0x3e0c3a6c	0.13694161
5	0xbdb2080c	-0.08692941
6	0x3d12173f	0.0356667
7	0xbd789977	-0.06069323
8	0xbd25427f	-0.04034662
9	0xbdc4cc88	-0.09609324
10	0xbe220f4e	-0.15826151
11	0x3c5a6dfb	0.013331885
12	0xbe2cbb33	-0.16868286
13	0xbd464981	-0.048409943
14	0xbdf342bf	-0.11877965
15	0xbd07cb6c	-0.033152983
16	0x3d7a0080	0.061035633
17	0xbc8e1b3a	-0.017346967
18	0xbe3f94ba	-0.18709078
19	0x3db27bd7	0.08715027
20	0x3e033d7a	0.1281642
21	0xbdc87f3f	-0.09789895
22	0xbdceb8ad	-0.10093818
23	0xbe37851f	-0.17921875
24	0xbdc981e1	-0.098392256
25	0x3d4df0ab	0.050278347
26	0xbde132ec	-0.10996041
27	0xbd5d0d89	-0.053967986
28	0x3d9ebf4d	0.077513315
29	0x3a9d5499	0.0012003361
30	0xbe4e5fc2	-0.20153716
31	0xb9af69d0	-0.00033457438
32	0xbe865f13	-0.2624441
33	0x3d789373	0.060687494
34	0x3e093428	0.13398802
35	0xbd06d7bc	-0.032920584
36	0xbe43d73c	-0.19125074
37	0x3e6ae028	0.22937071
38	0x3ce19d69	0.02754088
39	0x3e1549d8	0.1457895
40	0xbdaf2901	-0.08552743
41	0xbd430a50	-0.047617257
42	0xbe102b37	-0.14078985
43	0xbbb1391c	-0.0054084193
44	0x3b055221	0.0020343142
45	0x3de44dee	0.111476764
46	0xb9cc5a2c	-0.00038977095
47	0x3e52af90	0.20574784
48	0xbd70d8ab	-0.05880038
49	0xbe30bc6a	-0.17259374
50	0xbe27a4d7	-0.16371475
51	0x3db1c897	0.086808376
52	0xb9d031b1	-0.00039709875
53	0x3aa3a2f4	0.0012484477
54	0xbe763101	-0.24042131
55	0xbe3415e3	-0.17586474
56	0x3d2a8dfd	0.041639317
57	0x3df7b635	0.120953
58	0x3d823c5d	0.0635917
59	0xbe473316	-0.19453081
60	0xbbadf02e	-0.0053081727
61	0x3e2979ad	0.16550322
62	0xbe4127cc	-0.18862838
63	0xbd333e48	-0.043760568
64	0xbceca450	-0.028886944
65	0xbb9ee8d5	-0.004849533
66	0xbe2abee2	-0.16674379
67	0x3dd3d497	0.10343283
68	0x3e06cb14	0.13163406
69	0x3c0b02ff	0.008484601
70	0xbd984196	-0.074343845
71	0x3dae12f1	0.084997065
72	0x3de22335	0.110418715
73	0x3e13bbd5	0.14427121
74	0x3e3dbdd0	0.18529439
75	0x3e058622	0.13039449
76	0x3e77de47	0.24205886
77	0x3d8f0a9e	0.06984447
78	0xbddd9210	-0.10818875
79	0x3de671e6	0.11252193
80	0xbdc999e5	-0.09843806
81	0xbcb4725d	-0.022027189
82	0x3de8a71e	0.1136
83	0xbe2e8671	-0.17043473
84	0xbe6bba65	-0.23020323
85	0x3e15b702	0.14620593
86	0xbe142793	-0.14468221
87	0x3d9a3a33	0.07530632
88	0xbd871218	-0.06595248
89	0x3cd3de21	0.025862755
90	0xbda348e0	-0.07972884
91	0xbdeca6a7	-0.11555224
92	0xbce9c38a	-0.028535623
93	0x3e8b5c72	0.27218968
94	0xbe61f2d2	-0.22065285
95	0x3e05ef68	0.13079607
96	0xbdbb52f9	-0.09146685
97	0xbdf24b67	-0.11830788
98	0xbd7373dc	-0.059436664
99	0x3ce44b58	0.027867958
100	0xbe16fab5	-0.14744075
101	0x3cbd48a9	0.023105936
102	0x3d6134d7	0.054982033
103	0x3e5dbb49	0.21653475
104	0x3e105dd9	0.140983
105	0x3aa57964	0.0012624678
106	0x3d78356d	0.060597826
107	0xbe23866d	-0.15969248
108	0xbdfae220	-0.12250161
109	0xbe883c5d	-0.26608554
110	0xbb14ad4c	-0.00226863
111	0xbe07316a	-0.13202444
112	0xbe208f40	-0.15679646
113	0xbe26e12f	-0.16296838
114	0x3e00052b	0.12501971
115	0xbd944516	-0.072397396
116	0xbdf483c0	-0.11939192
117	0x3d8abf2d	0.06774745
118	0x3dc3000c	0.09521493
119	0x3e37c804	0.17947394
120	0xbe2205a3	-0.15822463
121	0xbc18e555	-0.009332021
122	0xbddbd9ce	-0.10734902
123	0x3c9ee577	0.019396527
124	0xbdc7913b	-0.097444974
125	0x3d90886d	0.07057271
126	0xbe0ff94a	-0.1405994
127	0x3cd33f2b	0.025786957
128	0xbc140200	-0.00903368
129	0x3d9feec6	0.07809214
130	0x3e755631	0.2395866
131	0xbd9dd465	-0.07706527
132	0xbe47a17c	-0.19495195
133	0x3b9d7d0c	0.0048061665
134	0x3e756ee4	0.23968083
135	0x3b42b2ae	0.0029708552
136	0xbd85ec01	-0.06539155
137	0xbdedbcca	-0.11608274
138	0xbd18f322	-0.037341245
139	0xbdd63f25	-0.104612626
140	0xbe528305	-0.20557792
141	0x3de9875c	0.11402771
142	0x3dddb1a7	0.108249
143	0xbd82eeb2	-0.06393184
144	0x3db0aea5	0.08627061
145	0x3e15f3e8	0.14643824
146	0xbe4e835e	-0.201673
147	0x3c1d2ae4	0.009592745
148	0x3db9e15d	0.09076188
149	0xbdbb36d5	-0.09141318
150	0xbe1e7395	-0.15473779
151	0xbddfa304	-0.10919765
152	0x3a19f087	0.0005872328
153	0x3de98b4f	0.11403524
154	0x3dc7aad3	0.09749379
155	0xbe1034c2	-0.14082626
156	0xbb80b606	-0.003927949
157	0xbe208798	-0.15676725
158	0xbcad0cd4	-0.021124281
159	0xbe8a92f9	-0.27065256
160	0xbe3e016f	-0.18555234
161	0xbe334a7a	-0.1750888
162	0xbe1de900	-0.15420914
163	0x3cb15ccd	0.021650696
164	0x3c749bb4	0.014929701
165	0x3dbd85bd	0.09254024
166	0xbe786929	-0.24258865
167	0x3e0e7a66	0.13913879
168	0x3dc04df5	0.09389869
169	0xbd965cca	-0.07341917
170	0xbdd4f860	-0.10398936
171	0xbd5d4c9d	-0.054028142
172	0x3bc6860c	0.00605846
173	0xbdc8e6ec	-0.0980967
174	0xbdeb87f4	-0.115005404
175	0x3e167e2b	0.14696567
176	0x3d469b34	0.048487857
177	0x3e2d2207	0.16907512
178	0x3e2afbda	0.16697636
179	0x3e8acc85	0.2710916
180	0xbd2f6777	-0.04282328
181	0x3db35749	0.08756883
182	0x3dc8537a	0.09781547
183	0xbcc90004	-0.02453614
184	0xbcbfcd83	-0.023413425
185	0xbe5334ae	-0.20625564
186	0xbdf67e69	-0.120358296
187	0xbd883658	-0.0665099
188	0x3ce76dc8	0.02825059
189	0x3e1cc216	0.15308413
190	0x3da0032f	0.07813107
191	0xbdc6425b	-0.09680625
192	0xbd2f29fe	-0.042764656
193	0x3d9dfc54	0.077141434
194	0xbe01cdfd	-0.12676235
195	0x3db63777	0.08897298
196	0xbd3b50ef	-0.04573148
197	0x3ccd1848	0.025035992
198	0xbe16957a	-0.14705458
199	0xbd56912e	-0.052384548
200	0x3da067e0	0.078323126
201	0x3d9e57e8	0.077316105
202	0x3dc3c291	0.09558595
203	0x3db579cc	0.088611215
204	0xbda5568b	-0.080731474
205	0xbeb60868	-0.35553288
206	0xbe3c33b5	-0.183791
207	0xbe1fb127	-0.15594922
208	0xbd4ac469	-0.049503718
209	0xbe9777d2	-0.29583603
210	0xbdbc54aa	-0.09195836
211	0x3d2557ce	0.04036694
212	0xbd33a2e3	-0.043856513
213	0x3c45f8e0	0.012083262
214	0xbe481315	-0.19538529
215	0xbe69acfd	-0.22819896
216	0x3dbd9846	0.092575595
217	0x3cd936fd	0.026515478
218	0x3c6954fd	0.014241454
219	0xbd977b62	-0.0739658
220	0xbd28aa63	-0.04117812
221	0x3db04896	0.08607595
222	0xbe509845	-0.20370586
223	0x3d3d3de1	0.04620159
224	0xbd436c44	-0.047710672
225	0x3e5c02d6	0.21485457
226	0x3e08687b	0.13321106
227	0x3d4e24b1	0.05032796
228	0xbe595a98	-0.21225965
229	0x3d044529	0.03229252
230	0x3bf7aa8d	0.007558173
231	0x3d0228dc	0.031777248
232	0xbe4f3ebe	-0.20238778
233	0xbd16f7c8	-0.036857396
234	0xbcf73125	-0.030174801
235	0xbdc2d6e5	-0.09513644
236	0xbe96ee73	-0.29478797
237	0xbdd5d665	-0.10441283
238	0x3d961009	0.07327277
239	0xbd993711	-0.07481206
240	0x3e9eee18	0.31041026
241	0x3b9063f5	0.004406447
242	0xbbf5c989	-0.0075008315
243	0xbbf7b0b7	-0.007558908
244	0xbe1be6f7	-0.15224825
245	0x3aff5d7e	0.0019482819
246	0x3d9e3253	0.07724442
247	0x3e193069	0.14959873
248	0xbdfcf4f3	-0.12351408
249	0xbe56ccd6	-0.20976576
250	0xbd2ad832	-0.041710086
251	0x3ca23850	0.019802243
252	0x3d3776e9	0.044791136
253	0xbdfc72c3	-0.123265766
254	0x3ccfa3eb	0.025346717
255	0xbd06f4d4	-0.03294833

layer1.0.conv3.bias f4 [16]
0	0xb7fdbbe8	-3.0247451e-05
1	0x39234b14	0.0001557286
2	0xb79a62e2	-1.8404276e-05
3	0x37d47ef3	2.5331485e-05
4	0x39812a4c	0.0002463631
5	0xb9a51e6d	-0.0003149392
6	0x3898613a	7.266035e-05
7	0xb987da01	-0.00025911632
8	0xb7a6ede4	-1.9899519e-05
9	0xb8742f8c	-5.8218415e-05
10	0xb7f15aa0	-2.877164e-05
11	0xb8352b44	-4.3194057e-05
12	0x370c22f1	8.352786e-06
13	0x3831355e	4.224979e-05
14	0xb861d4f8	-5.3842523e-05
15	0x37fb5fe6	2.9966188e-05

layer1.0.bn3.weight f4 [16]
0	0x3f0b71bb	0.54470414
1	0x3f165b29	0.5873285
2	0x3f2bdfb5	0.67138225
3	0x3eff6e50	0.4988885
4	0x3eff199a	0.4982422
5	0x3f57458e	0.8409051
6	0x3edcfcaf	0.43161532
7	0x3f49c284	0.7881243
8	0x3f334667	0.700293
9	0x3ee134ef	0.43985698
10	0x3ebb8a5d	0.36629
11	0x3f3464b8	0.70466185
12	0x3edf425f	0.43605325
13	0x3f065610	0.5247507
14	0x3f400446	0.7500652
15	0x3f5264eb	0.8218524

layer1.0.bn3.bias f4 [16]
0	0x3cf4bfbb	0.02987658
1	0x3cdc8742	0.026919965
2	0xbea7dd30	-0.3278594
3	0x3e2e9c57	0.17051826
4	0xbe5011fc	-0.2031936
5	0xbf0441b4	-0.51662755
6	0xbd7ae30f	-0.061251696
7	0xbe6c6a58	-0.23087442
8	0xbe95a49d	-0.29227152
9	0x3be28741	0.006913096
10	0xbf09cafe	-0.53825366
11	0xbdc96fe8	-0.098357975
12	0x3d82f707	0.06394773
13	0xbc81f50b	-0.015863916
14	0xbe4607e8	-0.19338953
15	0xbd66103d	-0.05616783

layer1.0.bn3.running_mean f4 [16]
0	0xbd3f12dc	-0.046648845
1	0xbd01f0ec	-0.0317239
2	0xbc86d1c4	-0.016457446
3	0xbde664a4	-0.112496644
4	0x3e3ee94e	0.18643686
5	0xbdff6468	-0.12470323
6	0xbe168352	-0.14698532
7	0xbe014293	-0.12623052
8	0xbd89339e	-0.06699298
9	0xbd7fdd86	-0.06246712
10	0xbdc5fad9	-0.09666986
11	0x3de05e2f	0.10955464
12	0xbe139a67	-0.14414369
13	0xbe24c4e5	-0.16090734
14	0xbe1c9ded	-0.15294619
15	0xbd31fa7e	-0.04345178

layer1.0.bn3.running_var f4 [16]
0	0x3c3c6859	0.011499488
1	0x3caeb6fc	0.021327488
2	0x3c92dec4	0.017928489
3	0x3c96567b	0.018351784
4	0x3ca061a7	0.019577814
5	0x3c4da413	0.012551325
6	0x3d0c2c79	0.0342221
7	0x3c372c22	0.011179956
8	0x3caa72f5	0.020806769
9	0x3c966890	0.018360406
10	0x3ce36b49	0.027761118
11	0x3c9bc348	0.019014016
12	0x3cc41375	0.02393506
13	0x3c9a87af	0.018863527
14	0x3cada208	0.021195427
15	0x3c097581	0.0083898315

layer1.0.shortcut.0.weight f4 [16, 8, 1, 1, 1]
0	0x3e5c140a	0.2149202
1	0xbc66342c	-0.014050525
2	0xbc8f61bb	-0.017502656
3	0x3d6cc439	0.05780432
4	0xbd8998bf	-0.06718587
5	0xbe143f22	-0.14477208
6	0x3d7cc888	0.06171468
7	0xbb639a36	-0.0034729368
8	0xbe169762	-0.14706185
9	0xbd98ac1c	-0.07454702
10	0x3e47fdfc	0.19530481
11	0x3c3ba1c1	0.011452139
12	0xbd0fc99f	-0.03510439
13	0x3dc42031	0.095764525
14	0xbd5f9716	-0.054587446
15	0x3de55c40	0.11199236
16	0xbe0975a7	-0.13423787
17	0xbe2d2dd4	-0.16912013
18	0x3a9805a1	0.0011598357
19	0xbd7afe1b	-0.06127749
20	0xbe45cf20	-0.19317293
21	0xbc29b2e3	-0.010357591
22	0x3c0a2eb1	0.008433984
23	0x3c0d346a	0.0086184535
24	0xbb14b534	-0.0022691013
25	0x3e14f422	0.14546254
26	0xbd97f2a6	-0.074193284
27	0x3e145738	0.14486396
28	0x3d1ced47	0.038312223
29	0x3ccf6c32	0.025320146
30	0xbd5db8df	-0.054131385
31	0xbe83f934	-0.25776064
32	0xbbb7e3a0	-0.005611852
33	0x3c855d78	0.016279921
34	0xbe8df20d	-0.27723733
35	0xbe0b8c28	-0.13627684
36	0xbd95232e	-0.072821006
37	0xbe100955	-0.1406606
38	0x3d06ce64	0.032911673
39	0x3d87aca0	0.066247225
40	0xbd79ae2c	-0.06095712
41	0xbc98aa4c	-0.018635891
42	0xbc8a42ad	-0.016877497
43	0xbe5af2c0	-0.21381664
44	0xbe034b95	-0.12821801
45	0xbe694c84	-0.22783095
46	0x3a37542f	0.00069934403
47	0x3dcc4a33	0.0997509
48	0x3d70ca70	0.05878681
49	0xbd861d54	-0.06548563
50	0x3d37a197	0.04483184
51	0xbde28471	-0.110604174
52	0xbd22b1bc	-0.039720282
53	0x3c882c89	0.016622799
54	0x3dcb92f7	0.09940141
55	0x3ec79c20	0.389863
56	0xbd993943	-0.07481625
57	0xbea12f9c	-0.31481636
58	0x3dc8cd49	0.0980478
59	0x3db28947	0.0871759
60	0xbc44046b	-0.011963944
61	0x3d006e1d	0.031355012
62	0x3c203a56	0.009779533
63	0xbd20f54e	-0.03929644
64	0x3c5084e0	0.012726992
65	0x3e58aa3a	0.21158686
66	0xbe9262b1	-0.2859092
67	0x3c14fc7c	0.0090934
68	0x3d31e703	0.0434332
69	0x3cf7cbc4	0.03024853
70	0x3be12fbb	0.006872145
71	0x3c809271	0.015694829
72	0x3d01888f	0.031624373
73	0x3c107393	0.008816618
74	0xbd5fc1e8	-0.054628283
75	0x3ca125f6	0.019671421
76	0x3e6c5180	0.23077965
77	0x3e295a4c	0.16538352
78	0x3da2f6ce	0.079572305
79	0xbde6f9c9	-0.112781115
80	0xbd1d2cad	-0.038372684
81	0xbd81b1da	-0.063327506
82	0x3ec4caa6	0.38435858
83	0xbc0760a7	-0.00826279
84	0xbd1c1aae	-0.03811138
85	0xbc1b5b8a	-0.009482274
86	0x3bf469d0	0.007458903
87	0x3e1e8ac2	0.1548262
88	0xbe067e0b	-0.13134019
89	0xbdd8734c	-0.10568866
90	0x3e0c0b7a	0.13676253
91	0x3c0c004f	0.008544995
92	0xbda7180e	-0.08158885
93	0xbcfa0dd2	-0.030524168
94	0x3ce08dd6	0.027411383
95	0xbe7242f5	-0.23658355
96	0x3d200502	0.039067276
97	0xbe0e9304	-0.1392327
98	0x3d0ec771	0.03485817
99	0xbe215e5b	-0.1575865
100	0xbe50af19	-0.20379294
101	0xbe3ce9cc	-0.18448561
102	0x3d60e78a	0.054908313
103	0x3d702d05	0.058636684
104	0xbd5bafca	-0.053634442
105	0xbe692ade	-0.22770259
106	0xbda8c5b0	-0.08240831
107	0xbd43a17f	-0.047761437
108	0x3d4b50ad	0.049637485
109	0x3d4e711c	0.05040084
110	0x3d6541d7	0.055970993
111	0x3e2eee14	0.17083007
112	0xbe43d4e3	-0.19124179
113	0xbd870e69	-0.065945454
114	0xbd1cefb1	-0.038314525
115	0xbdd3886b	-0.10328754
116	0x3a29a0b8	0.00064707873
117	0xbd7b4bf7	-0.061351743
118	0xbe37298d	-0.17886944
119	0xbd68f993	-0.056878638
120	0xbd0bf7f4	-0.034172013
121	0xbe138d3e	-0.14409348
122	0xbd372d70	-0.044721067
123	0xbdb23d19	-0.0870306
124	0xbe279775	-0.1636637
125	0xbc9efaa7	-0.01940663
126	0xbe0b6009	-0.13610853
127	0x3d3168d0	0.043312848

layer1.0.shortcut.0.bias f4 [16]
0	0xb70d7028	-8.430368e-06
1	0x38affb42	8.391451e-05
2	0x387ec673	6.074314e-05
3	0xb7fa9a6a	-2.9874227e-05
4	0x3981bc76	0.00024745212
5	0xb8ec07ee	-0.00011254834
6	0xb90f7496	-0.00013680974
7	0x36beef30	5.6902863e-06
8	0x37c79418	2.379161e-05
9	0xb8f5b5a8	-0.000117163465
10	0xb8511351	-4.9847473e-05
11	0x386ba2da	5.6180033e-05
12	0x3794af38	1.7724567e-05
13	0xb83f691e	-4.5635847e-05
14	0x37338d6f	1.07021615e-05
15	0xb7fdf11f	-3.0272231e-05

layer1.0.shortcut.1.weight f4 [16]
0	0x3e900778	0.28130698
1	0x3ee69d6e	0.45041984
2	0x3e3faf74	0.18719274
3	0x3eda05b2	0.4258247
4	0x3eb246bd	0.34819594
5	0x3ea1c8af	0.31598422
6	0x3ef0fc13	0.47067317
7	0x3ea96c47	0.33090422
8	0x3f05d695	0.5228055
9	0x3ee0bd36	0.43894356
10	0x3f0c3426	0.5476707
11	0x3f16ddb1	0.58932024
12	0x3f079038	0.52954435
13	0x3ed1818f	0.40919158
14	0x3ecfb7b7	0.4056985
15	0x3e847275	0.25868574

layer1.0.shortcut.1.bias f4 [16]
0	0x3cf4bfbb	0.02987658
1	0x3cdc8742	0.026919965
2	0xbea7dd30	-0.3278594
3	0x3e2e9c57	0.17051826
4	0xbe5011fc	-0.2031936
5	0xbf0441b4	-0.51662755
6	0xbd7ae30f	-0.061251696
7	0xbe6c6a58	-0.23087442
8	0xbe95a49d	-0.29227152
9	0x3be28741	0.006913096
10	0xbf09cafe	-0.53825366
11	0xbdc96fe8	-0.098357975
12	0x3d82f707	0.06394773
13	0xbc81f50b	-0.015863916
14	0xbe4607e8	-0.19338953
15	0xbd66103d	-0.05616783

layer1.0.shortcut.1.running_mean f4 [16]
0	0x3cc3e5f5	0.023913363
1	0x3c77c213	0.0151219545
2	0xbdeefa12	-0.11668791
3	0xbc635a82	-0.013876559
4	0xbdcf08ea	-0.10109122
5	0xbdc04cce	-0.09389649
6	0x3dab53f1	0.0836562
7	0xbd82c418	-0.06385058
8	0x3b542f20	0.0032376722
9	0x3d85ded8	0.06536645
10	0x3db5e2a8	0.08881122
11	0xbdae1707	-0.08500486
12	0xbdab0a91	-0.08351625
13	0xbd0e8309	-0.034792934
14	0xbe0d842a	-0.13819948
15	0xbdea8797	-0.11451643

layer1.0.shortcut.1.running_var f4 [16]
0	0x3cbe76c1	0.023249986
1	0x3cd9a67d	0.026568646
2	0x3ccaa381	0.024736168
3	0x3c5d7ab8	0.013518028
4	0x3cacdf00	0.021102428
5	0x3cc4dc82	0.024030928
6	0x3cba6afc	0.022756092
7	0x3d10cfb1	0.03535432
8	0x3ca96eaf	0.02068266
9	0x3c9bb37c	0.019006483
10	0x3cb0cc8d	0.021581912
11	0x3cc1fdfa	0.023680676
12	0x3cf6562f	0.030070392
13	0x3cdb2653	0.026751673
14	0x3cf5d3c3	0.030008202
15	0x3ca8b210	0.02059272

layer1.1.conv1.weight f4 [32, 16, 3, 3, 3]
0	0x3b30b85d	0.0026965358
1	0xbd13aa33	-0.036050986
2	0xbc8bba2e	-0.01705655
3	0x3b02d30e	0.0019962224
4	0x3b3cacd9	0.0028789549
5	0xbc79e3d8	-0.015252076
6	0xbb9d07e8	-0.0047922023
7	0xbaa50491	-0.0012589862
8	0x3b9de4c0	0.004818529
9	0xba9dc072	-0.0012035503
10	0x3d646aae	0.0557658
11	0x3cb9bc8c	0.022672914
12	0xbb86f353	-0.004118362
13	0x3cb9e0e4	0.022690244
14	0x3cf1fff5	0.029540995
15	0x3cd217d4	0.025646128
16	0x3cc93730	0.024562448
17	0x3d22afb6	0.039718352
18	0x3b8de039	0.004329708
19	0xbcf2ff69	-0.029662805
20	0xbc664dc4	-0.014056627
21	0x3bba287a	0.0056810947
22	0xbcc6348f	-0.024194984
23	0xbcdd511f	-0.02701622
24	0xbcfeeb2d	-0.031118
25	0xbc959ba0	-0.018262684
26	0xbd46437c	-0.048404202
27	0x3c1485b3	0.0090650795
28	0xbc2c47e4	-0.010515187
29	0x3c729c98	0.014807843
30	0xbc76a55f	-0.015054076
31	0xbc9f5cc2	-0.01945341
32	0x3d5a6c82	0.053326137
33	0x3c9ab43f	0.018884776
34	0xbc8c8bc7	-0.017156495
35	0x3a69a634	0.0008913011
36	0xbc1afd39	-0.009459787
37	0x3b711f88	0.0036792476
38	0xbcd8e0d3	-0.026474392
39	0xba378309	-0.0007000422
40	0x3d267195	0.040635664
41	0xbd83d2f5	-0.06436721
42	0xbd0bdf26	-0.034148358
43	0x3cd8a8e6	0.026447725
44	0x3c9ad07b	0.01889824
45	0xbbe8eea8	-0.007108528
46	0x3c583691	0.013196603
47	0x3a05cb57	0.00051038474
48	0x3be8125c	0.0070822667
49	0xbc87b846	-0.01656736
50	0x3c723b3b	0.014784629
51	0x3cbbdbd7	0.022931976
52	0xbb931fbd	-0.0044898675
53	0xbd099e72	-0.03359837
54	0xbc2ceafe	-0.010554073
55	0xbb6e83d1	-0.0036394487
56	0x3c32d19f	0.010914235
57	0x3c6bf371	0.014401303
58	0xbca4af4c	-0.02010312
59	0xbd351aea	-0.04421512
60	0xbc766a9c	-0.015040066
61	0xbc9e681d	-0.019336754
62	0xbae5a448	-0.0017520273
63	0x3d852145	0.06500486
64	0x3ca798e5	0.020458648
65	0x3c729574	0.01480614
66	0xbbad5f7a	-0.0052909227
67	0x3c71c7c1	0.014757098
68	0x3d960095	0.0732433
69	0x3c905dd1	0.01762286
70	0x3c1831c9	0.009289213
71	0xbb6d7675	-0.0036233936
72	0xbd3380bd	-0.043823946
73	0xbbb567ba	-0.005536047
74	0xbcf1de6a	-0.029525
75	0x3ba26511	0.0049558957
76	0x3b152ba0	0.0022761598
77	0xbd1e02fc	-0.038577065
78	0xbc1330f9	-0.008983844
79	0x3c349730	0.011022374
80	0x3ac5884d	0.0015070528
81	0xbcd00b0a	-0.025395889
82	0xbd8e3f35	-0.069456495
83	0x3c3a2bb8	0.011362962
84	0xbd695680	-0.05696726
85	0xbd392c4c	-0.04520826
86	0x3d14cca9	0.03632799
87	0xbc00520e	-0.007832063
88	0xbc4740e8	-0.012161471
89	0xbd5613de	-0.05226504
90	0x3c895609	0.016764658
91	0x3daabb30	0.083364844
92	0xbd6b420f	-0.057436045
93	0x3d47fc4e	0.0488246
94	0x3dd6a20b	0.10480126
95	0xbd1ca53d	-0.03824352
96	0xbd16abc9	-0.03678492
97	0x3d3e358e	0.046437792
98	0x3dccfdcb	0.10009345
99	0x3c2f5c38	0.010703139
100	0xbd0f0564	-0.03491725
101	0x3d3889e2	0.04505337
102	0x3b4d1200	0.0031291246
103	0xbd0caf34	-0.034346774
104	0x3d17887e	0.036995403
105	0x3d1c720a	0.038194694
106	0xbc7331be	-0.014843402
107	0xbd7b00f2	-0.0612802
108	0xbd1709db	-0.036874633
109	0xbd0f0fb9	-0.034927104
110	0x3c826fa8	0.015922382
111	0x3d1d7dff	0.038450237
112	0x3d66821a	0.05627642
113	0x3d0b3317	0.03398427
114	0x3d11ef0f	0.035628375
115	0x3cd61ecb	0.02613773
116	0x3a3b3f41	0.00071429095
117	0x3d017b9d	0.031612027
118	0x3d8713d4	0.06595579
119	0x3c83e4a6	0.016100239
120	0xbd505590	-0.05086285
121	0xbd4971ef	-0.04918092
122	0x3ac8950e	0.0015303211
123	0xbcc7aa04	-0.024373062
124	0x3d03139c	0.032001123
125	0x3cb9ea97	0.022694869
126	0xbc1220aa	-0.0089189205
127	0xbd6e7e05	-0.05822565
128	0xbd345f46	-0.044036172
129	0x3cbb0e32	0.022833917
130	0x3c9de741	0.01927531
131	0xbc8384ef	-0.016054599
132	0x3c910495	0.01770238
133	0xbcb6bae6	-0.022305917
134	0xbcdf9274	-0.027291514
135	0xbd159224	-0.036516324
136	0xbd1aa847	-0.037758138
137	0x3d344589	0.044011626
138	0x3c69a9a0	0.014261633
139	0x3d10ae9b	0.035322767
140	0xb9d7c0d4	-0.00041151664
141	0x3cfca709	0.030841367
142	0x3d02ac35	0.03190251
143	0xbccd9128	-0.02509363
144	0x3d4e65a8	0.050389916
145	0x3d674e83	0.05647136
146	0xbd738532	-0.059453197
147	0xbd1859b6	-0.03719493
148	0xbd5c86c9	-0.05383948
149	0xbc9b4d3f	-0.018957732
150	0xbda076ac	-0.07835135
151	0xbd441687	-0.047873046
152	0x3ce8969e	0.028392132
153	0xbb769aa9	-0.0037628806
154	0xbba21263	-0.0049460395
155	0x3c4d494a	0.0125296805
156	0x3d19d739	0.037558768
157	0x3d3bb935	0.045830924
158	0x3b8d3c63	0.004310177
159	0x3d41c1ac	0.04730384
160	0x3d5b2719	0.053504083
161	0xbc9585de	-0.01825231
162	0xbce5a861	-0.02803439
163	0x3d1160a2	0.035492547
164	0xbba89fa9	-0.005145986
165	0xbb0f291b	-0.002184457
166	0x3dbaa6b5	0.09113828
167	0xbcb09bd8	-0.021558687
168	0xbcadc513	-0.021212136
169	0xbd0e4b4b	-0.034739774
170	0xbd398e0b	-0.04530148
171	0x3d34e670	0.044165075
172	0xbd3132ec	-0.043261454
173	0x3d58916d	0.052873064
174	0xbb789ec3	-0.0037936426
175	0xbe0c15c7	-0.13680182
176	0x3d29cb18	0.04145345
177	0x3cc181b3	0.023621416
178	0x3d1fbb33	0.038996886
179	0x3d2fc7a0	0.042914987
180	0xbccd2c98	-0.025045678
181	0x3c876fac	0.016532741
182	0xbd54e8ac	-0.051979706
183	0x3ba42293	0.0050090044
184	0x3db46a78	0.0880937
185	0xbbfd2b4f	-0.00772611
186	0x3c426736	0.011865428
187	0xbbe5f671	-0.0070179035
188	0xbb3291d4	-0.0027247565
189	0xbd09fce9	-0.03368846
190	0xbb03d1a2	-0.0020113965
191	0xbaae9f54	-0.001332263
192	0xbb811a11	-0.003939875
193	0xbc4e8c11	-0.012606637
194	0xbb8c257c	-0.0042769294
195	0xbc8e1e30	-0.017348379
196	0x3cfee743	0.031116134
197	0xbbf182d2	-0.0073703313
198	0x3d1224ac	0.035679504
199	0xbccc8f19	-0.024970578
200	0x3c75d4d7	0.015004358
201	0xb9c2fa2a	-0.0003718895
202	0xbcab84d1	-0.020937355
203	0xbb1eedad	-0.0024250553
204	0xbbfa77af	-0.007643662
205	0xbd049441	-0.03236795
206	0x3b556f3f	0.0032567529
207	0xbc49e943	-0.01232368
208	0x3cb54717	0.022128625
209	0xbc51014b	-0.012756656
210	0x3c03cecb	0.008044909
211	0x3ced627a	0.028977621
212	0x39bf4792	0.00036483683
213	0x3c30b93b	0.01078635
214	0x3c947cce	0.018125918
215	0x3b9416ac	0.0045193043
216	0x3d1bfebe	0.038084738
217	0xbd29d436	-0.041462146
218	0xbdcb30d1	-0.0992142
219	0x3b162e92	0.0022915942
220	0xbd04d6bc	-0.03243135
221	0xbdcae384	-0.099066764
222	0x3d1302c4	0.03589131
223	0xbc008f59	-0.007846677
224	0x3d293d0a	0.041317977
225	0xbce9356f	-0.028467862
226	0xbb9a697a	-0.004712281
227	0x3de0a82b	0.109695755
228	0x3bbfeea4	0.0058573056
229	0xbd149115	-0.036271174
230	0x3de71115	0.11282555
231	0x3ca58d42	0.020208959
232	0xbbaf9956	-0.0053588552
233	0xbdf3ed0d	-0.11910448
234	0x3c1617fa	0.00916099
235	0x3d3d4dd2	0.046216793
236	0xbc3c54e9	-0.0114948535
237	0xbbe462ac	-0.0069697704
238	0x3d8458b4	0.06462231
239	0xbbd22750	-0.006413378
240	0xbd5738ce	-0.052544408
241	0x3c65b8af	0.014021083
242	0x3dbd4703	0.0924206
243	0x3cd0b500	0.025476933
244	0xbcceafa7	-0.025230242
245	0x38ae778e	8.319235e-05
246	0xbcf244cb	-0.029573819
247	0x3c696ff4	0.014247883
248	0x3ce229a2	0.027607743
249	0xbd1bca7d	-0.038034905
250	0x3c38f02d	0.011287731
251	0x3be7a1bb	0.0070688403
252	0xbced1ecf	-0.028945355
253	0x3d4faffd	0.050704945
254	0x3c7caee5	0.0154225575
255	0x3d1a7fd3	0.03771956

layer1.1.conv1.bias f4 [32]
0	0x3542ab80	7.2520197e-07
1	0xb6bcc465	-5.6257e-06
2	0xb8170b67	-3.6011825e-05
3	0x36d58d3a	6.3643356e-06
4	0x38044cea	3.1542884e-05
5	0xb7283c10	-1.0027565e-05
6	0x34b6743a	3.3984708e-07
7	0xb707a95b	-8.086058e-06
8	0xb7adb886	-2.0709133e-05
9	0xb506d704	-5.023178e-07
10	0xb7f106ba	-2.8732571e-05
11	0x36849dc8	3.9522747e-06
12	0x376ef2b6	1.4242416e-05
13	0xb7ca9504	-2.4149667e-05
14	0xb6b55ac6	-5.4047878e-06
15	0x37a6520a	1.9826944e-05
16	0x370cd0ff	8.393311e-06
17	0x383c11ea	4.4839377e-05
18	0x37075d04	8.068284e-06
19	0x36388864	2.7497526e-06
20	0x37837c13	1.5674193e-05
21	0x36f53987	7.308266e-06
22	0xb757d757	-1.2865136e-05
23	0xb82804ec	-4.0058905e-05
24	0xb5c3bce2	-1.4583604e-06
25	0x383f7372	4.5645465e-05
26	0xb77e0095	-1.5139715e-05
27	0xb7b67f47	-2.1755359e-05
28	0xb6bc88ca	-5.618761e-06
29	0x37258c5b	9.867445e-06
30	0xb6fbbb0b	-7.5021576e-06
31	0x36a61ecc	4.9507707e-06

layer1.1.bn1.weight f4 [32]
0	0x3e3b7a43	0.18308358
1	0x3ed8d7c5	0.4235212
2	0x3e6a3d3e	0.22874925
3	0x3eeca08b	0.46216235
4	0x3efb27e8	0.49053884
5	0x3f07bec8	0.53025484
6	0x3e8b451e	0.2720117
7	0x3ec96f58	0.3934276
8	0x3db48dba	0.08816095
9	0x3e3db13d	0.18524642
10	0x3ef80403	0.4844056
11	0x3efd779a	0.4950531
12	0x3ecd6909	0.40119198
13	0x3ee55cb5	0.44797292
14	0x3ef7b8e0	0.48383236
15	0x3e91e3cf	0.28494117
16	0x3ead9d50	0.33909082
17	0x3eea3ee9	0.45751122
18	0x3ea75948	0.32685304
19	0x3eea0404	0.4570619
20	0x3ea687c1	0.32525447
21	0x3eac4287	0.33644506
22	0x3ebc4577	0.36771747
23	0x3e836fde	0.25671285
24	0x3ea85716	0.3287894
25	0x3f082661	0.5318356
26	0x3e7164a5	0.23573549
27	0x3ed4f11b	0.415902
28	0x3f0471d6	0.517362
29	0x3ebb8624	0.3662578
30	0x3eb052be	0.34438127
31	0x3eb87ba2	0.36031824

layer1.1.bn1.bias f4 [32]
0	0xbe99bca3	-0.3002673
1	0xbe24969e	-0.16073081
2	0x3eac2289	0.33620098
3	0xbeae7ce3	-0.34079656
4	0xbdd416a8	-0.10355884
5	0xbe95d6aa	-0.29265338
6	0xbe99c19a	-0.3003052
7	0xbe8a02c9	-0.2695525
8	0x3ef7e9be	0.4842052
9	0xbe393ff6	-0.18090805
10	0xbe3790cf	-0.17926334
11	0xbeaee948	-0.34162354
12	0xbe10aca3	-0.14128356
13	0xbd21a4d5	-0.039463837
14	0xbed69276	-0.41908616
15	0xbd4cf05e	-0.05003392
16	0xbe4e457f	-0.20143698
17	0x3f0b367e	0.54380023
18	0xbeb1f738	-0.34758925
19	0xbe999607	-0.29997274
20	0xbdbf7472	-0.09348382
21	0xbe8a14e6	-0.2696907
22	0xbe3e78fc	-0.1860084
23	0x3ecc3b2c	0.39888895
24	0xbe6a536e	-0.22883388
25	0xbe5cd170	-0.21564269
26	0xbd3e1f91	-0.046416823
27	0xbe2e1378	-0.16999614
28	0xbe846b64	-0.25863183
29	0xbe409904	-0.18808371
30	0x3c727616	0.014798662
31	0xbeb3dcb1	-0.35129312

layer1.1.bn1.running_mean f4 [32]
0	0x3c654da8	0.0139955655
1	0x3e2ce337	0.1688355
2	0xbd851c04	-0.06499484
3	0x3dee50c6	0.116365
4	0xbd7124f1	-0.05887312
5	0x3d627c88	0.055294544
6	0x3da2c563	0.07947805
7	0xbc7d730e	-0.015469326
8	0xb9e8510d	-0.00044310876
9	0x3c3a0931	0.01135473
10	0x3d2d98c9	0.042382035
11	0xbcfebc35	-0.031095603
12	0xbddeab3e	-0.108725056
13	0xbd8ff544	-0.070292026
14	0x3d0a56ac	0.033774063
15	0x3cbdc180	0.023163557
16	0x3dcf1a97	0.101124935
17	0xbe05239f	-0.1300187
18	0x3ca326e4	0.019916005
19	0xbd48680e	-0.04892736
20	0xbbc37663	-0.0059650405
21	0x3d0cfdda	0.03442178
22	0xbd18a622	-0.03726781
23	0xbca2a723	-0.019855088
24	0xbd9e3cd6	-0.07726447
25	0x3c14d08d	0.0090829255
26	0x3dfc6514	0.123239666
27	0xbd3aa54f	-0.045567807
28	0xbd968db8	-0.073512495
29	0x3cfa7ca3	0.03057701
30	0x3b8ff090	0.004392691
31	0xbc94dd4f	-0.018171934
