log/sem_seg/NUDT-MIRSDT-Noise8.0_FJY(g0.15-o1.3)__2024-12-27_23-28__SoftLoUloss_DeepPro_DataL40/checkpoints/best_model.pth (torch, 811632 bytes, 547 tensors)

conv_in.0.weight f4 [8, 1, 5, 1, 1]
-0.15173551 0.07220461 -0.16934691 0.04302835 -0.13439336 0.36103466 -0.057020415 -0.4212825
-0.007055871 0.1399142 0.28993666 0.09406629 0.15948762 -0.1918361 -0.34762955 -0.27525556
-0.12531868 0.3657377 -0.11898432 0.1568175 0.10492002 0.025802681 -0.04024683 -0.04421249
0.33713266 -0.33639672 0.10478585 -0.04688125 -0.1296214 0.41467404 -0.30315608 -0.29356506
-0.035177834 0.2709843 0.36905235 0.031943496 0.40736252 0.16001324 0.15878497 -0.19430903
00000000: 8e60 1bbe 03e0 933d 4769 2dbe 7f3e 303d
00000010: 6a9e 09be 89d9 b83e 3d8e 69bd 57b2 d7be
00000020: f034 e7bb ab45 0f3e 9472 943e d4a5 c03d
00000030: b950 233e af70 44be 80fc b1be 4cee 8cbe
00000040: 8a53 00be f941 bb3e 0dae f3bd c494 203e
00000050: 4fe0 d63d 2560 d33c dcd9 24bd 2818 35bd
00000060: a79c ac3e 313c acbe f799 d63d 8e06 40bd
00000070: 79bb 04be 2850 d43e 4637 9bbe 294e 96be
00000080: a216 10bd 74be 8a3e 6ef4 bc3e 2fd7 023d
00000090: d291 d03e 83da 233e 8798 223e f2f8 46be

conv_in.0.bias f4 [8]
-5.7183053e-05 6.69339e-05 6.374961e-05 0.00021497993 -6.1188424e-05 -0.0001527981 -0.00014235743 -1.4004651e-05
00000000: d6d7 6fb8 dd5e 8c38 50b1 8538 3c6c 6139
00000010: 4952 80b8 6d38 20b9 c845 15b9 85f5 6ab7

conv_in.1.weight f4 [8]
0.66231686 0.6555023 0.9695123 0.7273573 0.6540693 0.658838 0.8975215 0.58649075
00000000: 998d 293f 00cf 273f f531 783f 1734 3a3f
00000010: 1671 273f 9ba9 283f f8c3 653f 4224 163f

conv_in.1.bias f4 [8]
0.042409264 0.0041139186 0.3978855 0.08473052 -0.04833697 0.20374572 0.37742904 -0.28642893
00000000: 56b5 2d3d 0dce 863b a6b7 cb3e 3287 ad3d
00000010: fdfc 45bd b8a2 503e 613e c13e d0a6 92be

conv_in.1.running_mean f4 [8]
-0.014637231 -0.0006767884 0.0014984162 0.00052051665 0.015549232 -0.00078225625 -0.0009841279 0.025466096
00000000: ffd0 6fbc 806a 31ba 8166 c43a 4873 083a
00000010: 35c2 7e3c 5410 4dba dafd 80ba 469e d03c

conv_in.1.running_var f4 [8]
0.24278158 0.034946408 0.06484347 0.033781465 0.30713546 0.048119307 0.09846481 0.7119271
00000000: bc9b 783e f723 0f3d a7cc 843d 6f5e 0a3d
00000010: dc40 9d3e c018 453d eba7 c93d db40 363f

layer1.0.conv1.weight f4 [16, 8, 3, 1, 1]
1.0377e-41 -1.4243e-41 3.3372e-41 -7.731873e-34 1.4084852e-16 2.4691719e-29 1.187848e-27 -6.031425e-17
-3.0534227e-27 -6.718929e-39 -2.1452812e-26 5.5075e-41 -4.2003e-41 3.6437e-41 2.9224e-41 4.4603e-41
-9.942e-42 4.697e-41 -1.01129235e-29 -5.954721e-20 9.2158265e-33 -2.2274e-41 5.948e-41 3.8711e-41
-1.7386e-41 6.768e-41 -5.1451e-41 -4.6945814e-27 -1.8703099e-13 1.1457695e-20 2.6554724e-22 2.4747656e-15
-3.259106e-23 -2.3450872e-23 -4.4648377e-14 7.898055e-26 -6.8062e-41 6.0727e-41 6.9813e-41 -8.499509e-39
-1.8740892e-24 4.2584e-34 -1.6236581e-23 -5.1873805e-15 1.463955e-23 -4.6788e-41 -4.1353553e-31 -5.6498e-41
7.39e-42 3.0835288e-34 2.7076e-41 -1.6044777e-24 -1.5265567e-14 7.6554484e-25 7.1823485e-20 2.3369282e-11
-2.2320346e-20 -2.6439263e-23 2.1373375e-14 2.5360928e-29 -3.784e-41 -3.959e-41 5.4757e-41 -2.6916652e-32
-6.641847e-18 1.3537067e-26 -6.170295e-20 -6.055535e-12 4.2196605e-18 2.2596e-41 -8.22147e-22 -4.678e-41
1.2123e-41 1.004e-41 2.8944e-41 1.0452725e-19 -1.5980764e-11 2.2739874e-20 -6.9086564e-20 3.9353597e-11
-1.8569595e-18 4.909052e-21 -1.3852084e-13 1.1578185e-29 7.194e-42 1.0256e-41 3.426e-41 1.363805e-31
-1.5123735e-18 9.920322e-34 9.957598e-22 -2.4885138e-15 8.958167e-26 -3.1767e-41 4.7658647e-25 6.387e-42
4.0235e-41 1.4862e-41 5.748e-41 4.0704257e-21 -1.24540576e-14 4.3542114e-33 1.9031306e-25 -1.6755211e-14
4.0882374e-20 -1.57987e-40 3.457826e-21 1.605567e-39 -3.656e-41 -5.5874e-41 2.0358e-41 -6.3657e-41
-2.4876122e-30 -5.1859e-41 4.3967375e-35 5.5410535e-20 -1.1780729e-31 -4.5992e-41 1.32184255e-36 -4.5538e-41
4.3722e-41 5.6774e-41 -4.2326e-41 -3.649237e-23 -8.920859e-11 1.1500132e-15 2.3147414e-21 1.1903361e-11
-7.2840636e-19 2.8657743e-20 2.0411121e-13 -1.4412421e-29 3.0113e-41 -4.36e-42 4.6903e-41 1.7513806e-28
-1.1109009e-16 5.7187644e-28 2.1641393e-15 -4.293093e-11 1.2459163e-20 -4.7005e-41 -2.3120549e-24 -3.6898e-41
-6.104e-41 -1.5794392e-33 -2.61279e-39 -4.9810236e-30 -6.0062585e-14 2.24611e-21 -3.3444405e-21 3.5576834e-13
-2.7139423e-25 1.487816e-30 5.5168986e-17 3.818582e-34 -8.29e-42 2.0158e-41 5.3087e-41 -5.2365284e-34
-9.6484466e-20 3.2104244e-31 -3.5949654e-23 -8.6851174e-14 5.511877e-21 2.9364e-41 -9.814545e-23 -2.8172e-41
-2.2918e-41 -1.6521926e-26 -2.0502307e-30 -5.515443e-21 -6.605112e-12 7.568021e-18 -9.076175e-18 2.434775e-10
-2.1188978e-18 -1.3002919e-20 4.260284e-12 -2.9953263e-23 3.7488e-41 2.5657113e-38 3.594e-42 -2.4593987e-32
-6.6769595e-19 5.378296e-25 1.5607493e-19 -3.80062e-13 5.632085e-19 -9.641e-42 -3.5786438e-20 1.343652e-39
1.5273e-41 -2.457e-41 3.345e-42 5.0821e-41 6.5473875e-22 1.5146335e-37 1.3271785e-36 1.9795424e-21
-9.243753e-37 1.4808e-41 -2.8616576e-23 -2.194e-42 6.4519e-41 5.4732e-41 -5.1492e-41 -6.1674e-41
-1.2470947e-23 -3.4967e-41 2.7636e-41 -3.5563895e-21 6.0682e-41 2.7997e-41 2.1743e-40 2.9349e-41
-6.2027e-41 9.268e-42 -1.2058e-41 -3.6365436e-31 -4.218602e-17 8.7489846e-29 1.5819307e-34 1.6839127e-21
-1.2102699e-32 -8.017813e-32 -1.0931448e-22 -2.8835e-41 -5.137e-42 1.115e-41 2.2948e-41 2.5512e-41
-4.9328534e-31 -2.1651e-41 -6.9698003e-31 -4.0068887e-21 8.360654e-39 -3.7588e-41 -4.3265413e-32 6.7419e-41
2.0331e-41 -4.64e-41 -1.6004e-41 -1.1892238e-36 4.645614e-17 -1.6856259e-28 -1.078294e-21 1.454567e-14
-3.3917023e-29 -8.092482e-28 -1.2677967e-19 -3.8038e-41 7.052e-41 6.7491e-41 5.7258e-41 7.336e-42
00000000: ed1c 0000 b427 0080 075d 0000 c077 8088
00000010: 2563 2225 5e67 fa0f d738 bc12 4013 8ba4
00000020: c5ea 7193 a429 4980 5775 d494 8799 0000
00000030: 1675 0080 9265 0000 7751 0000 567c 0000
00000040: b71b 0080 ef82 0000 4d1d 4d8f 149a 8c9f
00000050: bd67 3f0a 173e 0080 cea5 0000 e96b 0000
00000060: 7730 0080 aabc 0000 6d8f 0080 b6f8 b993
00000070: 0394 52aa 036e 581e 7283 a01b 5e53 3227
00000080: c799 1d9a 8ccd e299 1314 49a9 df8b c315
00000090: bbbd 0080 48a9 0000 9cc2 0000 2c8d 5c80
000000a0: 2900 1198 7682 0d08 d407 9d99 24e5 baa7
000000b0: c595 8d19 6d82 0080 3033 068d 7e9d 0080
000000c0: 9a14 0000 86ef cc07 7a4b 0000 e947 f897
000000d0: 0080 89a8 b6ec 6c17 a296 a91f f28e cd2d
000000e0: 49cf d29e 72b4 ff99 a683 c028 5e98 0010
000000f0: 7c69 0080 5c6e 0080 a498 0000 5ec2 0b8b
00000100: 790a f5a2 8b10 8614 25b1 919f 690f d5ac
00000110: 91ad 9b22 fd3e 0000 8b7a 789c 6782 0080
00000120: cb21 0000 fd1b 0000 af50 0000 d8ce f61f
00000130: 7b91 8cad a4c5 d61e 4420 a39f 3614 2d2e
00000140: f904 09a2 7075 b91d eaf5 1baa 60d5 6a0f
00000150: 0e14 0000 971c 0000 815f 0000 3208 310c
00000160: db2f dfa1 62d4 a408 9779 961c fa50 33a7
00000170: 21cb dd15 8e58 0080 127f 1317 ce11 0000
00000180: 2970 0000 6e29 0000 3ba0 0000 bec6 991d
00000190: 345a 60a8 ebdd b409 9e98 6b16 e3ea 96a8
000001a0: c20f 411f 67b8 0180 0ba2 821d ab7b 1100
000001b0: ea65 0080 c19b 0080 c038 0000 73b1 0080
000001c0: afd1 498e 9090 0080 4ac5 6906 9dd5 821f
000001d0: 30ec 188c 3580 0080 5de6 e003 f17e 0080
000001e0: e179 0000 439e 0000 fd75 0080 5e77 309a
000001f0: f92b c4ae 00bc a526 9ce5 2e1d f967 512d
00000200: d4fc 56a1 1655 071f 0dcf 652a c928 928f
00000210: f153 0000 270c 0080 bf82 0000 8d03 5e11
00000220: 0214 00a5 213c 3512 53f1 1b27 eecf 3cae
00000230: d158 6b1e 0883 0080 f7e2 3298 db66 0080
00000240: 28aa 0080 f536 0389 6573 1c80 e80d ca8e
00000250: b93f 87a9 16b6 291d e3b2 7c9d 9f47 c82a
00000260: 22fc a796 7569 f10d 0b6c 7e24 cec9 fd07
00000270: 1c17 0080 3138 0000 fc93 0000 7503 2e88
00000280: 48d1 e39f 535e d00c 84d7 2d9a 4b92 c3a9
00000290: 9a3b d01d db51 0000 174d ed9a 884e 0080
000002a0: e33f 0080 0fa0 a394 a055 268e 175e d09d
000002b0: 8f65 e8ac f89a 0b23 066d 27a3 69da 852f
000002c0: d958 1ca2 429e 759e 3ae5 952c 58d8 109a
000002d0: 8068 0000 ccb0 0b01 050a 0000 0866 ff8a
000002e0: ae11 45a1 4073 2617 c142 3820 b5f4 d5aa
000002f0: d53a 2621 e01a 0080 26ff 289f 8ea1 0e00
00000300: 932a 0000 7e44 0080 5309 0000 ab8d 0000
00000310: f5e1 451c 4629 4e02 c7ce e103 eb91 151d
00000320: 3946 9d83 4729 0000 9b61 0a9a 1e06 0080
00000330: dab3 0000 9298 0000 8a8f 0080 ecab 0080
00000340: 2339 7199 7961 0080 0a4d 0000 4a5b 869d
00000350: 28a9 0000 0b4e 0000 1b5e 0200 d051 0000
00000360: e8ac 0080 d619 0000 9d21 0080 7206 ec8c
00000370: 768c 42a4 28d0 dd10 5046 5207 3877 fe1c
00000380: fc5c 7b8a 8227 d08b 3127 049b 6150 0080
00000390: 520e 0080 151f 0000 f83f 0000 1e47 0000
000003a0: 8b14 208d 5b3c 0080 d62e 628d 4060 979d
000003b0: 1a0a 5b00 c868 0080 99a5 608b f0bb 0000
000003c0: ad38 0000 5881 0080 9d2c 0080 0056 ca83
000003d0: bb3d 5624 b0ad 5591 7bf2 a29c 0804 8328
000003e0: d0fa 2b90 023b 8092 ceac 15a0 096a 0080
000003f0: 95c4 0000 23bc 0000 9d9f 0000 7314 0000

layer1.0.conv1.bias f4 [16]
-2.56432e-40 -2.2663e-41 -1.7955e-41 8.8397e-41 1.63962e-40 3.0736e-41 -1.5676e-41 5.2581e-41
-1.64682e-40 6.8863e-41 -3.2517e-41 -5.6217e-41 -4.9906e-41 5.1593e-41 -3.447e-41 -9.008e-42
00000000: d4ca 0280 2d3f 0080 0d32 0080 6af6 0000
00000010: 0fc9 0100 ae55 0000 b32b 0080 9392 0000
00000020: 11cb 0180 f6bf 0000 a55a 0080 b69c 0080
00000030: 1e8b 0080 d28f 0000 1760 0080 1c19 0080

layer1.0.bn1.weight f4 [16]
7.926483e-13 7.191983e-13 1.2978476e-09 7.365186e-11 1.0751977e-11 1.3107712e-12 5.1733447e-11 7.847568e-10
3.2241627e-13 4.591281e-13 6.347954e-13 2.9387538e-11 2.527213e-09 2.0584548e-10 7.2301587e-10 1.5765945e-10
00000000: 541c 5f2b b36f 4a2b f45f b230 50f6 a12e
00000010: 9a26 3d2d 8279 b82b af86 632e 5ab6 5730
00000020: 1581 b52a ab3b 012b d4ad 322b 6d3f 012e
00000030: 34ab 2d31 5a54 622f b8bd 4630 3159 2d2f

layer1.0.bn1.bias f4 [16]
-9.934529e-21 -1.3508352e-19 9.468951e-18 9.418519e-19 1.6880554e-19 1.7759402e-22 2.2171974e-19 7.944199e-18
-1.9321e-41 6.224606e-32 -6.998677e-21 1.1030549e-21 -4.279991e-18 -5.068603e-15 2.533094e-18 6.3350037e-28
00000000: 6fa8 3b9e 7d7a 1fa0 dbab 2e23 29fe 8a21
00000010: 584a 4720 b0b2 561b 57e1 8220 6b8b 1223
00000020: dc35 0080 9a99 a10b 8633 049e 5fb0 a61c
00000030: 5fe7 9da2 9c9d b6a7 cbe8 3a22 a8c3 4812

layer1.0.bn1.running_mean f4 [16]
-3.638278e-19 -1.3188872e-14 2.1983988e-12 4.088517e-12 -2.8270021e-15 -8.155323e-12 3.157232e-14 3.008724e-11
-1.6673855e-22 -2.2742353e-18 1.8332762e-15 -2.1769236e-13 2.9040529e-12 1.7653182e-13 -7.118792e-13 8.73234e-12
00000000: 1ac4 d6a0 f096 6da8 d5b2 1a2c 16da 8f2c
00000010: fcb4 4ba7 4f78 0fad 6830 0e29 3953 042e
00000020: 1593 499b 17cf 27a2 fa19 0427 8d19 75aa
00000030: c45a 4c2c d5c1 462a 4d60 48ab f79e 192d

layer1.0.bn1.running_var f4 [16]
4.0351397e-32 4.3220124e-26 2.1314437e-21 5.0502604e-21 1.2168085e-27 1.7855763e-20 5.090416e-25 1.817589e-19
7.9965e-41 2.6506068e-33 7.274443e-28 2.4426713e-23 1.6299652e-21 7.1546e-24 1.4615035e-22 1.5127429e-20
00000000: 3584 510b 0404 5615 1e0c 211d 1fcb be1d
00000010: 9ecf c012 96a4 a81e 6e8a 1d17 4295 5620
00000020: e9de 0000 2c34 5c09 4b89 6612 9d3d ec19
00000030: 3950 f61c dd63 0a19 58af 301b e1df 8e1e

layer1.0.conv2.weight f4 [16, 16, 3, 1, 1]
-6.71e-41 -9.707e-42 5.8336e-41 -3.323e-41 4.591e-41 -1.6395e-41 1.7972835e-34 3.738241e-21
1.2145396e-36 7.5838903e-28 -1.2282176e-20 -3.42716e-40 -7.373819e-19 -3.3511105e-17 2.1015871e-34 4.5762e-41
1.5529042e-25 1.480374e-30 -3.5482e-41 2.920942e-22 7.176497e-33 8.1896515e-32 1.1602465e-22 4.4715e-41
-5.8473e-41 5.6638342e-30 -3.85751e-40 8.52e-42 6.488535e-32 -3.6218e-41 -3.8796e-41 -2.3562445e-36
-8.86e-42 -2.9769401e-34 7.4258857e-22 3.8516e-41 -5.0142505e-23 -2.3699501e-15 -6.18256e-36 -8.851026e-32
-1.822664e-20 1.64354e-40 5.0657007e-37 2.0821152e-23 4.787389e-32 -1.5176844e-21 -1.6879548e-17 -8.293058e-37
7.18e-41 1.6402e-41 -4.1459e-41 -6.3574e-41 -3.6399e-41 -4.5045e-41 -1.2501e-41 -9.892e-42
1.8482037e-36 -3.6596e-41 -1.8347e-41 -4.0137e-41 4.5797e-41 1.5905e-41 6.48684e-25 -3.823702e-37
-3.269231e-37 -1.9611e-41 -3.9923e-41 5.8885e-41 2.479921e-39 4.58229e-40 6.872e-42 -5.2748e-41
1.106e-42 2.0586621e-36 -1.5484546e-37 3.8142e-41 -3.459e-41 -1.0057e-41 -6.4371e-41 -4.5769e-41
-3.163e-41 -2.424e-41 -1.74816e-40 4.4364e-41 -1.9398e-41 -3.1372e-41 -5.093128e-27 2.282e-41
6.0473e-41 -9.966e-42 5.3455e-41 -6.2599e-41 7.167569e-36 2.0923e-41 1.7738e-41 -1.4296213e-31
-2.2837e-41 -3.7687e-41 -4.549e-41 -6.034e-41 3.356e-41 3.0544e-41 6.4718e-41 4.2691304e-22
-2.8849e-41 9.64e-42 9.516336e-25 -8.132e-42 -2.0086566e-33 -1.9829119e-27 2.737e-41 -1.8087e-41
1.5767453e-29 1.2106e-41 5.673e-41 2.4664994e-24 1.2472e-41 6.3651e-41 2.5641253e-25 -6.236e-42
-9.958e-42 2.674469e-33 -4.1665e-41 1.4649e-41 4.6826e-41 -5.1928e-41 -6.6947e-41 1.413e-41
4.1323e-41 5.6921e-41 4.6544028e-24 -6.6039e-41 3.7319802e-37 -5.3392634e-21 4.2671e-41 -1.0045e-41
-2.921572e-24 3.2682e-41 -6.6677e-41 1.0032362e-23 2.419e-42 -4.5551583e-36 -2.4877938e-24 5.0258e-41
-5.9208e-41 1.5812e-41 1.9161e-41 -5.2006e-41 6.6626e-41 -4.94493e-40 2.6018e-41 1.5340625e-19
1.8477915e-36 2.3295796e-34 2.0473258e-22 3.674e-42 -6.3306673e-27 -6.2435486e-25 9.078039e-39 -6.15e-43
3.8614936e-28 3.1738233e-34 6.5272e-41 5.070562e-21 2.0015338e-35 2.7097806e-34 1.2593249e-22 -2.415e-41
6.1151e-41 2.678372e-28 7.17075e-40 -4.5062e-41 2.9494328e-37 -2.982e-42 -2.1012e-41 4.5185e-41
5.7628e-41 1.63106e-40 2.347545e-21 -1.4503e-41 1.17012815e-29 -3.8094645e-18 -8.521742e-39 -1.6735832e-37
-1.5483044e-21 5.0288e-41 -5.6779e-40 4.361767e-21 2.7495254e-33 -5.505577e-30 -1.8234128e-21 6.5983e-41
4.9265e-41 -1.5142e-41 -1.21672e-40 5.5811e-41 6.5355e-41 5.849115e-37 5.4897e-41 2.3643749e-28
-6.5173e-41 2.5254471e-26 -2.2452112e-22 5.6001e-41 -3.2201692e-20 -9.734132e-19 -1.7399e-41 -3.3679e-41
6.33979e-39 4.7802117e-31 -9.6056e-41 3.598665e-26 1.0046e-41 2.079019e-25 3.0612595e-26 2.4534e-41
-3.025e-42 3.814e-42 2.5457e-41 3.316e-41 5.5662e-41 -1.2809e-41 8.158e-42 2.41654e-40
1.19301e-40 6.97173e-31 1.6264946e-23 -3.1997e-41 6.5469945e-26 -8.851922e-19 -2.1241e-41 6.350264e-29
-2.3399142e-22 2.8833e-41 -4.5343e-41 6.709757e-29 -4.75402e-40 -4.1699457e-27 -1.8325302e-19 6.6183e-41
5.31e-42 -6.1905e-41 -6.7054e-41 1.9074337e-38 -4.456e-42 1.4593e-41 2.1992712e-35 6.2331924e-20
4.05793e-29 -1.78433e-40 1.328442e-23 1.2111e-41 3.003e-42 -7.712919e-36 7.88624e-40 7.194362e-35
00000000: 0cbb 0080 0f1b 0080 9ea2 0000 a25c 0080
00000010: fa7f 0000 b42d 0080 63e6 6e07 0c3a 8d1d
00000020: a9a4 ce03 d457 7012 f500 689e 5abb 0380
00000030: 00a3 59a1 ee8a 1aa4 a7ac 8b07 917f 0000
00000040: 803d 4016 5534 f00d e962 0080 638f b01b
00000050: ce0c 150a 929d d40b e443 0c1b a67c 0000
00000060: 00a3 0080 9ec0 e50e 5133 0480 c017 0000
00000070: b673 a80b f664 0080 266c 0080 7672 4884
00000080: b318 0080 03da c587 026f 601c 5e6b 0000
00000090: 6a79 729a ddc5 2aa7 0f7d 0385 28c9 e58b
000000a0: 5025 ac9e 27ca 0100 7a60 2c03 ad5e c919
000000b0: 5193 780b 9258 e59c b5af 9ba3 5d19 8d83
000000c0: 26c8 0000 b92d 0000 9273 0080 38b1 0080
000000d0: 7765 0080 917d 0080 d922 0080 931b 0080
000000e0: 503a 1d04 0466 0080 2533 0080 e36f 0080
000000f0: aa7f 0000 562c 0000 0bc2 4817 241d 0283
00000100: 0a7e de82 ab36 0080 4a6f 0080 26a4 0000
00000110: 0301 1b00 5bfd 0400 2813 0000 0a93 0080
00000120: 1503 0000 b121 2f04 c5c3 5282 536a 0000
00000130: 6c60 0080 091c 0080 71b3 0080 967f 0080
00000140: 2c58 0080 9243 0080 51e7 0180 ab7b 0000
00000150: 1336 0080 7457 0080 74c2 c993 9d3f 0000
00000160: 93a8 0000 c81b 0080 0395 0000 80ae 0080
00000170: f56f 1805 533a 0000 7231 0000 5193 398c
00000180: a93f 0080 0e69 0080 cf7e 0080 34a8 0080
00000190: 8d5d 0000 2555 0000 68b4 0000 cc06 011c
000001a0: 6b50 0080 df1a 0000 1742 9317 ab16 0080
000001b0: 67df 2689 3b1a 1d93 4c4c 0000 6b32 0080
000001c0: a6e6 9f0f bf21 0000 249e 0000 0ed6 3e18
000001d0: c422 0000 6fb1 0000 30b6 9e16 6211 0080
000001e0: c21b 0080 aa2f 5e09 2574 0080 d628 0000
000001f0: 8882 0000 c190 0080 9fba 0080 6427 0000
00000200: 3173 0000 ac9e 0000 f90e b418 17b8 0080
00000210: 44fc fd02 30b6 c99d f376 0000 001c 0080
00000220: b20b 6298 1b5b 0000 deb9 0080 da0d 4219
00000230: be06 0000 48c1 c184 d57b 4098 198c 0000
00000240: 0ca5 0080 142c 0000 6a35 0000 f990 0080
00000250: bab9 0000 7262 0580 8748 0000 321c 3520
00000260: 5631 1d04 bed3 9a07 aa81 771b 3e0a 0000
00000270: 98c8 fa93 7d3a 4197 e1d9 6200 b701 0080
00000280: 51c0 f411 ceef d207 f4b5 0000 778f bf1d
00000290: efd6 d405 8718 b407 383e 181b 5243 0080
000002a0: 77aa 0000 12c3 a911 eace 0700 9d7d 0080
000002b0: 5eba c802 5008 0080 933a 0080 f57d 0000
000002c0: a5a0 0000 acc6 0100 2060 311d 6e28 0080
000002d0: 8754 6d0f 608b 8ca2 26cb 5c80 ddcb 6382
000002e0: 20f9 e99c 2f8c 0000 c42e 0680 6cc8 a41d
000002f0: f06b 6409 2e55 df8e efc5 099d efb7 0000
00000300: 5589 0000 362a 0080 2c53 0180 949b 0000
00000310: 2fb6 0000 fa08 4703 0899 0000 2ddc 9511
00000320: adb5 0080 b11b fa14 f6b6 879b 1c9c 0000
00000330: 7511 189f 83a6 8fa1 8030 0080 e25d 0080
00000340: c108 4500 7220 1b0d c40b 0180 8032 3215
00000350: 011c 0000 5faf 8016 1396 1715 6444 0000
00000360: 6f08 0080 a20a 0000 f746 0000 705c 0000
00000370: 2a9b 0000 b523 0080 be16 0000 a2a1 0200
00000380: 904c 0100 de3e 620d 0e4e 9d19 3259 0080
00000390: 8218 a215 9ea1 82a1 363b 0080 92ff a010
000003a0: 6b70 8d9b 6050 0000 667e 0080 d01c aa10
000003b0: 3a2d 0580 4630 a593 d458 58a0 7eb8 0000
000003c0: cd0e 0000 91ac 0080 ebba 0080 7eb3 cf00
000003d0: 6c0c 0080 ae28 0000 dbdd e905 562d 931f
000003e0: f1c2 4d10 66f1 0180 a17a 8019 c321 0000
000003f0: 5f08 0000 2009 2485 5d96 0800 4a42 bf06

layer1.0.conv2.bias f4 [16]
2.02349e-40 6.9169034e-37 -7.9036e-41 7.4579e-41 8.0254e-41 -1.26247e-40 -1.07304e-40 -1.931e-41
-2.9874e-41 -1.9206973e-37 2.2918e-41 3.032e-41 1.28961e-40 7.7605e-41 5.1402e-41 7.1821e-41
00000000: 1134 0200 ba5e 6b03 52dc 0080 e5cf 0000
00000010: b7df 0000 ed5f 0180 1f2b 0180 d435 0080
00000020: 4753 0080 44b7 8282 e33f 0000 8554 0000
00000030: 7e67 0100 55d8 0000 4a8f 0000 35c8 0000

layer1.0.bn2.weight f4 [16]
1.1529146e-10 3.6641753e-12 2.6976834e-12 1.24493384e-11 1.7701339e-11 1.1942567e-11 1.9936316e-13 5.1229545e-13
1.954793e-12 6.633487e-11 7.1831577e-12 4.6412115e-13 3.0441866e-10 4.358868e-11 2.1175154e-13 3.742097e-12
00000000: 5287 fd2e f5eb 802c 25d5 3d2c d602 5b2d
00000010: dfb3 9b2d 8a18 522d 8576 602a c732 102b
00000020: 6c8e 092c 36df 912e 22bc fc2c 74a3 022b
00000030: 1e5b a72f 7eb4 3f2e 3a69 6e2a d0a9 832c

layer1.0.bn2.bias f4 [16]
3.7875193e-15 6.9296865e-25 6.244377e-19 3.6106874e-17 5.8627836e-18 6.701156e-17 -2.4272575e-35 5.241802e-27
-6.076888e-17 3.6542498e-29 -2.0743182e-21 2.5095518e-23 -6.9152067e-19 2.120342e-18 2.018001e-26 1.6447457e-22
00000000: b375 8827 a276 5617 2e4d 3821 7983 2624
00000010: 6d4c d822 a584 9a24 1e0e 0186 30a6 cf13
00000020: 9e1f 8ca4 e04a 3910 26bb 1c9d 7eb5 f219
00000030: d319 4ca1 2174 1c22 67da c714 6ad6 461b

layer1.0.bn2.running_mean f4 [16]
-2.3716017e-32 3.6451652e-37 -4.983525e-38 -3.6783706e-35 -9.913334e-36 1.0001779e-36 -1.2843e-41 -1.9315e-41
-5.5035e-41 2.0679e-29 4.802e-41 5.0302e-41 4.3238e-41 1.0394368e-35 -2.4544e-41 1.8407e-41
00000000: fd47 f68a bc13 f802 1aaa 8781 6393 4386
00000010: 53d5 5285 e42b aa03 cd23 0080 d835 0080
00000020: 6a99 0080 c1b5 d10f dc85 0000 398c 0000
00000030: 8878 0000 5310 5d05 6b44 0080 5033 0000

layer1.0.bn2.running_var f4 [16]
6e-45 6e-45 6e-45 6e-45 6e-45 6e-45 6e-45 6e-45
6e-45 6e-45 6e-45 6e-45 6e-45 6e-45 6e-45 6e-45
00000000: 0400 0000 0400 0000 0400 0000 0400 0000
00000010: 0400 0000 0400 0000 0400 0000 0400 0000
00000020: 0400 0000 0400 0000 0400 0000 0400 0000
00000030: 0400 0000 0400 0000 0400 0000 0400 0000

layer1.0.conv3.weight f4 [16, 16, 1, 1, 1]
1.3071013e-11 3.281622e-17 1.9093307e-11 6.740989e-12 7.2100675e-13 2.4491836e-11 -4.2970084e-20 -1.158701e-15
4.085667e-17 -9.253166e-13 2.4600316e-15 2.1116637e-12 8.093441e-17 -1.6950561e-16 1.7891747e-13 2.0051703e-12
2.957428e-24 5.7645415e-24 3.7796827e-37 2.9038242e-33 1.8889817e-26 4.4550887e-33 -1.5356967e-36 -1.7219198e-31
2.273493e-30 5.5564883e-32 8.270941e-25 2.9119e-41 9.270025e-25 4.340507e-18 -4.4623e-41 6.5189375e-24
7.948014e-12 7.643405e-13 5.702645e-13 8.780597e-13 1.0096423e-12 1.0086968e-12 -1.1051031e-36 -2.593189e-18
-4.364262e-26 -1.9651815e-14 -3.6878866e-13 1.5733439e-15 -2.0292861e-11 4.269991e-13 4.0578735e-27 2.9109313e-13
2.856942e-22 1.9004339e-23 1.0067599e-28 2.2737231e-24 4.2571885e-23 1.6371843e-27 -6.0913e-41 -2.8322699e-33
5.096642e-29 -6.554805e-35 -2.5291417e-24 2.2190003e-37 -7.198868e-26 7.0942075e-19 2.14923e-39 1.1238514e-25
-2.2010412e-31 -7.082274e-33 -1.06011265e-36 -4.083566e-38 -3.8860488e-33 -1.8026371e-33 -1.0595604e-30 1.6121479e-34
4.9546353e-30 -2.3503e-41 -1.371486e-31 -3.969556e-36 -3.103301e-32 3.69486e-26 1.505e-41 -4.6985567e-33
1.7630525e-12 2.0386064e-14 2.4569351e-15 5.569176e-15 7.390072e-14 4.784795e-16 -9.472558e-29 -1.9474935e-25
-6.3116736e-25 -4.1791667e-18 -2.9244462e-13 6.0013146e-25 -3.080774e-13 7.3908085e-17 3.5603415e-27 3.7553778e-17
-4.950721e-24 -3.1712194e-21 -1.0210713e-26 -1.4242289e-23 -6.0818498e-30 -9.656718e-14 -6.756e-42 -1.3866e-41
-1.6150207e-24 -4.5709114e-37 -4.9513555e-18 -6.5745325e-21 -6.5019105e-33 -1.20297174e-26 -2.2033195e-30 1.5826e-41
1.5001182e-17 8.918097e-23 4.368107e-19 2.4093571e-19 -8.891918e-21 2.1947335e-18 5.19041e-29 5.212002e-27
5.4569248e-24 -1.6407822e-34 -4.3939608e-24 1.6552164e-18 1.1056323e-23 1.3125004e-20 2.025957e-21 2.2756808e-20
3.728944e-18 -8.950633e-22 2.5509719e-21 5.867919e-20 -1.3300153e-20 1.149737e-19 4.8706246e-31 2.846766e-26
7.286297e-27 -1.3296227e-35 -4.0267055e-23 1.3225154e-20 4.814163e-24 5.454675e-21 1.71094e-24 2.5094408e-22
4.5003e-41 -1.0562647e-38 -9.49864e-35 -2.2038595e-34 -8.2689915e-32 -2.9462785e-28 6.6033e-41 2.0015e-41
-3.7551774e-27 3.3033e-41 -8.212916e-35 -2.9885472e-31 -5.588746e-37 8.484822e-34 -3.49041e-40 6.475e-42
7.022321e-16 7.198494e-08 -1.7459078e-22 8.095984e-18 -4.8144924e-16 -2.3600952e-18 1.3039e-11 -1.4976091e-24
-2.6225426e-24 5.7137794e-07 4.2016095e-06 -1.3447151e-18 7.338598e-06 4.089985e-16 1.7901516e-23 2.2106173e-13
-3.0738528e-12 3.896752e-08 -3.9399277e-16 -1.088319e-13 1.9854357e-13 3.0812667e-14 2.2549924e-13 9.291717e-21
2.4676726e-19 7.792846e-08 1.229427e-06 2.032163e-15 2.8625361e-06 1.3432664e-14 1.9327766e-18 1.3551598e-12
-1.2407022e-19 1.3579092e-16 -1.7883622e-22 -1.492191e-20 -3.5511494e-21 -1.8943815e-21 6.09899e-26 1.3233476e-19
2.4612476e-21 3.375949e-15 7.385448e-13 -1.2030397e-23 2.2320974e-13 -1.6015789e-18 -3.1670236e-25 -2.1412864e-17
-7.7818925e-22 4.3786e-41 -2.3825735e-22 -6.3004776e-18 -1.7260293e-19 -1.25909e-18 -7.52298e-33 -2.096076e-28
-1.2046101e-23 6.3474323e-37 -4.1103e-41 -1.207083e-18 -1.3435876e-36 6.4085585e-24 -7.5903717e-23 -1.9353716e-28
-3.8393302e-38 3.8562012e-36 4.5318e-41 4.6749e-41 1.8113e-41 4.4079e-41 -1.9552e-41 4.9902e-41
3.539007e-36 -6.6056e-41 1.7888996e-38 -1.85e-41 6.6049e-41 2.3812634e-28 -5.3872e-41 -1.0475e-41
4.873287e-19 2.010643e-18 6.8240835e-23 8.650009e-23 3.938455e-21 3.0766174e-16 2.8242954e-31 -3.0289034e-21
-1.0722604e-22 -1.6162884e-23 1.7405279e-15 9.920082e-27 5.028267e-17 -7.1411136e-20 7.726784e-28 2.935479e-24
00000000: 9cf2 652d 8e56 1724 4ef2 a72d 6e2d ed2c
00000010: 03f2 4a2b b66e d72d a5eb 4a9f 86fc a6a6
00000020: 0b6b 3c24 0b3a 82ab 9343 3127 5a98 142c
00000030: 3e9f ba24 3a6d 43a5 7371 492a f019 0d2c
00000040: e6d1 6418 4101 df18 ae9d 0003 833d 7109
00000050: 6013 bb14 a10e b909 83a4 0284 9a84 5f8c
00000060: 9a72 380e 3341 900b 25f9 7f17 2c51 0000
00000070: 5a72 8f17 ee22 a022 647c 0080 6e30 fc18
00000080: acd2 0b2d 8a24 572b e383 202b df26 772b
00000090: 3318 8e2b 22f6 8d2b 0706 bc83 f557 3fa2
000000a0: 981b 5895 0002 b1a8 0c9c cfaa 25be e226
000000b0: 767f b2ad 0e61 f02a babf a013 f1de a32a
000000c0: 09b1 ac1b 77cc b719 743e ff10 baeb 2f18
000000d0: 71dd 4d1a 0bb6 0113 cda9 0080 b84b 6b89
000000e0: 1937 8110 b141 ae86 d0ae 4398 7004 9702
000000f0: 3f3c b295 5162 5121 2e67 1700 4620 0b16
00000100: 12db 8e8c d417 138a 6b5e b483 9a54 5e81
00000110: 8f6b a189 dac1 1589 6bec ab8d 8d4a 5607
00000120: e0fb c80e 8441 0080 7107 328c a3d8 a884
00000130: f221 218b eaf5 3615 f429 0000 a02b c389
00000140: a920 f82b 109f b728 740a 3127 95a6 c827
00000150: dd68 a629 8ee9 0926 6b28 f090 8816 7196
00000160: 3b56 4397 1d2f 9aa2 b6a1 a4aa 50bb 3917
00000170: a26e adaa a26b aa24 270a 8d13 ad2f 2d24
00000180: 9185 bf98 4e9c 6f9d 773e 4a94 33be 8999
00000190: 8ab5 f68e 3073 d9a9 d512 0080 a726 0080
000001a0: 90e9 f997 418a 1b83 3bac b6a2 fa60 f89d
000001b0: 160a 078a ea45 6e94 28c1 328e 1e2c 0000
000001c0: 8a5c 8a23 59a0 d71a 7cec 0021 2d39 8e20
000001d0: adf6 279e 58f1 2122 b097 8310 fb77 ce13
000001e0: c41a d318 ed18 5a87 aefb a998 4f44 f421
000001f0: 42dc 5519 a0ec 771e b513 191d 96ee d61e
00000200: e192 8922 1642 879c f9be 401d 658d 8a1f
00000210: 983b 7b9e abbc 0720 910f 1e0d 0cf7 0c15
00000220: ea51 1014 c663 8d85 33b8 429a ecd0 791e
00000230: 293d ba18 6112 ce1d a860 0418 b7af 971b
00000240: 737d 0000 5d04 7380 6584 fc86 ba78 9287
00000250: e0ac d68b 1abe ba91 13b8 0000 cb37 0000
00000260: 06c2 9493 155c 0000 3656 da86 c2f7 c18c
00000270: d82c 3e83 71fa 8c08 fccc 0380 0d12 0000
00000280: 9567 4a26 2496 9a33 3b11 539b 3458 1523
00000290: afc4 0aa6 f024 2ea2 6f62 652d 69be e797
000002a0: cfe8 4a98 cb60 1935 8dfb 8c36 e671 c6a1
000002b0: 143e f636 86c5 eb25 0222 ad19 b5e4 782a
000002c0: 9c4d 58ac 3e5d 2733 121f e3a5 5211 f5a9
000002d0: 4a8a 5f2a 96c4 0a29 bbe3 7d2a fd83 2f1e
000002e0: 6aaa 9120 a059 a733 ca02 a535 ca6e 1227
000002f0: ff19 4036 3bfb 7128 1e9d 0e22 c7b8 be2b
00000300: ec79 12a0 688e 1c25 2133 589b f7ee 8c9e
00000310: 9c28 869d ab22 0f9d f100 9715 ba3b 1c20
00000320: 74f7 391d 4443 7327 c3e1 4f2b a4b3 6899
00000330: d44f 7b2a f159 eca1 7e07 c496 b27f c5a3
00000340: 7a31 6b9c 0f7a 0000 8a04 909b 5472 e8a2
00000350: 09c6 4ba0 13cf b9a1 063f 1c8a c7da 8491
00000360: 6701 6999 effd 5703 9472 0080 4e22 b2a1
00000370: 7e99 e483 4aeb f718 2086 b79a 6656 7591
00000380: 7408 5181 5006 a404 547e 0000 5182 0000
00000390: 7e32 0000 e07a 0000 8136 0080 1b8b 0000
000003a0: 6088 9604 23b8 0080 3ecb c200 9233 0080
000003b0: 1eb8 0000 35ee 9611 2c96 0080 331d 0080
000003c0: 84d5 0f21 f95b 1422 08ff a41a f624 d11a
000003d0: 66ca 941d dc5a b125 a84e b70c 83db 649d
000003e0: daa0 019b 5d51 9c99 25d6 fa26 cb7c 4414
000003f0: 4de3 6724 629d a89f 1fdf 7412 271f 6318

layer1.0.conv3.bias f4 [16]
3.5160948e-27 3.8592817e-35 -1.6255468e-32 1.10333755e-33 -6.6194416e-37 -8.2117684e-32 -2.03307e-40 -2.1641972e-31
1.4695278e-31 3.1418305e-38 -9.2489066e-26 1.6916793e-28 1.8285702e-33 -6.5478e-41 -1.1815735e-38 2.4006745e-30
00000000: 7049 8b13 d231 4d06 72ce a88a ca52 b708
00000010: 783f 6183 9030 d58b bd36 0280 e576 8c8c
00000020: 70c1 3e0c ba0e 2b01 e9fd e495 2272 5611
00000030: 63e9 1709 87b6 0080 76a9 8080 0fc4 420e

layer1.0.bn3.weight f4 [16]
5.4481904e-07 1.3380062e-10 5.5423607e-07 1.1847853e-10 1.1376711e-11 7.671139e-07 2.3284165e-11 1.6534647e-09
3.267536e-09 8.541609e-12 1.13550395e-05 2.1504864e-05 5.788608e-08 6.5746575e-12 3.374711e-12 1.1378099e-07
00000000: ae3f 1235 871d 132f d0c6 1435 be44 022f
00000010: 2724 482d aaeb 4d35 47cf cc2d 1e40 e330
00000020: 1a8b 6031 fd43 162d 8681 3e37 5865 b437
00000030: 6b9e 7833 4053 e72c 6479 6d2c c357 f433

layer1.0.bn3.bias f4 [16]
1.3294117e-08 8.8646224e-13 4.2281513e-08 4.0583383e-12 -7.3825624e-23 2.1473378e-08 -3.9210708e-08 2.039981e-09
3.0589427e-09 1.3586933e-18 0.00011107908 3.9999373e-05 1.749084e-08 -2.3654726e-11 -4.1187448e-22 2.8550922e-09
00000000: 2564 6432 5684 792b 0499 3533 43ca 8e2c
00000010: d97f b29a 7574 b832 a168 28b3 ba2f 0c31
00000020: 7d35 5231 fb81 c821 21f3 e838 00c5 2738
00000030: c43e 9632 b511 d0ad 7df6 f89b 5033 4431

layer1.0.bn3.running_mean f4 [16]
6.725186e-26 -1.0252597e-35 3.7798902e-26 1.0946334e-33 -3.90182e-37 8.418457e-27 -8.390813e-30 -1.4593789e-32
4.1843687e-32 1.0595128e-38 1.4565646e-26 -1.44827e-26 -1.96376e-33 -4.3262265e-34 -3.0181366e-37 -6.746645e-29
00000000: ee81 a615 730c 5a85 cd2b 3b15 8ee0 b508
00000010: a5c5 0483 a6be 2614 982f 2a8f f28c 978a
00000020: cd43 590b e85e 7300 4d40 9014 026e 8f94
00000030: 8e24 2389 77c3 0f88 5b67 cd82 3b0c ab90

layer1.0.bn3.running_var f4 [16]
6e-45 6e-45 6e-45 6e-45 6e-45 6e-45 6e-45 6e-45
6e-45 6e-45 6e-45 6e-45 6e-45 6e-45 6e-45 6e-45
00000000: 0400 0000 0400 0000 0400 0000 0400 0000
00000010: 0400 0000 0400 0000 0400 0000 0400 0000
00000020: 0400 0000 0400 0000 0400 0000 0400 0000
00000030: 0400 0000 0400 0000 0400 0000 0400 0000

layer1.0.shortcut.0.weight f4 [16, 8, 1, 1, 1]
4.4593013e-05 3.4838257e-09 8.559511e-06 -9.916196e-07 -9.663925e-12 -1.816593e-06 -1.9183206e-05 -2.7345475e-11
-3.896195e-09 1.5543629e-11 -4.916293e-12 -1.2033664e-11 -8.672252e-09 -1.8092818e-12 -2.6854196e-11 -2.5090634e-09
7.3689145e-05 5.6963234e-09 7.2503135e-05 2.4178388e-09 -4.025415e-06 1.5418536e-11 -1.349091e-07 -1.4378082e-06
1.8715989e-08 2.97077e-11 1.4021994e-09 -4.796107e-11 -4.650525e-08 -2.4618247e-11 -3.8351675e-10 -1.0485464e-07
-3.2186437e-10 -1.3459933e-10 -5.31067e-12 -1.5397275e-11 4.539182e-09 -8.071607e-12 -3.7875553e-10 -8.137528e-10
-0.00022495777 9.917419e-11 3.0877884e-05 1.2429464e-07 -3.5350874e-06 -1.9937296e-08 -8.6681206e-07 -1.805015e-07
3.860268e-05 -8.9149643e-10 -6.9676463e-07 2.1062225e-09 -2.5066758e-09 -2.1820613e-08 -3.6688327e-08 -1.1487433e-09
-3.620383e-07 9.1094526e-10 3.1210778e-10 -5.5020055e-09 4.331112e-09 -2.1243503e-09 -5.6681593e-08 -5.4325415e-08
-7.32225e-07 5.052298e-09 -4.3474302e-10 -5.3076434e-08 2.4216629e-08 -1.8725604e-08 -5.986373e-07 -9.657198e-08
9.355231e-08 1.4563781e-15 1.7868887e-11 -1.8716008e-19 -2.5498304e-08 7.345902e-22 -1.7197149e-18 -6.348414e-10
0.00040197186 -4.3579385e-06 -0.0016428317 0.00822192 0.006360416 0.008437365 0.014883111 0.0021922772
-0.0004397448 8.8274544e-07 -0.0009959234 0.005426614 0.0025207987 0.008858199 0.0070384634 0.0009837702
-1.0384719e-05 -2.0977855e-09 -2.466131e-05 0.00033051724 0.0003576308 0.00040545355 0.0018940188 8.388704e-05
6.7408286e-07 -4.284226e-14 7.23345e-09 3.0999808e-10 -2.4041168e-07 -1.6636189e-11 -6.2705783e-09 -1.7771759e-10
-6.461971e-12 1.0636802e-16 1.062573e-18 -4.4921085e-23 2.3247963e-10 -8.0151356e-19 -1.3801832e-18 -6.76133e-11
-1.7208467e-05 1.0430736e-09 6.262001e-06 1.04649445e-08 -1.9274605e-08 -2.9886822e-11 -1.1870845e-07 -3.1852245e-08
00000000: 6209 3b38 1c68 6f31 d29a 0f37 ca17 85b5
00000010: 7302 2aad a9d1 f3b5 9feb a0b7 8988 f0ad
00000020: 4bdf 85b1 24b9 882d 08fa acac ceb2 53ad
00000030: f8fc 14b2 3fa2 feab 4636 ecad e96b 2cb1
00000040: 8f89 9a38 64b9 c331 d30c 9838 1227 2631
00000050: 0d12 87b6 759f 872d 88db 10b4 b7fa c0b5
00000060: e5c4 a032 e6a7 022e 81b7 c030 5def 52ae
00000070: 10bd 47b3 5d8b d8ad 2fd7 d2af 732c e1b3
00000080: 62f2 b0af 58fe 13af 43da baac 956f 87ad
00000090: 11f7 9b31 49ff 0dad 1a39 d0af c3ae 5fb0
000000a0: a4e2 6bb9 1b16 da2e e082 0138 da75 0534
000000b0: 573c 6db6 9442 abb2 dfae 68b5 e0cf 41b4
000000c0: 50e9 2138 7c0d 75b0 4d09 3bb5 0fbd 1031
000000d0: e841 2cb1 0970 bbb2 3e93 1db3 d0e1 9db0
000000e0: 2a5e c2b4 1366 7a30 4495 ab2f 270c bdb1
000000f0: ddd0 9431 f7fb 11b1 1272 73b3 6d53 69b3
00000100: 1e8e 44b5 7c98 ad31 a400 efaf 28f6 63b3
00000110: ee04 d032 0ada a0b2 0bb2 20b5 0263 cfb3
00000120: ede6 c833 dee2 d126 282d 9d2d aaf5 5ca0
00000130: 5d07 dbb2 2a04 5e1c fec8 fda1 fe80 2eb0
00000140: c0bf d239 683a 92b6 4954 d7ba 3bb5 063c
00000150: 096b d03b e03c 0a3c 4bd8 733c 4fac 0f3b
00000160: 8c8d e6b9 cef5 6c35 a589 82ba bdd1 b13b
00000170: fc33 253b fb21 113c e9a2 e63b daf1 803a
00000180: 073a 2eb7 a228 10b1 c3df ceb7 4649 ad39
00000190: 6580 bb39 0e93 d439 ba40 f83a 83ec af38
000001a0: 9ff2 3435 c3f1 40a9 198a f831 5a6c aa2f
000001b0: ee11 81b4 5e55 92ad 9774 d7b1 0e67 43af
000001c0: 435c e3ac 9944 f524 dfce 9c21 9c39 599a
000001d0: 339d 7f2f a790 6ca1 d9ad cba1 e7ae 94ae
000001e0: e75a 90b7 e45b 8f30 2e1e d236 50c9 3332
000001f0: 4e91 a5b2 9271 03ae a9ec feb3 eacd 08b3

layer1.0.shortcut.0.bias f4 [16]
1.3844116e-26 8.172341e-37 -8.10684e-32 2.8851977e-32 -9.50632e-36 3.4881909e-31 3.346e-42 6.569112e-32
1.3302432e-31 3.586047e-37 -2.4873982e-25 7.1472976e-29 -1.9733685e-34 2.0222e-41 -1.2637756e-37 -9.483247e-30
00000000: 011b 8914 910b 8b03 3277 d28b dbce 150b
00000010: 542d 4a85 8365 e20c 5409 0000 3d8b aa0b
00000020: eaac 2c0c c00d f402 66f6 9996 9d34 b510
00000030: 2027 8387 5f38 0000 2704 2c82 d557 408f

layer1.0.shortcut.1.weight f4 [16]
3.1260727e-06 1.0456272e-11 3.3313376e-07 3.2308194e-09 5.7074612e-11 6.082565e-07 6.508119e-07 1.134937e-09
2.9809848e-09 6.119896e-11 0.0009490874 5.2665022e-05 8.5309765e-08 2.3743185e-10 9.905094e-13 8.961895e-08
00000000: 85c9 5136 ddf2 372d 8ed9 b234 2d05 5e31
00000010: 4d04 7b2e 1247 2335 74b3 2e35 0cfc 9b30
00000020: 0ada 4c31 f493 862e 2dcc 783a a3e4 5c38
00000030: 8a33 b733 9087 822f dd66 8b2b 8a74 c033

layer1.0.shortcut.1.bias f4 [16]
1.3294117e-08 8.8646224e-13 4.2281513e-08 4.0583383e-12 -7.3825624e-23 2.1473378e-08 -3.9210708e-08 2.039981e-09
3.0589427e-09 1.3586933e-18 0.00011107908 3.9999373e-05 1.749084e-08 -2.3654726e-11 -4.1187448e-22 2.8550922e-09
00000000: 2564 6432 5684 792b 0499 3533 43ca 8e2c
00000010: d97f b29a 7574 b832 a168 28b3 ba2f 0c31
00000020: 7d35 5231 fb81 c821 21f3 e838 00c5 2738
00000030: c43e 9632 b511 d0ad 7df6 f89b 5033 4431

layer1.0.shortcut.1.running_mean f4 [16]
7.0013402e-06 -3.7240913e-09 6.052416e-05 -1.9141535e-08 6.818031e-10 -4.9926108e-05 1.0913419e-05 -1.4674987e-07
-5.6306436e-07 2.1698408e-08 0.013687679 0.008109408 0.0012809924 1.4067062e-07 4.79116e-11 -1.6406277e-06
00000000: 0eed ea36 e8ea 7fb1 52db 7d38 ae6c a4b2
00000010: a169 3b30 c067 51b8 c718 3737 4c92 1db4
00000020: 7d25 17b5 4e63 ba32 4942 603c 53dd 043c
00000030: f9e6 a73a 3f0b 1734 aab7 522e 8a33 dcb5

layer1.0.shortcut.1.running_var f4 [16]
5.8636795e-10 1.4649731e-17 3.4887886e-09 2.6381114e-15 3.0379765e-18 7.599599e-09 2.0708205e-10 1.8801941e-14
2.454779e-13 1.7552835e-15 0.0002895224 0.000114587965 2.3530797e-06 9.850176e-14 6.921916e-21 6.671894e-11
00000000: fa2d 2130 b31e 8723 6bbf 6f31 9118 3e27
00000010: c129 6022 648f 0232 6ab0 632f 535a a928
00000020: 1831 8a2a 88f6 fc26 0acb 9739 f24e f038
00000030: 9ae9 1d36 66ce dd29 55c0 021e 6db7 922e

layer1.1.conv1.weight f4 [32, 16, 3, 1, 1]
-3.582e-41 1.07108e-40 -6.7203e-41 5.4045e-41 -1.0267e-41 5.7516e-41 5.9203e-41 -1.6677e-41
5.2652e-41 -1.0485e-41 -2.071e-41 -7.619e-42 -4.5109e-41 2.4357e-41 -2.2405e-41 6.4027e-41
-4.3756e-41 1.715e-42 -5.4456e-41 -3.2746e-41 5.9695e-41 1.0859e-41 -5.291e-42 3.2608e-41
6.657e-41 -1.5093e-41 -1.8707e-41 -4.1373e-41 2.1814e-41 -2.5359e-41 2.6253e-41 -3.739e-41
2.9269e-41 1.4906e-41 6.5753e-41 -6.3126e-41 -4.9745e-41 6.572e-41 6.1949e-41 -1.4412e-41
5.9025e-41 5.8106e-41 3.3781e-41 1.1709e-41 -3.5728e-41 7.868e-42 -6.6137e-41 1.5337e-41
-4.3196e-41 -8.601127e-24 2.0962e-41 1.533e-41 8.217916e-34 -5.2969e-41 -5.6608e-41 -7.8843975e-31
7.278e-42 4.5008e-41 -1.657e-41 3.9029e-41 -1.8329e-41 6.214675e-39 -3.1014e-41 3.174e-42
-5.3145917e-26 -4.5834e-41 2.9258e-41 7.915377e-33 -5.1251e-41 4.3215e-41 1.0224787e-22 3.0155e-41
6.2401e-41 2.6981396e-22 -6.4736e-41 6.7007e-41 -6.646e-41 -3.2538e-41 1.311e-41 -7.3147847e-37
-8.884e-42 -2.1884e-41 -4.2056943e-32 3.3127e-41 2.854e-41 -1.1381641e-27 -2.734e-42 -1.6422e-41
1.7648e-41 -2.6772e-41 -3.537e-41 4.355e-41 -7.008e-41 3.103679e-38 -2.0097582e-17 1.2549077e-31
2.377e-41 -6.2955e-41 4.494e-41 -1.1398e-41 -1.996e-41 -2.2072e-41 6.1231e-41 2.3445e-41
-5.4875e-41 -5.7707e-41 2.674e-41 6.2093e-41 -3.7462e-41 3.8236e-41 -4.5744e-41 -1.05e-43
-1.004354e-33 -1.3723e-41 5.6925e-41 -1.9117322e-38 -2.995e-42 5.9894e-41 6.4975e-41 -3.4358e-41
-3.6072e-41 5.287e-42 -6.6487e-41 6.5085e-41 1.436e-42 5.4117e-41 -5.022e-42 -6.379e-41
6.6098e-41 6.9216e-41 -8.715e-42 4.6449e-41 6.6441e-41 7.148e-42 5.5535e-41 3.6672e-41
-2.899e-41 -4.102e-41 2.7579e-41 -5.2176e-41 -6.2149e-41 2.075e-41 2.8968e-41 -3.8848e-41
2.6623e-41 -4.9927e-41 3.1165e-41 7.67e-42 5.4464e-41 3.2062e-41 4.059e-41 1.3649e-41
3.738e-41 -3.66e-43 -3.774e-42 6.9865e-41 -3.106e-41 -5.9509e-41 -7.439e-41 -7.511e-42
5.497e-41 -4.6677e-41 -5.0636e-41 -6.5286e-41 1.2651e-41 -1.1912e-41 -5.841e-41 -5.0164e-41
5.2383e-41 2.0402e-41 -4.0844e-41 7.0812e-41 3.0963e-41 -4.9093e-41 -4.2457e-41 -3.8583e-41
6.2609e-41 -5.3027e-41 -3.0674e-41 6.4538e-41 -6.7758e-41 6.625e-42 2.6308e-41 2.9859e-41
-5.0319e-41 -6.8325e-41 6.9846e-41 -1.0818e-41 -3.9085e-41 3.5248e-41 -5.5661e-41 -2.4964e-41
-9.705e-42 2.4193234e-32 6.4596e-41 -3.5093e-41 -4.4298e-41 2.6864e-41 4.8704e-41 1.1449e-41
5.9652e-41 -2.6521e-41 4.2454e-41 -1.9799e-41 4.2693e-41 2.7222e-41 -7.069e-41 -3.5199e-41
-1.6695e-41 -5.4547e-41 -6.2484e-41 -2.7164e-41 3.3533e-41 -1.1306e-41 -6.4468e-41 -1.7787e-41
4.2293e-41 5.6186e-41 4.577e-42 -3.39e-41 -5.2689e-41 1.2969e-41 6.2376e-41 -8.521927e-39
-6.6361e-41 -5.5144e-41 -4.6467e-41 6.034e-42 6.7324e-41 2.0366e-41 1.796e-42 6.8707e-41
-1.3e-43 6.9104e-41 1.8667e-41 -4.833e-41 -7.1861e-41 6.1577e-41 4.0244e-41 -4.9927e-41
-2.9629e-41 6.554831e-35 -1.3939e-41 -7.86e-42 -1.1676975e-37 1.2738e-41 -1.2376e-41 2.6113352e-34
-3.0763e-41 3.7254e-41 2.2070906e-33 5.6296e-41 4.5384e-41 -5.297338e-39 4.79e-42 4.0062e-41
00000000: da63 0080 932a 0100 56bb 0080 a896 0000
00000010: 9f1c 0080 55a0 0000 09a5 0000 7d2e 0080
00000020: c692 0000 3a1d 0080 bb39 0080 3d15 0080
00000030: bf7d 0080 e643 0000 753e 0080 7bb2 0000
00000040: f979 0080 c804 0000 cd97 0080 485b 0080
00000050: 68a6 0000 451e 0000 c00e 0080 e65a 0000
00000060: 92b9 0000 132a 0080 2634 0080 5573 0080
00000070: cf3c 0000 b146 0080 2f49 0000 3a68 0080
00000080: 9751 0000 8d29 0000 4bb7 0000 f8af 0080
00000090: ab8a 0080 33b7 0000 b0ac 0000 2d28 0080
000000a0: 8aa4 0000 faa1 0000 2b5e 0000 a420 0000
000000b0: 9863 0080 ef15 0000 5db8 0080 c12a 0000
000000c0: 6a78 0080 b85e 2699 6f3a 0000 bc2a 0000
000000d0: 268b 8808 a893 0080 cd9d 0080 03dd 7f8d
000000e0: 4a14 0000 777d 0000 312e 0080 cc6c 0000
000000f0: 1833 0080 fcab 4300 7456 0080 d908 0000
00000100: 3a95 8395 c47f 0080 8f51 0000 5d65 240a
00000110: de8e 0080 7778 0000 5e38 f71a 0f54 0000
00000120: f3ad 0000 b017 a31b 75b4 0080 caba 0000
00000130: 43b9 0080 b45a 0080 8c24 0000 c3e8 7883
00000140: c418 0080 013d 0080 445f 5a8b 585c 0000
00000150: 8f4f 0000 6c59 b492 9f07 0080 c72d 0080
00000160: 3231 0000 a14a 0080 9962 0080 6679 0000
00000170: 5bc3 0080 f9fa 2801 135e b9a3 76e5 220c
00000180: 4342 0000 7eaf 0080 467d 0000 c61f 0080
00000190: a437 0080 873d 0080 b0aa 0000 5b41 0000
000001a0: f898 0080 dda0 0080 8a4a 0000 17ad 0000
000001b0: 6e68 0080 966a 0000 847f 0080 4b00 0080
000001c0: 7fe0 a688 4126 0080 af9e 0000 512b d080
000001d0: 5908 0080 f6a6 0000 20b5 0000 c75f 0080
000001e0: 8e64 0080 bd0e 0000 57b9 0080 6eb5 0000
000001f0: 0104 0000 db96 0000 000e 0080 d2b1 0080
00000200: 41b8 0000 f2c0 0000 4b18 0080 7b81 0000
00000210: 36b9 0000 ed13 0000 cf9a 0000 3a66 0000
00000220: d050 0080 5972 0080 e14c 0000 7291 0080
00000230: 3fad 0080 d839 0000 c050 0000 4b6c 0080
00000240: 374a 0000 2d8b 0080 e056 0000 6115 0000
00000250: d397 0000 6059 0000 2671 0000 0c26 0000
00000260: 3368 0000 0501 0080 850a 0080 c1c2 0000
00000270: 9556 0080 e3a5 0080 5ecf 0080 f014 0080
00000280: 3c99 0000 1e82 0080 278d 0080 feb5 0080
00000290: 4423 0000 3521 0080 d3a2 0080 d68b 0080
000002a0: 0692 0000 df38 0000 db71 0080 65c5 0000
000002b0: 5056 0000 da88 0080 5a76 0080 8e6b 0080
000002c0: 87ae 0000 d193 0080 8255 0080 e8b3 0000
000002d0: e2bc 0080 7812 0000 5649 0000 3c53 0000
000002e0: 458c 0080 76be 0080 b4c2 0000 281e 0080
000002f0: f46c 0080 4262 0000 299b 0080 9745 0080
00000300: 0e1b 0080 a63c fb0a 11b4 0000 d361 0080
00000310: 7c7b 0080 e34a 0000 c487 0000 ea1f 0000
00000320: 49a6 0000 ee49 0080 5876 0000 3137 0080
00000330: 0377 0000 e24b 0000 0ec5 0080 1f62 0080
00000340: 8a2e 0080 0e98 0080 2eae 0080 b94b 0080
00000350: 7a5d 0000 841f 0080 b6b3 0080 9531 0080
00000360: e575 0000 a09c 0000 c20c 0000 805e 0080
00000370: e092 0080 2724 0000 e1ad 0000 aacb 5c80
00000380: fdb8 0080 b899 0080 8881 0080 d210 0000
00000390: acbb 0000 c638 0000 0205 0000 87bf 0000
000003a0: 5d00 0080 a2c0 0000 0934 0000 b986 0080
000003b0: 52c8 0080 a7ab 0000 2f70 0000 2d8b 0080
000003c0: 9852 0080 de41 ae06 db26 0080 e915 0080
000003d0: 52f0 1e82 8223 0000 8022 0080 918d ad07
000003e0: c155 0080 d967 0000 a05b 3709 ee9c 0000
000003f0: 837e 0000 d3ae 3980 5a0d 0000 ad6f 0000

layer1.1.conv1.bias f4 [32]
-1.71529e-40 8.677e-41 1.96888e-40 7.5272e-41 5.7268e-41 -1.25076e-40 -3.2443e-41 6.5432e-41
8.2751e-41 -1.6345e-41 -4.4096e-41 7.273e-41 6.4384e-41 4.5021e-41 -2.56093e-40 -3.0883e-41
-4.3756e-41 -3.4284e-41 1.3101e-41 1.1275e-40 2.03e-43 -3.05892e-40 -6.9433e-41 1.27134e-40
-6.5663e-41 1.27214e-40 -1.6392e-41 -6.5917e-41 -7.9072e-41 -2.5864e-41 -2.85964e-40 5.0454e-41
00000000: 27de 0180 e1f1 0000 d824 0200 d4d1 0000
00000010: a49f 0000 a95c 0180 705a 0080 66b6 0000
00000020: ade6 0000 902d 0080 ec7a 0080 beca 0000
00000030: 7ab3 0000 807d 0000 e2c9 0280 1756 0080
00000040: f979 0080 925f 0080 8524 0000 4d3a 0100
00000050: 9100 0000 b454 0380 8dc1 0080 6662 0100
00000060: 0bb7 0080 9f62 0100 b22d 0080 c0b7 0080
00000070: 6cdc 0080 1948 0080 271d 0380 a58c 0000

layer1.1.bn1.weight f4 [32]
3.3557274e-13 2.4579741e-12 5.0372537e-13 5.835951e-13 2.32725e-13 2.0669124e-12 2.0716382e-13 5.1615927e-13
3.132613e-13 3.4185903e-13 9.931702e-13 2.813955e-13 3.2265496e-13 4.085089e-13 7.836899e-13 3.1505026e-13
7.10122e-13 4.746313e-12 6.656803e-13 1.6657444e-12 3.0375908e-13 4.2664925e-13 1.0837185e-12 6.2722066e-13
3.1489598e-13 3.2392673e-13 7.715841e-12 5.18312e-13 7.810365e-13 4.922365e-13 7.357701e-13 7.941535e-13
00000000: 21e9 bc2a edf6 2c2c 3dc9 0d2b 7544 242b
00000010: 3503 832a 2f72 112c e83e 692a 3249 112b
00000020: b659 b02a 1473 c02a bac6 8b2b 5e69 9e2a
00000030: 7ba3 b52a 56f8 e52a cf96 5c2b 875b b12a
00000040: afe1 472b fdfe a62c 525f 3b2b c46e ea2b
00000050: 4c00 ab2a a32e f02a 1385 982b 038c 302b
00000060: 4b45 b12a c35a b62a 0fbd 072d 51e4 112b
00000070: 9cd7 5b2b 618d 0a2b d319 4f2b ca88 5f2b

layer1.1.bn1.bias f4 [32]
2.19201e-34 7.282519e-32 -5.4906e-41 1.51889e-33 -3.324269e-27 6.7258957e-29 -3.2503e-41 -6.6291e-41
5.078155e-22 1.9463043e-23 -1.1195038e-25 4.807725e-21 3.5409688e-23 6.4716624e-32 8.918928e-34 1.9213404e-22
4.687741e-39 -1.7575522e-27 -1.41799e-40 8.669628e-30 1.1617e-41 2.5759e-41 -3.7658676e-25 3.8e-43
-7.6599e-41 1.0491191e-30 1.333924e-36 1.8903664e-31 1.2282e-41 -4.0004e-41 1.6702e-41 1.6303815e-29
00000000: 1eaf 9107 a410 bd0b 0e99 0080 6f5e fc08
00000010: 18b0 8393 8f85 aa10 9b5a 0080 cbb8 0080
00000020: 527a 191c 293c bc19 7e96 0a96 77a1 b51d
00000030: 123b 2b1a 9303 a80b ed30 9408 9b46 681b
00000040: 840b 3300 653f 0b93 478b 0180 48d7 2f0f
00000050: 6220 0000 ce47 0000 8e18 e996 0f01 0000
00000060: 87d5 0080 b43a aa0d 96f4 e203 3362 750c
00000070: 3d22 0000 846f 0080 8f2e 0000 2057 a50f

layer1.1.bn1.running_mean f4 [32]
-1.7445e-41 -1.4546828e-26 -6.64e-43 4.2029e-41 7.8456e-41 1.2094548e-38 -2.511897e-35 3.116e-41
-5.1845e-41 3.0348e-41 -4.325528e-33 -1.65e-42 3.4204e-41 7.0907245e-37 -6.29101e-33 -3.5898e-41
-1.031752e-39 -1.1561881e-27 3.6982e-41 -1.09752286e-32 -9.062052e-38 1.2606e-41 -1.0974e-41 -3.9401343e-38
-2.5243e-41 5.3489e-41 -2.6383136e-28 -2.6758507e-37 -4.4808e-41 -1.8925414e-34 -4.59095e-40 -1.524694e-39
00000000: a130 0080 9710 9094 da01 0080 2975 0000
00000010: b4da 0000 aeb2 8300 2c8e 0586 dd56 0000
00000020: 8690 0080 9954 0000 e7ac b389 9904 0080
00000030: 595f 0000 ec48 7103 bfa8 028a 1264 0080
00000040: 1b3c 0b80 9034 b792 1767 0000 53f2 638a
00000050: 49b1 f681 2423 0000 971e 0080 7585 5681
00000060: 5e46 0080 1b95 0000 1639 a791 e51b b682
00000070: e87c 0080 d98f 7b87 c5ff 0480 3a9a 1080

layer1.1.bn1.running_var f4 [32]
6e-45 6e-45 6e-45 6e-45 6e-45 6e-45 6e-45 6e-45
6e-45 6e-45 6e-45 6e-45 6e-45 6e-45 6e-45 6e-45
6e-45 6e-45 6e-45 6e-45 6e-45 6e-45 6e-45 6e-45
6e-45 6e-45 6e-45 6e-45 6e-45 6e-45 6e-45 6e-45
00000000: 0400 0000 0400 0000 0400 0000 0400 0000
00000010: 0400 0000 0400 0000 0400 0000 0400 0000
00000020: 0400 0000 0400 0000 0400 0000 0400 0000
00000030: 0400 0000 0400 0000 0400 0000 0400 0000
00000040: 0400 0000 0400 0000 0400 0000 0400 0000
00000050: 0400 0000 0400 0000 0400 0000 0400 0000
00000060: 0400 0000 0400 0000 0400 0000 0400 0000
00000070: 0400 0000 0400 0000 0400 0000 0400 0000

layer1.1.conv2.weight f4 [32, 32, 3, 1, 1]
6.7161e-41 -3.9992e-41 -9.638e-42 -5.2828e-41 -2.176e-41 6.8851e-41 4.3784e-41 -4.5025e-41
3.6445e-41 -4.9037e-41 6.2417e-41 7.0836e-41 1.1327e-41 -4.5956e-41 -1.002e-41 2.7956e-41
1.7399e-41 5.7973e-41 -4.632e-41 -3.1465e-41 -3.0355e-41 3.2883e-41 -2.7146e-41 -6.7964e-41
2.9438e-41 5.309e-41 -4.9935e-41 4.2465e-41 3.0907e-41 -6.412e-42 -4.9467e-41 -1.2117e-41
6.909e-41 -5.9031e-41 1.992e-41 -5.7125e-41 2.7547e-41 -4.9635e-41 -1.4662e-41 -2.79e-42
-4.9502e-41 -2.3067e-41 1.6291e-41 -2.988e-41 -4.9777e-41 3.4286e-41 1.88e-43 3.973e-41
-4.6421e-41 5.489e-42 -6.4938e-41 -6.2623e-41 -1.54e-43 1.776e-41 -3.6006e-41 -5.0274e-41
-2.019e-41 -2.034e-41 -2.6741e-41 -5.4554e-41 -3.2207e-41 -2.3116e-41 -8.04e-42 5.4965e-41
-8.682e-42 3.5112e-41 4.1145e-41 -4.6365e-41 -6.5577e-41 -3.0481e-41 6.8312e-41 4.417e-42
6.7809e-41 5.7696e-41 -3.089e-41 -1.9279e-41 -6.4953e-41 5.6238e-41 3.9168e-41 2.3881e-41
5.483e-41 6.9873e-41 -2.791e-42 5.7103e-41 -4.2032e-41 -8.11e-43 -6.9897e-41 2.7554e-41
-6.7098e-41 6.0849e-41 3.2388e-41 -1.5144e-41 1.1161e-41 -8.719e-42 -1.7553e-41 2.696e-42
-1.2123e-41 1.04e-42 -1.5287e-41 5.5412e-41 4.8538e-41 -3.6699e-41 -4.8628e-41 1.404e-42
-2.5057e-41 6.535e-41 2.2736e-41 -6.793e-42 1.98e-42 6.471e-42 5.4019e-41 -4.947e-41
-3.5503e-41 -2.622e-42 -9.348e-42 4.6054e-41 -2.8612e-41 4.5989e-41 3.851e-42 -2.1552e-41
3.9626e-41 -3.14e-41 6.613e-41 4.4798e-41 -2.6244e-41 5.2102e-41 1.5019e-41 -3.1549e-41
3.8885e-41 4.8538e-41 4.3807e-41 -5.8929e-41 3.7235e-41 7.0432e-41 1.5522e-41 -6.0117e-41
5.252e-42 -8.214e-42 -4.1226e-41 -4.372e-42 -6.7419e-41 -1.551e-41 4.781e-42 3.1891e-41
3.332e-41 -2.8952e-41 2.5527e-41 5.8777e-41 4.0041e-41 -3.7269e-41 -4.8806e-41 -3.454e-41
-4.8755e-41 1.184e-41 -6.0494e-41 -3.372e-42 -6.6487e-41 -4.1934e-41 6.7587e-41 5.7916e-41
-1.621e-42 -3.6976e-41 -6.5875e-41 -4.7787e-41 1.6422e-41 -4.8926e-41 -4.3802e-41 5.7679e-41
6.8043e-41 4.2053e-41 2.3235e-41 -3.2713e-41 -6.7147e-41 2.126e-42 -1.5388e-41 2.166e-42
1.9764e-41 7.125e-41 -2.6326e-41 -6.7166e-41 -5.2e-43 1.4684e-41 5.2537e-41 -7.1211e-41
-4.8534e-41 -7.1189e-41 6.2624e-41 -4.1258e-41 5.9551e-41 -3.0232e-41 2.046e-41 -1.32e-42
-6.1848e-41 4.5843e-41 -2.5843e-41 5.1683e-41 2.3428e-41 -1.0402e-41 -5.9946e-41 5.9353e-41
2.383e-41 2.016e-41 -2.8127e-41 5.6251e-41 -6.9752e-41 3.3422e-41 -5.1328e-41 3.3752e-41
1.98e-43 3.6075e-41 -7.526e-42 -3.5659e-41 -2.0109e-41 4.5918e-41 1.513e-42 5.6345e-41
3.64e-43 4.977e-42 5.6282e-41 4.8122e-41 5.1217e-41 4.9703e-41 5.5786e-41 -3.6082e-41
2.8264e-41 -2.7946e-41 9.212e-42 6.8854e-41 -6.383e-42 3.7005e-41 5.8225e-41 1.1545e-41
4.4791e-41 -3.7171e-41 -3.3048e-41 3.7514e-41 -3.7471e-41 4.8471e-41 4.0049e-41 -4.6679e-41
1.8014e-41 -2.3152e-41 1.9987e-41 3.18e-43 3.5481e-41 4.8671e-41 3.0712e-41 2.846e-41
-4.6694e-41 3.5761e-41 5.7048e-41 9.299e-42 2.2442e-41 -1.68e-41 -3.4333e-41 6.7922e-41
00000000: 38bb 0000 7b6f 0080 de1a 0080 4393 0080
00000010: a83c 0080 eebf 0000 0d7a 0000 837d 0080
00000020: 9865 0000 b288 0080 fead 0000 76c5 0000
00000030: 931f 0000 1b80 0080 ef1b 0080 ee4d 0000
00000040: 8030 0000 9ba1 0000 1f81 0080 b657 0080
00000050: 9e54 0080 aa5b 0000 ac4b 0080 75bd 0080
00000060: 1052 0000 fe93 0000 338b 0080 6076 0000
00000070: 2856 0000 e011 0080 e589 0080 c721 0080
00000080: 98c0 0000 8ea4 0080 8737 0000 3e9f 0080
00000090: ca4c 0000 5d8a 0080 df28 0080 c707 0080
000000a0: fe89 0080 4d40 0080 6a2d 0000 4b53 0080
000000b0: c28a 0080 935f 0000 8600 0000 c06e 0000
000000c0: 6781 0080 4d0f 0000 05b5 0080 91ae 0080
000000d0: 6e00 0080 8231 0000 5f64 0080 258c 0080
000000e0: 4838 0080 b338 0080 8b4a 0080 1398 0080
000000f0: c859 0080 7040 0080 6a16 0080 3899 0000
00000100: 3418 0080 e161 0000 b272 0000 3f81 0080
00000110: cdb6 0080 f854 0080 6dbe 0000 500c 0000
00000120: 06bd 0000 d5a0 0000 1c56 0080 be35 0080
00000130: 10b5 0080 c59c 0000 2f6d 0000 9242 0000
00000140: d898 0000 c7c2 0000 c807 0080 2e9f 0000
00000150: 2b75 0080 4302 0080 d8c2 0080 cf4c 0000
00000160: 0bbb 0080 9fa9 0000 495a 0000 372a 0080
00000170: 1d1f 0000 4e18 0080 ee30 0080 8407 0000
00000180: cb21 0080 e602 0000 9d2a 0080 779a 0000
00000190: 4e87 0000 4d66 0080 8e87 0080 ea03 0000
000001a0: d945 0080 2bb6 0000 613f 0000 f012 0080
000001b0: 8505 0000 0a12 0000 9596 0000 e789 0080
000001c0: f862 0080 4f07 0080 0f1a 0080 6180 0000
000001d0: c24f 0080 3380 0000 bc0a 0000 143c 0080
000001e0: 766e 0000 8857 0080 58b8 0000 e17c 0000
000001f0: 2849 0080 3d91 0000 de29 0000 f257 0080
00000200: 656c 0000 4e87 0000 1e7a 0000 45a4 0080
00000210: cc67 0000 56c4 0000 452b 0000 95a7 0080
00000220: a40e 0000 e616 0080 ec72 0080 300c 0080
00000230: f0bb 0080 3c2b 0080 540d 0000 e658 0000
00000240: e25c 0000 b550 0080 2947 0000 d9a3 0000
00000250: 9e6f 0000 e467 0080 0d88 0080 4960 0080
00000260: e987 0080 0121 0000 a2a8 0080 6609 0080
00000270: 57b9 0080 e574 0080 68bc 0000 72a1 0000
00000280: 8504 0080 1367 0080 a2b7 0080 3685 0080
00000290: c72d 0000 6388 0080 1a7a 0080 c9a0 0000
000002a0: adbd 0000 3a75 0000 c540 0000 315b 0080
000002b0: 2ebb 0080 ed05 0000 e52a 0080 0a06 0000
000002c0: 1837 0000 9ec6 0000 6349 0080 3bbb 0080
000002d0: 7301 0080 ef28 0000 7492 0000 82c6 0080
000002e0: 4b87 0080 72c6 0080 92ae 0000 0373 0080
000002f0: 01a6 0000 4654 0080 0939 0000 ae03 0080
00000300: 68ac 0080 cb7f 0000 0a48 0080 1290 0000
00000310: 4f41 0000 ff1c 0080 1ba7 0080 74a5 0000
00000320: 6e42 0000 3338 0000 684e 0080 ce9c 0000
00000330: 71c2 0080 2b5d 0000 158f 0080 165e 0000
00000340: 8d00 0000 9064 0000 fb14 0080 6763 0080
00000350: 0e38 0080 0080 0000 3804 0000 119d 0000
00000360: 0401 0000 e00d 0000 e49c 0000 2586 0000
00000370: c68e 0000 8d8a 0000 829b 0000 9564 0080
00000380: ca4e 0000 e74d 0080 ae19 0000 f0bf 0000
00000390: cb11 0080 2867 0000 4fa2 0000 2f20 0000
000003a0: dc7c 0000 9e67 0080 205c 0080 9368 0000
000003b0: 7468 0080 1e87 0000 a46f 0000 1f82 0080
000003c0: 3732 0000 8a40 0080 b737 0000 e300 0000
000003d0: e862 0000 ad87 0000 9d55 0000 564f 0000
000003e0: 2a82 0080 b063 0000 079f 0000 ec19 0000
000003f0: 8f3e 0000 d52e 0080 b55f 0080 57bd 0000

layer1.1.conv2.bias f4 [32]
1.04338e-40 3.24993e-40 3.9497e-41 1.32582e-40 -6.9147e-41 -5.537e-41 1.2697e-41 1.2278e-40
-1.18553e-40 1.70953e-40 -1.0874e-41 2.09204e-40 1.23028e-40 1.06894e-40 -6.805e-42 3.073654e-39
1.63251e-40 -9.7329e-41 -2.26298e-40 -1.0808e-41 -9.2077e-41 -7.5793e-41 1.99503e-40 -1.89362e-40
1.98127e-40 -5.6614e-41 -2.6199e-41 1.54228e-40 -1.77743e-40 -9.4054e-41 9.4526e-41 6.149e-42
00000000: da22 0100 f389 0300 1a6e 0000 9671 0100
00000010: c1c0 0080 599a 0080 6523 0000 4356 0100
00000020: 7a4a 0180 8cdc 0100 501e 0080 2d47 0200
00000030: f456 0100 fa29 0100 f812 0080 1978 2100
00000040: 14c7 0100 500f 0180 d476 0280 211e 0080
00000050: ac00 0180 48d3 0080 222c 0200 dd0f 0280
00000060: 4c28 0200 d19d 0080 0849 0080 edad 0100
00000070: 7aef 0180 2f06 0180 8007 0100 2411 0000
