log/sem_seg/NUDT-MIRSDT-Noise8.0_FJY(g0.15-o1.3)__2024-12-27_23-28__SoftLoUloss_DeepPro-Plus_DataL40/checkpoints/best_model.pth (torch, 937131 bytes, 213 tensors)

conv_in.0.weight f4 [8, 1, 5, 7, 7]
000000 77 97 b6 3c eb 30 b8 bb 3b f0 19 3d b3 b3 96 3d
       0.022289021 -0.005621066 0.037582617 0.07358494
000010 2e 72 62 3c 16 29 a2 bc 9c 2e 46 bd 09 45 b7 3d
       0.013821168 -0.019794982 -0.048384294 0.08948714
000020 00 05 0c bc a3 39 88 3d f0 91 a9 3d 16 3d cf bb
       -0.008546114 0.06651618 0.082797885 -0.0063244207
000030 8b 6f 02 3d 65 d0 a3 ba 67 42 02 3e 8b 69 1d bd
       0.031844657 -0.001249802 0.12720643 -0.03843073
000040 a0 09 10 3d 1e ba 99 3d c3 e1 ea 3c e7 37 1c 3d
       0.03516543 0.07506202 0.028672105 0.03813925
000050 4e 0a 57 3d 63 e0 a5 3b 23 98 2e bc 7f 21 a4 3c
       0.05250006 0.0050621494 -0.010656389 0.020035503
000060 86 a5 39 3d aa 2f 03 bd cc 04 4e 3d 19 a8 4b 3d
       0.04532387 -0.032027878 0.050297543 0.049720857
000070 57 e7 6f bc df 10 32 3c 86 57 fe 3c e2 3f 65 bc
       -0.014642558 0.01086828 0.031047594 -0.013992282
000080 e8 94 77 b9 73 f1 08 bc 20 ac a6 3a 82 5d 28 3c
       -0.00023611228 -0.008358347 0.0012716092 0.0102762
000090 57 92 8a bd 31 57 a0 bd 04 97 3d bd a4 55 21 3d
       -0.06766193 -0.078291304 -0.046286598 0.039388314
0000a0 80 ea 06 3b f9 b5 04 3d ef 4f 89 3c 99 32 9c bd
       0.002058655 0.032400105 0.016761748 -0.07626838
0000b0 dd b5 80 bd 51 97 7f bd e1 1d 38 bd dd e3 f9 bd
       -0.06284688 -0.062400166 -0.04495037 -0.122016646
0000c0 9f 3a 3f bd 18 2e 82 bc 9f bc b4 3c c9 e0 17 3a
       -0.046686765 -0.01589112 0.022062598 0.00057936885
0000d0 5a 5f 73 3c 80 8a 21 3d aa 60 12 bd ed d9 60 bd
       0.014854277 0.039438725 -0.035736717 -0.05489533
0000e0 01 c5 40 3a a0 a1 06 bc ba c6 00 3c fb 52 00 3c
       0.00073535746 -0.008217245 0.00785988 0.007832284
0000f0 51 d4 e4 bb dc 35 e7 bc 45 54 55 bd 15 f3 80 3c
       -0.006983318 -0.028223924 -0.05208232 0.01574091
000100 30 84 94 bd 0d 77 42 ba 66 ca a4 3d a3 8a 0f 3e
       -0.07251775 -0.00074182526 0.08046417 0.1401773
000110 73 fc 47 3d fc f2 07 3d b1 4f 89 3c 6f 50 9d bd
       0.04882474 0.033190712 0.016761633 -0.07681357
000120 2d fe 92 bd dd 5d e5 bc 67 09 24 3d 63 ea 28 bc
       -0.071773864 -0.027998859 0.04004803 -0.010309788
000130 28 3c a5 bc e3 ba b7 bd 36 61 39 bd a2 cc dd 3c
       -0.020170286 -0.08971193 -0.045258723 0.027075116
000140 bc 9f b1 3d 0b d7 ee 3c d6 98 db bc 2b 01 73 bd
       0.08673045 0.029155275 -0.026806276 -0.059327286
000150 e9 c9 72 bd b1 03 d8 bc fa 75 35 bd 78 36 65 bd
       -0.059274588 -0.026368948 -0.044301964 -0.05596015
000160 d7 7b 2e 3d 04 7a e1 3b 20 ff f2 bc 4f 3e 5d bd
       0.04259857 0.0068810005 -0.029662669 -0.0540145
000170 97 99 01 be 2f 86 cf bd 55 22 45 bd 09 22 b8 bb
       -0.12656246 -0.10133015 -0.048128445 -0.0056192917
000180 42 62 bf 3c 7e 67 81 bc c3 a0 0c 3d 45 46 10 3e
       0.023362283 -0.01579642 0.034333 0.14089306
000190 7b 16 1d 3e e5 b7 52 3e 02 0a 21 3e eb 80 22 3e
       0.15340607 0.20577963 0.15726474 0.15869491
0001a0 e1 21 31 3e 04 43 98 3d b1 4c 0f 3d 11 0d 29 3d
       0.1729808 0.07434657 0.034985248 0.041272227
0001b0 00 c4 17 3e 3f ef 20 3e c5 dc 16 3e eb e3 07 3d
       0.14820862 0.15716265 0.14732654 0.033176344
0001c0 58 12 f3 3d b7 14 06 3d 30 81 a7 bd b6 3c 1f 3e
       0.11868733 0.0327346 -0.081789374 0.15550503
0001d0 99 be 7c 3e dd cd 8a 3d 14 cf e0 3c 06 7a 1f bb
       0.24682082 0.067775466 0.027442493 -0.0024334206
0001e0 6c 66 37 3d 11 06 dd bd 21 1f 6a 3d a6 eb 35 3e
       0.04477541 -0.10792173 0.057158593 0.17765674
0001f0 46 ca 13 3e 2c b6 d8 3d 81 11 a2 bc 7f f6 2b bd
       0.1443263 0.105816215 -0.019783737 -0.041983124
000200 ba 5b 15 be 11 e3 4a be 15 a9 ec bc d0 65 c4 3d
       -0.14585772 -0.19813181 -0.028889218 0.09589732
000210 a8 0c ac 3d bf 12 54 bd 99 52 e8 bd 77 c8 49 be
       0.084008515 -0.05177569 -0.11343879 -0.19705378
000220 a2 bb 40 be e4 c4 09 bc 75 77 be 3d 6d 69 09 3d
       -0.18821576 -0.008408759 0.09300128 0.033547807
000230 be 74 b4 bd dd f0 4f be ea 73 0e be 58 54 e7 bd
       -0.08811329 -0.20306726 -0.13911405 -0.11295384
000240 90 3e 33 bd 64 73 96 bc 50 12 48 3c 4a 4f c9 ba
       -0.043760836 -0.01836557 0.012211397 -0.0015358713
000250 0e e1 8f 3d c9 e7 53 bd 7c b1 1f 3d cf b0 d5 3c
       0.07025348 -0.05173472 0.03898762 0.026085285
000260 93 7e 6e 3c 0d 82 c8 3c 1d be af 3b 61 1a e4 bc
       0.014556545 0.024476076 0.0053632394 -0.02784461
000270 0c b5 c8 bd 83 c0 90 3d 65 90 27 3d d1 2c 85 3d
       -0.09800157 0.07067969 0.04090919 0.06502689
000280 5f d4 d4 bc 86 9d 7a 3b c9 2a 6b bd d3 bf 3d bd
       -0.025980173 0.0038240864 -0.05741385 -0.046325516
000290 5b dd 0b 3e a9 4a c5 3d 53 40 a7 3d f3 df 20 bd
       0.13658659 0.09633381 0.08166566 -0.039276075
0002a0 f1 66 ad bd cc 3e e7 3b e1 a2 58 bd b3 b5 f8 bc
       -0.084669 0.0070570465 -0.05288971 -0.030360078
0002b0 66 46 bd ba 88 49 85 3d c0 a9 24 bd 2a b2 73 bd
       -0.0014440536 0.065081656 -0.04020095 -0.059496082
0002c0 57 30 27 bd 50 cb 3e bd 0f ba 5e bd db 2d 89 3d
       -0.040817585 -0.046580613 -0.054376658 0.06698199
0002d0 93 cd b1 3d b4 c5 8e bd 7c 17 80 bc fd 96 27 bc
       0.08681788 -0.06971303 -0.015636198 -0.0102288695
0002e0 aa 73 2d bd d7 9f 29 bd c9 6f 83 3d b5 62 8c 3d
       -0.042346634 -0.0414122 0.06417806 0.06854764
0002f0 01 c0 ae bc b1 a2 06 bd f3 26 8e bd 79 15 91 bc
       -0.021331789 -0.03287 -0.06941023 -0.017710434
000300 9e 06 7d bd 77 bb 8e bd 43 14 79 bd d7 cf 1c bd
       -0.06177389 -0.0696935 -0.06081034 -0.03828415
000310 99 64 d3 3d cf 2a 70 3d c9 64 57 3d 66 f7 bc 3c
       0.10321922 0.058634575 0.05258635 0.023067188
000320 89 82 c3 3d 32 04 03 3e e1 51 4f 3c f3 63 8f 3d
       0.09546382 0.12794569 0.012653799 0.07001486
000330 4a 0c 1c bc d9 7f be 3d f8 64 11 3d 9b ac 29 3b
       -0.009524414 0.09301729 0.035496682 0.0025890234
000340 71 e6 9d 3d 85 d0 52 bd 22 61 1f 3d ba a0 c0 bd
       0.07709969 -0.05146839 0.038910992 -0.09405656
000350 6e 7b 9a 3d 28 60 dc 3d 7e 93 7b 3d 22 dc 30 3d
       0.075430736 0.10760528 0.061419956 0.043178685
000360 25 13 4a 3b 36 66 c9 ba 2e 7a 7e bd a2 de b3 bc
       0.0030834165 -0.0015365544 -0.06212824 -0.021956746
000370 40 c6 0f 3b e2 52 4e bd 0c d0 ce 3a 6f 8e b4 3c
       0.0021938235 -0.050372012 0.0015778556 0.022040574
000380 18 9b 7a bc 7f 5a a4 bd d5 2e e9 bb 62 fa 88 bd
       -0.015295766 -0.08025073 -0.0071161785 -0.06688382
000390 42 d2 e3 bb ab c3 e1 bb 1f 0e 54 bd 83 34 8c bd
       -0.006952555 -0.0068897805 -0.05177128 -0.06845953
0003a0 a3 a1 9b 3c 86 b5 d5 bc d4 fc 94 bd 88 22 01 3d
       0.018997973 -0.026087534 -0.07274786 0.031527072
0003b0 41 0a c7 3b 68 04 e3 bc b1 09 8a bc ff ab 97 bc
       0.0060742204 -0.027712062 -0.016850324 -0.018514631
0003c0 23 ba 65 bd cc 80 ce bd 0e fe c5 bc 73 0e bb 3c
       -0.056085717 -0.1008316 -0.024168994 0.022834038
0003d0 a1 70 92 bd 03 c9 ed bd ad dc 1f be 34 e6 3d 3b
       -0.071503885 -0.116106056 -0.15611525 0.0028976323
0003e0 2d 11 46 bd df 84 89 3d c1 cc 19 3d c5 da 39 3d
       -0.048356224 0.06714796 0.037548784 0.04537465
0003f0 e6 8b b1 bc 27 bf 45 bc 33 57 a0 bc 06 24 5f bd
       -0.021673154 -0.0120695 -0.01957283 -0.054477714

conv_in.0.bias f4 [8]
000000 5e 17 92 38 ae bd 13 b9 2c 51 3c 38 6a 75 0d b8
       6.966175e-05 -0.00014089674 4.489829e-05 -3.372637e-05
000010 1e 90 b5 37 85 17 eb 37 ee 24 72 b7 62 1a 4b b8
       2.1643991e-05 2.8025135e-05 -1.4432922e-05 -4.8423542e-05

conv_in.1.weight f4 [8]
000000 3e be 40 3f ce 80 32 3f 67 83 49 3f 3e 81 40 3f
       0.75290287 0.6972779 0.7871613 0.7519721
000010 6d 53 37 3f 7c 18 2e 3f e4 21 24 3f 32 ed 3a 3f
       0.7161167 0.6800611 0.64114213 0.7301818

conv_in.1.bias f4 [8]
000000 28 bc cc 3c 14 21 36 3e 1b b2 dc bb 1b ae e6 3d
       0.024992064 0.17786056 -0.006735099 0.11263677
000010 e3 b3 06 3d 4c e0 76 3d 0a 9b a5 3d 11 8d 19 3e
       0.032886397 0.0602725 0.08086212 0.14995219

conv_in.1.running_mean f4 [8]
000000 73 c3 7f 3d 1b e6 69 3d fa c4 ea bb 2d 2a 82 bd
       0.062442254 0.05710421 -0.0071645947 -0.06355701
000010 5a 60 4d bd 9b 88 2d bd 5b 3e 68 3c 4e 75 96 3c
       -0.050140716 -0.042366605 0.014175023 0.018366482

conv_in.1.running_var f4 [8]
000000 da 60 48 40 e0 69 4d 40 cf 7e a4 40 5f 9d 95 40
       3.1309114 3.209587 5.1404796 4.6754603
000010 5e 62 36 40 9c ca 24 40 b8 fb 2a 40 62 da 8c 40
       2.8497539 2.5748663 2.6716137 4.401658

layer1.0.conv1.weight f4 [16, 8, 3, 3, 3]
000000 6e af 08 3e eb 17 19 3e 26 cc f7 3d d7 f2 32 3d
       0.13348171 0.1495053 0.12099485 0.04368862
000010 4e 30 a7 3d e7 a3 49 3d 96 ca 28 bd 50 db af 3d
       0.0816351 0.049228575 -0.041208826 0.085867524
000020 25 fc 28 3e 95 9f 69 bd 5b 5a 35 bd 16 45 3b bd
       0.16502436 -0.057036955 -0.044275623 -0.045720182
000030 79 24 05 bd 79 c7 d7 bb 7b f0 a2 bb c6 57 6b 3b
       -0.032505486 -0.0065850583 -0.004972515 0.0035910471
000040 cb ab 64 bc 80 92 6e bd 53 9d 45 bd 64 29 b7 bd
       -0.013956974 -0.058245182 -0.04824574 -0.089434415
000050 69 34 90 bd ed f2 96 bb 8a d5 a2 bd 64 66 8d bd
       -0.070412464 -0.0046065957 -0.079508856 -0.06904295
000060 96 b9 bb 3c fb 33 a5 bd d4 72 fe bd 3f 17 0d 3e
       0.022915643 -0.08066555 -0.124242455 0.13778399
000070 e1 a2 6e 3d b8 ab 90 3c 4e 9a ce 3d 75 9e 74 39
       0.058260802 0.017660007 0.10088025 0.00023328683
000080 e3 9d 51 bc 2f 80 26 3b 69 dd 69 bd 6f 1f 15 bd
       -0.012793991 0.0025405993 -0.05709592 -0.03640693
000090 fd d7 7b bd 49 72 9e bb c5 e3 22 bd 17 2a 26 bc
       -0.06148528 -0.004835401 -0.039768 -0.010141871
0000a0 38 ad 29 3d 82 70 e8 3b d9 00 ac 3d 2a da 08 3d
       0.04142496 0.00709349 0.08398599 0.033411182
0000b0 5b f6 de bc 41 5d dc bd c6 35 8e bd f3 72 cc 3a
       -0.02721708 -0.10759974 -0.0694385 0.0015598222
0000c0 86 98 cb bd d8 0b 2e bd 64 31 2c bc b7 42 d3 bd
       -0.09941201 -0.042491764 -0.0105098225 -0.10315459
0000d0 a5 a7 6d bb 47 5f ab 3d c9 f1 ed bb 1c 28 5d be
       -0.0036263254 0.08367782 -0.007261489 -0.21597332
0000e0 79 7f 1c be 2f 65 73 3c 36 1e 38 be a4 d6 a8 bd
       -0.15283002 0.014855667 -0.17980275 -0.082440645
0000f0 ae 2c 76 bd 38 4a ba bd 32 36 7c bd 51 42 98 bc
       -0.060101204 -0.09096187 -0.061575122 -0.01858631
000100 5f 9f 09 3d a2 c7 31 3d 55 2c 6f bc b3 9f 4c bb
       0.033599254 0.043403275 -0.014597972 -0.0031223118
000110 24 1e 31 bd bd 21 0a 3d 9e 09 1a 3c f2 83 13 bd
       -0.043241635 0.03372358 0.009401707 -0.036014505
000120 04 01 b7 3c 64 d5 1e 3e a4 bb d4 3d bd 63 e9 3b
       0.022339351 0.1551109 0.10387352 0.0071224854
000130 87 50 35 3e 9d 95 f4 3d 66 83 e5 3b 6f da 7c 3d
       0.177065 0.11942599 0.0070041893 0.061731752
000140 6d 6d 00 3e 3a 82 06 bd 8f cc 84 bd 22 11 d8 bd
       0.12541743 -0.032839037 -0.06484329 -0.10550143
000150 64 63 b4 bd 7f e8 b8 bd ff 21 0f bd 85 fe 1d be
       -0.0880802 -0.0902872 -0.03494453 -0.15429123
000160 a1 e7 23 be 9a 04 02 be 8c 74 14 bd df 32 84 bb
       -0.16006328 -0.12697068 -0.03624396 -0.0040343846
000170 7a 81 97 3d f2 a0 78 3c ac 06 89 bc ce 90 de bc
       0.073977426 0.015175091 -0.016726814 -0.027168658
000180 d0 8c 56 3b 5b 5e 39 3b d1 9e 98 bc fe 0f 9b 3d
       0.003273774 0.0028285 -0.018630417 0.0757141
000190 82 8a c4 3d 00 16 0e 3c 95 8b 8b 3d 8b 41 08 3e
       0.09596731 0.008672237 0.068137325 0.13306253
0001a0 21 8a 88 3d f5 df 32 3e 49 96 3a 3e 20 34 23 3e
       0.06666971 0.17468245 0.18221392 0.15937853
0001b0 e1 2c 10 3d 2a 97 be 3d bd b4 42 3d cb 16 a0 bd
       0.03519905 0.09306176 0.047535647 -0.078168474
0001c0 fe 73 93 3d c3 63 46 bd dd 58 5d bd d1 d5 07 bd
       0.07199858 -0.048434984 -0.054039825 -0.033162896
0001d0 3a a6 e9 bc db d1 a2 3c 3c f0 bc 3c c9 ed b0 3c
       -0.028521646 0.019875458 0.023063771 0.02159776
0001e0 c5 7d d5 3d f5 e5 00 3d bd 08 89 3c 96 da cd bc
       0.10424379 0.031469304 0.0167278 -0.025128644
0001f0 b9 7e 8a bd 36 65 e3 bc 81 9e 2d bd 57 d0 e3 bd
       -0.06762452 -0.027758222 -0.04238749 -0.11123722
000200 a0 04 83 bd fe c0 83 bd 1a dd d7 bd 9c ba 0c 3d
       -0.063973665 -0.06433295 -0.10540219 0.034357652
000210 01 88 a7 3d b7 ad dc 3d 2a b6 80 3d e5 77 ba bc
       0.081802376 0.10775321 0.06284745 -0.022762248
000220 e6 a6 85 bd e9 db 9d bd 94 30 50 bd 02 8e d6 3c
       -0.06525974 -0.0770796 -0.050827578 0.026190761
000230 74 70 df bc 67 04 e2 bc c9 a9 a0 bd 49 ae 81 bd
       -0.027275302 -0.02758999 -0.07844884 -0.063320704
000240 55 41 ca 3c 18 b6 5d 3d dc 81 90 3d ef d8 db 3c
       0.024689356 0.054128736 0.07056019 0.02683684
000250 83 95 47 bd 48 d1 d3 3a 32 36 8f bd 0c ce af bb
       -0.04872657 0.0016160393 -0.06992759 -0.005365139
000260 25 16 8f 3c 2b 26 86 bb b2 f2 d3 3a 47 25 0b bc
       0.017466614 -0.0040939054 0.0016170351 -0.008492774
000270 6a 7b f4 3c da 34 3d 3d 1b 93 84 3c 3b 64 c8 3d
       0.029844005 0.04619298 0.016183427 0.097847424
000280 9d 43 bc 3d 9f a3 47 3d 28 53 93 bd 5d a5 fe bc
       0.09192584 0.048740026 -0.07193595 -0.03108471
000290 e7 70 a9 3d 32 b6 54 bd 6f d3 98 3b 6c d4 9b 3c
       0.082734875 -0.051931567 0.0046638767 0.01902219
0002a0 7e 7d 43 3d 68 77 aa 3d fc 15 03 3d 8e a5 5c 3d
       0.0477271 0.08323556 0.032003388 0.053868823
0002b0 65 13 76 3d 74 be f7 3a bc 3c b8 3c 57 0a 26 3d
       0.06007709 0.0018901364 0.022489898 0.040537205
0002c0 e4 31 5f bc 29 aa 87 3c a2 c9 2c bd 6d 24 b4 bc
       -0.013622735 0.01656063 -0.04218448 -0.021990025
0002d0 8b e7 f9 3c 0f ef fa bc 32 c8 8b bd f1 dd 0c 3d
       0.030505916 -0.03063157 -0.068252936 0.034391347
0002e0 fb cb 19 bd 23 32 32 3c 74 39 49 bd 37 3e 26 bc
       -0.037548047 0.010876211 -0.049127057 -0.010146669
0002f0 96 2a 38 3c 7b 90 55 3d f8 4c 94 3d 8a 4e 9b 3c
       0.011240622 0.05213974 0.07241243 0.018958349
000300 d9 33 3a 3d a0 e5 6f 3d 6e ee d1 3c 9d 9a 8d 3d
       0.045459602 0.058568597 0.025626387 0.06914256
000310 ce 0f 15 3d 48 85 43 3c e9 e5 10 bd 6f 77 26 3c
       0.036392026 0.011933632 -0.03537551 0.010160311
000320 50 63 95 bc b7 5b 35 bd e0 5e 86 bd 55 ed e8 bd
       -0.018235832 -0.04427692 -0.06561065 -0.113733925
000330 fe 10 26 3d 1a 16 82 bc 96 47 1d bd 3a 65 f5 3b
       0.04054355 -0.01587968 -0.038398348 0.007488874
000340 f6 ce 8d bd da 23 01 bb e0 29 b0 3b 85 d1 94 3c
       -0.0692424 -0.0019705207 0.0053760856 0.018166313
000350 11 45 c1 3d 59 fa c4 bd e3 fc c9 bc a7 82 18 3d
       0.094370015 -0.096180625 -0.024656719 0.037233975
000360 3f 99 41 3d 46 91 12 bd 2a 40 eb bc 39 79 05 bc
       0.047265287 -0.035783075 -0.02871712 -0.0081465775
000370 fc d8 7b bd 8a fa 08 3d aa ee 8f bd 4b e5 de bd
       -0.06148623 0.033442058 -0.070279434 -0.10883578
000380 a5 9f b9 bd e7 c5 ce bd f6 0a 40 bc 25 ee 89 3c
       -0.09063653 -0.100963406 -0.011721363 0.016837189
000390 3b 60 82 3c d8 69 5a 3d f1 d7 57 bd a1 90 4b 3d
       0.015915027 0.053323597 -0.052696172 0.049698476
0003a0 c8 55 1b 3d 8c 70 b4 bc 07 c0 ae 3d d0 a6 9e 3d
       0.037923604 -0.022026323 0.0853272 0.07746661
0003b0 79 42 3c 3b 0f c8 a0 39 a7 30 3b 3c 39 b3 e6 3c
       0.0028726144 0.00030666633 0.011425174 0.028161632
0003c0 0f 1d bf 3b 38 f0 82 3d b2 6c d0 3d 66 b4 d5 3d
       0.0058323215 0.06393474 0.10176982 0.10434799
0003d0 43 68 81 3d 03 82 77 3d 63 59 2c 3d e3 4c 70 3d
       0.063187145 0.060426723 0.042077433 0.058667075
0003e0 9c bd a3 3d a5 40 8c 3d 18 be c1 3d 3c 68 fa 3d
       0.079951495 0.068482675 0.09460086 0.122269124
0003f0 fe 45 a3 ba da ce 67 bd 9b 55 e8 bd 41 bf 4c 3c
       -0.0012456772 -0.056593753 -0.11344453 0.01249677

layer1.0.conv1.bias f4 [16]
000000 80 a3 bc b7 48 ff a9 38 da 31 ab 38 b4 28 91 39
       -2.2487482e-05 8.106098e-05 8.163201e-05 0.0002768688
000010 57 0c dd b8 77 a9 53 39 b2 ad d4 b8 39 93 63 b6
       -0.000105404 0.00020185659 -0.00010141301 -3.391133e-06
000020 aa 9b a5 b7 46 f5 7d 38 9d ad e7 38 cf 8d ac b8
       -1.974202e-05 6.054833e-05 0.00011047276 -8.228013e-05
000030 06 7a 4d b9 de a9 1c 39 49 24 80 b8 99 24 1f b9
       -0.00019595781 0.000149406 -6.110274e-05 -0.00015177055

layer1.0.bn1.weight f4 [16]
000000 e5 89 29 3f 74 e8 1a 3f 59 87 34 3f ba 41 40 3f
       0.66226035 0.60510945 0.70519024 0.7510029
000010 d1 a9 24 3f 3c 9e 4a 3f 6f 47 17 3f 9a 0d 19 3f
       0.6432162 0.79147696 0.59093374 0.5978638
000020 62 8c 25 3f 79 a0 41 3f a2 ed 42 3f 30 05 18 3f
       0.6466733 0.75635487 0.7614385 0.59382915
000030 0b cd 20 3f 74 92 1e 3f c7 84 1b 3f e3 dc 24 3f
       0.6281287 0.6194222 0.6074948 0.64399546

layer1.0.bn1.bias f4 [16]
000000 f1 b6 aa bd f6 98 20 3c 35 52 21 be e1 ee 41 3c
       -0.083356746 0.009802094 -0.15754016 0.011836738
000010 3b d1 e8 bd b8 67 ae 3e 95 fd fd bc 31 5a 4d bd
       -0.113680325 0.34063506 -0.031004706 -0.05013484
000020 73 28 3d be 54 37 83 bd 5c 2e d9 bd 3e 80 39 3d
       -0.18472461 -0.064070374 -0.106045455 0.045288317
000030 bc 25 d7 3b b3 50 28 3c 59 12 da 3c fe aa c7 3b
       0.0065657776 0.010273146 0.026620077 0.006093382

layer1.0.bn1.running_mean f4 [16]
000000 48 2f 02 bc 85 da 87 bd d0 fe 8b 3c 67 32 b2 bb
       -0.007945843 -0.06633476 0.017089278 -0.0054381373
000010 83 e8 96 3d 25 6f 26 bd 29 c5 79 bd 31 aa 2d bc
       0.07368567 -0.04063334 -0.060979042 -0.010599659
000020 13 63 34 3d e8 72 e0 3c ee aa 36 bb 4e 53 4b 3b
       0.044039797 0.027398542 -0.0027872878 0.0031024995
000030 76 c8 03 3d e5 88 05 bd 68 a1 03 bd 0c b6 9a bd
       0.032173596 -0.032601256 -0.03213635 -0.07554254

layer1.0.bn1.running_var f4 [16]
000000 4e 35 fb 3d 60 0f 36 3e 48 82 0c 3e 48 97 0f 3e
       0.122660264 0.17779303 0.13721573 0.14022553
000010 bf 39 41 3e f5 3d 20 3e f5 15 27 3e 4f 49 03 3e
       0.18869685 0.15648635 0.1631697 0.12820934
000020 e2 32 40 3e 71 ff 26 3e 82 ca 35 3e 10 22 03 3e
       0.1876941 0.1630838 0.17753032 0.12805963
000030 e2 8a 3c 3e 4e 2b f2 3d 01 99 28 3e ba f9 2b 3e
       0.18412355 0.11824666 0.16464616 0.16794482

layer1.0.conv2.weight f4 [16, 16, 3, 3, 3]
000000 46 4f d7 3b 6d 00 5a 3d 2f dd 17 3b c0 86 60 3c
       0.0065707294 0.053223062 0.0023172607 0.013704002
000010 d2 41 da 3d 4e a3 64 bc 96 d3 05 bd d2 45 93 3c
       0.106570855 -0.0139549505 -0.032672487 0.017977629
000020 a6 b6 94 bd f2 3f 80 bc 5b ec 14 bc 5d 9b 6a bc
       -0.072614 -0.015655492 -0.009089555 -0.014319268
000030 c2 d9 8c bc e4 bc cd 3c fa c2 2e 3d 60 c7 04 3d
       -0.017193679 0.025114484 0.042666413 0.0324167
000040 85 01 b6 3c ed 8b 12 bd 53 c5 97 bc 1a 4e d0 bc
       0.022217521 -0.035777975 -0.018526709 -0.025427867
000050 df b0 26 bb 81 41 53 bd f7 1d 2f 3b db 0f a1 bd
       -0.0025435013 -0.05157614 0.0026720741 -0.07864352
000060 89 fb 1d bd c8 07 ae bd ad 37 3f bd 8b 65 01 3c
       -0.03856996 -0.08497578 -0.046683956 0.007897745
000070 65 15 b2 bc 7d 14 ad bd f5 ea 22 3d 52 a9 f9 3d
       -0.021738717 -0.084511735 0.039774854 0.121904984
000080 17 c9 d5 bc 7a b7 33 3c ce ad 25 3b ff 90 0e 3d
       -0.026096864 0.010969037 0.0025280598 0.034806248
000090 b1 d0 16 be 61 39 8a 3a ec ce cb 3c b0 1f b1 bd
       -0.14728047 0.0010545665 0.024878941 -0.08648622
0000a0 37 66 29 3d e6 4d 87 3d f8 6e a2 bd b9 bd 8d bd
       0.041357245 0.06606655 -0.07931322 -0.06920952
0000b0 e9 89 b3 3c 5e 62 28 3c 10 b7 b0 bc 99 0b 4a bd
       0.021916347 0.010277359 -0.021571666 -0.049327467
0000c0 98 f3 fc 3d 9a a3 75 3d ad 27 f1 bd 32 bf cd bc
       0.12351149 0.059970476 -0.11775146 -0.025115583
0000d0 6f af 42 bc 69 0d da bd 9e d8 92 bd fd 3e 6c bc
       -0.011882647 -0.10647089 -0.07170223 -0.014419314
0000e0 cb 4a a5 3d 6c a4 9b bd d6 5e c8 3a b3 54 17 3d
       0.08070906 -0.0759972 0.0015287052 0.03694601
0000f0 23 9e 63 bd 02 f1 a4 3d d3 ff 8a bc 64 e0 16 3d
       -0.055570733 0.08053781 -0.01696769 0.03683509
000100 0c 45 af bd 99 84 b4 3d 46 fb 07 3b f2 b0 0f 3e
       -0.085580915 0.088143535 0.0020749136 0.14032343
000110 af 5f 3e bd 4c 45 17 bd 60 e4 aa 3a db 1e fd bc
       -0.04647797 -0.03693132 0.0013038032 -0.030898502
000120 65 11 7f bc 2c 2f 38 bc 0d 7a 3f 3c 8a 92 80 bd
       -0.015568112 -0.011241715 0.011686814 -0.0627795
000130 15 a0 e1 3d 25 77 1d bd e0 84 88 bd 0d 75 0d 39
       0.11016861 -0.038443703 -0.06665969 0.00013490413
000140 32 89 6b 39 00 e6 66 3c 20 8b b5 bd f2 81 8c 3d
       0.00022462456 0.014092922 -0.088644266 0.068607226
000150 16 2e cf bc cd f1 8f bd 4e 80 c7 3c 41 7d db bc
       -0.02529053 -0.07028542 0.024353173 -0.026793124
000160 63 4a 85 3b 9d bb ed 3b 53 5e a9 bd 1b a5 44 bd
       0.0040677055 0.0072550313 -0.08269944 -0.04800902
000170 1f 1a a1 3d 99 b4 e7 ba 0c 8b 2e bc 74 a2 91 3d
       0.0786631 -0.0017677724 -0.010653269 0.071110636
000180 66 57 ca 3c ce da 51 bd d9 1e 81 3d 24 1b 6a 3d
       0.024699878 -0.05123406 0.06304712 0.05715479
000190 01 f8 b1 3d 48 80 11 3c c7 a8 85 3c 59 75 83 bd
       0.08689881 0.008880682 0.01631583 -0.06418867
0001a0 67 cd 3a 3d 70 36 ba 3d 67 b7 3e bc d2 ed 0f 3d
       0.045606043 0.090924144 -0.011640406 0.035138912
0001b0 17 4b 95 bc b1 8b 16 bc 54 8a ed 3c 0a 7b 89 bc
       -0.018224282 -0.009188578 0.028996624 -0.016782302
0001c0 22 e5 eb bc df 82 49 bc d5 cc 22 bd 09 3b 70 bc
       -0.028795782 -0.0122992685 -0.039746124 -0.014662513
0001d0 42 57 5f 3d fc d5 04 bd ec e4 48 3d 3c 6f 05 bc
       0.054526575 -0.032430634 0.049046442 -0.008144196
0001e0 99 ef f6 bc 21 19 31 3c ce fc 82 bd 34 11 a7 bd
       -0.030143546 0.010809214 -0.06395875 -0.08157578
0001f0 ff 63 a3 bc 87 6d 8a bd 15 9b 7a bd 94 5c 81 bd
       -0.019945143 -0.06759172 -0.061183054 -0.06316486
000200 ed b4 27 bd 91 b7 59 bd 6b 99 d3 3d 47 a1 6b 3d
       -0.04094403 -0.05315358 0.103319965 0.057526853
000210 35 eb b3 3d 97 39 a4 3d 3c 90 67 3d 9c 4c ec 3c
       0.087850966 0.08018797 0.056534037 0.028845124
000220 60 1c 83 bd ec c8 27 3e 3f 44 c7 bc 85 52 ef bd
       -0.064018965 0.1638524 -0.024324534 -0.11685661
000230 79 9a a6 3d c4 69 04 bd 74 bc da ba ad c4 59 bc
       0.08134932 -0.03232743 -0.0016688243 -0.01329152
000240 83 a4 24 3d 05 02 23 3c 3e ad 82 3d 9a 73 3c b9
       0.040195953 0.009949212 0.063806996 -0.00017972142
000250 c3 40 0b be 03 05 82 3d 5f 9f ea bc 8d ec 4e 3c
       -0.13598923 0.06348612 -0.028640447 0.01262964
000260 f0 bc fa bc fe 8e b2 bc e0 37 d9 3c ac 57 61 3d
       -0.03060767 -0.0217967 0.026515901 0.05501525
000270 8e 80 95 bd 2f 20 98 bd 5f b4 5f 3d bb 1b 2d 3d
       -0.072999105 -0.074280135 0.054615375 0.042262774
000280 fd 62 a0 3c ee c7 bd 3b 6e c2 76 bd 51 43 55 bd
       0.019578451 0.0057916557 -0.060244016 -0.05206615
000290 6d c4 fc bd 66 1d 04 bd 13 95 25 3d e9 81 4b bd
       -0.12342153 -0.0322546 0.04042537 -0.04968444
0002a0 3f 79 82 bd 1e f3 c7 bb 27 cb 8b bd b8 49 9b bd
       -0.06370782 -0.00610198 -0.068258576 -0.0758242
0002b0 58 f7 90 bd b4 c7 78 bc f3 73 a0 3c a5 3f da 3d
       -0.07078427 -0.015184332 0.019586539 0.106566705
0002c0 c3 40 a3 3d f5 fc a8 bc 87 71 f1 ba 97 94 ed bc
       0.07971337 -0.020628432 -0.0018420675 -0.029001517
0002d0 c8 95 8c bd 46 86 6d bd e8 48 c4 bc ee 67 38 bd
       -0.06864506 -0.05798938 -0.023960546 -0.04502099
0002e0 f6 41 f9 3b 9a 10 2c bd 8f 85 1f be 91 ff c3 bd
       0.00760674 -0.04200802 -0.15578292 -0.0957023
0002f0 aa c6 99 bd fd a5 79 bd 86 d3 0f 3c 8c be bd bd
       -0.07508595 -0.060949314 0.008778458 -0.092648596
000300 7d 04 f1 bc cc 59 f5 3d d8 ca 3e bd 26 f1 40 3b
       -0.029421085 0.11980018 -0.046580166 0.002944061
000310 54 a7 e1 bc 9e dd a4 bd 73 c8 1c bd a9 b1 8c bd
       -0.027545609 -0.080500826 -0.0382771 -0.068698235
000320 b8 69 29 bd 4f eb 9c bb bc a1 cb 3d 7c e7 a3 bc
       -0.041360587 -0.004788793 0.09942958 -0.020007841
000330 9b 9d cf 3a 2b 38 87 3b 14 9a fa bc e8 c5 96 bc
       0.0015839817 0.004126569 -0.030591048 -0.018404916
000340 00 5b 0f 3d 38 fa 96 bd 11 4a e4 bc 30 d1 3e 3e
       0.034998894 -0.07371944 -0.027867349 0.18634486
000350 98 2c 55 bc cb 51 8a bd 17 a9 32 bd df 13 69 bd
       -0.01301112 -0.06753882 -0.043618288 -0.056903716
000360 8e b6 b7 bc 95 36 34 bd 9f 0d c9 3c 21 30 14 bd
       -0.022425916 -0.043997366 0.024542628 -0.03617871
000370 34 d8 a3 bb 86 b8 26 bc 14 ce 8b bd 6d e5 71 bd
       -0.0050001387 -0.01017583 -0.06826416 -0.059056688
000380 88 13 bb bc f7 5e 9d 3d 1a 33 ca b8 10 4b 16 3d
       -0.022836462 0.07684129 -9.641629e-05 0.03669268
000390 9a 12 9a 3d 7d 4a 0c 3d 3e 4e e5 bc b4 73 ce ba
       0.07523079 0.034250725 -0.02799141 -0.0015751035
0003a0 9c 1f dc 3c 6a 98 0f bd 4c 32 04 3d e3 29 98 3d
       0.026870541 -0.035057463 0.03227453 0.07429864
0003b0 bc c0 8d 3d f3 8f b5 3d f5 f5 3b 3e 71 87 34 3d
       0.06921527 0.08865347 0.18355544 0.04407448
0003c0 fa 32 e7 3c 03 d0 d7 3c 36 2c 39 bd b7 21 14 bd
       0.02822255 0.026344305 -0.04520818 -0.036164965
0003d0 ac a3 0c be 5a 3f a8 bc 6b b5 f9 bc 1a 7a 3d 3d
       -0.13734311 -0.02053802 -0.030482015 0.046259023
0003e0 1d 9b 0a bb d3 08 d3 3a 80 be 84 3c 27 53 99 3d
       -0.0021149584 0.0016100652 0.016204119 0.07486563
0003f0 92 77 1c bd 84 ca ba bd ef 4d d1 ba 0a 49 60 bd
       -0.03819997 -0.09120658 -0.0015968661 -0.054757155

layer1.0.conv2.bias f4 [16]
000000 37 45 7d 38 1c 56 11 b6 78 05 2a b7 0a 2f 57 b8
       6.0384362e-05 -2.1656806e-06 -1.0134063e-05 -5.1303803e-05
000010 d6 e4 fd b8 94 41 6a b9 30 59 a6 b9 0b d3 62 b8
       -0.00012106604 -0.00022340409 -0.00031728437 -5.4079148e-05
000020 50 59 19 b7 c1 60 9f 38 ed 90 13 b8 48 61 e9 b8
       -9.140305e-06 7.5997326e-05 -3.5182504e-05 -0.00011128426
000030 f8 a6 c8 37 71 b5 ca b8 b4 60 fd b8 d4 23 cf b6
       2.3919609e-05 -9.665907e-05 -0.000120819925 -6.1732517e-06

layer1.0.bn2.weight f4 [16]
000000 ba 67 20 3f b0 51 36 3f 02 a3 27 3f 7f d0 39 3f
       0.62658274 0.71218395 0.65483105 0.72583765
000010 76 aa 3c 3f e8 17 29 3f 73 db 30 3f eb c6 25 3f
       0.736976 0.66052103 0.6908485 0.6475665
000020 bf 68 32 3f b8 1e 2b 3f 71 36 2b 3f cf 07 26 3f
       0.6969108 0.6684375 0.66879946 0.64855665
000030 c9 17 22 3f 06 b4 24 3f 84 23 3d 3f ec a1 2f 3f
       0.63317543 0.64337194 0.7388232 0.6860645

layer1.0.bn2.bias f4 [16]
000000 4a c3 6a 3d 57 62 4e 3d af 92 f3 bd ca bf 0a be
       0.05731515 0.050386753 -0.11893212 -0.13549724
000010 a0 5b 1b bc 6d 52 10 3c c9 98 bf bd b5 ac 72 bd
       -0.009482294 0.008808714 -0.09355313 -0.059246738
000020 db 06 0a bc e5 b2 a7 bd 8d d7 1f be 08 4c 91 bc
       -0.008424486 -0.08188418 -0.1560957 -0.01773645
000030 a0 a8 0c be cd 16 9f bd f1 74 cd 3d 64 70 a8 3d
       -0.137362 -0.07768021 0.100320704 0.08224562

layer1.0.bn2.running_mean f4 [16]
000000 34 09 e6 3e 33 20 5f bf f1 db 31 bd f8 46 17 be
       0.44928896 -0.8715851 -0.043422643 -0.14773166
000010 5f a5 57 be 3c d5 a1 be aa 91 11 bf 6b 9a ca 3e
       -0.21059178 -0.31607997 -0.5686289 0.39570937
000020 8a 57 15 be 8f 58 50 3e 81 b4 d3 3c 93 76 44 bd
       -0.14584175 0.20346282 0.025842907 -0.047964644
000030 37 fa 8e bd 48 11 71 be d6 4b 4b bf 46 4c ac be
       -0.069813184 -0.23541749 -0.7941259 -0.33651942

layer1.0.bn2.running_var f4 [16]
000000 b1 84 06 3f af 16 1f 3f 21 83 f2 3e a7 b7 36 3f
       0.5254622 0.6214399 0.47365668 0.7137398
000010 74 47 22 3f 1b 27 df 3e cf 1f 25 3f e2 cc 20 3f
       0.6339028 0.43584523 0.6450166 0.62812626
000020 61 7f 3a 3f 3d 0e 17 3f 8d 77 03 3f 9b b0 17 3f
       0.72850615 0.590061 0.51354295 0.59253854
000030 5c 00 1a 3f fc 3e 0a 3f 3d e5 24 3f ab 97 54 3f
       0.601568 0.54002357 0.6441229 0.83043927

layer1.0.conv3.weight f4 [16, 16, 1, 1, 1]
000000 0c a3 97 bd 96 ee 42 bd 36 1b 70 bd 82 e3 bf bd
       -0.074041456 -0.047590815 -0.0586197 -0.093695655
000010 ad 54 db bc eb cb 37 be 10 ee 01 3e 99 a5 37 bd
       -0.026773775 -0.17948882 0.1268847 -0.04483566
000020 4a 00 13 bd b0 7c 8f bd 1d b9 28 bd 96 8f 43 3c
       -0.035888948 -0.07006204 -0.041192163 0.011936089
000030 d6 85 1f bc c3 80 de bd 1d ab e0 3d f2 00 a4 bd
       -0.009736499 -0.10864403 0.10970137 -0.08007993
000040 7b ca d0 bd 97 25 37 bd 25 a4 16 bc a3 8d 31 be
       -0.1019487 -0.044713583 -0.009194409 -0.17339186
000050 86 43 a6 39 4f de be bd e6 9d 05 3d a4 2a bc bd
       0.00031712296 -0.09319746 0.032621287 -0.091878206
000060 40 12 76 3d 0c 4f 9c 3d 1a 4b d6 3d 72 4b b1 3d
       0.060076 0.076322645 0.10463543 0.08656968
000070 0a 47 c8 3d 8b 9e ca bd a0 50 12 3e 83 f6 91 3b
       0.097791746 -0.09893521 0.14288568 0.0044544353
000080 d4 b9 15 be f9 27 fd bd 41 35 0a be 13 74 e7 bd
       -0.14621669 -0.1236114 -0.13496877 -0.11301436
000090 7e 75 8b bd 47 31 02 be 62 a5 eb bc 7a b5 2c bd
       -0.06809519 -0.1271411 -0.028765384 -0.042165257
0000a0 6b 7d 07 3c 32 38 47 bd 2b 02 d2 3c 6f 7f c0 3c
       0.008269648 -0.048637576 0.0256358 0.023498265
0000b0 cf 56 0f 3d f1 67 23 be 27 e6 52 bc fe d6 20 bd
       0.034994897 -0.15957619 -0.012872255 -0.039267533
0000c0 f8 41 3b bc cb cf a4 bd bb b7 96 bd 1c 50 34 be
       -0.011429302 -0.08047446 -0.073592626 -0.17608684
0000d0 1a 53 32 bc 08 47 23 be 24 d8 86 3d be 8f 5b bd
       -0.010884071 -0.15945065 0.06584194 -0.05360388
0000e0 64 8a 2b 3d ac 6d e9 bd d4 44 d0 3c d7 50 d6 bd
       0.041880026 -0.113978714 0.025423445 -0.10464638
0000f0 26 5f 16 3d c0 aa 2f bd cf 8b b1 3d cd 52 5c bc
       0.036711834 -0.04288745 0.086692445 -0.013447476
000100 ea 5d b1 bd dc dd 48 be 2d 18 9b bd 31 cc 16 be
       -0.08660491 -0.19615883 -0.075729705 -0.1472633
000110 1b af 5e bd 20 23 8a bc b7 2d ee 3a a6 68 bb bd
       -0.054366212 -0.016862452 0.0018171583 -0.091508195
000120 f9 00 90 3c 75 b1 af bd 00 72 44 bd 6e a1 27 bd
       0.017578589 -0.08578769 -0.04796028 -0.040925436
000130 a4 15 1d 3c fe cc 7d bd 02 0e bb 3c 27 0e 79 bd
       0.009587679 -0.061963074 0.022833828 -0.060804512
000140 45 30 27 bd 93 c2 13 3e 8d fd b1 3c fb b1 c2 3c
       -0.040817518 0.14429693 0.021727348 0.023766508
000150 b2 38 31 be 53 0f e5 bb 7f 30 55 be 6b 9b 50 bd
       -0.17306784 -0.006990352 -0.20819281 -0.050929468
000160 2e 25 2d be 98 ad 02 3d 0a 49 39 be d3 d6 36 bd
       -0.16908714 0.031903833 -0.18094268 -0.044638466
000170 f9 ff ed bd 1d b5 52 3d 2f 1e 27 3d 05 d6 1b be
       -0.116210885 0.051442254 0.04080027 -0.1521836
000180 fc 78 ba 3d bd d0 cb 3c 49 cf f4 3d 92 0f b9 3d
       0.09105107 0.024879808 0.11953599 0.09036173
000190 b1 22 0c 3e 9d 6f 69 3c 12 a8 61 3d 89 68 9a 3d
       0.13685109 0.014247802 0.055091925 0.0753947
0001a0 68 2d 1a 3e 89 c9 5c 39 a7 5c b7 3d a1 d9 18 be
       0.15056384 0.00021055913 0.08953219 -0.14926769
0001b0 5d 96 2e 3e 0c 34 cd 3c 1a 6d 25 bd 08 ca b7 bc
       0.17049547 0.025049232 -0.04038725 -0.022435203
0001c0 a8 2c 92 bd 20 c4 9c bc f0 fd 55 3d 93 0f 22 be
       -0.07137424 -0.019136488 0.052244127 -0.15826254
0001d0 19 f8 0a be ab c1 62 bd 7a 0b 17 3e f2 93 a0 bc
       -0.13571204 -0.055360477 0.14750472 -0.019601796
0001e0 0a fc 3f 3b 50 87 79 bd 16 4f 7d bb 77 78 60 bd
       0.0029294514 -0.06092006 -0.0038651875 -0.054802384
0001f0 ee 2b 0b bd 56 29 be bd 0b 3d f8 3d 45 7b 69 3c
       -0.03397744 -0.09285228 0.12121018 0.014250581
000200 88 58 97 3d 55 a9 ab 3d 2d af 77 3d b5 26 2a 3d
       0.07389933 0.08381907 0.060469795 0.04154082
000210 36 0b 4c 3e e2 d7 ea 3d 89 59 27 3d b3 15 c0 3d
       0.19926152 0.11466958 0.04085687 0.09379139
000220 7e f3 a0 3c f5 db c2 3d c8 05 91 3c 76 b2 93 3d
       0.019647356 0.0951461 0.017702952 0.07211773
000230 cb 78 2f 3b 8e ce b9 3d 82 e5 a3 bd f5 47 8b bb
       0.002677488 0.090726 -0.080027595 -0.0042505213
000240 ce 75 c6 bd 73 97 81 be 13 96 82 3d 9e 93 1b be
       -0.09690438 -0.2531086 0.06376281 -0.1519303
000250 2e 55 19 be 79 7e 13 bd 56 83 d8 bd 4c 78 77 bb
       -0.149739 -0.036009286 -0.10571925 -0.0037760912
000260 f2 c2 e9 bd d7 c7 6c 3d 15 b2 5a bd ce 4e 19 3d
       -0.11414136 0.05780777 -0.05339249 0.03742867
000270 c7 9f 96 bd 97 00 33 bc 66 83 ff bd ea 90 be 3d
       -0.07354694 -0.010925434 -0.12476234 0.09304984
000280 e1 02 12 be 5f d7 64 3d b6 ea f9 bc 6d 2f eb bb
       -0.1425891 0.055869456 -0.030507427 -0.0071772845
000290 a7 ac 45 3d 7e 4a 67 be 04 c2 19 3d ee 93 14 bc
       0.048260357 -0.2258701 0.037538543 -0.009068472
0002a0 7e 23 ff 3c 81 23 83 bd 89 23 ee bd d3 3d 70 bd
       0.031144854 -0.06403256 -0.116278715 -0.05865271
0002b0 00 3d ce 3c f0 2b e4 bd 88 86 71 3d 31 1e 41 be
       0.025175571 -0.11141193 0.05896619 -0.18859173
0002c0 12 f9 d8 3d cd 43 00 3d 96 d3 95 bb cf d0 d7 3d
       0.105943814 0.03131466 -0.004572342 0.10537874
0002d0 4c a2 12 bd 46 76 73 3d 50 48 d8 bd 0a 78 99 bd
       -0.03579931 0.059438966 -0.105606675 -0.07493599
0002e0 ad d5 54 bd 09 4c cb bd b9 71 e0 39 04 91 02 be
       -0.05196159 -0.09926612 0.0004280934 -0.12750632
0002f0 20 7a 5f bd 6f 04 d2 3d 97 23 7f be ad 09 26 3d
       -0.054559827 0.10254752 -0.2491592 0.04053657
000300 81 d2 e7 bc aa d1 f8 bb 37 ca e7 3d b5 b8 9e 3b
       -0.028298618 -0.0075933533 0.11317866 0.004843796
000310 88 dc 91 bd 42 d7 d3 3d cf ea 6b bd 74 53 0f 3e
       -0.07122141 0.103437915 -0.057596978 0.13996679
000320 31 ed 4c bd cb f4 0d 3e 7c 39 d4 3d 1d 0c d2 3c
       -0.05003089 0.13862912 0.10362527 0.025640542
000330 be a1 dd bb ba 57 02 3d 38 78 0f be dd 3b 47 3e
       -0.006763666 0.031821944 -0.14010704 0.1945643
000340 09 19 1a bd 92 4a 98 3d 8c f4 13 be d1 65 da bd
       -0.03762153 0.07436098 -0.14448756 -0.10663951
000350 70 72 1c bd ce d4 4c 3d 4c bd cd bd cf c3 fe bd
       -0.038195074 0.050007634 -0.10045871 -0.12439691
000360 68 78 d2 bc 05 df f5 bd cf df b2 bd c5 ad ed bd
       -0.02569218 -0.12005428 -0.08734094 -0.116054095
000370 dc d9 15 be a8 cf 87 3d ad 4c 05 be 67 0f af 3d
       -0.14633888 0.06631404 -0.1301753 0.0854786
000380 65 db a0 bc 3a ac ef 3c 50 f6 cb bd 11 89 3b be
       -0.019635865 0.029256929 -0.0995909 -0.18314005
000390 23 94 8b bc a0 da d0 bd ce 63 e8 3d 88 92 9d 3c
       -0.01703841 -0.101979494 0.11347161 0.01923491
0003a0 95 a4 5e bd 1e 7a 0d be 9c 28 ed 3c fb d4 d1 bc
       -0.054356176 -0.13816115 0.028950028 -0.025614252
0003b0 73 fa ae 3c 7a 4d 0b bd 11 a6 b8 3d bf b3 b1 3c
       0.021359658 -0.034009434 0.0901605 0.021692155
0003c0 00 1f d1 bb 0f 93 0f 3e e1 74 54 be 0b d3 bb 3d
       -0.0063818693 0.14020942 -0.20747711 0.091711126
0003d0 23 4f 63 bd 09 3e 05 38 b4 5e c0 3d 32 f3 43 bd
       -0.055495393 3.1767446e-05 0.09393063 -0.04783935
0003e0 76 1c 55 be 75 36 fe 3c da dc e0 bc a5 66 a7 bd
       -0.20811638 0.031031827 -0.02744906 -0.08173875
0003f0 50 60 c5 bc b5 5c 8f bd c9 85 f8 3d 7a 0a cb 3b
       -0.024093777 -0.07000104 0.121348925 0.0061963173

layer1.0.conv3.bias f4 [16]
000000 b2 6b 9d b7 f2 8a f5 37 96 2e a0 b8 7b 4c d6 37
       -1.8766008e-05 2.9270977e-05 -7.638072e-05 2.5546402e-05
000010 43 20 dc 39 1e bb b0 38 bc 84 ac 37 b6 af 84 38
       0.00041985707 8.427187e-05 2.0565807e-05 6.326979e-05
000020 e9 3c a0 37 d4 73 b3 37 2f c7 1c b7 1b 72 2a b8
       1.910185e-05 2.13924e-05 -9.344701e-06 -4.0637427e-05
000030 9c 08 ff b8 6b 9c 44 b8 3c 2b ec b7 19 46 e3 b9
       -0.00012160951 -4.6875717e-05 -2.8153525e-05 -0.0004334904

layer1.0.bn3.weight f4 [16]
000000 34 3f 47 3f 13 df 2d 3f 1a 35 54 3f b0 09 63 3f
       0.77830815 0.6791851 0.82893527 0.88686657
000010 10 71 4f 3f b1 ec 60 3f 0e 0f 26 3f 63 15 68 3f
       0.81031895 0.8786116 0.6486672 0.90657634
000020 d8 81 15 3f 3c 35 34 3f c9 5a 4e 3f 09 72 0e 3f
       0.5840125 0.7039373 0.8060728 0.55642754
000030 5a 65 1a 3f 3c 33 76 3f 19 16 49 3f 2e 27 64 3f
       0.603109 0.9617193 0.78549343 0.89122283

layer1.0.bn3.bias f4 [16]
000000 a1 3f fc 3d 2e 01 7d 3c 94 59 01 3d 04 45 87 3b
       0.12316824 0.015442176 0.03157957 0.0041281004
000010 5c 82 d3 3c eb 95 37 bc 6e 81 07 be 71 5b 89 bb
       0.025818996 -0.011205177 -0.13232967 -0.004191809
000020 a6 19 55 bd 3d df aa bc cc dc c4 3d 98 3c 22 be
       -0.052026413 -0.020858401 0.09612426 -0.15843427
000030 0b 39 07 be 66 e6 87 bc 34 69 55 bd 10 0e ee bd
       -0.13205354 -0.016589355 -0.052102283 -0.11623776

layer1.0.bn3.running_mean f4 [16]
000000 f6 bd e3 bd 5c f4 9e 3b 1e 7b 45 be a4 4f d6 bd
       -0.111202165 0.0048509073 -0.19285247 -0.10464409
000010 48 26 3c be 88 62 23 be 68 ff 15 3e aa d6 75 bd
       -0.18373978 -0.15955555 0.14648211 -0.060019173
000020 ff 42 33 3e e3 09 4b be a7 27 09 be 76 f6 b7 bd
       0.17506026 -0.1982799 -0.13394032 -0.089825556
000030 2b 3d a4 3d f3 b3 28 be ce 00 54 bd 32 4d d0 bc
       0.08019479 -0.16474895 -0.05175858 -0.025427435

layer1.0.bn3.running_var f4 [16]
000000 60 9f e8 3c fd 25 a7 3c 25 d7 0a 3d 25 ba cc 3c
       0.028396308 0.020403856 0.033896584 0.024991104
000010 a6 ea e1 3c c8 4b e0 3c 8f 94 15 3d 42 03 c3 3c
       0.02757771 0.027379885 0.03651863 0.023805264
000020 7f df 06 3d 5d 01 12 3d ad 67 29 3d 5d f7 8d 3c
       0.032927986 0.03564583 0.04135864 0.017329866
000030 8a 3d 32 3d 9f b6 ea 3c cf 04 aa 3c e2 6c ca 3c
       0.04351572 0.028651534 0.020754246 0.024710122

layer1.0.shortcut.0.weight f4 [16, 8, 1, 1, 1]
000000 6f 4c d6 3d b1 8c 3f 3d 4f 7e 85 3d 6f ee fa 3c
       0.10463797 0.046765033 0.06518232 0.030631272
000010 ca c2 96 3d 3c 2d 01 3c 3d 47 c8 3d 70 c1 10 3e
       0.07361372 0.00788432 0.097792126 0.1413629
000020 36 08 04 bd 5a 40 cc 3d f6 4b b8 bd 3c a1 bc 3d
       -0.032234393 0.099732116 -0.089988634 0.092104405
000030 9d cf a7 3d ee a5 9d 3d e8 cb da bd 25 47 46 be
       0.08193896 0.07697664 -0.10683423 -0.19363077
000040 95 5b 0c bd d9 31 c1 3d 77 5d da 3c 45 f9 10 3e
       -0.034267027 0.09433336 0.026655896 0.14157589
000050 7d 44 f7 3d 26 d0 11 3e 7d a3 b9 3c d1 26 a5 3d
       0.1207361 0.14239559 0.022660965 0.08064044
000060 bf b7 7a bb cd 93 0f 3d 88 96 33 bc c1 f1 87 be
       -0.0038256494 0.035053063 -0.010961182 -0.2655163
000070 ec bd 29 be 91 0b 42 bd d6 2b 97 bd 78 07 5d 3d
       -0.16576356 -0.04737431 -0.07381408 0.0539622
000080 d3 33 21 be 04 6d e3 3c 6b 0f ba 3a 3e b7 bb 3d
       -0.15742426 0.027761944 0.0014195269 0.0916581
000090 1c cb 1e be b5 b9 55 bd 01 4b 48 bd df 38 ee bd
       -0.15507168 -0.052179057 -0.048899654 -0.11631941
0000a0 a3 83 20 be e1 4b d3 3d ac 9e 01 3e d2 5c bc bd
       -0.15675215 0.10317207 0.12658185 -0.091973916
0000b0 e3 6e 49 3d 44 5b b2 3d 87 b7 3c bc 9b 0d 5e be
       0.049178015 0.08708814 -0.011518366 -0.21684878
0000c0 6e 90 98 3d c2 5a 2d 3e e6 39 7a bd cf e6 92 3b
       0.07449423 0.16929153 -0.061090373 0.004483081
0000d0 60 4e 9c 3c 39 e1 73 3b b3 41 15 3e 89 0e b3 bb
       0.01908034 0.00372131 0.14575844 -0.005464379
0000e0 4e 25 26 bd e0 ed 33 be d2 34 cc bd 47 b4 a6 bc
       -0.04056292 -0.17571211 -0.09971012 -0.020349635
0000f0 2d aa b5 3c 72 a9 2e be 1f 28 4e 3d 07 8d d9 bc
       0.022175873 -0.17056826 0.05033123 -0.026556505
000100 b8 45 12 be ab 91 8e bc 2f 74 05 be 19 1b 38 bd
       -0.14284408 -0.017403444 -0.13032602 -0.044947717
000110 b8 a9 56 3c ae b0 3c bd da af 47 bd bc 25 1c be
       0.013101988 -0.046066932 -0.04875169 -0.1524877
000120 8c 00 f3 bc 8a 78 02 3e 1e a0 8d bd 44 b3 c5 3d
       -0.029663347 0.12741295 -0.069153056 0.09653333
000130 fa 4d 18 bd ae 64 2e 3d af 08 d1 bd 60 0b 5c be
       -0.03718374 0.042576484 -0.102067344 -0.21488714
000140 bd ec e4 bd 87 f0 36 3d cb c3 c3 3d cd 3d 02 3e
       -0.11177967 0.04466298 0.09558829 0.12718888
000150 48 1b 0b 3d 2c 15 37 3d c6 3d 3f bd 54 24 52 be
       0.033961564 0.044697925 -0.04668977 -0.2052167
000160 80 a5 27 3d 69 7d 8e be e7 01 8a 3d ac 37 15 bd
       0.040929317 -0.27830055 0.06738644 -0.036430046
000170 f6 91 ce bd cd 34 d1 bc 89 a4 d8 3b 3f 3c 72 3d
       -0.100864336 -0.025537873 0.006611411 0.059139486
000180 a3 3c b5 bc cd d3 38 be 05 a8 f9 3c 8c 6f c8 bd
       -0.02212364 -0.18049546 0.030475626 -0.09786901
000190 5d 77 85 3c 8b c6 27 be e4 f8 b9 3d f5 a9 86 3d
       0.016292268 -0.16384332 0.09080675 0.065753855
0001a0 bf b6 1b be 1a b8 8c 3d 95 27 01 3e be 66 78 bd
       -0.15206431 0.06871052 0.12612756 -0.060644858
0001b0 f6 6c ea 3d 20 a7 cf 3d 77 5c bb bd e5 93 56 bd
       0.11446564 0.101392984 -0.09148496 -0.052387137
0001c0 ca b7 48 be 1a 3c a7 bc dd 2a 85 3d 7f ec ad 3d
       -0.1960136 -0.0204144 0.06502316 0.08492374
0001d0 b3 de a8 3d fe 9e 96 3c cc 8b 21 bd 54 14 95 3d
       0.082456015 0.01838636 -0.03943996 0.07279268
0001e0 0a 77 1a be e5 f9 01 be 06 17 81 3b 32 af 54 3d
       -0.15084472 -0.12692983 0.003939512 0.05192489
0001f0 dd a7 d7 3c b7 ad f6 3b d7 9a a7 3c 64 61 5c be
       0.02632516 0.0075280326 0.020459576 -0.21521527

layer1.0.shortcut.0.bias f4 [16]
000000 95 25 0a b7 8c 4c 5c 37 af 2b e5 37 79 e4 09 37
       -8.234191e-06 1.3130844e-05 2.7319269e-05 8.219032e-06
000010 08 23 39 b7 d3 89 ef 37 6b 5e 0b 38 11 d3 25 38
       -1.1035016e-05 2.85552e-05 3.3228116e-05 3.9535636e-05
000020 74 aa 5a b7 19 ca 87 37 99 36 21 b8 90 32 e5 b7
       -1.3033499e-05 1.6187363e-05 -3.843624e-05 -2.7322472e-05
000030 f0 47 e1 b7 e8 89 1e b8 c8 be e4 b7 dd ed 31 37
       -2.6855589e-05 -3.779857e-05 -2.7268557e-05 1.0605404e-05

layer1.0.shortcut.1.weight f4 [16]
000000 ac 4c eb 3e ca 01 db 3e 1e 30 d1 3e d7 84 06 3f
       0.45956933 0.42774802 0.40857023 0.5254645
000010 be 1c 06 3f f5 91 d7 3e 06 82 8d 3e a9 ec 01 3f
       0.5238761 0.42103544 0.27638263 0.5075174
000020 f3 17 2d 3f 01 77 cb 3e f0 e0 ca 3e 17 41 f2 3e
       0.6761467 0.3973923 0.3962474 0.47315285
000030 76 c4 d4 3e 29 ec bc 3e 1c a0 03 3f 69 21 a0 3e
       0.41556138 0.36898926 0.5141618 0.3127549

layer1.0.shortcut.1.bias f4 [16]
000000 a1 3f fc 3d 2e 01 7d 3c 94 59 01 3d 04 45 87 3b
       0.12316824 0.015442176 0.03157957 0.0041281004
000010 5c 82 d3 3c eb 95 37 bc 6e 81 07 be 71 5b 89 bb
       0.025818996 -0.011205177 -0.13232967 -0.004191809
000020 a6 19 55 bd 3d df aa bc cc dc c4 3d 98 3c 22 be
       -0.052026413 -0.020858401 0.09612426 -0.15843427
000030 0b 39 07 be 66 e6 87 bc 34 69 55 bd 10 0e ee bd
       -0.13205354 -0.016589355 -0.052102283 -0.11623776

layer1.0.shortcut.1.running_mean f4 [16]
000000 93 5a 18 3e 5c e4 9e bc 6f 19 24 3e d9 64 f8 bd
       0.14878301 -0.019396 0.16025327 -0.1212861
000010 99 06 cc bd 30 ff df bc 71 7a bb 3d 2e 28 fe bd
       -0.09962196 -0.027343363 0.09154213 -0.124100074
000020 88 b3 18 be ff e4 3b bd 03 a0 8b bb 14 49 a2 bd
       -0.14912236 -0.045872685 -0.0042610182 -0.07924095
000030 37 36 94 bd 3e 07 9e 3c c0 d3 d6 3c 05 55 dc bd
       -0.07236903 0.019290563 0.026224017 -0.10758404

layer1.0.shortcut.1.running_var f4 [16]
000000 6a 2c c8 3c 27 e6 09 3d 80 50 00 3d 1f dc 13 3d
       0.02443524 0.033666756 0.03132677 0.036098596
000010 b8 b0 cb 3c 8b 60 18 3d c0 46 33 3c ec 4f 02 3d
       0.02486454 0.037201446 0.010942161 0.0318145
000020 70 75 e5 3c 9a 78 1c 3d 7f 73 17 3d bd 15 d0 3c
       0.0280101 0.038200952 0.03697538 0.02540099
000030 47 55 15 3d 42 f1 9b 3c 37 c8 6b 3c c2 30 cf 3c
       0.03645828 0.01903594 0.014390997 0.025291804

layer1.1.conv1.weight f4 [32, 16, 3, 3, 3]
000000 9d 45 7f 3c 37 66 a3 3c f8 40 58 3c 95 9d 91 3a
       0.015580562 0.0199462 0.0131990835 0.0011109585
000010 7a 49 e8 bb e4 53 b3 ba df 05 48 bc 8c e4 4c bc
       -0.007088837 -0.0013681618 -0.012208431 -0.012505662
000020 96 82 d7 bc 9a 19 12 3b 3c a9 67 3c 5c 5f b8 bc
       -0.026307385 0.0022293092 0.01413947 -0.022506408
000030 23 68 14 3b b8 33 49 3d 4c 8c 1b bc 5c 23 87 3c
       0.0022645078 0.04912159 -0.009493899 0.016496353
000040 bc 1c ec 3c 77 ed 2a bc fe be 89 bc 2a 33 13 bd
       0.028822295 -0.010432593 -0.016814705 -0.035937466
000050 72 7b dd 3b 04 4b e3 bb 5c 7a 10 bd 82 cc 63 3c
       0.0067591006 -0.006936433 -0.03527294 0.013903739
000060 76 3d 82 bb be 8c 9b bc df 35 d5 3c 64 10 de bc
       -0.003974612 -0.01898801 0.026026664 -0.027107425
000070 b2 83 58 3c 83 17 21 3d ec 2e bd 3b 2c f9 4e 3d
       0.013214992 0.039329063 0.005773416 0.050530598
000080 1c c1 1e 3c e7 ab 82 3d 83 38 94 3d 1f f5 59 bc
       0.009689596 0.06380444 0.07237341 -0.01330307
000090 a8 f4 ad 38 4a 81 bd bc 62 f3 0e bd fc 1a ab bc
       8.2948536e-05 -0.023132939 -0.034900077 -0.02088689
0000a0 2b 54 93 bc 7b 3f c1 bc 66 0b 4e bc aa ae 4a 3c
       -0.01798447 -0.02358984 -0.01257596 0.012370745
0000b0 11 4d db bb be 70 e1 3c d2 97 b1 3c 42 fe f2 3b
       -0.0066925366 0.02751958 0.021678839 0.007415564
0000c0 b4 bb 48 3c cc e2 88 bc 21 09 d8 3c a2 f4 39 bd
       0.012251783 -0.016709708 0.02637154 -0.045399316
0000d0 eb f0 80 bd d9 1d cf 3c ff 18 df 3d 92 bd ac 3d
       -0.062959515 0.025282787 0.108934395 0.08434595
0000e0 7e 59 59 3d bc 64 a1 3d 73 72 85 3d 3d dc 18 3c
       0.053063862 0.07880542 0.0651597 0.009329853
0000f0 96 a2 80 3d 10 44 bd 3b ab 57 35 bd a0 3f e4 bd
       0.06281011 0.005775936 -0.04427306 -0.11144948
000100 55 5f 80 bd 57 3d dc 3b 5b c4 43 bd c0 7d ba 3b
       -0.06268183 0.0067211795 -0.04779468 0.00569126
000110 c1 aa 86 3d b3 21 34 3d 80 f0 a2 3d aa 7d bc 3d
       0.065755375 0.04397745 0.07956028 0.09203656
000120 1c fa 54 3c e6 10 0d bc 1e dd 70 bd 6b 12 cd bc
       0.012999084 -0.008609986 -0.058804624 -0.025033196
000130 ab e2 72 bd 58 ec 8f bd c9 9d c4 bd 79 47 9d bd
       -0.0592982 -0.07027501 -0.09600408 -0.07679648
000140 99 d3 74 bd 45 01 88 3d f0 ab 2c 3d 50 f3 a8 3c
       -0.059772108 0.06640867 0.04215616 0.020623833
000150 ba 99 69 3d 21 e4 c4 3c 63 a1 2e 3c d0 ed 4c 3d
       0.05703137 0.024034562 0.010658595 0.050031483
000160 79 32 a9 3b c1 f7 96 3c 89 2a 8a bc 57 6a 75 b9
       0.0051634875 0.018428685 -0.016865985 -0.00023404635
000170 57 6d 1d bc 75 a3 90 3b 5a 8d 36 3d e8 5a 56 3c
       -0.009608588 0.004414017 0.044568397 0.013083197
000180 da 83 22 3d 06 32 fb 3c 4f 42 2b bc da ad 67 bd
       0.039676525 0.030663501 -0.010452821 -0.056562282
000190 6e 71 2f bd 24 40 1d bc 2c 23 91 bd f8 f9 5c bd
       -0.042832784 -0.009597812 -0.07086787 -0.053949326
0001a0 61 7a 86 bc 6d 4f 93 bd 8d a7 dc bc 99 5c a8 3a
       -0.016415777 -0.07192884 -0.026935363 0.0012844979
0001b0 10 d9 b4 3c e1 3e f4 3c 6a e0 ed bb 20 4f e3 3c
       0.02207616 0.02981514 -0.0072594183 0.02774769
0001c0 f7 78 1f 3d 88 31 e8 3b 21 1c 91 3d b5 3d 34 3d
       0.03893372 0.0070859827 0.07085443 0.04400416
0001d0 33 07 95 bc eb ae 79 3d 19 a3 90 3c 39 58 26 3d
       -0.01819191 0.06095783 0.017655896 0.04061148
0001e0 59 62 97 3c ee 63 82 3a ad a9 09 3d c1 98 c3 bc
       0.018479513 0.0009947994 0.03360908 -0.02387655
0001f0 2d dd ef bc 6a f5 97 3c 53 12 b4 bd 67 21 3c bd
       -0.02928027 0.01854964 -0.087925576 -0.045930292
000200 d8 78 04 bd 59 00 4b bd 9b 22 06 bd d7 05 19 bd
       -0.032341808 -0.04956088 -0.032747846 -0.037359085
000210 1b 04 3e bd a9 d2 f1 bb a6 06 86 bc 96 7f 84 3c
       -0.046390634 -0.007379849 -0.016360592 0.016174119
000220 07 12 45 3d 38 0a bb 3d f5 5b 9b bc e0 e2 98 3d
       0.048112895 0.091328084 -0.018964747 0.07465148
000230 fc ac 00 3e 45 af 2f bc 9c cb d8 3d 69 7e ff 3d
       0.12565988 -0.01072294 0.105857104 0.12475283
000240 0e d6 d8 bb 01 aa 6c bc 24 3f 19 3a af 15 35 3d
       -0.006617314 -0.014444829 0.00058458955 0.044210132
000250 0e 83 28 ba 1f 6d 16 3c 9a b1 ab 3d e9 fe 24 3b
       -0.000642822 0.00918129 0.08383484 0.0025176352
000260 7f 24 05 3d 60 f2 68 bc 7a 5e 4c bd 7d 29 02 be
       0.03250551 -0.014217943 -0.049894787 -0.12711139
000270 e8 a0 37 bd 2b 7f e3 bd f3 5d f2 bd f9 26 df bd
       -0.044831187 -0.1110824 -0.11834326 -0.10896105
000280 d8 7e d7 bd f6 bd f2 bd ca 7d 4e bc f1 62 53 bc
       -0.105222404 -0.118526384 -0.012603233 -0.012902007
000290 8c e1 52 bc cb 44 5e 3c 73 7f 12 bc f4 55 ab bc
       -0.012871157 0.013566206 -0.008941519 -0.02091501
0002a0 9e 24 81 bd 60 1f a1 bd 9e 64 20 bd 7a 28 59 3b
       -0.06305812 -0.078673124 -0.039158456 0.0033135698
0002b0 fc ba ef 3c a6 ad bc bb 85 8d 96 3c 98 42 92 3d
       0.029263966 -0.005758005 0.018378029 0.07141608
0002c0 14 22 3d 3d dd 6c 37 3d b8 d4 c7 3d 64 7e b3 3c
       0.046175078 0.044781554 0.0975737 0.021910854
0002d0 d2 2e 88 3c 41 64 6d bb b1 5a 2c 3d b4 10 80 bc
       0.016623888 -0.0036223086 0.042078678 -0.015632965
0002e0 0e fa 5b bd 61 9f ac bc c3 e7 b7 3c ea 98 04 bd
       -0.053705268 -0.021072092 0.02244938 -0.032372393
0002f0 ec da b7 3c 1a ac e2 3b c0 8b 85 bc 1a 5d 20 bc
       0.022443257 0.0069174888 -0.01630199 -0.009787822
000300 f0 1e 69 3b 4d 5d 1c bc 01 d8 9e 3b 36 58 26 3c
       0.0035571419 -0.009543729 0.004847527 0.010152867
000310 f7 a8 b3 bb 67 47 f3 bb ef e3 e1 bc 85 b4 e3 38
       -0.0054827887 -0.0074242833 -0.027574508 0.00010857828
000320 04 09 4a bc 13 49 bd bc 35 3c d3 3c b9 8c 24 bd
       -0.012331251 -0.023106134 0.025785545 -0.040173266
000330 8e bd 1a bd c5 42 19 3c 30 e7 e5 bc e2 d8 d4 3c
       -0.03777843 0.009354298 -0.02806434 0.025982324
000340 b8 b5 fe 3c 64 5f a6 3c 29 d9 da 3c ca 1e 68 bc
       0.03109251 0.020309158 0.026714878 -0.014167497
000350 73 1b 23 3d cb e4 fd 3c b6 47 15 ba d0 80 01 3d
       0.0398211 0.030992886 -0.00056945847 0.031616986
000360 bb c4 06 bd c6 7f e5 bc 22 24 06 3d ef db a9 3c
       -0.03290246 -0.028015029 0.032749303 0.020734755
000370 35 b1 ba 3c 45 32 43 3d a7 ac 8e 3c 61 0b 4c 3d
       0.022789577 0.047655363 0.017416311 0.04981554
000380 21 31 86 3d 78 59 c9 bc 2b e0 60 3b 0c dc 4f bc
       0.06552339 -0.024578795 0.0034313302 -0.012686741
000390 25 2f 41 bc 62 21 f7 bc da 69 86 bc 4b 37 95 3c
       -0.011791025 -0.030167285 -0.016407896 0.018214842
0003a0 a5 6c 92 bc 08 5d 5b bc 0b 1e 97 3d 45 c1 01 3d
       -0.017874071 -0.01338888 0.07378777 0.031678457
0003b0 8f 21 ec bc be 4f 10 bb b4 38 37 3c 1f e4 41 bd
       -0.028824596 -0.0022020186 0.011182953 -0.047336694
0003c0 14 00 48 bd d8 c7 19 bd df 01 56 bd c6 ce 72 bb
       -0.0488282 -0.0375441 -0.05224788 -0.0037049516
0003d0 f2 2e a7 bd fe 11 9b bc 1e c8 07 bc 36 6b cd bd
       -0.08163251 -0.018929478 -0.008287458 -0.100302145
0003e0 a3 27 cf 3c 77 66 87 3d d6 f6 6e bb cc b3 a1 3d
       0.025287455 0.066113405 -0.0036463044 0.07895622
0003f0 57 9a 09 3d 97 4c 88 3d f7 b3 8d 3c 5f 97 a5 3c
       0.033594456 0.06655233 0.017297728 0.02021378

layer1.1.conv1.bias f4 [32]
000000 6f 86 36 b7 36 fe be 37 18 9f 06 b8 96 07 40 b7
       -1.0879346e-05 2.2768141e-05 -3.2096257e-05 -1.1445858e-05
000010 ae 0a ba 34 44 7f 74 37 da 2a 71 b8 8d a8 19 b9
       3.465297e-07 1.4573165e-05 -5.7498786e-05 -0.00014654007
000020 35 c3 6a 37 13 b8 f8 35 ad 05 d2 b6 1d 18 a5 36
       1.3992937e-05 1.8531013e-06 -6.2591484e-06 4.9201903e-06
000030 e2 3d be 37 fe 6c 1c b7 61 3e 28 b7 df 67 34 b7
       2.2678581e-05 -9.323701e-06 -1.0028104e-05 -1.075302e-05
000040 37 9f 99 37 f0 4c b3 35 a9 e8 66 b6 bf 4e 6d b6
       1.8313161e-05 1.3358931e-06 -3.4408097e-06 -3.5361588e-06
000050 85 e6 96 b6 90 8a 04 b7 05 13 8b b6 df 3b 7a b7
       -4.4971844e-06 -7.900075e-06 -4.144737e-06 -1.4915101e-05
000060 29 71 98 37 63 75 ff b6 ad f2 38 b8 bf f9 24 38
       1.8172506e-05 -7.613258e-06 -4.4095028e-05 3.933324e-05
000070 e8 66 bd b6 12 06 b3 36 e6 6b 09 b7 c9 6b 80 b8
       -5.644619e-06 5.3353224e-06 -8.190958e-06 -6.123592e-05
