log/sem_seg/NUDT-MIRSDT__2024-12-28_16-21__SoftLoUloss_DeepPro_DataL40/checkpoints/best_model.pth (torch, 811632 bytes, 547 tensors)

conv_in.0.weight f4 [8, 1, 5, 1, 1]
0	0xbe00d23b	-0.12580197
1	0xbe99c7d4	-0.3003527
2	0xbd86df03	-0.06585505
3	0xbdf6f597	-0.12058561
4	0xbe1129c1	-0.14176084
5	0x3d4ec4ce	0.050480656
6	0xbe1eaa63	-0.15494685
7	0x3db9ab79	0.09065909
8	0xbec42f0d	-0.38317147
9	0xbe1fd079	-0.1560687
10	0xbe72d3fa	-0.23713675
11	0xbeddc172	-0.4331165
12	0xbd06db60	-0.032924056
13	0x3e967c63	0.29391775
14	0x3e79919b	0.2437195
15	0xbbb145fc	-0.005409954
16	0x3eda9cc3	0.42697725
17	0x3e1f1355	0.15534718
18	0xbe89c0d7	-0.26904938
19	0x3d94962d	0.07255206
20	0xbdc0ac3c	-0.09407851
21	0x3e9f9f2d	0.3117613
22	0xbe6cbc05	-0.23118599
23	0x3cb406d0	0.021975905
24	0xbd6eaa1d	-0.0582677
25	0xbb761dac	-0.0037554307
26	0xbe16c4ab	-0.1472346
27	0xbe8dffbb	-0.2773417
28	0x3ecadc51	0.39621213
29	0x3d22c5f3	0.03973956
30	0x3cfb68dc	0.03068965
31	0xbeb3ffc8	-0.35156083
32	0xba1688c9	-0.00057424285
33	0xbe2feb33	-0.17179565
34	0xbe516985	-0.20450409
35	0x3c12d62f	0.008962198
36	0x3b281533	0.0025647401
37	0xbeee937d	-0.465969
38	0x3dc9def8	0.09856981
39	0xbc290307	-0.010315663

conv_in.0.bias f4 [8]
0	0xb9123a9f	-0.00013945483
1	0x3996e80a	0.00028783112
2	0xb8983a9d	-7.2588424e-05
3	0xba9f724f	-0.0012164804
4	0xb80899c5	-3.2568136e-05
5	0x3b2894c0	0.0025723428
6	0x3881918a	6.178308e-05
7	0x380beaa2	3.33587e-05

conv_in.1.weight f4 [8]
0	0x3f163159	0.5866905
1	0x3f33b8c4	0.70203805
2	0x3f3695ac	0.7132213
3	0x3f695665	0.9114745
4	0x3f24d51d	0.64387685
5	0x3f430255	0.76175433
6	0x3f4d890c	0.8028724
7	0x3f2db74e	0.67857826

conv_in.1.bias f4 [8]
0	0xbe0dff74	-0.13866979
1	0x3db9d830	0.090744376
2	0xbdc94b0a	-0.09828766
3	0x3e20b919	0.15695609
4	0xbd63fd7d	-0.055661667
5	0x3edaad2a	0.4271024
6	0xbe0384e0	-0.12843657
7	0x3e42cb67	0.19022904

conv_in.1.running_mean f4 [8]
0	0x3d0dd92a	0.034630932
1	0x3cd2ce22	0.025733057
2	0x3be73bb2	0.007056677
3	0xbc9e32fb	-0.019311419
4	0x3b22cb93	0.0024840578
5	0x3b3244bb	0.002720161
6	0x3d04abd3	0.032390427
7	0x3c90a141	0.017655017

conv_in.1.running_var f4 [8]
0	0x3fa964ad	1.3233849
1	0x3f37c1a3	0.7177984
2	0x3e0aec67	0.13566743
3	0x3eb95a9f	0.3620195
4	0x3c379ece	0.011207296
5	0x3c8afd2c	0.016966425
6	0x3f916c60	1.1361198
7	0x3ea98372	0.33108097

layer1.0.conv1.weight f4 [16, 8, 3, 1, 1]
0	0x3e10cad9	0.1413988
1	0xbde5e476	-0.11225216
2	0xbbd27aab	-0.0064233146
3	0x3c2e5d87	0.010642416
4	0x3b179624	0.0023130262
5	0xbd039b25	-0.03213038
6	0xbcc5cd68	-0.024145797
7	0x3e00745f	0.12544392
8	0xbcfa77dd	-0.030574733
9	0x3c5c9084	0.01346219
10	0x3d8059f8	0.0626716
11	0xbb33a661	-0.0027412402
12	0xbdbeeb8f	-0.09322273
13	0x3dbed26a	0.09317477
14	0xbdc5bb56	-0.09654872
15	0xbd89bd37	-0.06725543
16	0x3d79dba9	0.0610005
17	0x3d604424	0.054752484
18	0x3d871161	0.06595112
19	0xbdbea689	-0.09309108
20	0xbd0c122a	-0.03419701
21	0xbe32dceb	-0.17467086
22	0x3e4b97c9	0.1988212
23	0xbe05c179	-0.13062085
24	0xbe1112cd	-0.14167328
25	0x3bba0ce4	0.005677806
26	0x3e553dc6	0.20824346
27	0xbd2ee126	-0.042695187
28	0xbde7a4c0	-0.113107204
29	0x3e1d01ba	0.1533269
30	0xbdc22234	-0.0947918
31	0xb9f47f8a	-0.0004663433
32	0x3d4bb60f	0.04973417
33	0x3e33df18	0.17565572
34	0x3d8beb98	0.06832045
35	0xbdef3351	-0.1167971
36	0xbc3dfa45	-0.011595313
37	0x3a25c9a5	0.0006324298
38	0x3d3a7ad7	0.045527305
39	0x3d7c25ef	0.061559614
40	0x3c96874b	0.01837506
41	0xbd642dea	-0.05570785
42	0xbe0b5be8	-0.13609278
43	0xbdd70efc	-0.10500905
44	0x3e95700b	0.29187045
45	0xbe378442	-0.17921546
46	0x3d9cf567	0.07663994
47	0x3dd48f1c	0.103788584
48	0x3c9f9ccf	0.019483952
49	0x3d94f611	0.07273496
50	0xbdafed46	-0.08590178
51	0x3e1f2bcd	0.15544052
52	0xbdf68c24	-0.120384485
53	0x3c4da6b8	0.012551956
54	0xbd9e5097	-0.07730215
55	0x3d89744c	0.06711635
56	0xbd5c680b	-0.05381016
57	0xbd7f6fbf	-0.06236243
58	0xbdae02dd	-0.0849664
59	0x3db623dd	0.08893559
60	0x3e04e622	0.12978414
61	0xbbd797bd	-0.006579368
62	0xbdb30c22	-0.087425485
63	0x3d9ce012	0.076599255
64	0xbcd73988	-0.02627255
65	0x3d5fa51a	0.054600812
66	0x3e38565c	0.18001693
67	0xbd6ddc97	-0.0580717
68	0xbd7d7cf9	-0.06188676
69	0x3ecb1224	0.39662278
70	0xbe14012a	-0.14453569
71	0xbe18455e	-0.14870211
72	0x3c2b8a45	0.010469978
73	0xbb790be9	-0.0038001484
74	0xbc8929e7	-0.016743613
75	0x3c7a3138	0.015270524
76	0x3c38b9d9	0.011274778
77	0xba8b4e62	-0.0010628218
78	0x3d1a53b9	0.0376775
79	0x3d9bd273	0.076084994
80	0xbe144dd2	-0.14482811
81	0x3d866c59	0.065636344
82	0xbdaeee8c	-0.08541593
83	0x3b05433c	0.0020334264
84	0x3cf1fbcd	0.029539013
85	0xbdc64af2	-0.096822634
86	0x3e1edefb	0.15514748
87	0x3d880fc9	0.06643636
88	0x3d3983f2	0.04529185
89	0xbd6aa89b	-0.0572897
90	0x3d149b86	0.03628113
91	0xbb51eeed	-0.003203328
92	0xbd6caa46	-0.057779573
93	0x3d2385cb	0.039922517
94	0xbdc28799	-0.094985195
95	0x3dd1d8a1	0.10246397
96	0xbd16e8bf	-0.036843058
97	0x3d069eb7	0.032866206
98	0x3c762321	0.015023024
99	0x3df2434b	0.11829241
100	0x3d6a1d53	0.057156872
101	0xbd41804c	-0.047241494
102	0x3cbe1eb1	0.023207994
103	0xbd3f6f3f	-0.046736952
104	0x3d596773	0.053077172
105	0x3da6478e	0.08119117
106	0x3d49681f	0.049171563
107	0xbcd1944c	-0.025583409
108	0xbda8abe0	-0.082359076
109	0xbc865594	-0.016398229
110	0x3dc724b0	0.097237945
111	0xbe61aea1	-0.22039272
112	0x3da6e131	0.081484206
113	0x3d45e647	0.048315313
114	0x3d99b722	0.07505633
115	0x3c6b1fdb	0.014350857
116	0xbd2fe834	-0.042946056
117	0xbde5a946	-0.11213927
118	0x3e11e5f2	0.14247873
119	0xbd86fce7	-0.06591206
120	0xbe277876	-0.16354546
121	0x3e10fed3	0.14159708
122	0x3d83cbf0	0.06435382
123	0x3cd17cf2	0.025572274
124	0xbd2b592d	-0.04183309
125	0x3e020478	0.12697017
126	0xbd51ecfe	-0.051251404
127	0x3e0bd9a0	0.13657236
128	0x3d6007b1	0.054694835
129	0x3e8ef788	0.27923226
130	0xbbbea2e1	-0.0058177565
131	0xbe415fca	-0.18884197
132	0x3db8de63	0.09026792
133	0xbd59ad0b	-0.053143542
134	0xbda2b8af	-0.07945382
135	0xbd91d4e5	-0.071206845
136	0xbd687f78	-0.05676219
137	0x3d2f0cbb	0.04273675
138	0xbdeceea7	-0.11568957
139	0x3dcfe5a2	0.10151221
140	0x3d7d34a7	0.06181779
141	0xbd41f88c	-0.047356173
142	0x3d091d73	0.03347535
143	0xbcb76095	-0.022384921
144	0xbdb80279	-0.089848466
145	0xbb1e8f8e	-0.0024194452
146	0x3de844c3	0.1134124
147	0xbbd58283	-0.0065158023
148	0x3cf81f58	0.030288383
149	0xbd024f14	-0.031813696
150	0xbda8e751	-0.08247245
151	0xbd2a39ce	-0.041559033
152	0x3d5fd412	0.054645605
153	0x3e833d0a	0.25632507
154	0xbd9c021e	-0.07617591
155	0xbe1559f5	-0.14585097
156	0xbdce6803	-0.100784324
157	0xbda048e3	-0.07826402
158	0x3df59007	0.11990362
159	0xbc6f913a	-0.014622027
160	0xbdafcbb0	-0.08583772
161	0xbdeff089	-0.117158
162	0xbdf11ecb	-0.117734514
163	0x3da2f42c	0.07956728
164	0x3d159659	0.036520336
165	0xbe38ee86	-0.1805974
166	0x3d1ec125	0.038758416
167	0x3e37021d	0.178719
168	0xbdb01f8a	-0.085997656
169	0xb8e87d32	-0.000110859415
170	0x3dafbc38	0.08580822
171	0xbdefb958	-0.117052734
172	0x3da5fdaf	0.08105027
173	0x3c73bb3b	0.014876182
174	0x3db70398	0.08936232
175	0x3d7b6f98	0.06138572
176	0x3d51b87c	0.05120133
177	0xbcb91950	-0.022595078
178	0x3e3a70df	0.1820712
179	0xbe221f53	-0.15832262
180	0xbcc7636b	-0.024339398
181	0x3d8dda55	0.06926409
182	0xbd12630d	-0.035738993
183	0xbd96b437	-0.07358592
184	0x3dabf950	0.08397162
185	0x3e14888d	0.14505215
186	0xbe02db4e	-0.1277897
187	0x3d7338eb	0.059380453
188	0x3e026443	0.1273356
189	0xbd91dd7c	-0.07122323
190	0xbe03d829	-0.12875427
191	0x3e35d7ec	0.17758149
192	0xbdcb8430	-0.09937322
193	0x3d48d76a	0.04903356
194	0x3d51ec5a	0.051250793
195	0xbdc62ce2	-0.096765295
196	0x3c6ed167	0.014576293
197	0x3ce33123	0.027733391
198	0x3e16a644	0.14711863
199	0xbccb6677	-0.024829132
200	0x3d200e94	0.039076403
201	0x3d90ea48	0.070759356
202	0xbb58df52	-0.0033092094
203	0xbe178a90	-0.14798951
204	0x3d721f7d	0.05911206
205	0x3de9c428	0.11414367
206	0xbe606440	-0.21913242
207	0xbbd01ba8	-0.006350953
208	0xbde3bf30	-0.111204505
209	0xbd81b9f8	-0.06334299
210	0xbda17266	-0.07883148
211	0xbcb26b7d	-0.02177977
212	0x3dc421b5	0.095767416
213	0x3c1da252	0.00962122
214	0xbe29ee5c	-0.16594833
215	0x3dc43d18	0.09581965
216	0xbd02ee4a	-0.03196553
217	0x3d408a7d	0.047007073
218	0xbda5c98c	-0.08095083
219	0x3d1e2470	0.03860897
220	0xbd0b0e50	-0.033949196
221	0x3d0c0ad7	0.034190025
222	0xbd92e48c	-0.07172498
223	0x3b82ddc4	0.0039937217
224	0x3db55788	0.08854586
225	0xbd916f11	-0.07101262
226	0xbda03f0c	-0.07824525
227	0x3e42232d	0.18958731
228	0x3da73720	0.08164811
229	0x3cc66d1d	0.024221951
230	0xbddfb040	-0.10922289
231	0x3e3cb63c	0.18428892
232	0xbcdc5ddc	-0.026900224
233	0xbd3fdc71	-0.04684109
234	0x3da59911	0.08085836
235	0x3b0bbcfe	0.0021322365
236	0xbd30ce1c	-0.04316531
237	0x3e3cc498	0.1843437
238	0xbe0cf25e	-0.1376433
239	0xbd6d8f25	-0.05799784
240	0xbc452ce4	-0.012034629
241	0x3be82174	0.007084066
242	0xbc847dc3	-0.01617325
243	0xbd80470a	-0.062635496
244	0x3e0018cb	0.12509458
245	0xbe0223ee	-0.12709019
246	0xbd88fd0a	-0.06688888
247	0x3db0bc9e	0.08629726
248	0xbdc500cf	-0.09619295
249	0x3e6d9ff2	0.23205546
250	0x3c964397	0.018342776
251	0xbe2bb8b2	-0.16769674
252	0xbb29c5f1	-0.0025905336
253	0x3d6ca693	0.057776045
254	0x3c2a392b	0.0103896065
255	0xbca13edf	-0.0196833

layer1.0.conv1.bias f4 [16]
0	0x36f0ca8f	7.1761383e-06
1	0x3a410f6f	0.00073646655
2	0xb9353415	-0.00017280907
3	0xb931bfa6	-0.0001695143
4	0xb98d3fc9	-0.0002694114
5	0xb889472e	-6.545927e-05
6	0xb9d4b168	-0.0004056797
7	0x3944b93f	0.00018761026
8	0x3967a2f4	0.00022090581
9	0x38a7a856	7.9945356e-05
10	0x3770fd33	1.4364067e-05
11	0x3a6a69cc	0.00089421566
12	0xb96993d2	-0.00022275679
13	0x39e5f362	0.00043859618
14	0x3917608e	0.00014436452
15	0xba0141b0	-0.00049307477

layer1.0.bn1.weight f4 [16]
0	0x3f06833c	0.52544
1	0x3f1c58cb	0.6107299
2	0x3f0d222e	0.5513028
3	0x3edee7b3	0.43536147
4	0x3f19d218	0.600862
5	0x3ef97817	0.48724434
6	0x3f1b0ed5	0.60569507
7	0x3f03d4e3	0.51496714
8	0x3ee6168c	0.44939077
9	0x3ef53687	0.47893164
10	0x3f0d3665	0.55161124
11	0x3f008973	0.5020973
12	0x3ebcf9a3	0.36909208
13	0x3f07b7e0	0.53014946
14	0x3f14353f	0.5789375
15	0x3f027916	0.5096601

layer1.0.bn1.bias f4 [16]
0	0xbdc07800	-0.09397888
1	0x3d585200	0.052812576
2	0x3dc27fa9	0.094970055
3	0x3caabf62	0.020843212
4	0x3dbdfeb9	0.092771
5	0x3e5e36d5	0.21700604
6	0x3dcca266	0.099919125
7	0x3d49bed0	0.04925424
8	0x3e5be723	0.2147489
9	0x3e144b63	0.14481883
10	0xbd910ca2	-0.07082488
11	0x3de20110	0.11035359
12	0x3d554105	0.05206396
13	0x3e2f0693	0.17092352
14	0x3dd5835a	0.10425444
15	0x3d1113b3	0.035419177

layer1.0.bn1.running_mean f4 [16]
0	0x3d103e76	0.035215817
1	0xbb34995d	-0.0027557232
2	0xbca7a027	-0.020462109
3	0xbc506ed0	-0.012721732
4	0x3cc081af	0.023499338
5	0x3bc1b1a5	0.0059110695
6	0xbc451961	-0.012029977
7	0x3c96c2fc	0.018403523
8	0xbc2cfef5	-0.010558833
9	0xbcae6685	-0.02128912
10	0x3cb49b69	0.022046762
11	0xbcf026eb	-0.029315433
12	0x3d072806	0.032997154
13	0x3aa6e56f	0.0012733171
14	0xbcddbd36	-0.027067762
15	0xbcaabe35	-0.02084265

layer1.0.bn1.running_var f4 [16]
0	0x3d9ecbbc	0.07753703
1	0x3c8cb94a	0.017178196
2	0x3d1214b6	0.035664283
3	0x3d6aec0f	0.05735403
4	0x3d2977fc	0.04137419
5	0x3ca51ccd	0.020155335
6	0x3c922d1b	0.017843774
7	0x3ce7db17	0.028302712
8	0x3d995743	0.07487347
9	0x3cb4ff4a	0.022094388
10	0x3cf51456	0.029916923
11	0x3ce9c8a6	0.02853806
12	0x3dba7760	0.091048
13	0x3c6da4d9	0.014504635
14	0x3cabee52	0.020987663
15	0x3d1bea12	0.038065024

layer1.0.conv2.weight f4 [16, 16, 3, 1, 1]
0	0xbc9a5606	-0.018839847
1	0x3b603889	0.0034213385
2	0x3e353b58	0.17698419
3	0x3d105c02	0.035243995
4	0x3dc8696a	0.09785731
5	0x3e0c7217	0.13715397
6	0xbe011ab2	-0.1260784
7	0xbe032899	-0.12808456
8	0xbe0d73dc	-0.13813728
9	0x3e11be5d	0.14232774
10	0x3d149b8e	0.03628116
11	0xbcb51cef	-0.022108523
12	0x3cfbc511	0.030733617
13	0x398835c5	0.00025980003
14	0x3e039e7c	0.12853426
15	0x3b818683	0.0039528026
16	0xbcb1d5d7	-0.021708412
17	0x3cf83a11	0.030301126
18	0x3d0f4fd3	0.034988236
19	0x3d9ab77d	0.07554529
20	0x3e046029	0.12927307
21	0x3be8748b	0.007093971
22	0x3d73176a	0.0593485
23	0x3d640a8f	0.055674132
24	0x3d9ca2b9	0.076482244
25	0x3e143dae	0.14476654
26	0x3d8b474e	0.0680071
27	0x3dcfc288	0.10144526
28	0xbdaf59c5	-0.08562044
29	0xbda853e0	-0.08219123
30	0xbd63b367	-0.055591013
31	0xbceb82b0	-0.02874884
32	0xbd1e5c04	-0.03866197
33	0xbd060fbc	-0.03272985
34	0xbe26b7b1	-0.1628101
35	0xbdb0af89	-0.08627231
36	0x3be21a0f	0.006900079
37	0x3d279c55	0.040920574
38	0xbd501c27	-0.0508081
39	0x3d9dda34	0.077076346
40	0x3e40110d	0.18756504
41	0xbdbeed7d	-0.09322641
42	0x3d3e5d58	0.04647574
43	0x3dc4fb31	0.096182235
44	0x3e17d08d	0.1482565
45	0xbd3a400a	-0.04547123
46	0x3e26bb82	0.16282466
47	0x3c14b81c	0.009077098
48	0x3c7c7b68	0.015410282
49	0x3d6da33d	0.058017004
50	0xbd732718	-0.059363455
51	0xbc0af8ed	-0.0084822
52	0x3dc73ae4	0.09728029
53	0x3d03a411	0.032138888
54	0xbd3a08b8	-0.04541847
55	0xbd816ea2	-0.0631993
56	0xbce26503	-0.027636057
57	0x3d91ff92	0.07128824
58	0xbcbf7bae	-0.023374405
59	0x3e172955	0.1476186
60	0x3c9a7c1e	0.018858012
61	0x3db889be	0.09010647
62	0xbd9baffc	-0.07601926
63	0xbdbe673e	-0.09297036
64	0xbdafcb35	-0.085836805
65	0x3dc4938a	0.09598453
66	0xbd9fdb18	-0.07805461
67	0x3d38373c	0.04497455
68	0x3cc4f51d	0.02404266
69	0x3d7a7c64	0.061153784
70	0xbcbefe8c	-0.023314737
71	0x3d92c035	0.07165567
72	0xbe70865f	-0.23488759
73	0xbd917802	-0.07102968
74	0xbc98d67d	-0.018656963
75	0xbcd57669	-0.026057439
76	0x3c059265	0.008152579
77	0x3da60808	0.081070006
78	0xbb9b1fb9	-0.0047340062
79	0x3dbb5aab	0.09148153
80	0x3da3edd1	0.08004344
81	0x3e2c2b75	0.16813453
82	0x3d76aa04	0.060220733
83	0xbda24935	-0.079241194
84	0xbc870553	-0.016482031
85	0xbcb22d71	-0.021750184
86	0xbc9f06cf	-0.019412426
87	0xbdfb6911	-0.12275899
88	0xbe01092f	-0.1260116
89	0x3e1b69e2	0.1517711
90	0xbc5f1dd4	-0.013617951
91	0x3c1f7d59	0.009734475
92	0xbe058adc	-0.13041252
93	0xbd9b39d0	-0.07579386
94	0xbd991b07	-0.07475858
95	0xbbeed6d7	-0.0072887945
96	0xbd143530	-0.036183536
97	0x3d258237	0.040407386
98	0xbd87d6ba	-0.06632753
99	0xbdd0f2aa	-0.102025345
100	0x3dc6b45d	0.0970237
101	0x3cfdb91d	0.030972058
102	0x3c3129d3	0.010813194
103	0xbc7b6647	-0.015344209
104	0x3d04ea2a	0.03244988
105	0xbd7a2d07	-0.061078098
106	0xbd1fc56f	-0.039006647
107	0x3d5a0b04	0.05323316
108	0xbe0ac6db	-0.1355242
109	0x3d91c419	0.07117481
110	0x3dae0601	0.08497239
111	0xbda17621	-0.078838594
112	0xbd14cdf2	-0.036329217
113	0x3d8c5942	0.06852962
114	0xbe33f71e	-0.17574736
115	0x3d17982f	0.037010368
116	0x3d2c2ff7	0.04203793
117	0xbcc62eb6	-0.024192195
118	0x3e063f19	0.13110007
119	0x3c38e7c7	0.011285729
120	0xbd6d9466	-0.058002852
121	0x3d22e200	0.03976631
122	0xbbf3bfd6	-0.00743864
123	0x3c9a7630	0.018855184
124	0xbcbe8dfd	-0.023261065
125	0xbc46820d	-0.012115967
126	0xbdfa326f	-0.12216651
127	0x3d96fb7a	0.07372184
128	0x3bdaa209	0.006672148
129	0x3d8c2316	0.068426296
130	0xbccd6f00	-0.025077343
131	0xbd3ab816	-0.045585714
132	0xbe19f93f	-0.15036486
133	0xbcb13074	-0.02162955
134	0xbd59fd2f	-0.05321997
135	0xbdc5b8ad	-0.09654365
136	0x3c9cbf26	0.019134115
137	0x3d0cd74e	0.034385018
138	0xbdd27910	-0.10276997
139	0xbd3ae68c	-0.045630023
140	0xbd2c861e	-0.04212009
141	0xbe0cbc34	-0.13743669
142	0x3cf9ff7b	0.03051733
143	0x3cd57524	0.026056834
144	0x3b7d2c19	0.003863102
145	0xbd83cb7c	-0.06435296
146	0xbd873bf9	-0.06603236
147	0xbdb992f3	-0.090612315
148	0xbd7455aa	-0.059652008
149	0x3d824d25	0.063623704
150	0x3d01646a	0.031589903
151	0x3c812e10	0.015769035
152	0xbd88ffd9	-0.06689424
153	0x3d06ddf5	0.03292652
154	0xbdce7f4c	-0.10082874
155	0x3cb2b93f	0.021816848
156	0x3d874603	0.066051506
157	0xbd315150	-0.043290436
158	0xbc4d8bbb	-0.012545521
159	0xbeb08bc1	-0.34481624
160	0xbdbdf8d6	-0.09275977
161	0xbd83e7b4	-0.06440678
162	0xbe837107	-0.2567217
163	0xbc314ce7	-0.010821558
164	0x3c3003c6	0.010743087
165	0xb93a71db	-0.00017780757
166	0xbe19f282	-0.15033916
167	0xbc511b74	-0.012762893
168	0xbd24316b	-0.04008619
169	0x3d8b447b	0.06800171
170	0xbd42ba59	-0.047540996
171	0x3dec123a	0.11526914
172	0xbdc25c43	-0.09490254
173	0x3dfa12f1	0.12210644
174	0xbd484ed7	-0.048903313
175	0x3cd98fff	0.02655792
176	0x3db4554e	0.08805333
177	0x3d94f4da	0.07273264
178	0x3d615b77	0.05501887
179	0x3d16c08a	0.036804713
180	0x3c4b1413	0.012394923
181	0xbd5fee8d	-0.05467086
182	0xbcdec2a9	-0.02719243
183	0x3d200cd7	0.039074745
184	0xbb53c2f6	-0.003231225
185	0x3d4cb12a	0.049973644
186	0x3cbc1f1a	0.02296405
187	0x3d358ec7	0.044325616
188	0x3cc7017e	0.024292704
189	0x3c52dddf	0.012870281
190	0x3be85a5c	0.00709085
191	0x3d5720af	0.052521404
192	0xbd75894f	-0.0599454
193	0x3e31e404	0.17372137
194	0x3da0343a	0.078224614
195	0x3d214e10	0.039381087
196	0x3db0a116	0.08624475
197	0x3d2fbeb5	0.04290648
198	0xbdafa003	-0.08575442
199	0xbdf839ff	-0.12120437
200	0x3be1f518	0.0068956725
201	0x3d0c56ab	0.03426234
202	0xbbd09392	-0.006365248
203	0xbc36209e	-0.011116175
204	0xbe2baf2f	-0.16766046
205	0xbd1c76c9	-0.03819922
206	0xbe5b25a5	-0.21401079
207	0xbd4c0d60	-0.049817443
208	0xbdb11363	-0.08646276
209	0xbd6eb544	-0.058278337
210	0xbb1762f4	-0.0023099752
211	0x3d3397cc	0.043845937
212	0xbd32d8bb	-0.04366372
213	0x3d6b95da	0.057515956
214	0x3cb81709	0.022471922
215	0x3e414214	0.18872863
216	0xbe1483b1	-0.14503361
217	0xbdd46a2d	-0.10371814
218	0xbe473f63	-0.19457774
219	0xbe3d9e1d	-0.18517347
220	0xbe1b85d6	-0.15187773
221	0xbe0d1031	-0.13775708
222	0x3de552f0	0.1119746
223	0x3d506588	0.050878078
224	0x3d88f025	0.06686429
225	0x3c6a43f4	0.014298428
226	0xbb1161e4	-0.0022183591
227	0xbe0c2fe8	-0.1369015
228	0xbcce196b	-0.025158605
229	0x3de51d74	0.11187258
230	0x3bd1a6ab	0.006398042
231	0x3b32c808	0.0027279872
232	0x3d27750f	0.04088312
233	0xbcc19f2d	-0.023635471
234	0xbc89a9b7	-0.01680456
235	0x3d77dd16	0.06051358
236	0xbdcbdffa	-0.099548295
237	0xbca201f2	-0.019776318
238	0xbd073cbe	-0.033016913
239	0xbdad78a5	-0.08470277
240	0x3d6a1db7	0.057157245
241	0xbc90cf8d	-0.017677093
242	0xbdea111f	-0.11429047
243	0x3b8db306	0.00432432
244	0x3d93f505	0.07224468
245	0xbc0b875a	-0.008516157
246	0xbdabd1a0	-0.08389592
247	0x3d1669cc	0.03672199
248	0x3df5a2a0	0.11993909
249	0xbc045ff7	-0.00807952
250	0xbd122eec	-0.03568928
251	0xbce7007a	-0.02819847
252	0xbb137279	-0.002249865
253	0xbea00b68	-0.31258702
254	0xbd9f3208	-0.077732146
255	0x3c6f6eca	0.0146138165

layer1.0.conv2.bias f4 [16]
0	0x395c10f2	0.00020987148
1	0x37ba54e1	2.2212453e-05
2	0x370fab89	8.563403e-06
3	0x39040d55	0.00012593468
4	0x3831a6ab	4.235531e-05
5	0x381d738a	3.753932e-05
6	0xb7d3ba32	-2.5239864e-05
7	0x3756ac52	1.2795515e-05
8	0xb976d5bf	-0.00023540015
9	0x3811edd2	3.479218e-05
10	0x374c00b2	1.2159509e-05
11	0x38bbf375	8.962202e-05
12	0xb93c8877	-0.00017979914
13	0x39c4b13a	0.00037516077
14	0xb8f4c2cd	-0.00011671111
15	0x38803b11	6.1145176e-05

layer1.0.bn2.weight f4 [16]
0	0x3f124fdf	0.57153124
1	0x3edf49e9	0.43611076
2	0x3ebd58af	0.36981723
3	0x3ee5b41f	0.44863984
4	0x3f35359d	0.7078493
5	0x3ee8640c	0.4538883
6	0x3f125741	0.5716439
7	0x3f003556	0.50081384
8	0x3edae7e6	0.4275505
9	0x3ee0dec4	0.43919957
10	0x3f0d30f8	0.55152845
11	0x3ebda521	0.37040046
12	0x3f013cee	0.50483596
13	0x3f0e67a5	0.556269
14	0x3f131238	0.57449675
15	0x3eeef328	0.46669888

layer1.0.bn2.bias f4 [16]
0	0x3e58f229	0.21186127
1	0x3e21c331	0.15797116
2	0xbdaee60b	-0.08539971
3	0xbc989918	-0.018627688
4	0xbda41242	-0.08011295
5	0x3d4c9d0a	0.04995445
6	0xbcfee0f9	-0.031113135
7	0xbdde2e70	-0.10848701
8	0x3e102c7c	0.1407947
9	0x3d70f0aa	0.058823265
10	0x3d6d88c9	0.057991777
11	0x3b98b880	0.004660666
12	0xbd19c934	-0.037545398
13	0xbe05dc9d	-0.13072439
14	0xbd8e89d6	-0.06959884
15	0xbd82034a	-0.063482836

layer1.0.bn2.running_mean f4 [16]
0	0x3e3723e3	0.17884783
1	0xbdbec703	-0.09315302
2	0xbdb6bb58	-0.08922452
3	0xbdf1607c	-0.11785981
4	0xbe9dc50b	-0.30814394
5	0x3bdda74d	0.0067643286
6	0xbe17ea48	-0.14835465
7	0xbe8428bd	-0.2581233
8	0xbe5ce78c	-0.21572703
9	0x3c47f8c0	0.012205303
10	0xbcb93e38	-0.022612676
11	0xbdb63bbf	-0.088981144
12	0xbd80bb0d	-0.06285677
13	0xbe4dc27a	-0.20093718
14	0xbe1e9135	-0.1548508
15	0xbe83441b	-0.25637898

layer1.0.bn2.running_var f4 [16]
0	0x3dad7bab	0.084708534
1	0x3d1e9e0c	0.038724944
2	0x3d551975	0.05202623
3	0x3d9d6dcb	0.07686957
4	0x3d405cf4	0.046963647
5	0x3d82aa58	0.06380147
6	0x3d88cce6	0.06679706
7	0x3d2c1287	0.042009857
8	0x3d98605e	0.074402556
9	0x3d3a6db9	0.045514796
10	0x3dc5c2ce	0.09656297
11	0x3da3c832	0.079971686
12	0x3dd0729a	0.101781085
13	0x3e1f7a0c	0.15573901
14	0x3d97a999	0.07405395
15	0x3df5dfb9	0.12005562

layer1.0.conv3.weight f4 [16, 16, 1, 1, 1]
0	0xbbd72b64	-0.006566452
1	0x3ceb15d7	0.028696937
2	0xbd23f119	-0.04002485
3	0xbd0a7c14	-0.033809736
4	0xbd92541c	-0.07144949
5	0xbde41351	-0.11136497
6	0xbd8bae1c	-0.06820318
7	0xbd755523	-0.059895646
8	0xbca7a53a	-0.020464528
9	0xbd1b9a74	-0.037989095
10	0x3d7c5e39	0.061613295
11	0xbded9269	-0.11600191
12	0xbe2253a2	-0.15852216
13	0xbe193cb0	-0.14964557
14	0xbd9e1faf	-0.07720887
15	0x3dc62fda	0.09677096
16	0xbe201b94	-0.1563552
17	0xbd5f8b8c	-0.05457644
18	0xbdeb4a4b	-0.1148878
19	0xbdb9725e	-0.09055017
20	0xbda30947	-0.07960754
21	0x3d923d42	0.0714059
22	0xbbff181e	-0.0077848574
23	0xbd975c4b	-0.0739065
24	0xbb8f46d0	-0.004372455
25	0xbd856b75	-0.065146364
26	0xbd86a1ea	-0.065738514
27	0x3c57b50d	0.013165724
28	0xbc241d6e	-0.010016782
29	0xbd3edb1e	-0.046595685
30	0xbdcdd998	-0.10051268
31	0xbc961256	-0.01831929
32	0xbd5b567b	-0.05354927
33	0xbdb58dd0	-0.08864939
34	0xbdc5f8c0	-0.09666586
35	0xbe4f2e8d	-0.20232601
36	0xbd93bb9a	-0.072135165
37	0xbda16819	-0.07881183
38	0xbdfb8281	-0.12280751
39	0x3dbd78a3	0.09251525
40	0xbe4b5881	-0.1985798
41	0x3a9c488c	0.0011923476
42	0xbdaaf839	-0.08348126
43	0xbc978d2e	-0.018499937
44	0x3d81238a	0.06305607
45	0x3cf16586	0.029467355
46	0xbd3514a7	-0.04420915
47	0xbdc9bf57	-0.09850948
48	0xbd9d38cf	-0.07676851
49	0xbd1f03a4	-0.03882183
50	0x3d770d9c	0.060315713
51	0x3dca3346	0.09873061
52	0xbb1d8985	-0.0024038267
53	0x3c68b51c	0.014203336
54	0xbcc683db	-0.024232795
55	0x3d63d328	0.055621296
56	0x3dc7e237	0.09759944
57	0x3c803f5b	0.01565521
58	0x3dfb7874	0.12278834
59	0xbc2ac3fa	-0.010422701
60	0x3ce9b2db	0.028527668
61	0x3e372c67	0.17888032
62	0x3e64fdeb	0.22362487
63	0x3e60736f	0.21919034
64	0x3dc86642	0.09785129
65	0xbdb5519c	-0.088534564
66	0x3cdd6085	0.027023563
67	0xbdf9401b	-0.1217043
68	0xbe0fa4d1	-0.14027716
69	0x3d843090	0.06454575
70	0xbe0ca962	-0.1373649
71	0x3d8b7702	0.06809808
72	0x3d8b7600	0.06809616
73	0xbdfd1b14	-0.1235868
74	0xbdbee0e4	-0.09320238
75	0xbc8368a7	-0.016041113
76	0xbde4190d	-0.111375906
77	0xbcbab90c	-0.022793315
78	0xbe29ef27	-0.16595136
79	0xbd17c9e5	-0.037057776
80	0xbe4fe5ef	-0.20302556
81	0x3c413667	0.011792756
82	0xbdda71b4	-0.106662184
83	0x39da48d2	0.00041634456
84	0x3d0e29ba	0.034707762
85	0x3ce90426	0.028444361
86	0x3bef01f1	0.0072939326
87	0xbdd76599	-0.10517425
88	0xbd9e8429	-0.07740051
89	0xbe0f8a2e	-0.14017555
90	0x3d9c587f	0.07634067
91	0x3cc42617	0.023943944
92	0x3ace976f	0.0015761683
93	0x3da742ac	0.081670135
94	0xbc881917	-0.016613526
95	0x3dbc4620	0.09193063
96	0x3cff0ae2	0.031133119
97	0x3e09a7af	0.13442872
98	0x3c2757bf	0.010213791
99	0xbcc82b98	-0.02443485
100	0x3cb4348a	0.021997709
101	0xbdc4c738	-0.096083105
102	0xbdbfe7a9	-0.093703575
103	0x3dbca696	0.09211461
104	0x3e03eb45	0.12882717
105	0x3cc7a13e	0.024368878
106	0xbd5f7da7	-0.05456319
107	0x3d3fff2a	0.046874203
108	0xbbce9809	-0.006304745
109	0x3d556226	0.052095555
110	0xbdbecf86	-0.09316926
111	0xbdd5dacc	-0.10442123
112	0x3d779e27	0.06045356
113	0x3d4e9fb5	0.050445277
114	0xbd4d6c67	-0.05015221
115	0x3e0b546d	0.13606425
116	0x3dd270f4	0.1027545
117	0x3dbdd2cb	0.09268721
118	0xbda25c47	-0.07927757
119	0x3b16946a	0.0022976645
120	0x3d425657	0.04744562
121	0x3d794d02	0.060864456
122	0x3d57004d	0.05249052
123	0xbb7be733	-0.0038437366
124	0x3dbd3736	0.09239046
125	0xbd9fb977	-0.077990465
126	0xbe2a00b6	-0.16601834
127	0xbe00306c	-0.12518471
128	0xbd7f368e	-0.062307887
129	0xbcfb5f4d	-0.030685091
130	0x3d6caee2	0.05778397
131	0x3d054fb9	0.032546733
132	0xbdfdf322	-0.123998895
133	0xbe13e811	-0.14443995
134	0xbda16180	-0.07879925
135	0xbcc4f8cf	-0.024044422
136	0x3e2401e7	0.1601635
137	0xbd849b69	-0.06474955
138	0x3c453f8d	0.0120390775
139	0x3c89df53	0.016830122
140	0x3dbf6487	0.09345346
141	0x3e0dfda3	0.13866286
142	0x3e054bbd	0.13017173
143	0x3cce43c2	0.025178794
144	0x3ddbf6f9	0.10740466
145	0xbd7cd65b	-0.061727863
146	0x3c88c0d2	0.016693506
147	0x3dac9304	0.084264785
148	0x3de80cde	0.11330579
149	0x3dc45db4	0.09588185
150	0x3d904d83	0.07046034
151	0x3c7218ec	0.01477645
152	0x3ce17ff6	0.027526837
153	0xbd2ba33c	-0.04190372
154	0x3e17a8d4	0.14810497
155	0x3dae0ef1	0.084989436
156	0x3cefcdd3	0.02927295
157	0x3cc653f8	0.024209961
158	0x3cd5fde8	0.026122048
159	0xbd07ec5a	-0.033184387
160	0x3c12546f	0.008931263
161	0xbaefcfc9	-0.0018296178
162	0x3cfda4cc	0.03096237
163	0x3c07bf55	0.008285363
164	0xbe3c71fa	-0.18402854
165	0x3d6a284b	0.057167333
166	0xbe36256b	-0.17787711
167	0xbdb42ae2	-0.08797242
168	0x3b17b9db	0.002315155
169	0xbcf8abef	-0.030355422
170	0xbd2dabc0	-0.04240012
171	0x3da58e32	0.08083762
172	0xbdc73365	-0.097265996
173	0x3deed07c	0.11660859
174	0xbe2f8c5d	-0.17143388
175	0xbdc3d299	-0.09561653
176	0xbdc1656c	-0.09443173
177	0x3ca43574	0.02004502
178	0xbb92e4ba	-0.0044828327
179	0xbd04da0f	-0.03243452
180	0x3e200cdd	0.15629907
181	0x3d963726	0.073347375
182	0x3e095c1f	0.13414048
183	0x3c8c9634	0.017161466
184	0xbc9a920f	-0.018868474
185	0x3c1b27a1	0.0094698975
186	0x3ca07c6a	0.019590575
187	0x3dd5c8a5	0.104386605
188	0x3e0030a4	0.12518555
189	0x3bdca520	0.0067335516
190	0x3db59750	0.08866751
191	0xbd1bf47c	-0.038074955
192	0xbddfcf66	-0.1092823
193	0xbc328222	-0.010895284
194	0xbd32cbef	-0.043651517
195	0xbd6a362c	-0.05718057
196	0x3ccedbd5	0.025251308
197	0xbd54ce05	-0.051954288
198	0xbd5d1fa9	-0.05398527
199	0xbd56dd50	-0.052457154
200	0x3d568431	0.05237216
201	0xbc543b1f	-0.012953549
202	0xbcb64224	-0.022248335
203	0xbd2ea2ff	-0.042635914
204	0x3dfb03e5	0.12256602
205	0x3db69fb1	0.089171775
206	0xbc82c8b7	-0.015964849
207	0x3de1d1e0	0.110263586
208	0x3dc1fd00	0.09472084
209	0x3d7416ff	0.059592243
210	0x3d3ab735	0.045584876
211	0xbc57d7b9	-0.013173991
212	0xbd5ca196	-0.053865038
213	0x3d9ce715	0.07661263
214	0x3d774b6f	0.060374673
215	0x3ce846a2	0.028353993
216	0xbc8ab872	-0.016933654
217	0x3e32a611	0.17446162
218	0x3ca98d8b	0.020697376
219	0x3da7f32b	0.082006775
220	0x3d6db1b2	0.05803079
221	0x3d9e7e40	0.07738924
222	0xbc4b02a9	-0.012390771
223	0xbd116b65	-0.03550281
224	0xbd1faba4	-0.03898205
225	0x3e2b94f5	0.16756041
226	0x3cd27844	0.025692113
227	0xbda17a79	-0.07884688
228	0x3cb20c47	0.02173437
229	0x3d242500	0.04007435
230	0x3ca56025	0.020187447
231	0x3d9ed66f	0.07755744
232	0xbe03bb52	-0.12864426
233	0xbd20999e	-0.039209
234	0x3e086757	0.13320671
235	0x3c332025	0.010932957
236	0xbdc453dc	-0.095863074
237	0xbe1ba7a3	-0.15200667
238	0x3cd94077	0.026519997
239	0x3d891ce5	0.06694964
240	0x3d86e58e	0.06586753
241	0xbcab2a6e	-0.020894255
242	0xbd5f5c5c	-0.05453144
243	0xbe005f69	-0.12536396
244	0xbdfe5f34	-0.12420502
245	0x3b8aaaad	0.004231772
246	0xbdcccfc5	-0.100005664
247	0xbe3e27b3	-0.18569832
248	0xbd405480	-0.046955585
249	0x3d8cacd1	0.068688996
250	0xbddcf90d	-0.1078969
251	0xbd58bb05	-0.05291273
252	0xbdb97ed0	-0.09057391
253	0xbe32b476	-0.17451653
254	0xbe2a8aed	-0.16654558
255	0xbd841bde	-0.06450628

layer1.0.conv3.bias f4 [16]
0	0x38e6e594	0.00011010017
1	0xb7d820e1	-2.5764517e-05
2	0x37f304cc	2.8970091e-05
3	0x373ab205	1.1127912e-05
4	0x39ce6ed4	0.00039373955
5	0x386a2f68	5.5834098e-05
6	0xb845e85e	-4.718487e-05
7	0x37d16aee	2.4964535e-05
8	0x38d78209	0.0001027622
9	0xb89a5688	-7.35941e-05
10	0xb81f62db	-3.800062e-05
11	0xb69bf0f0	-4.647409e-06
12	0xb847d648	-4.7644862e-05
13	0xb8977402	-7.221849e-05
14	0x375bf7f0	1.3111145e-05
15	0xba25d260	-0.0006325599

layer1.0.bn3.weight f4 [16]
0	0x3f2cb093	0.6745693
1	0x3edb7c5e	0.42868322
2	0x3f0bdf6e	0.546378
3	0x3f2d4907	0.67689556
4	0x3f3b2c37	0.7311434
5	0x3edc3aa4	0.4301349
6	0x3ea908ae	0.33014435
7	0x3ebed8c0	0.37274742
8	0x3f158ac2	0.5841485
9	0x3ef14cb9	0.47128847
10	0x3f50945f	0.81476396
11	0x3ef2921d	0.473771
12	0x3eb1f4d0	0.3475709
13	0x3ed11636	0.40837258
14	0x3ef8a7cc	0.4856552
15	0x3f23357a	0.63753474

layer1.0.bn3.bias f4 [16]
0	0x3baf078d	0.0053414763
1	0xbc1d093c	-0.009584721
2	0x3d9eb28a	0.077488974
3	0x3c7f232c	0.0155723505
4	0x3e7d6a7c	0.24747652
5	0x3d75d139	0.060013983
6	0xbe3f7e69	-0.18700565
7	0xbcea296b	-0.028584203
8	0xbc9e5f8f	-0.019332675
9	0xbd1c1653	-0.038107228
10	0x3e70b3bd	0.23506065
11	0x3cf1fd30	0.029539675
12	0xbd65c3a8	-0.056094795
13	0xbe10ae88	-0.14129078
14	0xbda65409	-0.08121497
15	0x3ce3f5b3	0.02782712

layer1.0.bn3.running_mean f4 [16]
0	0xbd5b2545	-0.05350234
1	0xbdc6eb5a	-0.097128585
2	0xbe152ef0	-0.14568686
3	0x3da2524b	0.079258524
4	0xbd8dad7f	-0.069178574
5	0xbd5414a6	-0.051777504
6	0x3cf4557f	0.029825924
7	0x3d7ac0f2	0.061219163
8	0x3a4aacd2	0.0007731441
9	0x3dbe2aa4	0.09285477
10	0xbd81e694	-0.063428074
11	0x3d3498b0	0.044090927
12	0xbcb27891	-0.021786006
13	0x3d93c901	0.07216073
14	0x3ca677d6	0.020320814
15	0xbdc50b46	-0.09621291

layer1.0.bn3.running_var f4 [16]
0	0x3c17558e	0.009236706
1	0x3ce20786	0.027591478
2	0x3c37810b	0.0112002
3	0x3b6dc543	0.0036280907
4	0x3cd65876	0.026165228
5	0x3cd9ec05	0.0266018
6	0x3bbfbb1e	0.0058511635
7	0x3c0dec99	0.008662366
8	0x3c9317e2	0.017955724
9	0x3c4063f7	0.0117425835
10	0x3ccca340	0.024980187
11	0x3c91a6a8	0.017779663
12	0x3c068bce	0.008212043
13	0x3c3bf023	0.011470827
14	0x3bd5b2ba	0.00652155
15	0x3c86e65f	0.016467271

layer1.0.shortcut.0.weight f4 [16, 8, 1, 1, 1]
0	0xbde02ee4	-0.10946444
1	0x3db09a36	0.086231634
2	0xbdfaf21e	-0.122532114
3	0xbe1e4010	-0.15454125
4	0x3db28566	0.0871685
5	0xbcc3374d	-0.02383008
6	0xbc261929	-0.010137835
7	0x3daeaa5f	0.085285895
8	0x3d9050e8	0.07046682
9	0x3ddfe290	0.10931885
10	0x3d04c3b7	0.03241321
11	0xbd53a7c0	-0.05167365
12	0xbdc08241	-0.09399844
13	0xbd15a45b	-0.036533695
14	0x3e036937	0.12833105
15	0x3d2a7d05	0.041623134
16	0xbd4297b6	-0.047507964
17	0xbe16964f	-0.14705776
18	0xbe185100	-0.14874649
19	0x3d576c82	0.052593715
20	0x3d706f85	0.058700103
21	0x3e2b8aa0	0.167521
22	0x3deb66da	0.11494227
23	0x3da0d50c	0.078531355
24	0xbdf37f93	-0.11889567
25	0x3d436235	0.04770108
26	0xbd268600	-0.040655136
27	0x3db15910	0.086595654
28	0x3cce9172	0.025215838
29	0xbe84126f	-0.25795314
30	0xbd2034b9	-0.03911278
31	0x3e3bb0d5	0.18329175
32	0x3d5dc74b	0.05414514
33	0xbe38d5c0	-0.18050289
34	0xbd586ff6	-0.05284115
35	0x3dfdf9a6	0.12401132
36	0xbde59710	-0.112104535
37	0xbeaafca2	-0.3339587
38	0x3db13331	0.08652342
39	0x3e11c427	0.14234982
40	0xbe08782e	-0.13327095
41	0xbdbb7172	-0.09152497
42	0xbe027f7f	-0.12743948
43	0xbd8088e7	-0.06276112
44	0xbd89531c	-0.06705305
45	0xbe42b1b5	-0.19013102
46	0xbdbf7d41	-0.09350062
47	0xbd31e620	-0.043432355
48	0x3d3f0c3e	0.046642534
49	0xbda8db92	-0.08245005
50	0xbe291747	-0.16512786
51	0xbd3c886e	-0.046028547
52	0x3d52a72d	0.051428962
53	0x3d8090e6	0.06277637
54	0xbd0f1996	-0.03493651
55	0x3e5f27dc	0.21792549
56	0xbdeb5211	-0.11490262
57	0x3d3582ec	0.04431431
58	0x3ddbdb55	0.10735194
59	0xbdaa2b27	-0.08309012
60	0xbd7013fd	-0.058612812
61	0xbe03275a	-0.1280798
62	0x3d25d552	0.04048664
63	0xbd1d89b3	-0.0384614
64	0xbe2a685a	-0.1664137
65	0xbb3fb5fe	-0.0029252763
66	0xbd42a70e	-0.047522597
67	0x3c455358	0.0120437965
68	0x3e2fa46a	0.17152563
69	0x3ea8f273	0.32997474
70	0x3dc1bbe6	0.09459667
71	0xbd229e17	-0.039701547
72	0xbe273221	-0.16327716
73	0xbdce6bad	-0.10079131
74	0xbdab992c	-0.083788246
75	0x3b74cbfc	0.003735303
76	0xbdacfec6	-0.08447032
77	0x3dae7072	0.08517541
78	0xbde8a018	-0.113586605
79	0xbd979cbc	-0.074029416
80	0x3def3f6a	0.11682017
81	0xbd7fa6c1	-0.06241489
82	0x3dea3569	0.114359684
83	0xbdd56ef5	-0.10421554
84	0xbde77658	-0.11301869
85	0x3e8e5141	0.27796367
86	0x3d5c26a7	0.0537478
87	0xbc105b1e	-0.0088107865
88	0xbddfd96a	-0.1093014
89	0x3e102f32	0.14080504
90	0x3e0f045e	0.1396651
91	0xbe3af71b	-0.18258326
92	0x3d57323d	0.052538145
93	0x3c5c4a17	0.013445399
94	0xbd13c210	-0.036073744
95	0x3d631db0	0.055448234
96	0xba0bfaa6	-0.0005339779
97	0xbbd8c2ba	-0.00661501
98	0xbd887e54	-0.0666472
99	0xbdd15c66	-0.10222702
100	0x3d9fd65a	0.07804556
101	0xbdece51e	-0.11567138
102	0xbd52cee0	-0.051466823
103	0x3d9dc559	0.07703657
104	0x3d965d3c	0.07342002
105	0x3e5cf853	0.21579103
106	0xbc1c4d18	-0.009539865
107	0x3d75dcc4	0.06002499
108	0xbb818257	-0.0039523053
109	0xbd93745c	-0.07199928
110	0x3cf9d35e	0.030496296
111	0xbe0c316f	-0.13690732
112	0x3dfaf319	0.122533984
113	0xbdc98a67	-0.09840851
114	0xbe4c0162	-0.19922403
115	0xbde4c922	-0.111711755
116	0xbe07a07f	-0.13244818
117	0xbd89b5c9	-0.06724126
118	0x3c24fcb6	0.010070017
119	0x3bab84df	0.0052343453
120	0xbdb84710	-0.08997929
121	0x3cf27e58	0.029601261
122	0xbcc5f150	-0.024162918
123	0x3d21e341	0.039523367
124	0xbc85eff8	-0.016349778
125	0xbee11a08	-0.43965173
126	0x3cbac761	0.02280015
127	0x3b8bfc15	0.004271994

layer1.0.shortcut.0.bias f4 [16]
0	0x38953fcd	7.1167575e-05
1	0xb797fa43	-1.811714e-05
2	0x381c585a	3.7275582e-05
3	0x380393eb	3.1370593e-05
4	0x3985bdb2	0.0002550907
5	0x3894aa07	7.08886e-05
6	0x380ff214	3.431931e-05
7	0xb63220da	-2.654319e-06
8	0x38168e44	3.5895282e-05
9	0x365e8831	3.3159852e-06
10	0xb70509e2	-7.929719e-06
11	0x367bda20	3.752888e-06
12	0xb7690253	-1.3888423e-05
13	0x37b81f69	2.1949136e-05
14	0xb72e8185	-1.0401364e-05
15	0xb99b93fe	-0.00029674167

layer1.0.shortcut.1.weight f4 [16]
0	0x3f0309ea	0.51187
1	0x3ef7346f	0.4828219
2	0x3f1674cd	0.58771974
3	0x3f09c465	0.538153
4	0x3f22f05e	0.6364802
5	0x3f0e4fb3	0.5559036
6	0x3ee9bb52	0.45650727
7	0x3f08e498	0.53473806
8	0x3f1d3ad0	0.61417866
9	0x3e947ece	0.29002994
10	0x3f0f1fa1	0.55907637
11	0x3f04c5c3	0.5186426
12	0x3eead401	0.4586487
13	0x3f02a7ff	0.5103759
14	0x3f113d43	0.567341
15	0x3f7806e5	0.9688552

layer1.0.shortcut.1.bias f4 [16]
0	0x3baf078d	0.0053414763
1	0xbc1d093c	-0.009584721
2	0x3d9eb28a	0.077488974
3	0x3c7f232c	0.0155723505
4	0x3e7d6a7c	0.24747652
5	0x3d75d139	0.060013983
6	0xbe3f7e69	-0.18700565
7	0xbcea296b	-0.028584203
8	0xbc9e5f8f	-0.019332675
9	0xbd1c1653	-0.038107228
10	0x3e70b3bd	0.23506065
11	0x3cf1fd30	0.029539675
12	0xbd65c3a8	-0.056094795
13	0xbe10ae88	-0.14129078
14	0xbda65409	-0.08121497
15	0x3ce3f5b3	0.02782712

layer1.0.shortcut.1.running_mean f4 [16]
0	0xbd503c71	-0.05083889
1	0x3d48441e	0.048893087
2	0x3db5103a	0.088409856
3	0xbd07aebd	-0.033125628
4	0xbdde5d94	-0.10857692
5	0xbe831594	-0.256024
6	0x3d26ceee	0.040724687
7	0xbdc8f136	-0.09811632
8	0x3e2ad369	0.16682209
9	0xbde70278	-0.11279768
10	0x3dcb0b12	0.09914221
11	0x3ae445c2	0.0017415809
12	0xbdb54b41	-0.08852244
13	0x3d014694	0.03156145
14	0xbe200960	-0.15628576
15	0xbe4d0420	-0.20021105

layer1.0.shortcut.1.running_var f4 [16]
0	0x3c8ae395	0.016954223
1	0x3cb638a9	0.022243815
2	0x3bd3fddb	0.006469471
3	0x3ccfd176	0.025368433
4	0x3d2010bf	0.03907847
5	0x3d31441f	0.043277856
6	0x3b91c1bf	0.004448145
7	0x3ba5e058	0.0050621442
8	0x3ce55d7a	0.027998675
9	0x3d438dc9	0.04774264
10	0x3d38c65f	0.045111056
11	0x3d079e8a	0.03311018
12	0x3c497276	0.012295356
13	0x3beb19fd	0.007174729
14	0x3c62a323	0.01383284
15	0x3d82cae5	0.06386355

layer1.1.conv1.weight f4 [32, 16, 3, 1, 1]
0	0xba963c77	-0.0011462112
1	0xbc12b52d	-0.0089543285
2	0x3cd93517	0.026514573
3	0x3d53d5cc	0.051717564
4	0xbbd6ca8f	-0.0065549086
5	0xbcce06e2	-0.025149766
6	0xbdf53bdd	-0.11974309
7	0x3cbcc350	0.023042351
8	0x3da7fcd9	0.08202524
9	0x3d082a70	0.033243597
10	0xbc8e0fe2	-0.017341558
11	0x3c9db7e8	0.019252732
12	0x3e10bce5	0.14134558
13	0xbd939fe0	-0.07208228
14	0xbd176431	-0.036960784
15	0x3d5706f2	0.052496858
16	0xbd1d604f	-0.038421925
17	0x3c272a35	0.010202934
18	0xbd37ae4b	-0.044843953
19	0x3da49af6	0.08037369
20	0xbd9556fe	-0.07291983
21	0xbc61d979	-0.01378476
22	0xbccaafbd	-0.024742002
23	0x3cfb3eaf	0.030669538
24	0xbc7a2b32	-0.015269088
25	0x3c90c837	0.017673595
26	0x3cea733a	0.028619397
27	0x3d23efbb	0.040023547
28	0x3c3fa632	0.011697339
29	0xbd150176	-0.036378346
30	0xbe02e5b9	-0.12782945
31	0x3e38ff43	0.18066125
32	0xbdc2b0dc	-0.095063895
33	0x3d909387	0.070593886
34	0xbc058adc	-0.008150782
35	0xbcd0c2f0	-0.025483578
36	0x3d3eeacc	0.04661064
37	0xbde9e9af	-0.11421525
38	0x3da48f89	0.0803519
39	0x3d7747cc	0.060371205
40	0xbd2592be	-0.040423147
41	0xbca38ac8	-0.019963637
42	0xbc57255b	-0.013131465
43	0xbbe7899a	-0.007065964
44	0x3c01c890	0.007921353
45	0x3e2cb83d	0.16867156
46	0xbd729a91	-0.059229437
47	0xbd2c40b2	-0.042053886
48	0x3d3d1670	0.046163976
49	0xbd087358	-0.033313125
50	0x3ba542e3	0.005043374
51	0xbc0f0ef3	-0.0087315915
52	0x3cd2cdc9	0.025732892
53	0x3b15e8f8	0.0022874456
54	0xbd68e6df	-0.0568608
55	0x3d7ec26a	0.062197126
56	0xbc03f18e	-0.008053197
57	0xb9cff148	-0.00039661885
58	0xbd13e9a4	-0.03611149
59	0x3d1ebfa8	0.038756996
60	0x3da8cf92	0.08242716
61	0xb9e2b2e3	-0.0004323936
62	0xbda2c76c	-0.07948193
63	0xbdcf39ef	-0.10118472
64	0x3e1ea76b	0.15493552
65	0xbd5bd110	-0.053666174
66	0x3ce98373	0.028505063
67	0xbc8de256	-0.01731984
68	0xba2798b8	-0.00063933013
69	0x3b8362d0	0.004009582
70	0xbc5b1768	-0.01337228
71	0x3b130ce0	0.0022438094
72	0xbb21c9ba	-0.0024686889
73	0xbc21f440	-0.009884894
74	0x3c922dd7	0.017844124
75	0x3d49f3cb	0.049304765
76	0xbd8891fe	-0.06668471
77	0x3ce8468f	0.028353957
78	0xbd522f33	-0.051314544
79	0x3da07c17	0.07836168
80	0xbd3edec9	-0.046599183
81	0x3bb10753	0.0054024844
82	0xbc4a0f0d	-0.01233269
83	0x3d72cad4	0.059275463
84	0xbc3c9ae4	-0.011511538
85	0xbb9a35c8	-0.0047061183
86	0x3c94cdde	0.018164571
87	0x3d933ac5	0.07188944
88	0xbd288052	-0.041138
89	0xbc61d2f1	-0.0137832025
90	0xbc366e84	-0.011134747
91	0x3d0b47df	0.03400409
92	0xbb208dd0	-0.002449859
93	0x3e4f4092	0.20239475
94	0xbd55fee5	-0.05224504
95	0xbe07a512	-0.13246563
96	0xbcb90851	-0.022586973
97	0x3d961e22	0.07329966
98	0xbd8f462a	-0.069958046
99	0x3e197af6	0.14988312
100	0xbd92ed63	-0.07174184
101	0xbca4f401	-0.020135881
102	0xbc378c88	-0.011202939
103	0xbd263dd4	-0.040586308
104	0x3d65d2a8	0.0561091
105	0x3d46bfe0	0.04852283
106	0x3943278b	0.0001861138
107	0xbbf87ed5	-0.007583479
108	0x3e009fef	0.1256101
109	0xbc098506	-0.008393532
110	0xbdc939e9	-0.098254986
111	0x3e3675bc	0.1781835
112	0xbd883340	-0.066504
113	0xbdbc483e	-0.091934666
114	0xbc0fde33	-0.008781004
115	0x3d4bbe19	0.049741838
116	0xbda5be94	-0.080929905
117	0x3c6a80c2	0.014312925
118	0xbcd10a98	-0.025517747
119	0x3ceb1139	0.028694736
120	0xbe91e689	-0.28496197
121	0x3e380475	0.1797045
122	0x3ca98531	0.020693393
123	0xbbc94d91	-0.00614328
124	0xbc5bf7c9	-0.013425776
125	0x3d05bc5f	0.032650348
126	0xbcdcbc02	-0.026945118
127	0x3d1f3530	0.038869083
128	0xbc2f18c7	-0.01068706
129	0x3bbda3e5	0.00578736
130	0xbc548baa	-0.012972752
131	0xbc95a377	-0.018266423
132	0x3dbdad3e	0.09261559
133	0xbd9cc152	-0.076540604
134	0x3c2c970c	0.010534059
135	0x3b8b4dd6	0.004251222
136	0xbc4f9194	-0.012668986
137	0x3bfc345e	0.0076966723
138	0xb7dd3a55	-2.6372416e-05
139	0x3c2bb6ea	0.010480622
140	0xbc3865e8	-0.011254765
141	0xbd4bcac1	-0.049753908
142	0x3ceef425	0.029169152
143	0xbcfbd54e	-0.03074136
144	0x3cbb72f3	0.02288196
145	0xbd04f851	-0.032463375
146	0x3c41a3b2	0.011818813
147	0x3c94323f	0.018090365
148	0xbc94b1cb	-0.018151185
149	0xbc5ccccb	-0.013476561
150	0x3d2d8cc1	0.04237056
151	0xbc9863c3	-0.018602258
152	0x3cc77fb6	0.02435289
153	0xbd220015	-0.03955086
154	0x3a1d9d4b	0.0006012513
155	0x3d509054	0.050918892
156	0x3de7edca	0.113246515
157	0xbdb6871e	-0.0891249
158	0xbccc5559	-0.02494304
159	0x3ce01d89	0.027357833
160	0x3d01ba08	0.031671554
161	0xbd2bab03	-0.041911136
162	0x3d2dc3e8	0.04242316
163	0xbd9fc7c6	-0.07801776
164	0x3c9a30fa	0.018822182
165	0x3ca6ac41	0.020345809
166	0xbdb9a6a4	-0.09064987
167	0x3d6c50b2	0.057694145
168	0xbd9395e3	-0.07206323
169	0xbc60c7df	-0.013719528
170	0x3d926b92	0.07149424
171	0x3d0e8d82	0.03480292
172	0xbd883955	-0.0665156
173	0x3d0bb1c2	0.03410507
174	0x3d0fc77b	0.03510235
175	0xbc7bf762	-0.015378805
176	0x3b95a1d4	0.0045664106
177	0x3d5d99e3	0.054101836
178	0xbbfdb0db	-0.00774203
179	0xbb8019c1	-0.00390932
180	0x3d42fa73	0.04760213
181	0xbcb19b46	-0.021680485
182	0xbcf0a8f0	-0.02937743
183	0x3ca94a71	0.02066538
184	0xbd4bda33	-0.049768638
185	0x3d7de92c	0.06198995
186	0x3d7d6c89	0.061871085
187	0xbe149c92	-0.14512852
188	0x3da6e073	0.08148279
189	0x3c863dc2	0.01638687
190	0x3ce33971	0.027737351
191	0xbd318e06	-0.043348335
192	0x3d091ab7	0.033472743
193	0xbabbcdb6	-0.0014328274
194	0xbd363f00	-0.044493675
195	0x3c29ad0c	0.010356199
196	0x3cf3c083	0.029754883
197	0xbd1ad669	-0.037802134
198	0x3b13563a	0.0022481815
199	0xbd086a42	-0.03330446
200	0x3d357950	0.044305146
201	0xbc0e109d	-0.008670953
202	0xbc4a957a	-0.01236474
203	0x3cd34939	0.025791751
204	0x3da048e4	0.07826403
205	0xbcf26d69	-0.029593186
206	0xbd7a8061	-0.061157588
207	0x3b8ec702	0.0043572197
208	0x3b092346	0.0020925566
209	0xbc2bbd40	-0.010482132
210	0x3d4c2fb7	0.049850192
211	0xbd38927d	-0.045061577
212	0x3969ff65	0.00022315753
213	0xbc3fd13c	-0.0117076
214	0xbcc9f6bf	-0.02465379
215	0x3cc7e6f8	0.024402127
216	0xbd62a9e5	-0.055337805
217	0x3c57a6b0	0.0131623
218	0x3d197cab	0.03747241
219	0x3c4b1cf8	0.012397043
220	0xbd58ebfc	-0.052959427
221	0x3d51aa7a	0.05118797
222	0xbd7240b5	-0.05914374
223	0x3d6619f1	0.056177083
224	0xbc7def08	-0.015498884
225	0xbac1609c	-0.0014753523
226	0xbd1561b3	-0.036470126
227	0x3d659a4c	0.056055352
228	0x3c8c1937	0.017101867
229	0xbc29fbb7	-0.010374955
230	0xbc08cc2f	-0.008349462
231	0x3cceb128	0.025230959
232	0xbca4fc1c	-0.020139746
233	0xbbbf1198	-0.0058309548
234	0x3d548910	0.051888525
235	0xbd60f14a	-0.05491761
236	0x3b37db7b	0.0028054405
237	0x3dbb4eb4	0.09145871
238	0xbbe1f92f	-0.00689616
239	0xbda6fd57	-0.081537895
240	0xbdbc81ee	-0.092044696
241	0x3bc32f04	0.0059565324
242	0x3daa8526	0.08326177
243	0x3dc6842a	0.09693177
244	0xbdaa9824	-0.083298
245	0x3c64dac6	0.013968175
246	0x3da3fa31	0.080067046
247	0xbd9b80ba	-0.07592912
248	0x3c8700ad	0.016479814
249	0xbcec5049	-0.028846877
250	0xbd8a0dcb	-0.06740912
251	0x3de3c376	0.111212656
252	0xbd1492e1	-0.036272887
253	0x3cd9b301	0.026574614
254	0x3c025a12	0.007956045
255	0x3e0f50dc	0.13995689

layer1.1.conv1.bias f4 [32]
0	0xb8318008	-4.2319327e-05
1	0x37bda5f9	2.2607843e-05
2	0x38d5597f	0.000101733014
3	0x378ab342	1.6534355e-05
4	0xb5fba5a9	-1.8749171e-06
5	0xb7a35147	-1.9468962e-05
6	0xb82eec91	-4.1705152e-05
7	0x374d2ed9	1.222986e-05
8	0xb7bffd05	-2.2886796e-05
9	0x378556a7	1.5895186e-05
10	0xb5fe2932	-1.8936464e-06
11	0x38e8607c	0.00011080594
12	0xb72e97b0	-1.0406526e-05
13	0xb63e9934	-2.8401382e-06
14	0xb875743b	-5.85208e-05
15	0xb42102dc	-1.4995334e-07
16	0xb3eea715	-1.1113131e-07
17	0x376f5562	1.426539e-05
18	0x37bda4d5	2.2607312e-05
19	0xb65cc851	-3.2899154e-06
20	0xb8823e85	-6.210528e-05
21	0x35d77ad3	1.6054495e-06
22	0xb7548541	-1.266721e-05
23	0xb658e8a1	-3.2321916e-06
24	0xb77a06d8	-1.4902755e-05
25	0x3887a9af	6.468908e-05
26	0xb69f99ff	-4.7564968e-06
27	0x370b7545	8.31235e-06
28	0xb88280e7	-6.222893e-05
29	0xb83eb24f	-4.5465593e-05
30	0x37a4f318	1.9663523e-05
31	0x391d337c	0.00014991866

layer1.1.bn1.weight f4 [32]
0	0x3e9386b1	0.288137
1	0x3e4f8a6b	0.20267646
2	0x3e9447e9	0.28961113
3	0x3e5f7835	0.21823199
4	0x3e301ecf	0.17199253
5	0x3e83bc5c	0.25729644
6	0x3e58ffcc	0.21191329
7	0x3e50b531	0.20381619
8	0x3e27d385	0.16389282
9	0x3e6ed1ba	0.23322192
10	0x3eb0c21b	0.3452309
11	0x3e99a90f	0.30011794
12	0x3ea5b8f8	0.32367682
13	0x3e67fffe	0.22656247
14	0x3e965601	0.2936249
15	0x3e5776bb	0.21041386
16	0x3e4dbf52	0.20092514
17	0x3eebd316	0.46059483
18	0x3e5dda5a	0.21665326
19	0x3e65aa5f	0.22428273
20	0x3eb5e24c	0.35524213
21	0x3e6d66b5	0.23183711
22	0x3e50abb4	0.20378
23	0x3e440f2d	0.19146414
24	0x3ee48331	0.4463134
25	0x3e541152	0.20709732
26	0x3ed8f59e	0.4237489
27	0x3e5df39c	0.21674961
28	0x3ec3657f	0.38163373
29	0x3e685ede	0.22692439
30	0x3e99bee8	0.30028462
31	0x3eba45f6	0.363815

layer1.1.bn1.bias f4 [32]
0	0x3c8a5f74	0.016891219
1	0x3d6a9788	0.057273418
2	0x3cb43257	0.02199666
3	0x3c1eb54b	0.009686778
4	0xbdacd837	-0.08439677
5	0xbdb91259	-0.09036703
6	0x3e11669e	0.14199302
7	0x3dd111f3	0.10208502
8	0x3e18f903	0.1493874
9	0x3d353f5d	0.04424988
10	0x3ca4dde2	0.020125333
11	0x39d8c769	0.00041347303
12	0xbda391f4	-0.07986823
13	0xbd2c46bc	-0.042059645
14	0x3e3e72a2	0.18598416
15	0xbdbaaba0	-0.09114766
16	0xbde4150f	-0.11136829
17	0xbb9f85ed	-0.00486826
18	0x3e156570	0.14589477
19	0xbdc2fe73	-0.095211886
20	0x3d9c821d	0.07642005
21	0x3c317148	0.010830231
22	0x3d4803a4	0.048831597
23	0xbca17f9a	-0.019714165
24	0x3b83f79d	0.0040273205
25	0x3e40038e	0.18751356
26	0xbd208b05	-0.03919508
27	0xbab4c30e	-0.0013791041
28	0x3e3096f0	0.17245078
29	0x3ca51ab5	0.020154336
30	0xbd7a7ac2	-0.061152227
31	0x3d980d55	0.07424418

layer1.1.bn1.running_mean f4 [32]
0	0xbb838a31	-0.0040142764
1	0xbc74c053	-0.014938432
2	0x3c680fbd	0.014163909
3	0xbd381cfb	-0.044949513
4	0xbca613a9	-0.020273047
5	0x3c161402	0.009160044
6	0x3c777d71	0.015105591
7	0x3ccc0e6a	0.024909217
8	0xbab4e359	-0.0013800665
9	0xbba2fb01	-0.0049737697
10	0x3c967342	0.018365506
11	0xbc1e7da3	-0.009673509
12	0xbcae63b9	-0.021287786
13	0x3c6e4c19	0.01454451
14	0xba58fbee	-0.00082772865
15	0xbd0f9ca0	-0.03506148
16	0x3c4eb69e	0.0126167815
17	0x3b1d3f2c	0.0023993952
18	0x3cf4eaf4	0.02989719
19	0x3c427d5a	0.011870706
20	0xbcbc5efe	-0.022994515
21	0x3c9adc96	0.018904012
22	0x3d085cc1	0.033291582
23	0x3cd6b516	0.026209395
24	0xbc0195e3	-0.007909271
25	0xbc86a5f5	-0.016436556
26	0x3c17c7a2	0.009263905
27	0xbc356383	-0.011071089
28	0x3c689e6f	0.01419793
29	0x3cd43190	0.02590254
30	0xbc9f04cb	-0.019411465
31	0x3d13b213	0.036058497

layer1.1.bn1.running_var f4 [32]
0	0x3d585ad1	0.052820984
1	0x3da6aa59	0.0813796
2	0x3d8332ce	0.064061746
3	0x3e0c3a8d	0.1369421
4	0x3d8d2402	0.068916336
5	0x3d17bb84	0.037044063
6	0x3d20a267	0.03921738
7	0x3de95710	0.11393559
8	0x3d31f81d	0.04344951
9	0x3d9947d5	0.07484404
10	0x3d21c3f0	0.0394935
11	0x3d0c86e2	0.03430832
12	0x3d89d93e	0.06730889
13	0x3d9059bb	0.07048365
14	0x3d68f427	0.056873467
15	0x3e1b43f6	0.15162644
16	0x3d8dce70	0.069241405
17	0x3da12cb2	0.07869853
18	0x3d91afa8	0.07113582
19	0x3d6fb288	0.05851987
20	0x3d4f3230	0.050584972
21	0x3dab3476	0.083596155
22	0x3d85e280	0.06537342
23	0x3d8a97f6	0.067672655
24	0x3d39501c	0.045242414
25	0x3d171550	0.03688556
26	0x3d95d91c	0.07316801
27	0x3d5da2f9	0.0541105
28	0x3d63ded8	0.055632442
29	0x3db754d5	0.08951727
30	0x3d60163e	0.05470871
31	0x3e4c961e	0.1997914
